module @prefill {
  func.func public @main(%arg0: tensor<10x8xf32> loc("params['embed']"), %arg1: tensor<8xf32> loc("params['final_norm']"), %arg2: tensor<10x8xf32> loc("params['lm_head']"), %arg3: tensor<8x16xf32> loc("params['layers'][0]['down']"), %arg4: tensor<16x8xf32> loc("params['layers'][0]['gate']"), %arg5: tensor<8xf32> loc("params['layers'][0]['in_ln']"), %arg6: tensor<8xf32> loc("params['layers'][0]['post_ln']"), %arg7: tensor<16x8xf32> loc("params['layers'][0]['up']"), %arg8: tensor<4x8xf32> loc("params['layers'][0]['wk']"), %arg9: tensor<8x8xf32> loc("params['layers'][0]['wo']"), %arg10: tensor<8x8xf32> loc("params['layers'][0]['wq']"), %arg11: tensor<4x8xf32> loc("params['layers'][0]['wv']"), %arg12: tensor<4xf32> loc("params['layers'][0]['bk']"), %arg13: tensor<8xf32> loc("params['layers'][0]['bq']"), %arg14: tensor<4xf32> loc("params['layers'][0]['bv']"), %arg15: tensor<8x16xf32> loc("params['layers'][1]['down']"), %arg16: tensor<16x8xf32> loc("params['layers'][1]['gate']"), %arg17: tensor<8xf32> loc("params['layers'][1]['in_ln']"), %arg18: tensor<8xf32> loc("params['layers'][1]['post_ln']"), %arg19: tensor<16x8xf32> loc("params['layers'][1]['up']"), %arg20: tensor<4x8xf32> loc("params['layers'][1]['wk']"), %arg21: tensor<8x8xf32> loc("params['layers'][1]['wo']"), %arg22: tensor<8x8xf32> loc("params['layers'][1]['wq']"), %arg23: tensor<4x8xf32> loc("params['layers'][1]['wv']"), %arg24: tensor<4xf32> loc("params['layers'][1]['bk']"), %arg25: tensor<8xf32> loc("params['layers'][1]['bq']"), %arg26: tensor<4xf32> loc("params['layers'][1]['bv']"), %arg27: tensor<256xi32> loc("tokens"), %arg28: tensor<256xi32> loc("positions"), %arg29: tensor<i32> loc("real_len")) -> (tensor<i32>, tensor<2x256x1x4xf32>, tensor<2x256x1x4xf32>) {
    %0 = stablehlo.constant dense<"…"> : tensor<256x4xf32>
    %1 = stablehlo.constant dense<"…"> : tensor<256x4xf32>
    %2 = stablehlo.constant dense<0x00000000> : tensor<f32>
    %3 = stablehlo.constant dense<0x3F800000> : tensor<f32>
    %4 = stablehlo.constant dense<0xFF800000> : tensor<f32>
    %5 = stablehlo.constant dense<0xF149F2CA> : tensor<f32>
    %6 = stablehlo.constant dense<0x358637BD> : tensor<f32>
    %7 = stablehlo.constant dense<0x41000000> : tensor<f32>
    %8 = stablehlo.constant dense<0x3F000000> : tensor<f32>
    %9 = stablehlo.constant dense<0> : tensor<i32>
    %10 = stablehlo.constant dense<0> : tensor<i32>
    %11 = stablehlo.constant dense<1> : tensor<i32>
    %12 = stablehlo.reshape %arg27 : (tensor<256xi32>) -> tensor<256x1xi32>
    %13 = "stablehlo.gather"(%arg0, %12) <{dimension_numbers = #stablehlo.gather<offset_dims = [1], collapsed_slice_dims = [0], start_index_map = [0], index_vector_dim = 1>, slice_sizes = array<i64: 1, 8>}> : (tensor<10x8xf32>, tensor<256x1xi32>) -> tensor<256x8xf32>
    %14 = stablehlo.reshape %arg28 : (tensor<256xi32>) -> tensor<256x1xi32>
    %15 = "stablehlo.gather"(%0, %14) <{dimension_numbers = #stablehlo.gather<offset_dims = [1], collapsed_slice_dims = [0], start_index_map = [0], index_vector_dim = 1>, slice_sizes = array<i64: 1, 4>}> : (tensor<256x4xf32>, tensor<256x1xi32>) -> tensor<256x4xf32>
    %16 = "stablehlo.gather"(%1, %14) <{dimension_numbers = #stablehlo.gather<offset_dims = [1], collapsed_slice_dims = [0], start_index_map = [0], index_vector_dim = 1>, slice_sizes = array<i64: 1, 4>}> : (tensor<256x4xf32>, tensor<256x1xi32>) -> tensor<256x4xf32>
    %17 = stablehlo.iota dim = 0 : tensor<256xi32>
    %18 = stablehlo.broadcast_in_dim %17, dims = [0] : (tensor<256xi32>) -> tensor<256x256xi32>
    %19 = stablehlo.iota dim = 0 : tensor<256xi32>
    %20 = stablehlo.broadcast_in_dim %19, dims = [1] : (tensor<256xi32>) -> tensor<256x256xi32>
    %21 = stablehlo.compare LE, %20, %18, SIGNED : (tensor<256x256xi32>, tensor<256x256xi32>) -> tensor<256x256xi1>
    %22 = stablehlo.broadcast_in_dim %2, dims = [] : (tensor<f32>) -> tensor<256x256xf32>
    %23 = stablehlo.broadcast_in_dim %5, dims = [] : (tensor<f32>) -> tensor<256x256xf32>
    %24 = stablehlo.select %21, %22, %23 : tensor<256x256xi1>, tensor<256x256xf32>
    %25 = stablehlo.broadcast_in_dim %2, dims = [] : (tensor<f32>) -> tensor<2x256x1x4xf32>
    %26 = stablehlo.broadcast_in_dim %2, dims = [] : (tensor<f32>) -> tensor<2x256x1x4xf32>
    %27 = stablehlo.multiply %13, %13 : tensor<256x8xf32>
    %28 = stablehlo.reduce(%27 init: %2) applies stablehlo.add across dimensions = [1] : (tensor<256x8xf32>, tensor<f32>) -> tensor<256xf32>
    %29 = stablehlo.broadcast_in_dim %7, dims = [] : (tensor<f32>) -> tensor<256xf32>
    %30 = stablehlo.divide %28, %29 : tensor<256xf32>
    %31 = stablehlo.broadcast_in_dim %6, dims = [] : (tensor<f32>) -> tensor<256xf32>
    %32 = stablehlo.add %30, %31 : tensor<256xf32>
    %33 = stablehlo.rsqrt %32 : tensor<256xf32>
    %34 = stablehlo.broadcast_in_dim %33, dims = [0] : (tensor<256xf32>) -> tensor<256x8xf32>
    %35 = stablehlo.multiply %13, %34 : tensor<256x8xf32>
    %36 = stablehlo.broadcast_in_dim %arg5, dims = [1] : (tensor<8xf32>) -> tensor<256x8xf32>
    %37 = stablehlo.multiply %35, %36 : tensor<256x8xf32>
    %38 = stablehlo.dot_general %37, %arg10, contracting_dims = [1] x [1] : (tensor<256x8xf32>, tensor<8x8xf32>) -> tensor<256x8xf32>
    %39 = stablehlo.broadcast_in_dim %arg13, dims = [1] : (tensor<8xf32>) -> tensor<256x8xf32>
    %40 = stablehlo.add %38, %39 : tensor<256x8xf32>
    %41 = stablehlo.reshape %40 : (tensor<256x8xf32>) -> tensor<256x2x4xf32>
    %42 = stablehlo.dot_general %37, %arg8, contracting_dims = [1] x [1] : (tensor<256x8xf32>, tensor<4x8xf32>) -> tensor<256x4xf32>
    %43 = stablehlo.broadcast_in_dim %arg12, dims = [1] : (tensor<4xf32>) -> tensor<256x4xf32>
    %44 = stablehlo.add %42, %43 : tensor<256x4xf32>
    %45 = stablehlo.reshape %44 : (tensor<256x4xf32>) -> tensor<256x1x4xf32>
    %46 = stablehlo.dot_general %37, %arg11, contracting_dims = [1] x [1] : (tensor<256x8xf32>, tensor<4x8xf32>) -> tensor<256x4xf32>
    %47 = stablehlo.broadcast_in_dim %arg14, dims = [1] : (tensor<4xf32>) -> tensor<256x4xf32>
    %48 = stablehlo.add %46, %47 : tensor<256x4xf32>
    %49 = stablehlo.reshape %48 : (tensor<256x4xf32>) -> tensor<256x1x4xf32>
    %50 = stablehlo.broadcast_in_dim %15, dims = [0, 2] : (tensor<256x4xf32>) -> tensor<256x2x4xf32>
    %51 = stablehlo.broadcast_in_dim %16, dims = [0, 2] : (tensor<256x4xf32>) -> tensor<256x2x4xf32>
    %52 = stablehlo.multiply %41, %50 : tensor<256x2x4xf32>
    %53 = stablehlo.slice %41 [0:256, 0:2, 0:2] : (tensor<256x2x4xf32>) -> tensor<256x2x2xf32>
    %54 = stablehlo.slice %41 [0:256, 0:2, 2:4] : (tensor<256x2x4xf32>) -> tensor<256x2x2xf32>
    %55 = stablehlo.negate %54 : tensor<256x2x2xf32>
    %56 = stablehlo.concatenate %55, %53, dim = 2 : (tensor<256x2x2xf32>, tensor<256x2x2xf32>) -> tensor<256x2x4xf32>
    %57 = stablehlo.multiply %56, %51 : tensor<256x2x4xf32>
    %58 = stablehlo.add %52, %57 : tensor<256x2x4xf32>
    %59 = stablehlo.broadcast_in_dim %15, dims = [0, 2] : (tensor<256x4xf32>) -> tensor<256x1x4xf32>
    %60 = stablehlo.broadcast_in_dim %16, dims = [0, 2] : (tensor<256x4xf32>) -> tensor<256x1x4xf32>
    %61 = stablehlo.multiply %45, %59 : tensor<256x1x4xf32>
    %62 = stablehlo.slice %45 [0:256, 0:1, 0:2] : (tensor<256x1x4xf32>) -> tensor<256x1x2xf32>
    %63 = stablehlo.slice %45 [0:256, 0:1, 2:4] : (tensor<256x1x4xf32>) -> tensor<256x1x2xf32>
    %64 = stablehlo.negate %63 : tensor<256x1x2xf32>
    %65 = stablehlo.concatenate %64, %62, dim = 2 : (tensor<256x1x2xf32>, tensor<256x1x2xf32>) -> tensor<256x1x4xf32>
    %66 = stablehlo.multiply %65, %60 : tensor<256x1x4xf32>
    %67 = stablehlo.add %61, %66 : tensor<256x1x4xf32>
    %68 = stablehlo.reshape %67 : (tensor<256x1x4xf32>) -> tensor<1x256x1x4xf32>
    %69 = stablehlo.dynamic_update_slice %25, %68, %10, %9, %9, %9 : (tensor<2x256x1x4xf32>, tensor<1x256x1x4xf32>, tensor<i32>, tensor<i32>, tensor<i32>, tensor<i32>) -> tensor<2x256x1x4xf32>
    %70 = stablehlo.reshape %49 : (tensor<256x1x4xf32>) -> tensor<1x256x1x4xf32>
    %71 = stablehlo.dynamic_update_slice %26, %70, %10, %9, %9, %9 : (tensor<2x256x1x4xf32>, tensor<1x256x1x4xf32>, tensor<i32>, tensor<i32>, tensor<i32>, tensor<i32>) -> tensor<2x256x1x4xf32>
    %72 = stablehlo.reshape %58 : (tensor<256x2x4xf32>) -> tensor<256x1x2x4xf32>
    %73 = stablehlo.dot_general %72, %67, batching_dims = [1] x [1], contracting_dims = [3] x [2] : (tensor<256x1x2x4xf32>, tensor<256x1x4xf32>) -> tensor<1x256x2x256xf32>
    %74 = stablehlo.broadcast_in_dim %8, dims = [] : (tensor<f32>) -> tensor<1x256x2x256xf32>
    %75 = stablehlo.multiply %73, %74 : tensor<1x256x2x256xf32>
    %76 = stablehlo.broadcast_in_dim %24, dims = [1, 3] : (tensor<256x256xf32>) -> tensor<1x256x2x256xf32>
    %77 = stablehlo.add %75, %76 : tensor<1x256x2x256xf32>
    %78 = stablehlo.reduce(%77 init: %4) applies stablehlo.maximum across dimensions = [3] : (tensor<1x256x2x256xf32>, tensor<f32>) -> tensor<1x256x2xf32>
    %79 = stablehlo.broadcast_in_dim %78, dims = [0, 1, 2] : (tensor<1x256x2xf32>) -> tensor<1x256x2x256xf32>
    %80 = stablehlo.subtract %77, %79 : tensor<1x256x2x256xf32>
    %81 = stablehlo.exponential %80 : tensor<1x256x2x256xf32>
    %82 = stablehlo.reduce(%81 init: %2) applies stablehlo.add across dimensions = [3] : (tensor<1x256x2x256xf32>, tensor<f32>) -> tensor<1x256x2xf32>
    %83 = stablehlo.broadcast_in_dim %82, dims = [0, 1, 2] : (tensor<1x256x2xf32>) -> tensor<1x256x2x256xf32>
    %84 = stablehlo.divide %81, %83 : tensor<1x256x2x256xf32>
    %85 = stablehlo.dot_general %84, %49, batching_dims = [0] x [1], contracting_dims = [3] x [0] : (tensor<1x256x2x256xf32>, tensor<256x1x4xf32>) -> tensor<1x256x2x4xf32>
    %86 = stablehlo.transpose %85, dims = [1, 0, 2, 3] : (tensor<1x256x2x4xf32>) -> tensor<256x1x2x4xf32>
    %87 = stablehlo.reshape %86 : (tensor<256x1x2x4xf32>) -> tensor<256x8xf32>
    %88 = stablehlo.dot_general %87, %arg9, contracting_dims = [1] x [1] : (tensor<256x8xf32>, tensor<8x8xf32>) -> tensor<256x8xf32>
    %89 = stablehlo.add %13, %88 : tensor<256x8xf32>
    %90 = stablehlo.multiply %89, %89 : tensor<256x8xf32>
    %91 = stablehlo.reduce(%90 init: %2) applies stablehlo.add across dimensions = [1] : (tensor<256x8xf32>, tensor<f32>) -> tensor<256xf32>
    %92 = stablehlo.broadcast_in_dim %7, dims = [] : (tensor<f32>) -> tensor<256xf32>
    %93 = stablehlo.divide %91, %92 : tensor<256xf32>
    %94 = stablehlo.broadcast_in_dim %6, dims = [] : (tensor<f32>) -> tensor<256xf32>
    %95 = stablehlo.add %93, %94 : tensor<256xf32>
    %96 = stablehlo.rsqrt %95 : tensor<256xf32>
    %97 = stablehlo.broadcast_in_dim %96, dims = [0] : (tensor<256xf32>) -> tensor<256x8xf32>
    %98 = stablehlo.multiply %89, %97 : tensor<256x8xf32>
    %99 = stablehlo.broadcast_in_dim %arg6, dims = [1] : (tensor<8xf32>) -> tensor<256x8xf32>
    %100 = stablehlo.multiply %98, %99 : tensor<256x8xf32>
    %101 = stablehlo.dot_general %100, %arg4, contracting_dims = [1] x [1] : (tensor<256x8xf32>, tensor<16x8xf32>) -> tensor<256x16xf32>
    %102 = stablehlo.dot_general %100, %arg7, contracting_dims = [1] x [1] : (tensor<256x8xf32>, tensor<16x8xf32>) -> tensor<256x16xf32>
    %103 = stablehlo.negate %101 : tensor<256x16xf32>
    %104 = stablehlo.exponential %103 : tensor<256x16xf32>
    %105 = stablehlo.broadcast_in_dim %3, dims = [] : (tensor<f32>) -> tensor<256x16xf32>
    %106 = stablehlo.add %105, %104 : tensor<256x16xf32>
    %107 = stablehlo.divide %105, %106 : tensor<256x16xf32>
    %108 = stablehlo.multiply %101, %107 : tensor<256x16xf32>
    %109 = stablehlo.multiply %108, %102 : tensor<256x16xf32>
    %110 = stablehlo.dot_general %109, %arg3, contracting_dims = [1] x [1] : (tensor<256x16xf32>, tensor<8x16xf32>) -> tensor<256x8xf32>
    %111 = stablehlo.add %89, %110 : tensor<256x8xf32>
    %112 = stablehlo.multiply %111, %111 : tensor<256x8xf32>
    %113 = stablehlo.reduce(%112 init: %2) applies stablehlo.add across dimensions = [1] : (tensor<256x8xf32>, tensor<f32>) -> tensor<256xf32>
    %114 = stablehlo.broadcast_in_dim %7, dims = [] : (tensor<f32>) -> tensor<256xf32>
    %115 = stablehlo.divide %113, %114 : tensor<256xf32>
    %116 = stablehlo.broadcast_in_dim %6, dims = [] : (tensor<f32>) -> tensor<256xf32>
    %117 = stablehlo.add %115, %116 : tensor<256xf32>
    %118 = stablehlo.rsqrt %117 : tensor<256xf32>
    %119 = stablehlo.broadcast_in_dim %118, dims = [0] : (tensor<256xf32>) -> tensor<256x8xf32>
    %120 = stablehlo.multiply %111, %119 : tensor<256x8xf32>
    %121 = stablehlo.broadcast_in_dim %arg17, dims = [1] : (tensor<8xf32>) -> tensor<256x8xf32>
    %122 = stablehlo.multiply %120, %121 : tensor<256x8xf32>
    %123 = stablehlo.dot_general %122, %arg22, contracting_dims = [1] x [1] : (tensor<256x8xf32>, tensor<8x8xf32>) -> tensor<256x8xf32>
    %124 = stablehlo.broadcast_in_dim %arg25, dims = [1] : (tensor<8xf32>) -> tensor<256x8xf32>
    %125 = stablehlo.add %123, %124 : tensor<256x8xf32>
    %126 = stablehlo.reshape %125 : (tensor<256x8xf32>) -> tensor<256x2x4xf32>
    %127 = stablehlo.dot_general %122, %arg20, contracting_dims = [1] x [1] : (tensor<256x8xf32>, tensor<4x8xf32>) -> tensor<256x4xf32>
    %128 = stablehlo.broadcast_in_dim %arg24, dims = [1] : (tensor<4xf32>) -> tensor<256x4xf32>
    %129 = stablehlo.add %127, %128 : tensor<256x4xf32>
    %130 = stablehlo.reshape %129 : (tensor<256x4xf32>) -> tensor<256x1x4xf32>
    %131 = stablehlo.dot_general %122, %arg23, contracting_dims = [1] x [1] : (tensor<256x8xf32>, tensor<4x8xf32>) -> tensor<256x4xf32>
    %132 = stablehlo.broadcast_in_dim %arg26, dims = [1] : (tensor<4xf32>) -> tensor<256x4xf32>
    %133 = stablehlo.add %131, %132 : tensor<256x4xf32>
    %134 = stablehlo.reshape %133 : (tensor<256x4xf32>) -> tensor<256x1x4xf32>
    %135 = stablehlo.broadcast_in_dim %15, dims = [0, 2] : (tensor<256x4xf32>) -> tensor<256x2x4xf32>
    %136 = stablehlo.broadcast_in_dim %16, dims = [0, 2] : (tensor<256x4xf32>) -> tensor<256x2x4xf32>
    %137 = stablehlo.multiply %126, %135 : tensor<256x2x4xf32>
    %138 = stablehlo.slice %126 [0:256, 0:2, 0:2] : (tensor<256x2x4xf32>) -> tensor<256x2x2xf32>
    %139 = stablehlo.slice %126 [0:256, 0:2, 2:4] : (tensor<256x2x4xf32>) -> tensor<256x2x2xf32>
    %140 = stablehlo.negate %139 : tensor<256x2x2xf32>
    %141 = stablehlo.concatenate %140, %138, dim = 2 : (tensor<256x2x2xf32>, tensor<256x2x2xf32>) -> tensor<256x2x4xf32>
    %142 = stablehlo.multiply %141, %136 : tensor<256x2x4xf32>
    %143 = stablehlo.add %137, %142 : tensor<256x2x4xf32>
    %144 = stablehlo.broadcast_in_dim %15, dims = [0, 2] : (tensor<256x4xf32>) -> tensor<256x1x4xf32>
    %145 = stablehlo.broadcast_in_dim %16, dims = [0, 2] : (tensor<256x4xf32>) -> tensor<256x1x4xf32>
    %146 = stablehlo.multiply %130, %144 : tensor<256x1x4xf32>
    %147 = stablehlo.slice %130 [0:256, 0:1, 0:2] : (tensor<256x1x4xf32>) -> tensor<256x1x2xf32>
    %148 = stablehlo.slice %130 [0:256, 0:1, 2:4] : (tensor<256x1x4xf32>) -> tensor<256x1x2xf32>
    %149 = stablehlo.negate %148 : tensor<256x1x2xf32>
    %150 = stablehlo.concatenate %149, %147, dim = 2 : (tensor<256x1x2xf32>, tensor<256x1x2xf32>) -> tensor<256x1x4xf32>
    %151 = stablehlo.multiply %150, %145 : tensor<256x1x4xf32>
    %152 = stablehlo.add %146, %151 : tensor<256x1x4xf32>
    %153 = stablehlo.reshape %152 : (tensor<256x1x4xf32>) -> tensor<1x256x1x4xf32>
    %154 = stablehlo.dynamic_update_slice %69, %153, %11, %9, %9, %9 : (tensor<2x256x1x4xf32>, tensor<1x256x1x4xf32>, tensor<i32>, tensor<i32>, tensor<i32>, tensor<i32>) -> tensor<2x256x1x4xf32>
    %155 = stablehlo.reshape %134 : (tensor<256x1x4xf32>) -> tensor<1x256x1x4xf32>
    %156 = stablehlo.dynamic_update_slice %71, %155, %11, %9, %9, %9 : (tensor<2x256x1x4xf32>, tensor<1x256x1x4xf32>, tensor<i32>, tensor<i32>, tensor<i32>, tensor<i32>) -> tensor<2x256x1x4xf32>
    %157 = stablehlo.reshape %143 : (tensor<256x2x4xf32>) -> tensor<256x1x2x4xf32>
    %158 = stablehlo.dot_general %157, %152, batching_dims = [1] x [1], contracting_dims = [3] x [2] : (tensor<256x1x2x4xf32>, tensor<256x1x4xf32>) -> tensor<1x256x2x256xf32>
    %159 = stablehlo.broadcast_in_dim %8, dims = [] : (tensor<f32>) -> tensor<1x256x2x256xf32>
    %160 = stablehlo.multiply %158, %159 : tensor<1x256x2x256xf32>
    %161 = stablehlo.broadcast_in_dim %24, dims = [1, 3] : (tensor<256x256xf32>) -> tensor<1x256x2x256xf32>
    %162 = stablehlo.add %160, %161 : tensor<1x256x2x256xf32>
    %163 = stablehlo.reduce(%162 init: %4) applies stablehlo.maximum across dimensions = [3] : (tensor<1x256x2x256xf32>, tensor<f32>) -> tensor<1x256x2xf32>
    %164 = stablehlo.broadcast_in_dim %163, dims = [0, 1, 2] : (tensor<1x256x2xf32>) -> tensor<1x256x2x256xf32>
    %165 = stablehlo.subtract %162, %164 : tensor<1x256x2x256xf32>
    %166 = stablehlo.exponential %165 : tensor<1x256x2x256xf32>
    %167 = stablehlo.reduce(%166 init: %2) applies stablehlo.add across dimensions = [3] : (tensor<1x256x2x256xf32>, tensor<f32>) -> tensor<1x256x2xf32>
    %168 = stablehlo.broadcast_in_dim %167, dims = [0, 1, 2] : (tensor<1x256x2xf32>) -> tensor<1x256x2x256xf32>
    %169 = stablehlo.divide %166, %168 : tensor<1x256x2x256xf32>
    %170 = stablehlo.dot_general %169, %134, batching_dims = [0] x [1], contracting_dims = [3] x [0] : (tensor<1x256x2x256xf32>, tensor<256x1x4xf32>) -> tensor<1x256x2x4xf32>
    %171 = stablehlo.transpose %170, dims = [1, 0, 2, 3] : (tensor<1x256x2x4xf32>) -> tensor<256x1x2x4xf32>
    %172 = stablehlo.reshape %171 : (tensor<256x1x2x4xf32>) -> tensor<256x8xf32>
    %173 = stablehlo.dot_general %172, %arg21, contracting_dims = [1] x [1] : (tensor<256x8xf32>, tensor<8x8xf32>) -> tensor<256x8xf32>
    %174 = stablehlo.add %111, %173 : tensor<256x8xf32>
    %175 = stablehlo.multiply %174, %174 : tensor<256x8xf32>
    %176 = stablehlo.reduce(%175 init: %2) applies stablehlo.add across dimensions = [1] : (tensor<256x8xf32>, tensor<f32>) -> tensor<256xf32>
    %177 = stablehlo.broadcast_in_dim %7, dims = [] : (tensor<f32>) -> tensor<256xf32>
    %178 = stablehlo.divide %176, %177 : tensor<256xf32>
    %179 = stablehlo.broadcast_in_dim %6, dims = [] : (tensor<f32>) -> tensor<256xf32>
    %180 = stablehlo.add %178, %179 : tensor<256xf32>
    %181 = stablehlo.rsqrt %180 : tensor<256xf32>
    %182 = stablehlo.broadcast_in_dim %181, dims = [0] : (tensor<256xf32>) -> tensor<256x8xf32>
    %183 = stablehlo.multiply %174, %182 : tensor<256x8xf32>
    %184 = stablehlo.broadcast_in_dim %arg18, dims = [1] : (tensor<8xf32>) -> tensor<256x8xf32>
    %185 = stablehlo.multiply %183, %184 : tensor<256x8xf32>
    %186 = stablehlo.dot_general %185, %arg16, contracting_dims = [1] x [1] : (tensor<256x8xf32>, tensor<16x8xf32>) -> tensor<256x16xf32>
    %187 = stablehlo.dot_general %185, %arg19, contracting_dims = [1] x [1] : (tensor<256x8xf32>, tensor<16x8xf32>) -> tensor<256x16xf32>
    %188 = stablehlo.negate %186 : tensor<256x16xf32>
    %189 = stablehlo.exponential %188 : tensor<256x16xf32>
    %190 = stablehlo.broadcast_in_dim %3, dims = [] : (tensor<f32>) -> tensor<256x16xf32>
    %191 = stablehlo.add %190, %189 : tensor<256x16xf32>
    %192 = stablehlo.divide %190, %191 : tensor<256x16xf32>
    %193 = stablehlo.multiply %186, %192 : tensor<256x16xf32>
    %194 = stablehlo.multiply %193, %187 : tensor<256x16xf32>
    %195 = stablehlo.dot_general %194, %arg15, contracting_dims = [1] x [1] : (tensor<256x16xf32>, tensor<8x16xf32>) -> tensor<256x8xf32>
    %196 = stablehlo.add %174, %195 : tensor<256x8xf32>
    %197 = stablehlo.multiply %196, %196 : tensor<256x8xf32>
    %198 = stablehlo.reduce(%197 init: %2) applies stablehlo.add across dimensions = [1] : (tensor<256x8xf32>, tensor<f32>) -> tensor<256xf32>
    %199 = stablehlo.broadcast_in_dim %7, dims = [] : (tensor<f32>) -> tensor<256xf32>
    %200 = stablehlo.divide %198, %199 : tensor<256xf32>
    %201 = stablehlo.broadcast_in_dim %6, dims = [] : (tensor<f32>) -> tensor<256xf32>
    %202 = stablehlo.add %200, %201 : tensor<256xf32>
    %203 = stablehlo.rsqrt %202 : tensor<256xf32>
    %204 = stablehlo.broadcast_in_dim %203, dims = [0] : (tensor<256xf32>) -> tensor<256x8xf32>
    %205 = stablehlo.multiply %196, %204 : tensor<256x8xf32>
    %206 = stablehlo.broadcast_in_dim %arg1, dims = [1] : (tensor<8xf32>) -> tensor<256x8xf32>
    %207 = stablehlo.multiply %205, %206 : tensor<256x8xf32>
    %208 = stablehlo.constant dense<1> : tensor<i32>
    %209 = stablehlo.subtract %arg29, %208 : tensor<i32>
    %210 = stablehlo.dynamic_slice %207, %209, %9, sizes = [1, 8] : (tensor<256x8xf32>, tensor<i32>, tensor<i32>) -> tensor<1x8xf32>
    %211 = stablehlo.reshape %210 : (tensor<1x8xf32>) -> tensor<8xf32>
    %212 = stablehlo.dot_general %211, %arg2, contracting_dims = [0] x [1] : (tensor<8xf32>, tensor<10x8xf32>) -> tensor<10xf32>
    %213 = stablehlo.constant dense<0> : tensor<i32>
    %214 = stablehlo.constant dense<0xFF800000> : tensor<f32>
    %215 = stablehlo.iota dim = 0 : tensor<10xi32>
    %216:2 = stablehlo.reduce(%212 init: %214), (%215 init: %213) across dimensions = [0] : (tensor<10xf32>, tensor<10xi32>, tensor<f32>, tensor<i32>) -> (tensor<f32>, tensor<i32>)
    reducer(%amv_l: tensor<f32>, %amv_r: tensor<f32>) (%ami_l: tensor<i32>, %ami_r: tensor<i32>) {
      %217 = stablehlo.compare GT, %amv_l, %amv_r, FLOAT : (tensor<f32>, tensor<f32>) -> tensor<i1>
      %218 = stablehlo.compare NE, %amv_l, %amv_l, FLOAT : (tensor<f32>, tensor<f32>) -> tensor<i1>
      %219 = stablehlo.or %217, %218 : tensor<i1>
      %220 = stablehlo.compare EQ, %amv_l, %amv_r, FLOAT : (tensor<f32>, tensor<f32>) -> tensor<i1>
      %221 = stablehlo.compare LT, %ami_l, %ami_r, SIGNED : (tensor<i32>, tensor<i32>) -> tensor<i1>
      %222 = stablehlo.and %220, %221 : tensor<i1>
      %223 = stablehlo.or %219, %222 : tensor<i1>
      %224 = stablehlo.select %219, %amv_l, %amv_r : tensor<i1>, tensor<f32>
      %225 = stablehlo.select %223, %ami_l, %ami_r : tensor<i1>, tensor<i32>
      stablehlo.return %224, %225 : tensor<f32>, tensor<i32>
    }
    return %216#1, %154, %156 : tensor<i32>, tensor<2x256x1x4xf32>, tensor<2x256x1x4xf32>
  }
}
