module @decode_step {
  func.func public @main(%arg0: tensor<10x8xf32> loc("params['embed']"), %arg1: tensor<8xf32> loc("params['final_norm']"), %arg2: tensor<10x8xf32> loc("params['lm_head']"), %arg3: tensor<8xf32> loc("params['layers'][0]['in_ln']"), %arg4: tensor<8xf32> loc("params['layers'][0]['post_ln']"), %arg5: tensor<4x8xf32> loc("params['layers'][0]['wk']"), %arg6: tensor<8x8xf32> loc("params['layers'][0]['wo']"), %arg7: tensor<8x8xf32> loc("params['layers'][0]['wq']"), %arg8: tensor<4x8xf32> loc("params['layers'][0]['wv']"), %arg9: tensor<8xf32> loc("params['layers'][0]['q_norm']"), %arg10: tensor<4xf32> loc("params['layers'][0]['k_norm']"), %arg11: tensor<4x8xf32> loc("params['layers'][0]['moe_router']"), %arg12: tensor<4x12x8xf32> loc("params['layers'][0]['moe_gate']"), %arg13: tensor<4x12x8xf32> loc("params['layers'][0]['moe_up']"), %arg14: tensor<4x8x12xf32> loc("params['layers'][0]['moe_down']"), %arg15: tensor<8xf32> loc("params['layers'][1]['in_ln']"), %arg16: tensor<8xf32> loc("params['layers'][1]['post_ln']"), %arg17: tensor<4x8xf32> loc("params['layers'][1]['wk']"), %arg18: tensor<8x8xf32> loc("params['layers'][1]['wo']"), %arg19: tensor<8x8xf32> loc("params['layers'][1]['wq']"), %arg20: tensor<4x8xf32> loc("params['layers'][1]['wv']"), %arg21: tensor<8xf32> loc("params['layers'][1]['q_norm']"), %arg22: tensor<4xf32> loc("params['layers'][1]['k_norm']"), %arg23: tensor<4x8xf32> loc("params['layers'][1]['moe_router']"), %arg24: tensor<4x12x8xf32> loc("params['layers'][1]['moe_gate']"), %arg25: tensor<4x12x8xf32> loc("params['layers'][1]['moe_up']"), %arg26: tensor<4x8x12xf32> loc("params['layers'][1]['moe_down']"), %arg27: tensor<i32> loc("token"), %arg28: tensor<i32> loc("pos"), %arg29: tensor<i32> loc("cache_len"), %arg30: tensor<2x256x1x4xf32> loc("kcache"), %arg31: tensor<2x256x1x4xf32> loc("vcache")) -> (tensor<i32>, tensor<2x256x1x4xf32>, tensor<2x256x1x4xf32>) {
    %0 = stablehlo.constant dense<"…"> : tensor<256x4xf32>
    %1 = stablehlo.constant dense<"…"> : tensor<256x4xf32>
    %2 = stablehlo.constant dense<0x00000000> : tensor<f32>
    %3 = stablehlo.constant dense<0x3F800000> : tensor<f32>
    %4 = stablehlo.constant dense<0xFF800000> : tensor<f32>
    %5 = stablehlo.constant dense<0xF149F2CA> : tensor<f32>
    %6 = stablehlo.constant dense<0x358637BD> : tensor<f32>
    %7 = stablehlo.constant dense<0x41000000> : tensor<f32>
    %8 = stablehlo.constant dense<0x3F000000> : tensor<f32>
    %9 = stablehlo.constant dense<0> : tensor<i32>
    %10 = stablehlo.constant dense<0> : tensor<i32>
    %11 = stablehlo.constant dense<1> : tensor<i32>
    %12 = stablehlo.dynamic_slice %arg0, %arg27, %9, sizes = [1, 8] : (tensor<10x8xf32>, tensor<i32>, tensor<i32>) -> tensor<1x8xf32>
    %13 = stablehlo.reshape %12 : (tensor<1x8xf32>) -> tensor<8xf32>
    %14 = stablehlo.dynamic_slice %0, %arg28, %9, sizes = [1, 4] : (tensor<256x4xf32>, tensor<i32>, tensor<i32>) -> tensor<1x4xf32>
    %15 = stablehlo.reshape %14 : (tensor<1x4xf32>) -> tensor<4xf32>
    %16 = stablehlo.dynamic_slice %1, %arg28, %9, sizes = [1, 4] : (tensor<256x4xf32>, tensor<i32>, tensor<i32>) -> tensor<1x4xf32>
    %17 = stablehlo.reshape %16 : (tensor<1x4xf32>) -> tensor<4xf32>
    %18 = stablehlo.iota dim = 0 : tensor<256xi32>
    %19 = stablehlo.broadcast_in_dim %arg29, dims = [] : (tensor<i32>) -> tensor<256xi32>
    %20 = stablehlo.compare LE, %18, %19, SIGNED : (tensor<256xi32>, tensor<256xi32>) -> tensor<256xi1>
    %21 = stablehlo.broadcast_in_dim %2, dims = [] : (tensor<f32>) -> tensor<256xf32>
    %22 = stablehlo.broadcast_in_dim %5, dims = [] : (tensor<f32>) -> tensor<256xf32>
    %23 = stablehlo.select %20, %21, %22 : tensor<256xi1>, tensor<256xf32>
    %24 = stablehlo.multiply %13, %13 : tensor<8xf32>
    %25 = stablehlo.reduce(%24 init: %2) applies stablehlo.add across dimensions = [0] : (tensor<8xf32>, tensor<f32>) -> tensor<f32>
    %26 = stablehlo.divide %25, %7 : tensor<f32>
    %27 = stablehlo.add %26, %6 : tensor<f32>
    %28 = stablehlo.rsqrt %27 : tensor<f32>
    %29 = stablehlo.broadcast_in_dim %28, dims = [] : (tensor<f32>) -> tensor<8xf32>
    %30 = stablehlo.multiply %13, %29 : tensor<8xf32>
    %31 = stablehlo.multiply %30, %arg3 : tensor<8xf32>
    %32 = stablehlo.dot_general %31, %arg7, contracting_dims = [0] x [1] : (tensor<8xf32>, tensor<8x8xf32>) -> tensor<8xf32>
    %33 = stablehlo.reshape %32 : (tensor<8xf32>) -> tensor<2x4xf32>
    %34 = stablehlo.dot_general %31, %arg5, contracting_dims = [0] x [1] : (tensor<8xf32>, tensor<4x8xf32>) -> tensor<4xf32>
    %35 = stablehlo.reshape %34 : (tensor<4xf32>) -> tensor<1x4xf32>
    %36 = stablehlo.dot_general %31, %arg8, contracting_dims = [0] x [1] : (tensor<8xf32>, tensor<4x8xf32>) -> tensor<4xf32>
    %37 = stablehlo.reshape %36 : (tensor<4xf32>) -> tensor<1x4xf32>
    %38 = stablehlo.reshape %33 : (tensor<2x4xf32>) -> tensor<8xf32>
    %39 = stablehlo.constant dense<0x41000000> : tensor<f32>
    %40 = stablehlo.multiply %38, %38 : tensor<8xf32>
    %41 = stablehlo.reduce(%40 init: %2) applies stablehlo.add across dimensions = [0] : (tensor<8xf32>, tensor<f32>) -> tensor<f32>
    %42 = stablehlo.broadcast_in_dim %39, dims = [] : (tensor<f32>) -> tensor<f32>
    %43 = stablehlo.divide %41, %42 : tensor<f32>
    %44 = stablehlo.broadcast_in_dim %6, dims = [] : (tensor<f32>) -> tensor<f32>
    %45 = stablehlo.add %43, %44 : tensor<f32>
    %46 = stablehlo.rsqrt %45 : tensor<f32>
    %47 = stablehlo.broadcast_in_dim %46, dims = [] : (tensor<f32>) -> tensor<8xf32>
    %48 = stablehlo.multiply %38, %47 : tensor<8xf32>
    %49 = stablehlo.broadcast_in_dim %arg9, dims = [0] : (tensor<8xf32>) -> tensor<8xf32>
    %50 = stablehlo.multiply %48, %49 : tensor<8xf32>
    %51 = stablehlo.reshape %50 : (tensor<8xf32>) -> tensor<2x4xf32>
    %52 = stablehlo.reshape %35 : (tensor<1x4xf32>) -> tensor<4xf32>
    %53 = stablehlo.constant dense<0x40800000> : tensor<f32>
    %54 = stablehlo.multiply %52, %52 : tensor<4xf32>
    %55 = stablehlo.reduce(%54 init: %2) applies stablehlo.add across dimensions = [0] : (tensor<4xf32>, tensor<f32>) -> tensor<f32>
    %56 = stablehlo.broadcast_in_dim %53, dims = [] : (tensor<f32>) -> tensor<f32>
    %57 = stablehlo.divide %55, %56 : tensor<f32>
    %58 = stablehlo.broadcast_in_dim %6, dims = [] : (tensor<f32>) -> tensor<f32>
    %59 = stablehlo.add %57, %58 : tensor<f32>
    %60 = stablehlo.rsqrt %59 : tensor<f32>
    %61 = stablehlo.broadcast_in_dim %60, dims = [] : (tensor<f32>) -> tensor<4xf32>
    %62 = stablehlo.multiply %52, %61 : tensor<4xf32>
    %63 = stablehlo.broadcast_in_dim %arg10, dims = [0] : (tensor<4xf32>) -> tensor<4xf32>
    %64 = stablehlo.multiply %62, %63 : tensor<4xf32>
    %65 = stablehlo.reshape %64 : (tensor<4xf32>) -> tensor<1x4xf32>
    %66 = stablehlo.broadcast_in_dim %15, dims = [1] : (tensor<4xf32>) -> tensor<2x4xf32>
    %67 = stablehlo.broadcast_in_dim %17, dims = [1] : (tensor<4xf32>) -> tensor<2x4xf32>
    %68 = stablehlo.multiply %51, %66 : tensor<2x4xf32>
    %69 = stablehlo.slice %51 [0:2, 0:2] : (tensor<2x4xf32>) -> tensor<2x2xf32>
    %70 = stablehlo.slice %51 [0:2, 2:4] : (tensor<2x4xf32>) -> tensor<2x2xf32>
    %71 = stablehlo.negate %70 : tensor<2x2xf32>
    %72 = stablehlo.concatenate %71, %69, dim = 1 : (tensor<2x2xf32>, tensor<2x2xf32>) -> tensor<2x4xf32>
    %73 = stablehlo.multiply %72, %67 : tensor<2x4xf32>
    %74 = stablehlo.add %68, %73 : tensor<2x4xf32>
    %75 = stablehlo.broadcast_in_dim %15, dims = [1] : (tensor<4xf32>) -> tensor<1x4xf32>
    %76 = stablehlo.broadcast_in_dim %17, dims = [1] : (tensor<4xf32>) -> tensor<1x4xf32>
    %77 = stablehlo.multiply %65, %75 : tensor<1x4xf32>
    %78 = stablehlo.slice %65 [0:1, 0:2] : (tensor<1x4xf32>) -> tensor<1x2xf32>
    %79 = stablehlo.slice %65 [0:1, 2:4] : (tensor<1x4xf32>) -> tensor<1x2xf32>
    %80 = stablehlo.negate %79 : tensor<1x2xf32>
    %81 = stablehlo.concatenate %80, %78, dim = 1 : (tensor<1x2xf32>, tensor<1x2xf32>) -> tensor<1x4xf32>
    %82 = stablehlo.multiply %81, %76 : tensor<1x4xf32>
    %83 = stablehlo.add %77, %82 : tensor<1x4xf32>
    %84 = stablehlo.reshape %83 : (tensor<1x4xf32>) -> tensor<1x1x1x4xf32>
    %85 = stablehlo.dynamic_update_slice %arg30, %84, %10, %arg29, %9, %9 : (tensor<2x256x1x4xf32>, tensor<1x1x1x4xf32>, tensor<i32>, tensor<i32>, tensor<i32>, tensor<i32>) -> tensor<2x256x1x4xf32>
    %86 = stablehlo.reshape %37 : (tensor<1x4xf32>) -> tensor<1x1x1x4xf32>
    %87 = stablehlo.dynamic_update_slice %arg31, %86, %10, %arg29, %9, %9 : (tensor<2x256x1x4xf32>, tensor<1x1x1x4xf32>, tensor<i32>, tensor<i32>, tensor<i32>, tensor<i32>) -> tensor<2x256x1x4xf32>
    %88 = stablehlo.slice %85 [0:1, 0:256, 0:1, 0:4] : (tensor<2x256x1x4xf32>) -> tensor<1x256x1x4xf32>
    %89 = stablehlo.reshape %88 : (tensor<1x256x1x4xf32>) -> tensor<256x1x4xf32>
    %90 = stablehlo.slice %87 [0:1, 0:256, 0:1, 0:4] : (tensor<2x256x1x4xf32>) -> tensor<1x256x1x4xf32>
    %91 = stablehlo.reshape %90 : (tensor<1x256x1x4xf32>) -> tensor<256x1x4xf32>
    %92 = stablehlo.reshape %74 : (tensor<2x4xf32>) -> tensor<1x2x4xf32>
    %93 = stablehlo.dot_general %92, %89, batching_dims = [0] x [1], contracting_dims = [2] x [2] : (tensor<1x2x4xf32>, tensor<256x1x4xf32>) -> tensor<1x2x256xf32>
    %94 = stablehlo.reshape %93 : (tensor<1x2x256xf32>) -> tensor<2x256xf32>
    %95 = stablehlo.broadcast_in_dim %8, dims = [] : (tensor<f32>) -> tensor<2x256xf32>
    %96 = stablehlo.multiply %94, %95 : tensor<2x256xf32>
    %97 = stablehlo.broadcast_in_dim %23, dims = [1] : (tensor<256xf32>) -> tensor<2x256xf32>
    %98 = stablehlo.add %96, %97 : tensor<2x256xf32>
    %99 = stablehlo.reduce(%98 init: %4) applies stablehlo.maximum across dimensions = [1] : (tensor<2x256xf32>, tensor<f32>) -> tensor<2xf32>
    %100 = stablehlo.broadcast_in_dim %99, dims = [0] : (tensor<2xf32>) -> tensor<2x256xf32>
    %101 = stablehlo.subtract %98, %100 : tensor<2x256xf32>
    %102 = stablehlo.exponential %101 : tensor<2x256xf32>
    %103 = stablehlo.reduce(%102 init: %2) applies stablehlo.add across dimensions = [1] : (tensor<2x256xf32>, tensor<f32>) -> tensor<2xf32>
    %104 = stablehlo.broadcast_in_dim %103, dims = [0] : (tensor<2xf32>) -> tensor<2x256xf32>
    %105 = stablehlo.divide %102, %104 : tensor<2x256xf32>
    %106 = stablehlo.reshape %105 : (tensor<2x256xf32>) -> tensor<1x2x256xf32>
    %107 = stablehlo.dot_general %106, %91, batching_dims = [0] x [1], contracting_dims = [2] x [0] : (tensor<1x2x256xf32>, tensor<256x1x4xf32>) -> tensor<1x2x4xf32>
    %108 = stablehlo.reshape %107 : (tensor<1x2x4xf32>) -> tensor<2x4xf32>
    %109 = stablehlo.reshape %108 : (tensor<2x4xf32>) -> tensor<8xf32>
    %110 = stablehlo.dot_general %109, %arg6, contracting_dims = [0] x [1] : (tensor<8xf32>, tensor<8x8xf32>) -> tensor<8xf32>
    %111 = stablehlo.add %13, %110 : tensor<8xf32>
    %112 = stablehlo.multiply %111, %111 : tensor<8xf32>
    %113 = stablehlo.reduce(%112 init: %2) applies stablehlo.add across dimensions = [0] : (tensor<8xf32>, tensor<f32>) -> tensor<f32>
    %114 = stablehlo.divide %113, %7 : tensor<f32>
    %115 = stablehlo.add %114, %6 : tensor<f32>
    %116 = stablehlo.rsqrt %115 : tensor<f32>
    %117 = stablehlo.broadcast_in_dim %116, dims = [] : (tensor<f32>) -> tensor<8xf32>
    %118 = stablehlo.multiply %111, %117 : tensor<8xf32>
    %119 = stablehlo.multiply %118, %arg4 : tensor<8xf32>
    %120 = stablehlo.reshape %119 : (tensor<8xf32>) -> tensor<1x8xf32>
    %121 = stablehlo.dot_general %120, %arg11, contracting_dims = [1] x [1] : (tensor<1x8xf32>, tensor<4x8xf32>) -> tensor<1x4xf32>
    %122 = stablehlo.reduce(%121 init: %4) applies stablehlo.maximum across dimensions = [1] : (tensor<1x4xf32>, tensor<f32>) -> tensor<1xf32>
    %123 = stablehlo.broadcast_in_dim %122, dims = [0] : (tensor<1xf32>) -> tensor<1x4xf32>
    %124 = stablehlo.subtract %121, %123 : tensor<1x4xf32>
    %125 = stablehlo.exponential %124 : tensor<1x4xf32>
    %126 = stablehlo.reduce(%125 init: %2) applies stablehlo.add across dimensions = [1] : (tensor<1x4xf32>, tensor<f32>) -> tensor<1xf32>
    %127 = stablehlo.broadcast_in_dim %126, dims = [0] : (tensor<1xf32>) -> tensor<1x4xf32>
    %128 = stablehlo.divide %125, %127 : tensor<1x4xf32>
    %129 = stablehlo.iota dim = 0 : tensor<4xi32>
    %130 = stablehlo.broadcast_in_dim %129, dims = [1] : (tensor<4xi32>) -> tensor<1x4xi32>
    %131 = stablehlo.broadcast_in_dim %2, dims = [] : (tensor<f32>) -> tensor<1x4xf32>
    %132 = stablehlo.broadcast_in_dim %4, dims = [] : (tensor<f32>) -> tensor<1x4xf32>
    %133 = stablehlo.constant dense<0> : tensor<i32>
    %134 = stablehlo.constant dense<0xFF800000> : tensor<f32>
    %135 = stablehlo.iota dim = 1 : tensor<1x4xi32>
    %136:2 = stablehlo.reduce(%128 init: %134), (%135 init: %133) across dimensions = [1] : (tensor<1x4xf32>, tensor<1x4xi32>, tensor<f32>, tensor<i32>) -> (tensor<1xf32>, tensor<1xi32>)
    reducer(%amv_l: tensor<f32>, %amv_r: tensor<f32>) (%ami_l: tensor<i32>, %ami_r: tensor<i32>) {
      %137 = stablehlo.compare GT, %amv_l, %amv_r, FLOAT : (tensor<f32>, tensor<f32>) -> tensor<i1>
      %138 = stablehlo.compare NE, %amv_l, %amv_l, FLOAT : (tensor<f32>, tensor<f32>) -> tensor<i1>
      %139 = stablehlo.or %137, %138 : tensor<i1>
      %140 = stablehlo.compare EQ, %amv_l, %amv_r, FLOAT : (tensor<f32>, tensor<f32>) -> tensor<i1>
      %141 = stablehlo.compare LT, %ami_l, %ami_r, SIGNED : (tensor<i32>, tensor<i32>) -> tensor<i1>
      %142 = stablehlo.and %140, %141 : tensor<i1>
      %143 = stablehlo.or %139, %142 : tensor<i1>
      %144 = stablehlo.select %139, %amv_l, %amv_r : tensor<i1>, tensor<f32>
      %145 = stablehlo.select %143, %ami_l, %ami_r : tensor<i1>, tensor<i32>
      stablehlo.return %144, %145 : tensor<f32>, tensor<i32>
    }
    %146 = stablehlo.broadcast_in_dim %136#1, dims = [0] : (tensor<1xi32>) -> tensor<1x4xi32>
    %147 = stablehlo.compare EQ, %130, %146, SIGNED : (tensor<1x4xi32>, tensor<1x4xi32>) -> tensor<1x4xi1>
    %148 = stablehlo.select %147, %128, %131 : tensor<1x4xi1>, tensor<1x4xf32>
    %149 = stablehlo.reduce(%148 init: %2) applies stablehlo.add across dimensions = [1] : (tensor<1x4xf32>, tensor<f32>) -> tensor<1xf32>
    %150 = stablehlo.select %147, %132, %128 : tensor<1x4xi1>, tensor<1x4xf32>
    %151 = stablehlo.constant dense<0> : tensor<i32>
    %152 = stablehlo.constant dense<0xFF800000> : tensor<f32>
    %153 = stablehlo.iota dim = 1 : tensor<1x4xi32>
    %154:2 = stablehlo.reduce(%150 init: %152), (%153 init: %151) across dimensions = [1] : (tensor<1x4xf32>, tensor<1x4xi32>, tensor<f32>, tensor<i32>) -> (tensor<1xf32>, tensor<1xi32>)
    reducer(%amv_l: tensor<f32>, %amv_r: tensor<f32>) (%ami_l: tensor<i32>, %ami_r: tensor<i32>) {
      %155 = stablehlo.compare GT, %amv_l, %amv_r, FLOAT : (tensor<f32>, tensor<f32>) -> tensor<i1>
      %156 = stablehlo.compare NE, %amv_l, %amv_l, FLOAT : (tensor<f32>, tensor<f32>) -> tensor<i1>
      %157 = stablehlo.or %155, %156 : tensor<i1>
      %158 = stablehlo.compare EQ, %amv_l, %amv_r, FLOAT : (tensor<f32>, tensor<f32>) -> tensor<i1>
      %159 = stablehlo.compare LT, %ami_l, %ami_r, SIGNED : (tensor<i32>, tensor<i32>) -> tensor<i1>
      %160 = stablehlo.and %158, %159 : tensor<i1>
      %161 = stablehlo.or %157, %160 : tensor<i1>
      %162 = stablehlo.select %157, %amv_l, %amv_r : tensor<i1>, tensor<f32>
      %163 = stablehlo.select %161, %ami_l, %ami_r : tensor<i1>, tensor<i32>
      stablehlo.return %162, %163 : tensor<f32>, tensor<i32>
    }
    %164 = stablehlo.broadcast_in_dim %154#1, dims = [0] : (tensor<1xi32>) -> tensor<1x4xi32>
    %165 = stablehlo.compare EQ, %130, %164, SIGNED : (tensor<1x4xi32>, tensor<1x4xi32>) -> tensor<1x4xi1>
    %166 = stablehlo.select %165, %150, %131 : tensor<1x4xi1>, tensor<1x4xf32>
    %167 = stablehlo.reduce(%166 init: %2) applies stablehlo.add across dimensions = [1] : (tensor<1x4xf32>, tensor<f32>) -> tensor<1xf32>
    %168 = stablehlo.select %165, %132, %150 : tensor<1x4xi1>, tensor<1x4xf32>
    %169 = stablehlo.add %149, %167 : tensor<1xf32>
    %170 = stablehlo.divide %149, %169 : tensor<1xf32>
    %171 = stablehlo.divide %167, %169 : tensor<1xf32>
    %172 = stablehlo.broadcast_in_dim %2, dims = [] : (tensor<f32>) -> tensor<1x4xf32>
    %173 = stablehlo.broadcast_in_dim %170, dims = [0] : (tensor<1xf32>) -> tensor<1x4xf32>
    %174 = stablehlo.select %147, %173, %131 : tensor<1x4xi1>, tensor<1x4xf32>
    %175 = stablehlo.add %172, %174 : tensor<1x4xf32>
    %176 = stablehlo.broadcast_in_dim %171, dims = [0] : (tensor<1xf32>) -> tensor<1x4xf32>
    %177 = stablehlo.select %165, %176, %131 : tensor<1x4xi1>, tensor<1x4xf32>
    %178 = stablehlo.add %175, %177 : tensor<1x4xf32>
    %179 = stablehlo.broadcast_in_dim %120, dims = [1, 2] : (tensor<1x8xf32>) -> tensor<4x1x8xf32>
    %180 = stablehlo.dot_general %179, %arg12, batching_dims = [0] x [0], contracting_dims = [2] x [2] : (tensor<4x1x8xf32>, tensor<4x12x8xf32>) -> tensor<4x1x12xf32>
    %181 = stablehlo.dot_general %179, %arg13, batching_dims = [0] x [0], contracting_dims = [2] x [2] : (tensor<4x1x8xf32>, tensor<4x12x8xf32>) -> tensor<4x1x12xf32>
    %182 = stablehlo.broadcast_in_dim %3, dims = [] : (tensor<f32>) -> tensor<4x1x12xf32>
    %183 = stablehlo.negate %180 : tensor<4x1x12xf32>
    %184 = stablehlo.exponential %183 : tensor<4x1x12xf32>
    %185 = stablehlo.add %182, %184 : tensor<4x1x12xf32>
    %186 = stablehlo.divide %182, %185 : tensor<4x1x12xf32>
    %187 = stablehlo.multiply %180, %186 : tensor<4x1x12xf32>
    %188 = stablehlo.multiply %187, %181 : tensor<4x1x12xf32>
    %189 = stablehlo.dot_general %188, %arg14, batching_dims = [0] x [0], contracting_dims = [2] x [2] : (tensor<4x1x12xf32>, tensor<4x8x12xf32>) -> tensor<4x1x8xf32>
    %190 = stablehlo.dot_general %178, %189, batching_dims = [0] x [1], contracting_dims = [1] x [0] : (tensor<1x4xf32>, tensor<4x1x8xf32>) -> tensor<1x8xf32>
    %191 = stablehlo.reshape %190 : (tensor<1x8xf32>) -> tensor<8xf32>
    %192 = stablehlo.add %111, %191 : tensor<8xf32>
    %193 = stablehlo.multiply %192, %192 : tensor<8xf32>
    %194 = stablehlo.reduce(%193 init: %2) applies stablehlo.add across dimensions = [0] : (tensor<8xf32>, tensor<f32>) -> tensor<f32>
    %195 = stablehlo.divide %194, %7 : tensor<f32>
    %196 = stablehlo.add %195, %6 : tensor<f32>
    %197 = stablehlo.rsqrt %196 : tensor<f32>
    %198 = stablehlo.broadcast_in_dim %197, dims = [] : (tensor<f32>) -> tensor<8xf32>
    %199 = stablehlo.multiply %192, %198 : tensor<8xf32>
    %200 = stablehlo.multiply %199, %arg15 : tensor<8xf32>
    %201 = stablehlo.dot_general %200, %arg19, contracting_dims = [0] x [1] : (tensor<8xf32>, tensor<8x8xf32>) -> tensor<8xf32>
    %202 = stablehlo.reshape %201 : (tensor<8xf32>) -> tensor<2x4xf32>
    %203 = stablehlo.dot_general %200, %arg17, contracting_dims = [0] x [1] : (tensor<8xf32>, tensor<4x8xf32>) -> tensor<4xf32>
    %204 = stablehlo.reshape %203 : (tensor<4xf32>) -> tensor<1x4xf32>
    %205 = stablehlo.dot_general %200, %arg20, contracting_dims = [0] x [1] : (tensor<8xf32>, tensor<4x8xf32>) -> tensor<4xf32>
    %206 = stablehlo.reshape %205 : (tensor<4xf32>) -> tensor<1x4xf32>
    %207 = stablehlo.reshape %202 : (tensor<2x4xf32>) -> tensor<8xf32>
    %208 = stablehlo.constant dense<0x41000000> : tensor<f32>
    %209 = stablehlo.multiply %207, %207 : tensor<8xf32>
    %210 = stablehlo.reduce(%209 init: %2) applies stablehlo.add across dimensions = [0] : (tensor<8xf32>, tensor<f32>) -> tensor<f32>
    %211 = stablehlo.broadcast_in_dim %208, dims = [] : (tensor<f32>) -> tensor<f32>
    %212 = stablehlo.divide %210, %211 : tensor<f32>
    %213 = stablehlo.broadcast_in_dim %6, dims = [] : (tensor<f32>) -> tensor<f32>
    %214 = stablehlo.add %212, %213 : tensor<f32>
    %215 = stablehlo.rsqrt %214 : tensor<f32>
    %216 = stablehlo.broadcast_in_dim %215, dims = [] : (tensor<f32>) -> tensor<8xf32>
    %217 = stablehlo.multiply %207, %216 : tensor<8xf32>
    %218 = stablehlo.broadcast_in_dim %arg21, dims = [0] : (tensor<8xf32>) -> tensor<8xf32>
    %219 = stablehlo.multiply %217, %218 : tensor<8xf32>
    %220 = stablehlo.reshape %219 : (tensor<8xf32>) -> tensor<2x4xf32>
    %221 = stablehlo.reshape %204 : (tensor<1x4xf32>) -> tensor<4xf32>
    %222 = stablehlo.constant dense<0x40800000> : tensor<f32>
    %223 = stablehlo.multiply %221, %221 : tensor<4xf32>
    %224 = stablehlo.reduce(%223 init: %2) applies stablehlo.add across dimensions = [0] : (tensor<4xf32>, tensor<f32>) -> tensor<f32>
    %225 = stablehlo.broadcast_in_dim %222, dims = [] : (tensor<f32>) -> tensor<f32>
    %226 = stablehlo.divide %224, %225 : tensor<f32>
    %227 = stablehlo.broadcast_in_dim %6, dims = [] : (tensor<f32>) -> tensor<f32>
    %228 = stablehlo.add %226, %227 : tensor<f32>
    %229 = stablehlo.rsqrt %228 : tensor<f32>
    %230 = stablehlo.broadcast_in_dim %229, dims = [] : (tensor<f32>) -> tensor<4xf32>
    %231 = stablehlo.multiply %221, %230 : tensor<4xf32>
    %232 = stablehlo.broadcast_in_dim %arg22, dims = [0] : (tensor<4xf32>) -> tensor<4xf32>
    %233 = stablehlo.multiply %231, %232 : tensor<4xf32>
    %234 = stablehlo.reshape %233 : (tensor<4xf32>) -> tensor<1x4xf32>
    %235 = stablehlo.broadcast_in_dim %15, dims = [1] : (tensor<4xf32>) -> tensor<2x4xf32>
    %236 = stablehlo.broadcast_in_dim %17, dims = [1] : (tensor<4xf32>) -> tensor<2x4xf32>
    %237 = stablehlo.multiply %220, %235 : tensor<2x4xf32>
    %238 = stablehlo.slice %220 [0:2, 0:2] : (tensor<2x4xf32>) -> tensor<2x2xf32>
    %239 = stablehlo.slice %220 [0:2, 2:4] : (tensor<2x4xf32>) -> tensor<2x2xf32>
    %240 = stablehlo.negate %239 : tensor<2x2xf32>
    %241 = stablehlo.concatenate %240, %238, dim = 1 : (tensor<2x2xf32>, tensor<2x2xf32>) -> tensor<2x4xf32>
    %242 = stablehlo.multiply %241, %236 : tensor<2x4xf32>
    %243 = stablehlo.add %237, %242 : tensor<2x4xf32>
    %244 = stablehlo.broadcast_in_dim %15, dims = [1] : (tensor<4xf32>) -> tensor<1x4xf32>
    %245 = stablehlo.broadcast_in_dim %17, dims = [1] : (tensor<4xf32>) -> tensor<1x4xf32>
    %246 = stablehlo.multiply %234, %244 : tensor<1x4xf32>
    %247 = stablehlo.slice %234 [0:1, 0:2] : (tensor<1x4xf32>) -> tensor<1x2xf32>
    %248 = stablehlo.slice %234 [0:1, 2:4] : (tensor<1x4xf32>) -> tensor<1x2xf32>
    %249 = stablehlo.negate %248 : tensor<1x2xf32>
    %250 = stablehlo.concatenate %249, %247, dim = 1 : (tensor<1x2xf32>, tensor<1x2xf32>) -> tensor<1x4xf32>
    %251 = stablehlo.multiply %250, %245 : tensor<1x4xf32>
    %252 = stablehlo.add %246, %251 : tensor<1x4xf32>
    %253 = stablehlo.reshape %252 : (tensor<1x4xf32>) -> tensor<1x1x1x4xf32>
    %254 = stablehlo.dynamic_update_slice %85, %253, %11, %arg29, %9, %9 : (tensor<2x256x1x4xf32>, tensor<1x1x1x4xf32>, tensor<i32>, tensor<i32>, tensor<i32>, tensor<i32>) -> tensor<2x256x1x4xf32>
    %255 = stablehlo.reshape %206 : (tensor<1x4xf32>) -> tensor<1x1x1x4xf32>
    %256 = stablehlo.dynamic_update_slice %87, %255, %11, %arg29, %9, %9 : (tensor<2x256x1x4xf32>, tensor<1x1x1x4xf32>, tensor<i32>, tensor<i32>, tensor<i32>, tensor<i32>) -> tensor<2x256x1x4xf32>
    %257 = stablehlo.slice %254 [1:2, 0:256, 0:1, 0:4] : (tensor<2x256x1x4xf32>) -> tensor<1x256x1x4xf32>
    %258 = stablehlo.reshape %257 : (tensor<1x256x1x4xf32>) -> tensor<256x1x4xf32>
    %259 = stablehlo.slice %256 [1:2, 0:256, 0:1, 0:4] : (tensor<2x256x1x4xf32>) -> tensor<1x256x1x4xf32>
    %260 = stablehlo.reshape %259 : (tensor<1x256x1x4xf32>) -> tensor<256x1x4xf32>
    %261 = stablehlo.reshape %243 : (tensor<2x4xf32>) -> tensor<1x2x4xf32>
    %262 = stablehlo.dot_general %261, %258, batching_dims = [0] x [1], contracting_dims = [2] x [2] : (tensor<1x2x4xf32>, tensor<256x1x4xf32>) -> tensor<1x2x256xf32>
    %263 = stablehlo.reshape %262 : (tensor<1x2x256xf32>) -> tensor<2x256xf32>
    %264 = stablehlo.broadcast_in_dim %8, dims = [] : (tensor<f32>) -> tensor<2x256xf32>
    %265 = stablehlo.multiply %263, %264 : tensor<2x256xf32>
    %266 = stablehlo.broadcast_in_dim %23, dims = [1] : (tensor<256xf32>) -> tensor<2x256xf32>
    %267 = stablehlo.add %265, %266 : tensor<2x256xf32>
    %268 = stablehlo.reduce(%267 init: %4) applies stablehlo.maximum across dimensions = [1] : (tensor<2x256xf32>, tensor<f32>) -> tensor<2xf32>
    %269 = stablehlo.broadcast_in_dim %268, dims = [0] : (tensor<2xf32>) -> tensor<2x256xf32>
    %270 = stablehlo.subtract %267, %269 : tensor<2x256xf32>
    %271 = stablehlo.exponential %270 : tensor<2x256xf32>
    %272 = stablehlo.reduce(%271 init: %2) applies stablehlo.add across dimensions = [1] : (tensor<2x256xf32>, tensor<f32>) -> tensor<2xf32>
    %273 = stablehlo.broadcast_in_dim %272, dims = [0] : (tensor<2xf32>) -> tensor<2x256xf32>
    %274 = stablehlo.divide %271, %273 : tensor<2x256xf32>
    %275 = stablehlo.reshape %274 : (tensor<2x256xf32>) -> tensor<1x2x256xf32>
    %276 = stablehlo.dot_general %275, %260, batching_dims = [0] x [1], contracting_dims = [2] x [0] : (tensor<1x2x256xf32>, tensor<256x1x4xf32>) -> tensor<1x2x4xf32>
    %277 = stablehlo.reshape %276 : (tensor<1x2x4xf32>) -> tensor<2x4xf32>
    %278 = stablehlo.reshape %277 : (tensor<2x4xf32>) -> tensor<8xf32>
    %279 = stablehlo.dot_general %278, %arg18, contracting_dims = [0] x [1] : (tensor<8xf32>, tensor<8x8xf32>) -> tensor<8xf32>
    %280 = stablehlo.add %192, %279 : tensor<8xf32>
    %281 = stablehlo.multiply %280, %280 : tensor<8xf32>
    %282 = stablehlo.reduce(%281 init: %2) applies stablehlo.add across dimensions = [0] : (tensor<8xf32>, tensor<f32>) -> tensor<f32>
    %283 = stablehlo.divide %282, %7 : tensor<f32>
    %284 = stablehlo.add %283, %6 : tensor<f32>
    %285 = stablehlo.rsqrt %284 : tensor<f32>
    %286 = stablehlo.broadcast_in_dim %285, dims = [] : (tensor<f32>) -> tensor<8xf32>
    %287 = stablehlo.multiply %280, %286 : tensor<8xf32>
    %288 = stablehlo.multiply %287, %arg16 : tensor<8xf32>
    %289 = stablehlo.reshape %288 : (tensor<8xf32>) -> tensor<1x8xf32>
    %290 = stablehlo.dot_general %289, %arg23, contracting_dims = [1] x [1] : (tensor<1x8xf32>, tensor<4x8xf32>) -> tensor<1x4xf32>
    %291 = stablehlo.reduce(%290 init: %4) applies stablehlo.maximum across dimensions = [1] : (tensor<1x4xf32>, tensor<f32>) -> tensor<1xf32>
    %292 = stablehlo.broadcast_in_dim %291, dims = [0] : (tensor<1xf32>) -> tensor<1x4xf32>
    %293 = stablehlo.subtract %290, %292 : tensor<1x4xf32>
    %294 = stablehlo.exponential %293 : tensor<1x4xf32>
    %295 = stablehlo.reduce(%294 init: %2) applies stablehlo.add across dimensions = [1] : (tensor<1x4xf32>, tensor<f32>) -> tensor<1xf32>
    %296 = stablehlo.broadcast_in_dim %295, dims = [0] : (tensor<1xf32>) -> tensor<1x4xf32>
    %297 = stablehlo.divide %294, %296 : tensor<1x4xf32>
    %298 = stablehlo.iota dim = 0 : tensor<4xi32>
    %299 = stablehlo.broadcast_in_dim %298, dims = [1] : (tensor<4xi32>) -> tensor<1x4xi32>
    %300 = stablehlo.broadcast_in_dim %2, dims = [] : (tensor<f32>) -> tensor<1x4xf32>
    %301 = stablehlo.broadcast_in_dim %4, dims = [] : (tensor<f32>) -> tensor<1x4xf32>
    %302 = stablehlo.constant dense<0> : tensor<i32>
    %303 = stablehlo.constant dense<0xFF800000> : tensor<f32>
    %304 = stablehlo.iota dim = 1 : tensor<1x4xi32>
    %305:2 = stablehlo.reduce(%297 init: %303), (%304 init: %302) across dimensions = [1] : (tensor<1x4xf32>, tensor<1x4xi32>, tensor<f32>, tensor<i32>) -> (tensor<1xf32>, tensor<1xi32>)
    reducer(%amv_l: tensor<f32>, %amv_r: tensor<f32>) (%ami_l: tensor<i32>, %ami_r: tensor<i32>) {
      %306 = stablehlo.compare GT, %amv_l, %amv_r, FLOAT : (tensor<f32>, tensor<f32>) -> tensor<i1>
      %307 = stablehlo.compare NE, %amv_l, %amv_l, FLOAT : (tensor<f32>, tensor<f32>) -> tensor<i1>
      %308 = stablehlo.or %306, %307 : tensor<i1>
      %309 = stablehlo.compare EQ, %amv_l, %amv_r, FLOAT : (tensor<f32>, tensor<f32>) -> tensor<i1>
      %310 = stablehlo.compare LT, %ami_l, %ami_r, SIGNED : (tensor<i32>, tensor<i32>) -> tensor<i1>
      %311 = stablehlo.and %309, %310 : tensor<i1>
      %312 = stablehlo.or %308, %311 : tensor<i1>
      %313 = stablehlo.select %308, %amv_l, %amv_r : tensor<i1>, tensor<f32>
      %314 = stablehlo.select %312, %ami_l, %ami_r : tensor<i1>, tensor<i32>
      stablehlo.return %313, %314 : tensor<f32>, tensor<i32>
    }
    %315 = stablehlo.broadcast_in_dim %305#1, dims = [0] : (tensor<1xi32>) -> tensor<1x4xi32>
    %316 = stablehlo.compare EQ, %299, %315, SIGNED : (tensor<1x4xi32>, tensor<1x4xi32>) -> tensor<1x4xi1>
    %317 = stablehlo.select %316, %297, %300 : tensor<1x4xi1>, tensor<1x4xf32>
    %318 = stablehlo.reduce(%317 init: %2) applies stablehlo.add across dimensions = [1] : (tensor<1x4xf32>, tensor<f32>) -> tensor<1xf32>
    %319 = stablehlo.select %316, %301, %297 : tensor<1x4xi1>, tensor<1x4xf32>
    %320 = stablehlo.constant dense<0> : tensor<i32>
    %321 = stablehlo.constant dense<0xFF800000> : tensor<f32>
    %322 = stablehlo.iota dim = 1 : tensor<1x4xi32>
    %323:2 = stablehlo.reduce(%319 init: %321), (%322 init: %320) across dimensions = [1] : (tensor<1x4xf32>, tensor<1x4xi32>, tensor<f32>, tensor<i32>) -> (tensor<1xf32>, tensor<1xi32>)
    reducer(%amv_l: tensor<f32>, %amv_r: tensor<f32>) (%ami_l: tensor<i32>, %ami_r: tensor<i32>) {
      %324 = stablehlo.compare GT, %amv_l, %amv_r, FLOAT : (tensor<f32>, tensor<f32>) -> tensor<i1>
      %325 = stablehlo.compare NE, %amv_l, %amv_l, FLOAT : (tensor<f32>, tensor<f32>) -> tensor<i1>
      %326 = stablehlo.or %324, %325 : tensor<i1>
      %327 = stablehlo.compare EQ, %amv_l, %amv_r, FLOAT : (tensor<f32>, tensor<f32>) -> tensor<i1>
      %328 = stablehlo.compare LT, %ami_l, %ami_r, SIGNED : (tensor<i32>, tensor<i32>) -> tensor<i1>
      %329 = stablehlo.and %327, %328 : tensor<i1>
      %330 = stablehlo.or %326, %329 : tensor<i1>
      %331 = stablehlo.select %326, %amv_l, %amv_r : tensor<i1>, tensor<f32>
      %332 = stablehlo.select %330, %ami_l, %ami_r : tensor<i1>, tensor<i32>
      stablehlo.return %331, %332 : tensor<f32>, tensor<i32>
    }
    %333 = stablehlo.broadcast_in_dim %323#1, dims = [0] : (tensor<1xi32>) -> tensor<1x4xi32>
    %334 = stablehlo.compare EQ, %299, %333, SIGNED : (tensor<1x4xi32>, tensor<1x4xi32>) -> tensor<1x4xi1>
    %335 = stablehlo.select %334, %319, %300 : tensor<1x4xi1>, tensor<1x4xf32>
    %336 = stablehlo.reduce(%335 init: %2) applies stablehlo.add across dimensions = [1] : (tensor<1x4xf32>, tensor<f32>) -> tensor<1xf32>
    %337 = stablehlo.select %334, %301, %319 : tensor<1x4xi1>, tensor<1x4xf32>
    %338 = stablehlo.add %318, %336 : tensor<1xf32>
    %339 = stablehlo.divide %318, %338 : tensor<1xf32>
    %340 = stablehlo.divide %336, %338 : tensor<1xf32>
    %341 = stablehlo.broadcast_in_dim %2, dims = [] : (tensor<f32>) -> tensor<1x4xf32>
    %342 = stablehlo.broadcast_in_dim %339, dims = [0] : (tensor<1xf32>) -> tensor<1x4xf32>
    %343 = stablehlo.select %316, %342, %300 : tensor<1x4xi1>, tensor<1x4xf32>
    %344 = stablehlo.add %341, %343 : tensor<1x4xf32>
    %345 = stablehlo.broadcast_in_dim %340, dims = [0] : (tensor<1xf32>) -> tensor<1x4xf32>
    %346 = stablehlo.select %334, %345, %300 : tensor<1x4xi1>, tensor<1x4xf32>
    %347 = stablehlo.add %344, %346 : tensor<1x4xf32>
    %348 = stablehlo.broadcast_in_dim %289, dims = [1, 2] : (tensor<1x8xf32>) -> tensor<4x1x8xf32>
    %349 = stablehlo.dot_general %348, %arg24, batching_dims = [0] x [0], contracting_dims = [2] x [2] : (tensor<4x1x8xf32>, tensor<4x12x8xf32>) -> tensor<4x1x12xf32>
    %350 = stablehlo.dot_general %348, %arg25, batching_dims = [0] x [0], contracting_dims = [2] x [2] : (tensor<4x1x8xf32>, tensor<4x12x8xf32>) -> tensor<4x1x12xf32>
    %351 = stablehlo.broadcast_in_dim %3, dims = [] : (tensor<f32>) -> tensor<4x1x12xf32>
    %352 = stablehlo.negate %349 : tensor<4x1x12xf32>
    %353 = stablehlo.exponential %352 : tensor<4x1x12xf32>
    %354 = stablehlo.add %351, %353 : tensor<4x1x12xf32>
    %355 = stablehlo.divide %351, %354 : tensor<4x1x12xf32>
    %356 = stablehlo.multiply %349, %355 : tensor<4x1x12xf32>
    %357 = stablehlo.multiply %356, %350 : tensor<4x1x12xf32>
    %358 = stablehlo.dot_general %357, %arg26, batching_dims = [0] x [0], contracting_dims = [2] x [2] : (tensor<4x1x12xf32>, tensor<4x8x12xf32>) -> tensor<4x1x8xf32>
    %359 = stablehlo.dot_general %347, %358, batching_dims = [0] x [1], contracting_dims = [1] x [0] : (tensor<1x4xf32>, tensor<4x1x8xf32>) -> tensor<1x8xf32>
    %360 = stablehlo.reshape %359 : (tensor<1x8xf32>) -> tensor<8xf32>
    %361 = stablehlo.add %280, %360 : tensor<8xf32>
    %362 = stablehlo.multiply %361, %361 : tensor<8xf32>
    %363 = stablehlo.reduce(%362 init: %2) applies stablehlo.add across dimensions = [0] : (tensor<8xf32>, tensor<f32>) -> tensor<f32>
    %364 = stablehlo.divide %363, %7 : tensor<f32>
    %365 = stablehlo.add %364, %6 : tensor<f32>
    %366 = stablehlo.rsqrt %365 : tensor<f32>
    %367 = stablehlo.broadcast_in_dim %366, dims = [] : (tensor<f32>) -> tensor<8xf32>
    %368 = stablehlo.multiply %361, %367 : tensor<8xf32>
    %369 = stablehlo.multiply %368, %arg1 : tensor<8xf32>
    %370 = stablehlo.dot_general %369, %arg2, contracting_dims = [0] x [1] : (tensor<8xf32>, tensor<10x8xf32>) -> tensor<10xf32>
    %371 = stablehlo.constant dense<0> : tensor<i32>
    %372 = stablehlo.constant dense<0xFF800000> : tensor<f32>
    %373 = stablehlo.iota dim = 0 : tensor<10xi32>
    %374:2 = stablehlo.reduce(%370 init: %372), (%373 init: %371) across dimensions = [0] : (tensor<10xf32>, tensor<10xi32>, tensor<f32>, tensor<i32>) -> (tensor<f32>, tensor<i32>)
    reducer(%amv_l: tensor<f32>, %amv_r: tensor<f32>) (%ami_l: tensor<i32>, %ami_r: tensor<i32>) {
      %375 = stablehlo.compare GT, %amv_l, %amv_r, FLOAT : (tensor<f32>, tensor<f32>) -> tensor<i1>
      %376 = stablehlo.compare NE, %amv_l, %amv_l, FLOAT : (tensor<f32>, tensor<f32>) -> tensor<i1>
      %377 = stablehlo.or %375, %376 : tensor<i1>
      %378 = stablehlo.compare EQ, %amv_l, %amv_r, FLOAT : (tensor<f32>, tensor<f32>) -> tensor<i1>
      %379 = stablehlo.compare LT, %ami_l, %ami_r, SIGNED : (tensor<i32>, tensor<i32>) -> tensor<i1>
      %380 = stablehlo.and %378, %379 : tensor<i1>
      %381 = stablehlo.or %377, %380 : tensor<i1>
      %382 = stablehlo.select %377, %amv_l, %amv_r : tensor<i1>, tensor<f32>
      %383 = stablehlo.select %381, %ami_l, %ami_r : tensor<i1>, tensor<i32>
      stablehlo.return %382, %383 : tensor<f32>, tensor<i32>
    }
    return %374#1, %254, %256 : tensor<i32>, tensor<2x256x1x4xf32>, tensor<2x256x1x4xf32>
  }
}
