module @decode_step {
  func.func public @main(%arg0: tensor<10x8xf32> loc("params['embed']"), %arg1: tensor<8xf32> loc("params['final_norm']"), %arg2: tensor<10x8xf32> loc("params['lm_head']"), %arg3: tensor<8xf32> loc("params['layers'][0]['in_ln']"), %arg4: tensor<8xf32> loc("params['layers'][0]['post_ln']"), %arg5: tensor<4x8xf32> loc("params['layers'][0]['wk']"), %arg6: tensor<8x8xf32> loc("params['layers'][0]['wo']"), %arg7: tensor<8x8xf32> loc("params['layers'][0]['wq']"), %arg8: tensor<4x8xf32> loc("params['layers'][0]['wv']"), %arg9: tensor<8xf32> loc("params['layers'][0]['q_norm']"), %arg10: tensor<4xf32> loc("params['layers'][0]['k_norm']"), %arg11: tensor<4x8xf32> loc("params['layers'][0]['moe_router']"), %arg12: tensor<4x12x8xf32> loc("params['layers'][0]['moe_gate']"), %arg13: tensor<4x12x8xf32> loc("params['layers'][0]['moe_up']"), %arg14: tensor<4x8x12xf32> loc("params['layers'][0]['moe_down']"), %arg15: tensor<8xf32> loc("params['layers'][1]['in_ln']"), %arg16: tensor<8xf32> loc("params['layers'][1]['post_ln']"), %arg17: tensor<4x8xf32> loc("params['layers'][1]['wk']"), %arg18: tensor<8x8xf32> loc("params['layers'][1]['wo']"), %arg19: tensor<8x8xf32> loc("params['layers'][1]['wq']"), %arg20: tensor<4x8xf32> loc("params['layers'][1]['wv']"), %arg21: tensor<8xf32> loc("params['layers'][1]['q_norm']"), %arg22: tensor<4xf32> loc("params['layers'][1]['k_norm']"), %arg23: tensor<4x8xf32> loc("params['layers'][1]['moe_router']"), %arg24: tensor<4x12x8xf32> loc("params['layers'][1]['moe_gate']"), %arg25: tensor<4x12x8xf32> loc("params['layers'][1]['moe_up']"), %arg26: tensor<4x8x12xf32> loc("params['layers'][1]['moe_down']"), %arg27: tensor<4xi32> loc("token"), %arg28: tensor<4xi32> loc("pos"), %arg29: tensor<4xi32> loc("cache_len"), %arg30: tensor<4x2x256x1x4xf32> loc("kcache"), %arg31: tensor<4x2x256x1x4xf32> loc("vcache")) -> (tensor<4x10xf32>, tensor<4x2x256x1x4xf32>, tensor<4x2x256x1x4xf32>) {
    %0 = stablehlo.constant dense<"…"> : tensor<256x4xf32>
    %1 = stablehlo.constant dense<"…"> : tensor<256x4xf32>
    %2 = stablehlo.constant dense<0x00000000> : tensor<f32>
    %3 = stablehlo.constant dense<0x3F800000> : tensor<f32>
    %4 = stablehlo.constant dense<0xFF800000> : tensor<f32>
    %5 = stablehlo.constant dense<0xF149F2CA> : tensor<f32>
    %6 = stablehlo.constant dense<0x358637BD> : tensor<f32>
    %7 = stablehlo.constant dense<0x41000000> : tensor<f32>
    %8 = stablehlo.constant dense<0x3F000000> : tensor<f32>
    %9 = stablehlo.constant dense<0> : tensor<i32>
    %10 = stablehlo.constant dense<0> : tensor<i32>
    %11 = stablehlo.constant dense<1> : tensor<i32>
    %12 = stablehlo.constant dense<0> : tensor<i32>
    %13 = stablehlo.constant dense<1> : tensor<i32>
    %14 = stablehlo.constant dense<2> : tensor<i32>
    %15 = stablehlo.constant dense<3> : tensor<i32>
    %16 = stablehlo.reshape %arg27 : (tensor<4xi32>) -> tensor<4x1xi32>
    %17 = "stablehlo.gather"(%arg0, %16) <{dimension_numbers = #stablehlo.gather<offset_dims = [1], collapsed_slice_dims = [0], start_index_map = [0], index_vector_dim = 1>, slice_sizes = array<i64: 1, 8>}> : (tensor<10x8xf32>, tensor<4x1xi32>) -> tensor<4x8xf32>
    %18 = stablehlo.reshape %arg28 : (tensor<4xi32>) -> tensor<4x1xi32>
    %19 = "stablehlo.gather"(%0, %18) <{dimension_numbers = #stablehlo.gather<offset_dims = [1], collapsed_slice_dims = [0], start_index_map = [0], index_vector_dim = 1>, slice_sizes = array<i64: 1, 4>}> : (tensor<256x4xf32>, tensor<4x1xi32>) -> tensor<4x4xf32>
    %20 = "stablehlo.gather"(%1, %18) <{dimension_numbers = #stablehlo.gather<offset_dims = [1], collapsed_slice_dims = [0], start_index_map = [0], index_vector_dim = 1>, slice_sizes = array<i64: 1, 4>}> : (tensor<256x4xf32>, tensor<4x1xi32>) -> tensor<4x4xf32>
    %21 = stablehlo.iota dim = 0 : tensor<256xi32>
    %22 = stablehlo.broadcast_in_dim %21, dims = [1] : (tensor<256xi32>) -> tensor<4x256xi32>
    %23 = stablehlo.broadcast_in_dim %arg29, dims = [0] : (tensor<4xi32>) -> tensor<4x256xi32>
    %24 = stablehlo.compare LE, %22, %23, SIGNED : (tensor<4x256xi32>, tensor<4x256xi32>) -> tensor<4x256xi1>
    %25 = stablehlo.broadcast_in_dim %2, dims = [] : (tensor<f32>) -> tensor<4x256xf32>
    %26 = stablehlo.broadcast_in_dim %5, dims = [] : (tensor<f32>) -> tensor<4x256xf32>
    %27 = stablehlo.select %24, %25, %26 : tensor<4x256xi1>, tensor<4x256xf32>
    %28 = stablehlo.multiply %17, %17 : tensor<4x8xf32>
    %29 = stablehlo.reduce(%28 init: %2) applies stablehlo.add across dimensions = [1] : (tensor<4x8xf32>, tensor<f32>) -> tensor<4xf32>
    %30 = stablehlo.broadcast_in_dim %7, dims = [] : (tensor<f32>) -> tensor<4xf32>
    %31 = stablehlo.divide %29, %30 : tensor<4xf32>
    %32 = stablehlo.broadcast_in_dim %6, dims = [] : (tensor<f32>) -> tensor<4xf32>
    %33 = stablehlo.add %31, %32 : tensor<4xf32>
    %34 = stablehlo.rsqrt %33 : tensor<4xf32>
    %35 = stablehlo.broadcast_in_dim %34, dims = [0] : (tensor<4xf32>) -> tensor<4x8xf32>
    %36 = stablehlo.multiply %17, %35 : tensor<4x8xf32>
    %37 = stablehlo.broadcast_in_dim %arg3, dims = [1] : (tensor<8xf32>) -> tensor<4x8xf32>
    %38 = stablehlo.multiply %36, %37 : tensor<4x8xf32>
    %39 = stablehlo.dot_general %38, %arg7, contracting_dims = [1] x [1] : (tensor<4x8xf32>, tensor<8x8xf32>) -> tensor<4x8xf32>
    %40 = stablehlo.reshape %39 : (tensor<4x8xf32>) -> tensor<4x2x4xf32>
    %41 = stablehlo.dot_general %38, %arg5, contracting_dims = [1] x [1] : (tensor<4x8xf32>, tensor<4x8xf32>) -> tensor<4x4xf32>
    %42 = stablehlo.reshape %41 : (tensor<4x4xf32>) -> tensor<4x1x4xf32>
    %43 = stablehlo.dot_general %38, %arg8, contracting_dims = [1] x [1] : (tensor<4x8xf32>, tensor<4x8xf32>) -> tensor<4x4xf32>
    %44 = stablehlo.reshape %43 : (tensor<4x4xf32>) -> tensor<4x1x4xf32>
    %45 = stablehlo.reshape %40 : (tensor<4x2x4xf32>) -> tensor<4x8xf32>
    %46 = stablehlo.constant dense<0x41000000> : tensor<f32>
    %47 = stablehlo.multiply %45, %45 : tensor<4x8xf32>
    %48 = stablehlo.reduce(%47 init: %2) applies stablehlo.add across dimensions = [1] : (tensor<4x8xf32>, tensor<f32>) -> tensor<4xf32>
    %49 = stablehlo.broadcast_in_dim %46, dims = [] : (tensor<f32>) -> tensor<4xf32>
    %50 = stablehlo.divide %48, %49 : tensor<4xf32>
    %51 = stablehlo.broadcast_in_dim %6, dims = [] : (tensor<f32>) -> tensor<4xf32>
    %52 = stablehlo.add %50, %51 : tensor<4xf32>
    %53 = stablehlo.rsqrt %52 : tensor<4xf32>
    %54 = stablehlo.broadcast_in_dim %53, dims = [0] : (tensor<4xf32>) -> tensor<4x8xf32>
    %55 = stablehlo.multiply %45, %54 : tensor<4x8xf32>
    %56 = stablehlo.broadcast_in_dim %arg9, dims = [1] : (tensor<8xf32>) -> tensor<4x8xf32>
    %57 = stablehlo.multiply %55, %56 : tensor<4x8xf32>
    %58 = stablehlo.reshape %57 : (tensor<4x8xf32>) -> tensor<4x2x4xf32>
    %59 = stablehlo.reshape %42 : (tensor<4x1x4xf32>) -> tensor<4x4xf32>
    %60 = stablehlo.constant dense<0x40800000> : tensor<f32>
    %61 = stablehlo.multiply %59, %59 : tensor<4x4xf32>
    %62 = stablehlo.reduce(%61 init: %2) applies stablehlo.add across dimensions = [1] : (tensor<4x4xf32>, tensor<f32>) -> tensor<4xf32>
    %63 = stablehlo.broadcast_in_dim %60, dims = [] : (tensor<f32>) -> tensor<4xf32>
    %64 = stablehlo.divide %62, %63 : tensor<4xf32>
    %65 = stablehlo.broadcast_in_dim %6, dims = [] : (tensor<f32>) -> tensor<4xf32>
    %66 = stablehlo.add %64, %65 : tensor<4xf32>
    %67 = stablehlo.rsqrt %66 : tensor<4xf32>
    %68 = stablehlo.broadcast_in_dim %67, dims = [0] : (tensor<4xf32>) -> tensor<4x4xf32>
    %69 = stablehlo.multiply %59, %68 : tensor<4x4xf32>
    %70 = stablehlo.broadcast_in_dim %arg10, dims = [1] : (tensor<4xf32>) -> tensor<4x4xf32>
    %71 = stablehlo.multiply %69, %70 : tensor<4x4xf32>
    %72 = stablehlo.reshape %71 : (tensor<4x4xf32>) -> tensor<4x1x4xf32>
    %73 = stablehlo.broadcast_in_dim %19, dims = [0, 2] : (tensor<4x4xf32>) -> tensor<4x2x4xf32>
    %74 = stablehlo.broadcast_in_dim %20, dims = [0, 2] : (tensor<4x4xf32>) -> tensor<4x2x4xf32>
    %75 = stablehlo.multiply %58, %73 : tensor<4x2x4xf32>
    %76 = stablehlo.slice %58 [0:4, 0:2, 0:2] : (tensor<4x2x4xf32>) -> tensor<4x2x2xf32>
    %77 = stablehlo.slice %58 [0:4, 0:2, 2:4] : (tensor<4x2x4xf32>) -> tensor<4x2x2xf32>
    %78 = stablehlo.negate %77 : tensor<4x2x2xf32>
    %79 = stablehlo.concatenate %78, %76, dim = 2 : (tensor<4x2x2xf32>, tensor<4x2x2xf32>) -> tensor<4x2x4xf32>
    %80 = stablehlo.multiply %79, %74 : tensor<4x2x4xf32>
    %81 = stablehlo.add %75, %80 : tensor<4x2x4xf32>
    %82 = stablehlo.broadcast_in_dim %19, dims = [0, 2] : (tensor<4x4xf32>) -> tensor<4x1x4xf32>
    %83 = stablehlo.broadcast_in_dim %20, dims = [0, 2] : (tensor<4x4xf32>) -> tensor<4x1x4xf32>
    %84 = stablehlo.multiply %72, %82 : tensor<4x1x4xf32>
    %85 = stablehlo.slice %72 [0:4, 0:1, 0:2] : (tensor<4x1x4xf32>) -> tensor<4x1x2xf32>
    %86 = stablehlo.slice %72 [0:4, 0:1, 2:4] : (tensor<4x1x4xf32>) -> tensor<4x1x2xf32>
    %87 = stablehlo.negate %86 : tensor<4x1x2xf32>
    %88 = stablehlo.concatenate %87, %85, dim = 2 : (tensor<4x1x2xf32>, tensor<4x1x2xf32>) -> tensor<4x1x4xf32>
    %89 = stablehlo.multiply %88, %83 : tensor<4x1x4xf32>
    %90 = stablehlo.add %84, %89 : tensor<4x1x4xf32>
    %91 = stablehlo.slice %arg28 [0:1] : (tensor<4xi32>) -> tensor<1xi32>
    %92 = stablehlo.reshape %91 : (tensor<1xi32>) -> tensor<i32>
    %93 = stablehlo.slice %90 [0:1, 0:1, 0:4] : (tensor<4x1x4xf32>) -> tensor<1x1x4xf32>
    %94 = stablehlo.reshape %93 : (tensor<1x1x4xf32>) -> tensor<1x1x1x1x4xf32>
    %95 = stablehlo.dynamic_update_slice %arg30, %94, %12, %10, %92, %9, %9 : (tensor<4x2x256x1x4xf32>, tensor<1x1x1x1x4xf32>, tensor<i32>, tensor<i32>, tensor<i32>, tensor<i32>, tensor<i32>) -> tensor<4x2x256x1x4xf32>
    %96 = stablehlo.slice %44 [0:1, 0:1, 0:4] : (tensor<4x1x4xf32>) -> tensor<1x1x4xf32>
    %97 = stablehlo.reshape %96 : (tensor<1x1x4xf32>) -> tensor<1x1x1x1x4xf32>
    %98 = stablehlo.dynamic_update_slice %arg31, %97, %12, %10, %92, %9, %9 : (tensor<4x2x256x1x4xf32>, tensor<1x1x1x1x4xf32>, tensor<i32>, tensor<i32>, tensor<i32>, tensor<i32>, tensor<i32>) -> tensor<4x2x256x1x4xf32>
    %99 = stablehlo.slice %arg28 [1:2] : (tensor<4xi32>) -> tensor<1xi32>
    %100 = stablehlo.reshape %99 : (tensor<1xi32>) -> tensor<i32>
    %101 = stablehlo.slice %90 [1:2, 0:1, 0:4] : (tensor<4x1x4xf32>) -> tensor<1x1x4xf32>
    %102 = stablehlo.reshape %101 : (tensor<1x1x4xf32>) -> tensor<1x1x1x1x4xf32>
    %103 = stablehlo.dynamic_update_slice %95, %102, %13, %10, %100, %9, %9 : (tensor<4x2x256x1x4xf32>, tensor<1x1x1x1x4xf32>, tensor<i32>, tensor<i32>, tensor<i32>, tensor<i32>, tensor<i32>) -> tensor<4x2x256x1x4xf32>
    %104 = stablehlo.slice %44 [1:2, 0:1, 0:4] : (tensor<4x1x4xf32>) -> tensor<1x1x4xf32>
    %105 = stablehlo.reshape %104 : (tensor<1x1x4xf32>) -> tensor<1x1x1x1x4xf32>
    %106 = stablehlo.dynamic_update_slice %98, %105, %13, %10, %100, %9, %9 : (tensor<4x2x256x1x4xf32>, tensor<1x1x1x1x4xf32>, tensor<i32>, tensor<i32>, tensor<i32>, tensor<i32>, tensor<i32>) -> tensor<4x2x256x1x4xf32>
    %107 = stablehlo.slice %arg28 [2:3] : (tensor<4xi32>) -> tensor<1xi32>
    %108 = stablehlo.reshape %107 : (tensor<1xi32>) -> tensor<i32>
    %109 = stablehlo.slice %90 [2:3, 0:1, 0:4] : (tensor<4x1x4xf32>) -> tensor<1x1x4xf32>
    %110 = stablehlo.reshape %109 : (tensor<1x1x4xf32>) -> tensor<1x1x1x1x4xf32>
    %111 = stablehlo.dynamic_update_slice %103, %110, %14, %10, %108, %9, %9 : (tensor<4x2x256x1x4xf32>, tensor<1x1x1x1x4xf32>, tensor<i32>, tensor<i32>, tensor<i32>, tensor<i32>, tensor<i32>) -> tensor<4x2x256x1x4xf32>
    %112 = stablehlo.slice %44 [2:3, 0:1, 0:4] : (tensor<4x1x4xf32>) -> tensor<1x1x4xf32>
    %113 = stablehlo.reshape %112 : (tensor<1x1x4xf32>) -> tensor<1x1x1x1x4xf32>
    %114 = stablehlo.dynamic_update_slice %106, %113, %14, %10, %108, %9, %9 : (tensor<4x2x256x1x4xf32>, tensor<1x1x1x1x4xf32>, tensor<i32>, tensor<i32>, tensor<i32>, tensor<i32>, tensor<i32>) -> tensor<4x2x256x1x4xf32>
    %115 = stablehlo.slice %arg28 [3:4] : (tensor<4xi32>) -> tensor<1xi32>
    %116 = stablehlo.reshape %115 : (tensor<1xi32>) -> tensor<i32>
    %117 = stablehlo.slice %90 [3:4, 0:1, 0:4] : (tensor<4x1x4xf32>) -> tensor<1x1x4xf32>
    %118 = stablehlo.reshape %117 : (tensor<1x1x4xf32>) -> tensor<1x1x1x1x4xf32>
    %119 = stablehlo.dynamic_update_slice %111, %118, %15, %10, %116, %9, %9 : (tensor<4x2x256x1x4xf32>, tensor<1x1x1x1x4xf32>, tensor<i32>, tensor<i32>, tensor<i32>, tensor<i32>, tensor<i32>) -> tensor<4x2x256x1x4xf32>
    %120 = stablehlo.slice %44 [3:4, 0:1, 0:4] : (tensor<4x1x4xf32>) -> tensor<1x1x4xf32>
    %121 = stablehlo.reshape %120 : (tensor<1x1x4xf32>) -> tensor<1x1x1x1x4xf32>
    %122 = stablehlo.dynamic_update_slice %114, %121, %15, %10, %116, %9, %9 : (tensor<4x2x256x1x4xf32>, tensor<1x1x1x1x4xf32>, tensor<i32>, tensor<i32>, tensor<i32>, tensor<i32>, tensor<i32>) -> tensor<4x2x256x1x4xf32>
    %123 = stablehlo.slice %119 [0:4, 0:1, 0:256, 0:1, 0:4] : (tensor<4x2x256x1x4xf32>) -> tensor<4x1x256x1x4xf32>
    %124 = stablehlo.reshape %123 : (tensor<4x1x256x1x4xf32>) -> tensor<4x256x1x4xf32>
    %125 = stablehlo.slice %122 [0:4, 0:1, 0:256, 0:1, 0:4] : (tensor<4x2x256x1x4xf32>) -> tensor<4x1x256x1x4xf32>
    %126 = stablehlo.reshape %125 : (tensor<4x1x256x1x4xf32>) -> tensor<4x256x1x4xf32>
    %127 = stablehlo.reshape %81 : (tensor<4x2x4xf32>) -> tensor<4x1x2x4xf32>
    %128 = stablehlo.dot_general %127, %124, batching_dims = [0, 1] x [0, 2], contracting_dims = [3] x [3] : (tensor<4x1x2x4xf32>, tensor<4x256x1x4xf32>) -> tensor<4x1x2x256xf32>
    %129 = stablehlo.reshape %128 : (tensor<4x1x2x256xf32>) -> tensor<4x2x256xf32>
    %130 = stablehlo.broadcast_in_dim %8, dims = [] : (tensor<f32>) -> tensor<4x2x256xf32>
    %131 = stablehlo.multiply %129, %130 : tensor<4x2x256xf32>
    %132 = stablehlo.broadcast_in_dim %27, dims = [0, 2] : (tensor<4x256xf32>) -> tensor<4x2x256xf32>
    %133 = stablehlo.add %131, %132 : tensor<4x2x256xf32>
    %134 = stablehlo.reduce(%133 init: %4) applies stablehlo.maximum across dimensions = [2] : (tensor<4x2x256xf32>, tensor<f32>) -> tensor<4x2xf32>
    %135 = stablehlo.broadcast_in_dim %134, dims = [0, 1] : (tensor<4x2xf32>) -> tensor<4x2x256xf32>
    %136 = stablehlo.subtract %133, %135 : tensor<4x2x256xf32>
    %137 = stablehlo.exponential %136 : tensor<4x2x256xf32>
    %138 = stablehlo.reduce(%137 init: %2) applies stablehlo.add across dimensions = [2] : (tensor<4x2x256xf32>, tensor<f32>) -> tensor<4x2xf32>
    %139 = stablehlo.broadcast_in_dim %138, dims = [0, 1] : (tensor<4x2xf32>) -> tensor<4x2x256xf32>
    %140 = stablehlo.divide %137, %139 : tensor<4x2x256xf32>
    %141 = stablehlo.reshape %140 : (tensor<4x2x256xf32>) -> tensor<4x1x2x256xf32>
    %142 = stablehlo.dot_general %141, %126, batching_dims = [0, 1] x [0, 2], contracting_dims = [3] x [1] : (tensor<4x1x2x256xf32>, tensor<4x256x1x4xf32>) -> tensor<4x1x2x4xf32>
    %143 = stablehlo.reshape %142 : (tensor<4x1x2x4xf32>) -> tensor<4x2x4xf32>
    %144 = stablehlo.reshape %143 : (tensor<4x2x4xf32>) -> tensor<4x8xf32>
    %145 = stablehlo.dot_general %144, %arg6, contracting_dims = [1] x [1] : (tensor<4x8xf32>, tensor<8x8xf32>) -> tensor<4x8xf32>
    %146 = stablehlo.add %17, %145 : tensor<4x8xf32>
    %147 = stablehlo.multiply %146, %146 : tensor<4x8xf32>
    %148 = stablehlo.reduce(%147 init: %2) applies stablehlo.add across dimensions = [1] : (tensor<4x8xf32>, tensor<f32>) -> tensor<4xf32>
    %149 = stablehlo.broadcast_in_dim %7, dims = [] : (tensor<f32>) -> tensor<4xf32>
    %150 = stablehlo.divide %148, %149 : tensor<4xf32>
    %151 = stablehlo.broadcast_in_dim %6, dims = [] : (tensor<f32>) -> tensor<4xf32>
    %152 = stablehlo.add %150, %151 : tensor<4xf32>
    %153 = stablehlo.rsqrt %152 : tensor<4xf32>
    %154 = stablehlo.broadcast_in_dim %153, dims = [0] : (tensor<4xf32>) -> tensor<4x8xf32>
    %155 = stablehlo.multiply %146, %154 : tensor<4x8xf32>
    %156 = stablehlo.broadcast_in_dim %arg4, dims = [1] : (tensor<8xf32>) -> tensor<4x8xf32>
    %157 = stablehlo.multiply %155, %156 : tensor<4x8xf32>
    %158 = stablehlo.dot_general %157, %arg11, contracting_dims = [1] x [1] : (tensor<4x8xf32>, tensor<4x8xf32>) -> tensor<4x4xf32>
    %159 = stablehlo.reduce(%158 init: %4) applies stablehlo.maximum across dimensions = [1] : (tensor<4x4xf32>, tensor<f32>) -> tensor<4xf32>
    %160 = stablehlo.broadcast_in_dim %159, dims = [0] : (tensor<4xf32>) -> tensor<4x4xf32>
    %161 = stablehlo.subtract %158, %160 : tensor<4x4xf32>
    %162 = stablehlo.exponential %161 : tensor<4x4xf32>
    %163 = stablehlo.reduce(%162 init: %2) applies stablehlo.add across dimensions = [1] : (tensor<4x4xf32>, tensor<f32>) -> tensor<4xf32>
    %164 = stablehlo.broadcast_in_dim %163, dims = [0] : (tensor<4xf32>) -> tensor<4x4xf32>
    %165 = stablehlo.divide %162, %164 : tensor<4x4xf32>
    %166 = stablehlo.iota dim = 0 : tensor<4xi32>
    %167 = stablehlo.broadcast_in_dim %166, dims = [1] : (tensor<4xi32>) -> tensor<4x4xi32>
    %168 = stablehlo.broadcast_in_dim %2, dims = [] : (tensor<f32>) -> tensor<4x4xf32>
    %169 = stablehlo.broadcast_in_dim %4, dims = [] : (tensor<f32>) -> tensor<4x4xf32>
    %170 = stablehlo.constant dense<0> : tensor<i32>
    %171 = stablehlo.constant dense<0xFF800000> : tensor<f32>
    %172 = stablehlo.iota dim = 1 : tensor<4x4xi32>
    %173:2 = stablehlo.reduce(%165 init: %171), (%172 init: %170) across dimensions = [1] : (tensor<4x4xf32>, tensor<4x4xi32>, tensor<f32>, tensor<i32>) -> (tensor<4xf32>, tensor<4xi32>)
    reducer(%amv_l: tensor<f32>, %amv_r: tensor<f32>) (%ami_l: tensor<i32>, %ami_r: tensor<i32>) {
      %174 = stablehlo.compare GT, %amv_l, %amv_r, FLOAT : (tensor<f32>, tensor<f32>) -> tensor<i1>
      %175 = stablehlo.compare NE, %amv_l, %amv_l, FLOAT : (tensor<f32>, tensor<f32>) -> tensor<i1>
      %176 = stablehlo.or %174, %175 : tensor<i1>
      %177 = stablehlo.compare EQ, %amv_l, %amv_r, FLOAT : (tensor<f32>, tensor<f32>) -> tensor<i1>
      %178 = stablehlo.compare LT, %ami_l, %ami_r, SIGNED : (tensor<i32>, tensor<i32>) -> tensor<i1>
      %179 = stablehlo.and %177, %178 : tensor<i1>
      %180 = stablehlo.or %176, %179 : tensor<i1>
      %181 = stablehlo.select %176, %amv_l, %amv_r : tensor<i1>, tensor<f32>
      %182 = stablehlo.select %180, %ami_l, %ami_r : tensor<i1>, tensor<i32>
      stablehlo.return %181, %182 : tensor<f32>, tensor<i32>
    }
    %183 = stablehlo.broadcast_in_dim %173#1, dims = [0] : (tensor<4xi32>) -> tensor<4x4xi32>
    %184 = stablehlo.compare EQ, %167, %183, SIGNED : (tensor<4x4xi32>, tensor<4x4xi32>) -> tensor<4x4xi1>
    %185 = stablehlo.select %184, %165, %168 : tensor<4x4xi1>, tensor<4x4xf32>
    %186 = stablehlo.reduce(%185 init: %2) applies stablehlo.add across dimensions = [1] : (tensor<4x4xf32>, tensor<f32>) -> tensor<4xf32>
    %187 = stablehlo.select %184, %169, %165 : tensor<4x4xi1>, tensor<4x4xf32>
    %188 = stablehlo.constant dense<0> : tensor<i32>
    %189 = stablehlo.constant dense<0xFF800000> : tensor<f32>
    %190 = stablehlo.iota dim = 1 : tensor<4x4xi32>
    %191:2 = stablehlo.reduce(%187 init: %189), (%190 init: %188) across dimensions = [1] : (tensor<4x4xf32>, tensor<4x4xi32>, tensor<f32>, tensor<i32>) -> (tensor<4xf32>, tensor<4xi32>)
    reducer(%amv_l: tensor<f32>, %amv_r: tensor<f32>) (%ami_l: tensor<i32>, %ami_r: tensor<i32>) {
      %192 = stablehlo.compare GT, %amv_l, %amv_r, FLOAT : (tensor<f32>, tensor<f32>) -> tensor<i1>
      %193 = stablehlo.compare NE, %amv_l, %amv_l, FLOAT : (tensor<f32>, tensor<f32>) -> tensor<i1>
      %194 = stablehlo.or %192, %193 : tensor<i1>
      %195 = stablehlo.compare EQ, %amv_l, %amv_r, FLOAT : (tensor<f32>, tensor<f32>) -> tensor<i1>
      %196 = stablehlo.compare LT, %ami_l, %ami_r, SIGNED : (tensor<i32>, tensor<i32>) -> tensor<i1>
      %197 = stablehlo.and %195, %196 : tensor<i1>
      %198 = stablehlo.or %194, %197 : tensor<i1>
      %199 = stablehlo.select %194, %amv_l, %amv_r : tensor<i1>, tensor<f32>
      %200 = stablehlo.select %198, %ami_l, %ami_r : tensor<i1>, tensor<i32>
      stablehlo.return %199, %200 : tensor<f32>, tensor<i32>
    }
    %201 = stablehlo.broadcast_in_dim %191#1, dims = [0] : (tensor<4xi32>) -> tensor<4x4xi32>
    %202 = stablehlo.compare EQ, %167, %201, SIGNED : (tensor<4x4xi32>, tensor<4x4xi32>) -> tensor<4x4xi1>
    %203 = stablehlo.select %202, %187, %168 : tensor<4x4xi1>, tensor<4x4xf32>
    %204 = stablehlo.reduce(%203 init: %2) applies stablehlo.add across dimensions = [1] : (tensor<4x4xf32>, tensor<f32>) -> tensor<4xf32>
    %205 = stablehlo.select %202, %169, %187 : tensor<4x4xi1>, tensor<4x4xf32>
    %206 = stablehlo.add %186, %204 : tensor<4xf32>
    %207 = stablehlo.divide %186, %206 : tensor<4xf32>
    %208 = stablehlo.divide %204, %206 : tensor<4xf32>
    %209 = stablehlo.broadcast_in_dim %2, dims = [] : (tensor<f32>) -> tensor<4x4xf32>
    %210 = stablehlo.broadcast_in_dim %207, dims = [0] : (tensor<4xf32>) -> tensor<4x4xf32>
    %211 = stablehlo.select %184, %210, %168 : tensor<4x4xi1>, tensor<4x4xf32>
    %212 = stablehlo.add %209, %211 : tensor<4x4xf32>
    %213 = stablehlo.broadcast_in_dim %208, dims = [0] : (tensor<4xf32>) -> tensor<4x4xf32>
    %214 = stablehlo.select %202, %213, %168 : tensor<4x4xi1>, tensor<4x4xf32>
    %215 = stablehlo.add %212, %214 : tensor<4x4xf32>
    %216 = stablehlo.broadcast_in_dim %157, dims = [1, 2] : (tensor<4x8xf32>) -> tensor<4x4x8xf32>
    %217 = stablehlo.dot_general %216, %arg12, batching_dims = [0] x [0], contracting_dims = [2] x [2] : (tensor<4x4x8xf32>, tensor<4x12x8xf32>) -> tensor<4x4x12xf32>
    %218 = stablehlo.dot_general %216, %arg13, batching_dims = [0] x [0], contracting_dims = [2] x [2] : (tensor<4x4x8xf32>, tensor<4x12x8xf32>) -> tensor<4x4x12xf32>
    %219 = stablehlo.broadcast_in_dim %3, dims = [] : (tensor<f32>) -> tensor<4x4x12xf32>
    %220 = stablehlo.negate %217 : tensor<4x4x12xf32>
    %221 = stablehlo.exponential %220 : tensor<4x4x12xf32>
    %222 = stablehlo.add %219, %221 : tensor<4x4x12xf32>
    %223 = stablehlo.divide %219, %222 : tensor<4x4x12xf32>
    %224 = stablehlo.multiply %217, %223 : tensor<4x4x12xf32>
    %225 = stablehlo.multiply %224, %218 : tensor<4x4x12xf32>
    %226 = stablehlo.dot_general %225, %arg14, batching_dims = [0] x [0], contracting_dims = [2] x [2] : (tensor<4x4x12xf32>, tensor<4x8x12xf32>) -> tensor<4x4x8xf32>
    %227 = stablehlo.dot_general %215, %226, batching_dims = [0] x [1], contracting_dims = [1] x [0] : (tensor<4x4xf32>, tensor<4x4x8xf32>) -> tensor<4x8xf32>
    %228 = stablehlo.add %146, %227 : tensor<4x8xf32>
    %229 = stablehlo.multiply %228, %228 : tensor<4x8xf32>
    %230 = stablehlo.reduce(%229 init: %2) applies stablehlo.add across dimensions = [1] : (tensor<4x8xf32>, tensor<f32>) -> tensor<4xf32>
    %231 = stablehlo.broadcast_in_dim %7, dims = [] : (tensor<f32>) -> tensor<4xf32>
    %232 = stablehlo.divide %230, %231 : tensor<4xf32>
    %233 = stablehlo.broadcast_in_dim %6, dims = [] : (tensor<f32>) -> tensor<4xf32>
    %234 = stablehlo.add %232, %233 : tensor<4xf32>
    %235 = stablehlo.rsqrt %234 : tensor<4xf32>
    %236 = stablehlo.broadcast_in_dim %235, dims = [0] : (tensor<4xf32>) -> tensor<4x8xf32>
    %237 = stablehlo.multiply %228, %236 : tensor<4x8xf32>
    %238 = stablehlo.broadcast_in_dim %arg15, dims = [1] : (tensor<8xf32>) -> tensor<4x8xf32>
    %239 = stablehlo.multiply %237, %238 : tensor<4x8xf32>
    %240 = stablehlo.dot_general %239, %arg19, contracting_dims = [1] x [1] : (tensor<4x8xf32>, tensor<8x8xf32>) -> tensor<4x8xf32>
    %241 = stablehlo.reshape %240 : (tensor<4x8xf32>) -> tensor<4x2x4xf32>
    %242 = stablehlo.dot_general %239, %arg17, contracting_dims = [1] x [1] : (tensor<4x8xf32>, tensor<4x8xf32>) -> tensor<4x4xf32>
    %243 = stablehlo.reshape %242 : (tensor<4x4xf32>) -> tensor<4x1x4xf32>
    %244 = stablehlo.dot_general %239, %arg20, contracting_dims = [1] x [1] : (tensor<4x8xf32>, tensor<4x8xf32>) -> tensor<4x4xf32>
    %245 = stablehlo.reshape %244 : (tensor<4x4xf32>) -> tensor<4x1x4xf32>
    %246 = stablehlo.reshape %241 : (tensor<4x2x4xf32>) -> tensor<4x8xf32>
    %247 = stablehlo.constant dense<0x41000000> : tensor<f32>
    %248 = stablehlo.multiply %246, %246 : tensor<4x8xf32>
    %249 = stablehlo.reduce(%248 init: %2) applies stablehlo.add across dimensions = [1] : (tensor<4x8xf32>, tensor<f32>) -> tensor<4xf32>
    %250 = stablehlo.broadcast_in_dim %247, dims = [] : (tensor<f32>) -> tensor<4xf32>
    %251 = stablehlo.divide %249, %250 : tensor<4xf32>
    %252 = stablehlo.broadcast_in_dim %6, dims = [] : (tensor<f32>) -> tensor<4xf32>
    %253 = stablehlo.add %251, %252 : tensor<4xf32>
    %254 = stablehlo.rsqrt %253 : tensor<4xf32>
    %255 = stablehlo.broadcast_in_dim %254, dims = [0] : (tensor<4xf32>) -> tensor<4x8xf32>
    %256 = stablehlo.multiply %246, %255 : tensor<4x8xf32>
    %257 = stablehlo.broadcast_in_dim %arg21, dims = [1] : (tensor<8xf32>) -> tensor<4x8xf32>
    %258 = stablehlo.multiply %256, %257 : tensor<4x8xf32>
    %259 = stablehlo.reshape %258 : (tensor<4x8xf32>) -> tensor<4x2x4xf32>
    %260 = stablehlo.reshape %243 : (tensor<4x1x4xf32>) -> tensor<4x4xf32>
    %261 = stablehlo.constant dense<0x40800000> : tensor<f32>
    %262 = stablehlo.multiply %260, %260 : tensor<4x4xf32>
    %263 = stablehlo.reduce(%262 init: %2) applies stablehlo.add across dimensions = [1] : (tensor<4x4xf32>, tensor<f32>) -> tensor<4xf32>
    %264 = stablehlo.broadcast_in_dim %261, dims = [] : (tensor<f32>) -> tensor<4xf32>
    %265 = stablehlo.divide %263, %264 : tensor<4xf32>
    %266 = stablehlo.broadcast_in_dim %6, dims = [] : (tensor<f32>) -> tensor<4xf32>
    %267 = stablehlo.add %265, %266 : tensor<4xf32>
    %268 = stablehlo.rsqrt %267 : tensor<4xf32>
    %269 = stablehlo.broadcast_in_dim %268, dims = [0] : (tensor<4xf32>) -> tensor<4x4xf32>
    %270 = stablehlo.multiply %260, %269 : tensor<4x4xf32>
    %271 = stablehlo.broadcast_in_dim %arg22, dims = [1] : (tensor<4xf32>) -> tensor<4x4xf32>
    %272 = stablehlo.multiply %270, %271 : tensor<4x4xf32>
    %273 = stablehlo.reshape %272 : (tensor<4x4xf32>) -> tensor<4x1x4xf32>
    %274 = stablehlo.broadcast_in_dim %19, dims = [0, 2] : (tensor<4x4xf32>) -> tensor<4x2x4xf32>
    %275 = stablehlo.broadcast_in_dim %20, dims = [0, 2] : (tensor<4x4xf32>) -> tensor<4x2x4xf32>
    %276 = stablehlo.multiply %259, %274 : tensor<4x2x4xf32>
    %277 = stablehlo.slice %259 [0:4, 0:2, 0:2] : (tensor<4x2x4xf32>) -> tensor<4x2x2xf32>
    %278 = stablehlo.slice %259 [0:4, 0:2, 2:4] : (tensor<4x2x4xf32>) -> tensor<4x2x2xf32>
    %279 = stablehlo.negate %278 : tensor<4x2x2xf32>
    %280 = stablehlo.concatenate %279, %277, dim = 2 : (tensor<4x2x2xf32>, tensor<4x2x2xf32>) -> tensor<4x2x4xf32>
    %281 = stablehlo.multiply %280, %275 : tensor<4x2x4xf32>
    %282 = stablehlo.add %276, %281 : tensor<4x2x4xf32>
    %283 = stablehlo.broadcast_in_dim %19, dims = [0, 2] : (tensor<4x4xf32>) -> tensor<4x1x4xf32>
    %284 = stablehlo.broadcast_in_dim %20, dims = [0, 2] : (tensor<4x4xf32>) -> tensor<4x1x4xf32>
    %285 = stablehlo.multiply %273, %283 : tensor<4x1x4xf32>
    %286 = stablehlo.slice %273 [0:4, 0:1, 0:2] : (tensor<4x1x4xf32>) -> tensor<4x1x2xf32>
    %287 = stablehlo.slice %273 [0:4, 0:1, 2:4] : (tensor<4x1x4xf32>) -> tensor<4x1x2xf32>
    %288 = stablehlo.negate %287 : tensor<4x1x2xf32>
    %289 = stablehlo.concatenate %288, %286, dim = 2 : (tensor<4x1x2xf32>, tensor<4x1x2xf32>) -> tensor<4x1x4xf32>
    %290 = stablehlo.multiply %289, %284 : tensor<4x1x4xf32>
    %291 = stablehlo.add %285, %290 : tensor<4x1x4xf32>
    %292 = stablehlo.slice %arg28 [0:1] : (tensor<4xi32>) -> tensor<1xi32>
    %293 = stablehlo.reshape %292 : (tensor<1xi32>) -> tensor<i32>
    %294 = stablehlo.slice %291 [0:1, 0:1, 0:4] : (tensor<4x1x4xf32>) -> tensor<1x1x4xf32>
    %295 = stablehlo.reshape %294 : (tensor<1x1x4xf32>) -> tensor<1x1x1x1x4xf32>
    %296 = stablehlo.dynamic_update_slice %119, %295, %12, %11, %293, %9, %9 : (tensor<4x2x256x1x4xf32>, tensor<1x1x1x1x4xf32>, tensor<i32>, tensor<i32>, tensor<i32>, tensor<i32>, tensor<i32>) -> tensor<4x2x256x1x4xf32>
    %297 = stablehlo.slice %245 [0:1, 0:1, 0:4] : (tensor<4x1x4xf32>) -> tensor<1x1x4xf32>
    %298 = stablehlo.reshape %297 : (tensor<1x1x4xf32>) -> tensor<1x1x1x1x4xf32>
    %299 = stablehlo.dynamic_update_slice %122, %298, %12, %11, %293, %9, %9 : (tensor<4x2x256x1x4xf32>, tensor<1x1x1x1x4xf32>, tensor<i32>, tensor<i32>, tensor<i32>, tensor<i32>, tensor<i32>) -> tensor<4x2x256x1x4xf32>
    %300 = stablehlo.slice %arg28 [1:2] : (tensor<4xi32>) -> tensor<1xi32>
    %301 = stablehlo.reshape %300 : (tensor<1xi32>) -> tensor<i32>
    %302 = stablehlo.slice %291 [1:2, 0:1, 0:4] : (tensor<4x1x4xf32>) -> tensor<1x1x4xf32>
    %303 = stablehlo.reshape %302 : (tensor<1x1x4xf32>) -> tensor<1x1x1x1x4xf32>
    %304 = stablehlo.dynamic_update_slice %296, %303, %13, %11, %301, %9, %9 : (tensor<4x2x256x1x4xf32>, tensor<1x1x1x1x4xf32>, tensor<i32>, tensor<i32>, tensor<i32>, tensor<i32>, tensor<i32>) -> tensor<4x2x256x1x4xf32>
    %305 = stablehlo.slice %245 [1:2, 0:1, 0:4] : (tensor<4x1x4xf32>) -> tensor<1x1x4xf32>
    %306 = stablehlo.reshape %305 : (tensor<1x1x4xf32>) -> tensor<1x1x1x1x4xf32>
    %307 = stablehlo.dynamic_update_slice %299, %306, %13, %11, %301, %9, %9 : (tensor<4x2x256x1x4xf32>, tensor<1x1x1x1x4xf32>, tensor<i32>, tensor<i32>, tensor<i32>, tensor<i32>, tensor<i32>) -> tensor<4x2x256x1x4xf32>
    %308 = stablehlo.slice %arg28 [2:3] : (tensor<4xi32>) -> tensor<1xi32>
    %309 = stablehlo.reshape %308 : (tensor<1xi32>) -> tensor<i32>
    %310 = stablehlo.slice %291 [2:3, 0:1, 0:4] : (tensor<4x1x4xf32>) -> tensor<1x1x4xf32>
    %311 = stablehlo.reshape %310 : (tensor<1x1x4xf32>) -> tensor<1x1x1x1x4xf32>
    %312 = stablehlo.dynamic_update_slice %304, %311, %14, %11, %309, %9, %9 : (tensor<4x2x256x1x4xf32>, tensor<1x1x1x1x4xf32>, tensor<i32>, tensor<i32>, tensor<i32>, tensor<i32>, tensor<i32>) -> tensor<4x2x256x1x4xf32>
    %313 = stablehlo.slice %245 [2:3, 0:1, 0:4] : (tensor<4x1x4xf32>) -> tensor<1x1x4xf32>
    %314 = stablehlo.reshape %313 : (tensor<1x1x4xf32>) -> tensor<1x1x1x1x4xf32>
    %315 = stablehlo.dynamic_update_slice %307, %314, %14, %11, %309, %9, %9 : (tensor<4x2x256x1x4xf32>, tensor<1x1x1x1x4xf32>, tensor<i32>, tensor<i32>, tensor<i32>, tensor<i32>, tensor<i32>) -> tensor<4x2x256x1x4xf32>
    %316 = stablehlo.slice %arg28 [3:4] : (tensor<4xi32>) -> tensor<1xi32>
    %317 = stablehlo.reshape %316 : (tensor<1xi32>) -> tensor<i32>
    %318 = stablehlo.slice %291 [3:4, 0:1, 0:4] : (tensor<4x1x4xf32>) -> tensor<1x1x4xf32>
    %319 = stablehlo.reshape %318 : (tensor<1x1x4xf32>) -> tensor<1x1x1x1x4xf32>
    %320 = stablehlo.dynamic_update_slice %312, %319, %15, %11, %317, %9, %9 : (tensor<4x2x256x1x4xf32>, tensor<1x1x1x1x4xf32>, tensor<i32>, tensor<i32>, tensor<i32>, tensor<i32>, tensor<i32>) -> tensor<4x2x256x1x4xf32>
    %321 = stablehlo.slice %245 [3:4, 0:1, 0:4] : (tensor<4x1x4xf32>) -> tensor<1x1x4xf32>
    %322 = stablehlo.reshape %321 : (tensor<1x1x4xf32>) -> tensor<1x1x1x1x4xf32>
    %323 = stablehlo.dynamic_update_slice %315, %322, %15, %11, %317, %9, %9 : (tensor<4x2x256x1x4xf32>, tensor<1x1x1x1x4xf32>, tensor<i32>, tensor<i32>, tensor<i32>, tensor<i32>, tensor<i32>) -> tensor<4x2x256x1x4xf32>
    %324 = stablehlo.slice %320 [0:4, 1:2, 0:256, 0:1, 0:4] : (tensor<4x2x256x1x4xf32>) -> tensor<4x1x256x1x4xf32>
    %325 = stablehlo.reshape %324 : (tensor<4x1x256x1x4xf32>) -> tensor<4x256x1x4xf32>
    %326 = stablehlo.slice %323 [0:4, 1:2, 0:256, 0:1, 0:4] : (tensor<4x2x256x1x4xf32>) -> tensor<4x1x256x1x4xf32>
    %327 = stablehlo.reshape %326 : (tensor<4x1x256x1x4xf32>) -> tensor<4x256x1x4xf32>
    %328 = stablehlo.reshape %282 : (tensor<4x2x4xf32>) -> tensor<4x1x2x4xf32>
    %329 = stablehlo.dot_general %328, %325, batching_dims = [0, 1] x [0, 2], contracting_dims = [3] x [3] : (tensor<4x1x2x4xf32>, tensor<4x256x1x4xf32>) -> tensor<4x1x2x256xf32>
    %330 = stablehlo.reshape %329 : (tensor<4x1x2x256xf32>) -> tensor<4x2x256xf32>
    %331 = stablehlo.broadcast_in_dim %8, dims = [] : (tensor<f32>) -> tensor<4x2x256xf32>
    %332 = stablehlo.multiply %330, %331 : tensor<4x2x256xf32>
    %333 = stablehlo.broadcast_in_dim %27, dims = [0, 2] : (tensor<4x256xf32>) -> tensor<4x2x256xf32>
    %334 = stablehlo.add %332, %333 : tensor<4x2x256xf32>
    %335 = stablehlo.reduce(%334 init: %4) applies stablehlo.maximum across dimensions = [2] : (tensor<4x2x256xf32>, tensor<f32>) -> tensor<4x2xf32>
    %336 = stablehlo.broadcast_in_dim %335, dims = [0, 1] : (tensor<4x2xf32>) -> tensor<4x2x256xf32>
    %337 = stablehlo.subtract %334, %336 : tensor<4x2x256xf32>
    %338 = stablehlo.exponential %337 : tensor<4x2x256xf32>
    %339 = stablehlo.reduce(%338 init: %2) applies stablehlo.add across dimensions = [2] : (tensor<4x2x256xf32>, tensor<f32>) -> tensor<4x2xf32>
    %340 = stablehlo.broadcast_in_dim %339, dims = [0, 1] : (tensor<4x2xf32>) -> tensor<4x2x256xf32>
    %341 = stablehlo.divide %338, %340 : tensor<4x2x256xf32>
    %342 = stablehlo.reshape %341 : (tensor<4x2x256xf32>) -> tensor<4x1x2x256xf32>
    %343 = stablehlo.dot_general %342, %327, batching_dims = [0, 1] x [0, 2], contracting_dims = [3] x [1] : (tensor<4x1x2x256xf32>, tensor<4x256x1x4xf32>) -> tensor<4x1x2x4xf32>
    %344 = stablehlo.reshape %343 : (tensor<4x1x2x4xf32>) -> tensor<4x2x4xf32>
    %345 = stablehlo.reshape %344 : (tensor<4x2x4xf32>) -> tensor<4x8xf32>
    %346 = stablehlo.dot_general %345, %arg18, contracting_dims = [1] x [1] : (tensor<4x8xf32>, tensor<8x8xf32>) -> tensor<4x8xf32>
    %347 = stablehlo.add %228, %346 : tensor<4x8xf32>
    %348 = stablehlo.multiply %347, %347 : tensor<4x8xf32>
    %349 = stablehlo.reduce(%348 init: %2) applies stablehlo.add across dimensions = [1] : (tensor<4x8xf32>, tensor<f32>) -> tensor<4xf32>
    %350 = stablehlo.broadcast_in_dim %7, dims = [] : (tensor<f32>) -> tensor<4xf32>
    %351 = stablehlo.divide %349, %350 : tensor<4xf32>
    %352 = stablehlo.broadcast_in_dim %6, dims = [] : (tensor<f32>) -> tensor<4xf32>
    %353 = stablehlo.add %351, %352 : tensor<4xf32>
    %354 = stablehlo.rsqrt %353 : tensor<4xf32>
    %355 = stablehlo.broadcast_in_dim %354, dims = [0] : (tensor<4xf32>) -> tensor<4x8xf32>
    %356 = stablehlo.multiply %347, %355 : tensor<4x8xf32>
    %357 = stablehlo.broadcast_in_dim %arg16, dims = [1] : (tensor<8xf32>) -> tensor<4x8xf32>
    %358 = stablehlo.multiply %356, %357 : tensor<4x8xf32>
    %359 = stablehlo.dot_general %358, %arg23, contracting_dims = [1] x [1] : (tensor<4x8xf32>, tensor<4x8xf32>) -> tensor<4x4xf32>
    %360 = stablehlo.reduce(%359 init: %4) applies stablehlo.maximum across dimensions = [1] : (tensor<4x4xf32>, tensor<f32>) -> tensor<4xf32>
    %361 = stablehlo.broadcast_in_dim %360, dims = [0] : (tensor<4xf32>) -> tensor<4x4xf32>
    %362 = stablehlo.subtract %359, %361 : tensor<4x4xf32>
    %363 = stablehlo.exponential %362 : tensor<4x4xf32>
    %364 = stablehlo.reduce(%363 init: %2) applies stablehlo.add across dimensions = [1] : (tensor<4x4xf32>, tensor<f32>) -> tensor<4xf32>
    %365 = stablehlo.broadcast_in_dim %364, dims = [0] : (tensor<4xf32>) -> tensor<4x4xf32>
    %366 = stablehlo.divide %363, %365 : tensor<4x4xf32>
    %367 = stablehlo.iota dim = 0 : tensor<4xi32>
    %368 = stablehlo.broadcast_in_dim %367, dims = [1] : (tensor<4xi32>) -> tensor<4x4xi32>
    %369 = stablehlo.broadcast_in_dim %2, dims = [] : (tensor<f32>) -> tensor<4x4xf32>
    %370 = stablehlo.broadcast_in_dim %4, dims = [] : (tensor<f32>) -> tensor<4x4xf32>
    %371 = stablehlo.constant dense<0> : tensor<i32>
    %372 = stablehlo.constant dense<0xFF800000> : tensor<f32>
    %373 = stablehlo.iota dim = 1 : tensor<4x4xi32>
    %374:2 = stablehlo.reduce(%366 init: %372), (%373 init: %371) across dimensions = [1] : (tensor<4x4xf32>, tensor<4x4xi32>, tensor<f32>, tensor<i32>) -> (tensor<4xf32>, tensor<4xi32>)
    reducer(%amv_l: tensor<f32>, %amv_r: tensor<f32>) (%ami_l: tensor<i32>, %ami_r: tensor<i32>) {
      %375 = stablehlo.compare GT, %amv_l, %amv_r, FLOAT : (tensor<f32>, tensor<f32>) -> tensor<i1>
      %376 = stablehlo.compare NE, %amv_l, %amv_l, FLOAT : (tensor<f32>, tensor<f32>) -> tensor<i1>
      %377 = stablehlo.or %375, %376 : tensor<i1>
      %378 = stablehlo.compare EQ, %amv_l, %amv_r, FLOAT : (tensor<f32>, tensor<f32>) -> tensor<i1>
      %379 = stablehlo.compare LT, %ami_l, %ami_r, SIGNED : (tensor<i32>, tensor<i32>) -> tensor<i1>
      %380 = stablehlo.and %378, %379 : tensor<i1>
      %381 = stablehlo.or %377, %380 : tensor<i1>
      %382 = stablehlo.select %377, %amv_l, %amv_r : tensor<i1>, tensor<f32>
      %383 = stablehlo.select %381, %ami_l, %ami_r : tensor<i1>, tensor<i32>
      stablehlo.return %382, %383 : tensor<f32>, tensor<i32>
    }
    %384 = stablehlo.broadcast_in_dim %374#1, dims = [0] : (tensor<4xi32>) -> tensor<4x4xi32>
    %385 = stablehlo.compare EQ, %368, %384, SIGNED : (tensor<4x4xi32>, tensor<4x4xi32>) -> tensor<4x4xi1>
    %386 = stablehlo.select %385, %366, %369 : tensor<4x4xi1>, tensor<4x4xf32>
    %387 = stablehlo.reduce(%386 init: %2) applies stablehlo.add across dimensions = [1] : (tensor<4x4xf32>, tensor<f32>) -> tensor<4xf32>
    %388 = stablehlo.select %385, %370, %366 : tensor<4x4xi1>, tensor<4x4xf32>
    %389 = stablehlo.constant dense<0> : tensor<i32>
    %390 = stablehlo.constant dense<0xFF800000> : tensor<f32>
    %391 = stablehlo.iota dim = 1 : tensor<4x4xi32>
    %392:2 = stablehlo.reduce(%388 init: %390), (%391 init: %389) across dimensions = [1] : (tensor<4x4xf32>, tensor<4x4xi32>, tensor<f32>, tensor<i32>) -> (tensor<4xf32>, tensor<4xi32>)
    reducer(%amv_l: tensor<f32>, %amv_r: tensor<f32>) (%ami_l: tensor<i32>, %ami_r: tensor<i32>) {
      %393 = stablehlo.compare GT, %amv_l, %amv_r, FLOAT : (tensor<f32>, tensor<f32>) -> tensor<i1>
      %394 = stablehlo.compare NE, %amv_l, %amv_l, FLOAT : (tensor<f32>, tensor<f32>) -> tensor<i1>
      %395 = stablehlo.or %393, %394 : tensor<i1>
      %396 = stablehlo.compare EQ, %amv_l, %amv_r, FLOAT : (tensor<f32>, tensor<f32>) -> tensor<i1>
      %397 = stablehlo.compare LT, %ami_l, %ami_r, SIGNED : (tensor<i32>, tensor<i32>) -> tensor<i1>
      %398 = stablehlo.and %396, %397 : tensor<i1>
      %399 = stablehlo.or %395, %398 : tensor<i1>
      %400 = stablehlo.select %395, %amv_l, %amv_r : tensor<i1>, tensor<f32>
      %401 = stablehlo.select %399, %ami_l, %ami_r : tensor<i1>, tensor<i32>
      stablehlo.return %400, %401 : tensor<f32>, tensor<i32>
    }
    %402 = stablehlo.broadcast_in_dim %392#1, dims = [0] : (tensor<4xi32>) -> tensor<4x4xi32>
    %403 = stablehlo.compare EQ, %368, %402, SIGNED : (tensor<4x4xi32>, tensor<4x4xi32>) -> tensor<4x4xi1>
    %404 = stablehlo.select %403, %388, %369 : tensor<4x4xi1>, tensor<4x4xf32>
    %405 = stablehlo.reduce(%404 init: %2) applies stablehlo.add across dimensions = [1] : (tensor<4x4xf32>, tensor<f32>) -> tensor<4xf32>
    %406 = stablehlo.select %403, %370, %388 : tensor<4x4xi1>, tensor<4x4xf32>
    %407 = stablehlo.add %387, %405 : tensor<4xf32>
    %408 = stablehlo.divide %387, %407 : tensor<4xf32>
    %409 = stablehlo.divide %405, %407 : tensor<4xf32>
    %410 = stablehlo.broadcast_in_dim %2, dims = [] : (tensor<f32>) -> tensor<4x4xf32>
    %411 = stablehlo.broadcast_in_dim %408, dims = [0] : (tensor<4xf32>) -> tensor<4x4xf32>
    %412 = stablehlo.select %385, %411, %369 : tensor<4x4xi1>, tensor<4x4xf32>
    %413 = stablehlo.add %410, %412 : tensor<4x4xf32>
    %414 = stablehlo.broadcast_in_dim %409, dims = [0] : (tensor<4xf32>) -> tensor<4x4xf32>
    %415 = stablehlo.select %403, %414, %369 : tensor<4x4xi1>, tensor<4x4xf32>
    %416 = stablehlo.add %413, %415 : tensor<4x4xf32>
    %417 = stablehlo.broadcast_in_dim %358, dims = [1, 2] : (tensor<4x8xf32>) -> tensor<4x4x8xf32>
    %418 = stablehlo.dot_general %417, %arg24, batching_dims = [0] x [0], contracting_dims = [2] x [2] : (tensor<4x4x8xf32>, tensor<4x12x8xf32>) -> tensor<4x4x12xf32>
    %419 = stablehlo.dot_general %417, %arg25, batching_dims = [0] x [0], contracting_dims = [2] x [2] : (tensor<4x4x8xf32>, tensor<4x12x8xf32>) -> tensor<4x4x12xf32>
    %420 = stablehlo.broadcast_in_dim %3, dims = [] : (tensor<f32>) -> tensor<4x4x12xf32>
    %421 = stablehlo.negate %418 : tensor<4x4x12xf32>
    %422 = stablehlo.exponential %421 : tensor<4x4x12xf32>
    %423 = stablehlo.add %420, %422 : tensor<4x4x12xf32>
    %424 = stablehlo.divide %420, %423 : tensor<4x4x12xf32>
    %425 = stablehlo.multiply %418, %424 : tensor<4x4x12xf32>
    %426 = stablehlo.multiply %425, %419 : tensor<4x4x12xf32>
    %427 = stablehlo.dot_general %426, %arg26, batching_dims = [0] x [0], contracting_dims = [2] x [2] : (tensor<4x4x12xf32>, tensor<4x8x12xf32>) -> tensor<4x4x8xf32>
    %428 = stablehlo.dot_general %416, %427, batching_dims = [0] x [1], contracting_dims = [1] x [0] : (tensor<4x4xf32>, tensor<4x4x8xf32>) -> tensor<4x8xf32>
    %429 = stablehlo.add %347, %428 : tensor<4x8xf32>
    %430 = stablehlo.multiply %429, %429 : tensor<4x8xf32>
    %431 = stablehlo.reduce(%430 init: %2) applies stablehlo.add across dimensions = [1] : (tensor<4x8xf32>, tensor<f32>) -> tensor<4xf32>
    %432 = stablehlo.broadcast_in_dim %7, dims = [] : (tensor<f32>) -> tensor<4xf32>
    %433 = stablehlo.divide %431, %432 : tensor<4xf32>
    %434 = stablehlo.broadcast_in_dim %6, dims = [] : (tensor<f32>) -> tensor<4xf32>
    %435 = stablehlo.add %433, %434 : tensor<4xf32>
    %436 = stablehlo.rsqrt %435 : tensor<4xf32>
    %437 = stablehlo.broadcast_in_dim %436, dims = [0] : (tensor<4xf32>) -> tensor<4x8xf32>
    %438 = stablehlo.multiply %429, %437 : tensor<4x8xf32>
    %439 = stablehlo.broadcast_in_dim %arg1, dims = [1] : (tensor<8xf32>) -> tensor<4x8xf32>
    %440 = stablehlo.multiply %438, %439 : tensor<4x8xf32>
    %441 = stablehlo.dot_general %440, %arg2, contracting_dims = [1] x [1] : (tensor<4x8xf32>, tensor<10x8xf32>) -> tensor<4x10xf32>
    return %441, %320, %323 : tensor<4x10xf32>, tensor<4x2x256x1x4xf32>, tensor<4x2x256x1x4xf32>
  }
}
