module @prefill {
  func.func public @main(%arg0: tensor<10x8xf32> loc("params['embed']"), %arg1: tensor<8xf32> loc("params['final_norm']"), %arg2: tensor<10x8xf32> loc("params['lm_head']"), %arg3: tensor<8xf32> loc("params['layers'][0]['in_ln']"), %arg4: tensor<8xf32> loc("params['layers'][0]['post_ln']"), %arg5: tensor<4x8xf32> loc("params['layers'][0]['wk']"), %arg6: tensor<8x8xf32> loc("params['layers'][0]['wo']"), %arg7: tensor<8x8xf32> loc("params['layers'][0]['wq']"), %arg8: tensor<4x8xf32> loc("params['layers'][0]['wv']"), %arg9: tensor<8xf32> loc("params['layers'][0]['q_norm']"), %arg10: tensor<4xf32> loc("params['layers'][0]['k_norm']"), %arg11: tensor<4x8xf32> loc("params['layers'][0]['moe_router']"), %arg12: tensor<4x12x8xf32> loc("params['layers'][0]['moe_gate']"), %arg13: tensor<4x12x8xf32> loc("params['layers'][0]['moe_up']"), %arg14: tensor<4x8x12xf32> loc("params['layers'][0]['moe_down']"), %arg15: tensor<8xf32> loc("params['layers'][1]['in_ln']"), %arg16: tensor<8xf32> loc("params['layers'][1]['post_ln']"), %arg17: tensor<4x8xf32> loc("params['layers'][1]['wk']"), %arg18: tensor<8x8xf32> loc("params['layers'][1]['wo']"), %arg19: tensor<8x8xf32> loc("params['layers'][1]['wq']"), %arg20: tensor<4x8xf32> loc("params['layers'][1]['wv']"), %arg21: tensor<8xf32> loc("params['layers'][1]['q_norm']"), %arg22: tensor<4xf32> loc("params['layers'][1]['k_norm']"), %arg23: tensor<4x8xf32> loc("params['layers'][1]['moe_router']"), %arg24: tensor<4x12x8xf32> loc("params['layers'][1]['moe_gate']"), %arg25: tensor<4x12x8xf32> loc("params['layers'][1]['moe_up']"), %arg26: tensor<4x8x12xf32> loc("params['layers'][1]['moe_down']"), %arg27: tensor<256xi32> loc("tokens"), %arg28: tensor<256xi32> loc("positions"), %arg29: tensor<i32> loc("real_len")) -> (tensor<i32>, tensor<2x256x1x4xf32>, tensor<2x256x1x4xf32>) {
    %0 = stablehlo.constant dense<"…"> : tensor<256x4xf32>
    %1 = stablehlo.constant dense<"…"> : tensor<256x4xf32>
    %2 = stablehlo.constant dense<0x00000000> : tensor<f32>
    %3 = stablehlo.constant dense<0x3F800000> : tensor<f32>
    %4 = stablehlo.constant dense<0xFF800000> : tensor<f32>
    %5 = stablehlo.constant dense<0xF149F2CA> : tensor<f32>
    %6 = stablehlo.constant dense<0x358637BD> : tensor<f32>
    %7 = stablehlo.constant dense<0x41000000> : tensor<f32>
    %8 = stablehlo.constant dense<0x3F000000> : tensor<f32>
    %9 = stablehlo.constant dense<0> : tensor<i32>
    %10 = stablehlo.constant dense<0> : tensor<i32>
    %11 = stablehlo.constant dense<1> : tensor<i32>
    %12 = stablehlo.reshape %arg27 : (tensor<256xi32>) -> tensor<256x1xi32>
    %13 = "stablehlo.gather"(%arg0, %12) <{dimension_numbers = #stablehlo.gather<offset_dims = [1], collapsed_slice_dims = [0], start_index_map = [0], index_vector_dim = 1>, slice_sizes = array<i64: 1, 8>}> : (tensor<10x8xf32>, tensor<256x1xi32>) -> tensor<256x8xf32>
    %14 = stablehlo.reshape %arg28 : (tensor<256xi32>) -> tensor<256x1xi32>
    %15 = "stablehlo.gather"(%0, %14) <{dimension_numbers = #stablehlo.gather<offset_dims = [1], collapsed_slice_dims = [0], start_index_map = [0], index_vector_dim = 1>, slice_sizes = array<i64: 1, 4>}> : (tensor<256x4xf32>, tensor<256x1xi32>) -> tensor<256x4xf32>
    %16 = "stablehlo.gather"(%1, %14) <{dimension_numbers = #stablehlo.gather<offset_dims = [1], collapsed_slice_dims = [0], start_index_map = [0], index_vector_dim = 1>, slice_sizes = array<i64: 1, 4>}> : (tensor<256x4xf32>, tensor<256x1xi32>) -> tensor<256x4xf32>
    %17 = stablehlo.iota dim = 0 : tensor<256xi32>
    %18 = stablehlo.broadcast_in_dim %17, dims = [0] : (tensor<256xi32>) -> tensor<256x256xi32>
    %19 = stablehlo.iota dim = 0 : tensor<256xi32>
    %20 = stablehlo.broadcast_in_dim %19, dims = [1] : (tensor<256xi32>) -> tensor<256x256xi32>
    %21 = stablehlo.compare LE, %20, %18, SIGNED : (tensor<256x256xi32>, tensor<256x256xi32>) -> tensor<256x256xi1>
    %22 = stablehlo.broadcast_in_dim %2, dims = [] : (tensor<f32>) -> tensor<256x256xf32>
    %23 = stablehlo.broadcast_in_dim %5, dims = [] : (tensor<f32>) -> tensor<256x256xf32>
    %24 = stablehlo.select %21, %22, %23 : tensor<256x256xi1>, tensor<256x256xf32>
    %25 = stablehlo.broadcast_in_dim %2, dims = [] : (tensor<f32>) -> tensor<2x256x1x4xf32>
    %26 = stablehlo.broadcast_in_dim %2, dims = [] : (tensor<f32>) -> tensor<2x256x1x4xf32>
    %27 = stablehlo.multiply %13, %13 : tensor<256x8xf32>
    %28 = stablehlo.reduce(%27 init: %2) applies stablehlo.add across dimensions = [1] : (tensor<256x8xf32>, tensor<f32>) -> tensor<256xf32>
    %29 = stablehlo.broadcast_in_dim %7, dims = [] : (tensor<f32>) -> tensor<256xf32>
    %30 = stablehlo.divide %28, %29 : tensor<256xf32>
    %31 = stablehlo.broadcast_in_dim %6, dims = [] : (tensor<f32>) -> tensor<256xf32>
    %32 = stablehlo.add %30, %31 : tensor<256xf32>
    %33 = stablehlo.rsqrt %32 : tensor<256xf32>
    %34 = stablehlo.broadcast_in_dim %33, dims = [0] : (tensor<256xf32>) -> tensor<256x8xf32>
    %35 = stablehlo.multiply %13, %34 : tensor<256x8xf32>
    %36 = stablehlo.broadcast_in_dim %arg3, dims = [1] : (tensor<8xf32>) -> tensor<256x8xf32>
    %37 = stablehlo.multiply %35, %36 : tensor<256x8xf32>
    %38 = stablehlo.dot_general %37, %arg7, contracting_dims = [1] x [1] : (tensor<256x8xf32>, tensor<8x8xf32>) -> tensor<256x8xf32>
    %39 = stablehlo.reshape %38 : (tensor<256x8xf32>) -> tensor<256x2x4xf32>
    %40 = stablehlo.dot_general %37, %arg5, contracting_dims = [1] x [1] : (tensor<256x8xf32>, tensor<4x8xf32>) -> tensor<256x4xf32>
    %41 = stablehlo.reshape %40 : (tensor<256x4xf32>) -> tensor<256x1x4xf32>
    %42 = stablehlo.dot_general %37, %arg8, contracting_dims = [1] x [1] : (tensor<256x8xf32>, tensor<4x8xf32>) -> tensor<256x4xf32>
    %43 = stablehlo.reshape %42 : (tensor<256x4xf32>) -> tensor<256x1x4xf32>
    %44 = stablehlo.reshape %39 : (tensor<256x2x4xf32>) -> tensor<256x8xf32>
    %45 = stablehlo.constant dense<0x41000000> : tensor<f32>
    %46 = stablehlo.multiply %44, %44 : tensor<256x8xf32>
    %47 = stablehlo.reduce(%46 init: %2) applies stablehlo.add across dimensions = [1] : (tensor<256x8xf32>, tensor<f32>) -> tensor<256xf32>
    %48 = stablehlo.broadcast_in_dim %45, dims = [] : (tensor<f32>) -> tensor<256xf32>
    %49 = stablehlo.divide %47, %48 : tensor<256xf32>
    %50 = stablehlo.broadcast_in_dim %6, dims = [] : (tensor<f32>) -> tensor<256xf32>
    %51 = stablehlo.add %49, %50 : tensor<256xf32>
    %52 = stablehlo.rsqrt %51 : tensor<256xf32>
    %53 = stablehlo.broadcast_in_dim %52, dims = [0] : (tensor<256xf32>) -> tensor<256x8xf32>
    %54 = stablehlo.multiply %44, %53 : tensor<256x8xf32>
    %55 = stablehlo.broadcast_in_dim %arg9, dims = [1] : (tensor<8xf32>) -> tensor<256x8xf32>
    %56 = stablehlo.multiply %54, %55 : tensor<256x8xf32>
    %57 = stablehlo.reshape %56 : (tensor<256x8xf32>) -> tensor<256x2x4xf32>
    %58 = stablehlo.reshape %41 : (tensor<256x1x4xf32>) -> tensor<256x4xf32>
    %59 = stablehlo.constant dense<0x40800000> : tensor<f32>
    %60 = stablehlo.multiply %58, %58 : tensor<256x4xf32>
    %61 = stablehlo.reduce(%60 init: %2) applies stablehlo.add across dimensions = [1] : (tensor<256x4xf32>, tensor<f32>) -> tensor<256xf32>
    %62 = stablehlo.broadcast_in_dim %59, dims = [] : (tensor<f32>) -> tensor<256xf32>
    %63 = stablehlo.divide %61, %62 : tensor<256xf32>
    %64 = stablehlo.broadcast_in_dim %6, dims = [] : (tensor<f32>) -> tensor<256xf32>
    %65 = stablehlo.add %63, %64 : tensor<256xf32>
    %66 = stablehlo.rsqrt %65 : tensor<256xf32>
    %67 = stablehlo.broadcast_in_dim %66, dims = [0] : (tensor<256xf32>) -> tensor<256x4xf32>
    %68 = stablehlo.multiply %58, %67 : tensor<256x4xf32>
    %69 = stablehlo.broadcast_in_dim %arg10, dims = [1] : (tensor<4xf32>) -> tensor<256x4xf32>
    %70 = stablehlo.multiply %68, %69 : tensor<256x4xf32>
    %71 = stablehlo.reshape %70 : (tensor<256x4xf32>) -> tensor<256x1x4xf32>
    %72 = stablehlo.broadcast_in_dim %15, dims = [0, 2] : (tensor<256x4xf32>) -> tensor<256x2x4xf32>
    %73 = stablehlo.broadcast_in_dim %16, dims = [0, 2] : (tensor<256x4xf32>) -> tensor<256x2x4xf32>
    %74 = stablehlo.multiply %57, %72 : tensor<256x2x4xf32>
    %75 = stablehlo.slice %57 [0:256, 0:2, 0:2] : (tensor<256x2x4xf32>) -> tensor<256x2x2xf32>
    %76 = stablehlo.slice %57 [0:256, 0:2, 2:4] : (tensor<256x2x4xf32>) -> tensor<256x2x2xf32>
    %77 = stablehlo.negate %76 : tensor<256x2x2xf32>
    %78 = stablehlo.concatenate %77, %75, dim = 2 : (tensor<256x2x2xf32>, tensor<256x2x2xf32>) -> tensor<256x2x4xf32>
    %79 = stablehlo.multiply %78, %73 : tensor<256x2x4xf32>
    %80 = stablehlo.add %74, %79 : tensor<256x2x4xf32>
    %81 = stablehlo.broadcast_in_dim %15, dims = [0, 2] : (tensor<256x4xf32>) -> tensor<256x1x4xf32>
    %82 = stablehlo.broadcast_in_dim %16, dims = [0, 2] : (tensor<256x4xf32>) -> tensor<256x1x4xf32>
    %83 = stablehlo.multiply %71, %81 : tensor<256x1x4xf32>
    %84 = stablehlo.slice %71 [0:256, 0:1, 0:2] : (tensor<256x1x4xf32>) -> tensor<256x1x2xf32>
    %85 = stablehlo.slice %71 [0:256, 0:1, 2:4] : (tensor<256x1x4xf32>) -> tensor<256x1x2xf32>
    %86 = stablehlo.negate %85 : tensor<256x1x2xf32>
    %87 = stablehlo.concatenate %86, %84, dim = 2 : (tensor<256x1x2xf32>, tensor<256x1x2xf32>) -> tensor<256x1x4xf32>
    %88 = stablehlo.multiply %87, %82 : tensor<256x1x4xf32>
    %89 = stablehlo.add %83, %88 : tensor<256x1x4xf32>
    %90 = stablehlo.reshape %89 : (tensor<256x1x4xf32>) -> tensor<1x256x1x4xf32>
    %91 = stablehlo.dynamic_update_slice %25, %90, %10, %9, %9, %9 : (tensor<2x256x1x4xf32>, tensor<1x256x1x4xf32>, tensor<i32>, tensor<i32>, tensor<i32>, tensor<i32>) -> tensor<2x256x1x4xf32>
    %92 = stablehlo.reshape %43 : (tensor<256x1x4xf32>) -> tensor<1x256x1x4xf32>
    %93 = stablehlo.dynamic_update_slice %26, %92, %10, %9, %9, %9 : (tensor<2x256x1x4xf32>, tensor<1x256x1x4xf32>, tensor<i32>, tensor<i32>, tensor<i32>, tensor<i32>) -> tensor<2x256x1x4xf32>
    %94 = stablehlo.reshape %80 : (tensor<256x2x4xf32>) -> tensor<256x1x2x4xf32>
    %95 = stablehlo.dot_general %94, %89, batching_dims = [1] x [1], contracting_dims = [3] x [2] : (tensor<256x1x2x4xf32>, tensor<256x1x4xf32>) -> tensor<1x256x2x256xf32>
    %96 = stablehlo.broadcast_in_dim %8, dims = [] : (tensor<f32>) -> tensor<1x256x2x256xf32>
    %97 = stablehlo.multiply %95, %96 : tensor<1x256x2x256xf32>
    %98 = stablehlo.broadcast_in_dim %24, dims = [1, 3] : (tensor<256x256xf32>) -> tensor<1x256x2x256xf32>
    %99 = stablehlo.add %97, %98 : tensor<1x256x2x256xf32>
    %100 = stablehlo.reduce(%99 init: %4) applies stablehlo.maximum across dimensions = [3] : (tensor<1x256x2x256xf32>, tensor<f32>) -> tensor<1x256x2xf32>
    %101 = stablehlo.broadcast_in_dim %100, dims = [0, 1, 2] : (tensor<1x256x2xf32>) -> tensor<1x256x2x256xf32>
    %102 = stablehlo.subtract %99, %101 : tensor<1x256x2x256xf32>
    %103 = stablehlo.exponential %102 : tensor<1x256x2x256xf32>
    %104 = stablehlo.reduce(%103 init: %2) applies stablehlo.add across dimensions = [3] : (tensor<1x256x2x256xf32>, tensor<f32>) -> tensor<1x256x2xf32>
    %105 = stablehlo.broadcast_in_dim %104, dims = [0, 1, 2] : (tensor<1x256x2xf32>) -> tensor<1x256x2x256xf32>
    %106 = stablehlo.divide %103, %105 : tensor<1x256x2x256xf32>
    %107 = stablehlo.dot_general %106, %43, batching_dims = [0] x [1], contracting_dims = [3] x [0] : (tensor<1x256x2x256xf32>, tensor<256x1x4xf32>) -> tensor<1x256x2x4xf32>
    %108 = stablehlo.transpose %107, dims = [1, 0, 2, 3] : (tensor<1x256x2x4xf32>) -> tensor<256x1x2x4xf32>
    %109 = stablehlo.reshape %108 : (tensor<256x1x2x4xf32>) -> tensor<256x8xf32>
    %110 = stablehlo.dot_general %109, %arg6, contracting_dims = [1] x [1] : (tensor<256x8xf32>, tensor<8x8xf32>) -> tensor<256x8xf32>
    %111 = stablehlo.add %13, %110 : tensor<256x8xf32>
    %112 = stablehlo.multiply %111, %111 : tensor<256x8xf32>
    %113 = stablehlo.reduce(%112 init: %2) applies stablehlo.add across dimensions = [1] : (tensor<256x8xf32>, tensor<f32>) -> tensor<256xf32>
    %114 = stablehlo.broadcast_in_dim %7, dims = [] : (tensor<f32>) -> tensor<256xf32>
    %115 = stablehlo.divide %113, %114 : tensor<256xf32>
    %116 = stablehlo.broadcast_in_dim %6, dims = [] : (tensor<f32>) -> tensor<256xf32>
    %117 = stablehlo.add %115, %116 : tensor<256xf32>
    %118 = stablehlo.rsqrt %117 : tensor<256xf32>
    %119 = stablehlo.broadcast_in_dim %118, dims = [0] : (tensor<256xf32>) -> tensor<256x8xf32>
    %120 = stablehlo.multiply %111, %119 : tensor<256x8xf32>
    %121 = stablehlo.broadcast_in_dim %arg4, dims = [1] : (tensor<8xf32>) -> tensor<256x8xf32>
    %122 = stablehlo.multiply %120, %121 : tensor<256x8xf32>
    %123 = stablehlo.dot_general %122, %arg11, contracting_dims = [1] x [1] : (tensor<256x8xf32>, tensor<4x8xf32>) -> tensor<256x4xf32>
    %124 = stablehlo.reduce(%123 init: %4) applies stablehlo.maximum across dimensions = [1] : (tensor<256x4xf32>, tensor<f32>) -> tensor<256xf32>
    %125 = stablehlo.broadcast_in_dim %124, dims = [0] : (tensor<256xf32>) -> tensor<256x4xf32>
    %126 = stablehlo.subtract %123, %125 : tensor<256x4xf32>
    %127 = stablehlo.exponential %126 : tensor<256x4xf32>
    %128 = stablehlo.reduce(%127 init: %2) applies stablehlo.add across dimensions = [1] : (tensor<256x4xf32>, tensor<f32>) -> tensor<256xf32>
    %129 = stablehlo.broadcast_in_dim %128, dims = [0] : (tensor<256xf32>) -> tensor<256x4xf32>
    %130 = stablehlo.divide %127, %129 : tensor<256x4xf32>
    %131 = stablehlo.iota dim = 0 : tensor<4xi32>
    %132 = stablehlo.broadcast_in_dim %131, dims = [1] : (tensor<4xi32>) -> tensor<256x4xi32>
    %133 = stablehlo.broadcast_in_dim %2, dims = [] : (tensor<f32>) -> tensor<256x4xf32>
    %134 = stablehlo.broadcast_in_dim %4, dims = [] : (tensor<f32>) -> tensor<256x4xf32>
    %135 = stablehlo.constant dense<0> : tensor<i32>
    %136 = stablehlo.constant dense<0xFF800000> : tensor<f32>
    %137 = stablehlo.iota dim = 1 : tensor<256x4xi32>
    %138:2 = stablehlo.reduce(%130 init: %136), (%137 init: %135) across dimensions = [1] : (tensor<256x4xf32>, tensor<256x4xi32>, tensor<f32>, tensor<i32>) -> (tensor<256xf32>, tensor<256xi32>)
    reducer(%amv_l: tensor<f32>, %amv_r: tensor<f32>) (%ami_l: tensor<i32>, %ami_r: tensor<i32>) {
      %139 = stablehlo.compare GT, %amv_l, %amv_r, FLOAT : (tensor<f32>, tensor<f32>) -> tensor<i1>
      %140 = stablehlo.compare NE, %amv_l, %amv_l, FLOAT : (tensor<f32>, tensor<f32>) -> tensor<i1>
      %141 = stablehlo.or %139, %140 : tensor<i1>
      %142 = stablehlo.compare EQ, %amv_l, %amv_r, FLOAT : (tensor<f32>, tensor<f32>) -> tensor<i1>
      %143 = stablehlo.compare LT, %ami_l, %ami_r, SIGNED : (tensor<i32>, tensor<i32>) -> tensor<i1>
      %144 = stablehlo.and %142, %143 : tensor<i1>
      %145 = stablehlo.or %141, %144 : tensor<i1>
      %146 = stablehlo.select %141, %amv_l, %amv_r : tensor<i1>, tensor<f32>
      %147 = stablehlo.select %145, %ami_l, %ami_r : tensor<i1>, tensor<i32>
      stablehlo.return %146, %147 : tensor<f32>, tensor<i32>
    }
    %148 = stablehlo.broadcast_in_dim %138#1, dims = [0] : (tensor<256xi32>) -> tensor<256x4xi32>
    %149 = stablehlo.compare EQ, %132, %148, SIGNED : (tensor<256x4xi32>, tensor<256x4xi32>) -> tensor<256x4xi1>
    %150 = stablehlo.select %149, %130, %133 : tensor<256x4xi1>, tensor<256x4xf32>
    %151 = stablehlo.reduce(%150 init: %2) applies stablehlo.add across dimensions = [1] : (tensor<256x4xf32>, tensor<f32>) -> tensor<256xf32>
    %152 = stablehlo.select %149, %134, %130 : tensor<256x4xi1>, tensor<256x4xf32>
    %153 = stablehlo.constant dense<0> : tensor<i32>
    %154 = stablehlo.constant dense<0xFF800000> : tensor<f32>
    %155 = stablehlo.iota dim = 1 : tensor<256x4xi32>
    %156:2 = stablehlo.reduce(%152 init: %154), (%155 init: %153) across dimensions = [1] : (tensor<256x4xf32>, tensor<256x4xi32>, tensor<f32>, tensor<i32>) -> (tensor<256xf32>, tensor<256xi32>)
    reducer(%amv_l: tensor<f32>, %amv_r: tensor<f32>) (%ami_l: tensor<i32>, %ami_r: tensor<i32>) {
      %157 = stablehlo.compare GT, %amv_l, %amv_r, FLOAT : (tensor<f32>, tensor<f32>) -> tensor<i1>
      %158 = stablehlo.compare NE, %amv_l, %amv_l, FLOAT : (tensor<f32>, tensor<f32>) -> tensor<i1>
      %159 = stablehlo.or %157, %158 : tensor<i1>
      %160 = stablehlo.compare EQ, %amv_l, %amv_r, FLOAT : (tensor<f32>, tensor<f32>) -> tensor<i1>
      %161 = stablehlo.compare LT, %ami_l, %ami_r, SIGNED : (tensor<i32>, tensor<i32>) -> tensor<i1>
      %162 = stablehlo.and %160, %161 : tensor<i1>
      %163 = stablehlo.or %159, %162 : tensor<i1>
      %164 = stablehlo.select %159, %amv_l, %amv_r : tensor<i1>, tensor<f32>
      %165 = stablehlo.select %163, %ami_l, %ami_r : tensor<i1>, tensor<i32>
      stablehlo.return %164, %165 : tensor<f32>, tensor<i32>
    }
    %166 = stablehlo.broadcast_in_dim %156#1, dims = [0] : (tensor<256xi32>) -> tensor<256x4xi32>
    %167 = stablehlo.compare EQ, %132, %166, SIGNED : (tensor<256x4xi32>, tensor<256x4xi32>) -> tensor<256x4xi1>
    %168 = stablehlo.select %167, %152, %133 : tensor<256x4xi1>, tensor<256x4xf32>
    %169 = stablehlo.reduce(%168 init: %2) applies stablehlo.add across dimensions = [1] : (tensor<256x4xf32>, tensor<f32>) -> tensor<256xf32>
    %170 = stablehlo.select %167, %134, %152 : tensor<256x4xi1>, tensor<256x4xf32>
    %171 = stablehlo.add %151, %169 : tensor<256xf32>
    %172 = stablehlo.divide %151, %171 : tensor<256xf32>
    %173 = stablehlo.divide %169, %171 : tensor<256xf32>
    %174 = stablehlo.broadcast_in_dim %2, dims = [] : (tensor<f32>) -> tensor<256x4xf32>
    %175 = stablehlo.broadcast_in_dim %172, dims = [0] : (tensor<256xf32>) -> tensor<256x4xf32>
    %176 = stablehlo.select %149, %175, %133 : tensor<256x4xi1>, tensor<256x4xf32>
    %177 = stablehlo.add %174, %176 : tensor<256x4xf32>
    %178 = stablehlo.broadcast_in_dim %173, dims = [0] : (tensor<256xf32>) -> tensor<256x4xf32>
    %179 = stablehlo.select %167, %178, %133 : tensor<256x4xi1>, tensor<256x4xf32>
    %180 = stablehlo.add %177, %179 : tensor<256x4xf32>
    %181 = stablehlo.broadcast_in_dim %122, dims = [1, 2] : (tensor<256x8xf32>) -> tensor<4x256x8xf32>
    %182 = stablehlo.dot_general %181, %arg12, batching_dims = [0] x [0], contracting_dims = [2] x [2] : (tensor<4x256x8xf32>, tensor<4x12x8xf32>) -> tensor<4x256x12xf32>
    %183 = stablehlo.dot_general %181, %arg13, batching_dims = [0] x [0], contracting_dims = [2] x [2] : (tensor<4x256x8xf32>, tensor<4x12x8xf32>) -> tensor<4x256x12xf32>
    %184 = stablehlo.broadcast_in_dim %3, dims = [] : (tensor<f32>) -> tensor<4x256x12xf32>
    %185 = stablehlo.negate %182 : tensor<4x256x12xf32>
    %186 = stablehlo.exponential %185 : tensor<4x256x12xf32>
    %187 = stablehlo.add %184, %186 : tensor<4x256x12xf32>
    %188 = stablehlo.divide %184, %187 : tensor<4x256x12xf32>
    %189 = stablehlo.multiply %182, %188 : tensor<4x256x12xf32>
    %190 = stablehlo.multiply %189, %183 : tensor<4x256x12xf32>
    %191 = stablehlo.dot_general %190, %arg14, batching_dims = [0] x [0], contracting_dims = [2] x [2] : (tensor<4x256x12xf32>, tensor<4x8x12xf32>) -> tensor<4x256x8xf32>
    %192 = stablehlo.dot_general %180, %191, batching_dims = [0] x [1], contracting_dims = [1] x [0] : (tensor<256x4xf32>, tensor<4x256x8xf32>) -> tensor<256x8xf32>
    %193 = stablehlo.add %111, %192 : tensor<256x8xf32>
    %194 = stablehlo.multiply %193, %193 : tensor<256x8xf32>
    %195 = stablehlo.reduce(%194 init: %2) applies stablehlo.add across dimensions = [1] : (tensor<256x8xf32>, tensor<f32>) -> tensor<256xf32>
    %196 = stablehlo.broadcast_in_dim %7, dims = [] : (tensor<f32>) -> tensor<256xf32>
    %197 = stablehlo.divide %195, %196 : tensor<256xf32>
    %198 = stablehlo.broadcast_in_dim %6, dims = [] : (tensor<f32>) -> tensor<256xf32>
    %199 = stablehlo.add %197, %198 : tensor<256xf32>
    %200 = stablehlo.rsqrt %199 : tensor<256xf32>
    %201 = stablehlo.broadcast_in_dim %200, dims = [0] : (tensor<256xf32>) -> tensor<256x8xf32>
    %202 = stablehlo.multiply %193, %201 : tensor<256x8xf32>
    %203 = stablehlo.broadcast_in_dim %arg15, dims = [1] : (tensor<8xf32>) -> tensor<256x8xf32>
    %204 = stablehlo.multiply %202, %203 : tensor<256x8xf32>
    %205 = stablehlo.dot_general %204, %arg19, contracting_dims = [1] x [1] : (tensor<256x8xf32>, tensor<8x8xf32>) -> tensor<256x8xf32>
    %206 = stablehlo.reshape %205 : (tensor<256x8xf32>) -> tensor<256x2x4xf32>
    %207 = stablehlo.dot_general %204, %arg17, contracting_dims = [1] x [1] : (tensor<256x8xf32>, tensor<4x8xf32>) -> tensor<256x4xf32>
    %208 = stablehlo.reshape %207 : (tensor<256x4xf32>) -> tensor<256x1x4xf32>
    %209 = stablehlo.dot_general %204, %arg20, contracting_dims = [1] x [1] : (tensor<256x8xf32>, tensor<4x8xf32>) -> tensor<256x4xf32>
    %210 = stablehlo.reshape %209 : (tensor<256x4xf32>) -> tensor<256x1x4xf32>
    %211 = stablehlo.reshape %206 : (tensor<256x2x4xf32>) -> tensor<256x8xf32>
    %212 = stablehlo.constant dense<0x41000000> : tensor<f32>
    %213 = stablehlo.multiply %211, %211 : tensor<256x8xf32>
    %214 = stablehlo.reduce(%213 init: %2) applies stablehlo.add across dimensions = [1] : (tensor<256x8xf32>, tensor<f32>) -> tensor<256xf32>
    %215 = stablehlo.broadcast_in_dim %212, dims = [] : (tensor<f32>) -> tensor<256xf32>
    %216 = stablehlo.divide %214, %215 : tensor<256xf32>
    %217 = stablehlo.broadcast_in_dim %6, dims = [] : (tensor<f32>) -> tensor<256xf32>
    %218 = stablehlo.add %216, %217 : tensor<256xf32>
    %219 = stablehlo.rsqrt %218 : tensor<256xf32>
    %220 = stablehlo.broadcast_in_dim %219, dims = [0] : (tensor<256xf32>) -> tensor<256x8xf32>
    %221 = stablehlo.multiply %211, %220 : tensor<256x8xf32>
    %222 = stablehlo.broadcast_in_dim %arg21, dims = [1] : (tensor<8xf32>) -> tensor<256x8xf32>
    %223 = stablehlo.multiply %221, %222 : tensor<256x8xf32>
    %224 = stablehlo.reshape %223 : (tensor<256x8xf32>) -> tensor<256x2x4xf32>
    %225 = stablehlo.reshape %208 : (tensor<256x1x4xf32>) -> tensor<256x4xf32>
    %226 = stablehlo.constant dense<0x40800000> : tensor<f32>
    %227 = stablehlo.multiply %225, %225 : tensor<256x4xf32>
    %228 = stablehlo.reduce(%227 init: %2) applies stablehlo.add across dimensions = [1] : (tensor<256x4xf32>, tensor<f32>) -> tensor<256xf32>
    %229 = stablehlo.broadcast_in_dim %226, dims = [] : (tensor<f32>) -> tensor<256xf32>
    %230 = stablehlo.divide %228, %229 : tensor<256xf32>
    %231 = stablehlo.broadcast_in_dim %6, dims = [] : (tensor<f32>) -> tensor<256xf32>
    %232 = stablehlo.add %230, %231 : tensor<256xf32>
    %233 = stablehlo.rsqrt %232 : tensor<256xf32>
    %234 = stablehlo.broadcast_in_dim %233, dims = [0] : (tensor<256xf32>) -> tensor<256x4xf32>
    %235 = stablehlo.multiply %225, %234 : tensor<256x4xf32>
    %236 = stablehlo.broadcast_in_dim %arg22, dims = [1] : (tensor<4xf32>) -> tensor<256x4xf32>
    %237 = stablehlo.multiply %235, %236 : tensor<256x4xf32>
    %238 = stablehlo.reshape %237 : (tensor<256x4xf32>) -> tensor<256x1x4xf32>
    %239 = stablehlo.broadcast_in_dim %15, dims = [0, 2] : (tensor<256x4xf32>) -> tensor<256x2x4xf32>
    %240 = stablehlo.broadcast_in_dim %16, dims = [0, 2] : (tensor<256x4xf32>) -> tensor<256x2x4xf32>
    %241 = stablehlo.multiply %224, %239 : tensor<256x2x4xf32>
    %242 = stablehlo.slice %224 [0:256, 0:2, 0:2] : (tensor<256x2x4xf32>) -> tensor<256x2x2xf32>
    %243 = stablehlo.slice %224 [0:256, 0:2, 2:4] : (tensor<256x2x4xf32>) -> tensor<256x2x2xf32>
    %244 = stablehlo.negate %243 : tensor<256x2x2xf32>
    %245 = stablehlo.concatenate %244, %242, dim = 2 : (tensor<256x2x2xf32>, tensor<256x2x2xf32>) -> tensor<256x2x4xf32>
    %246 = stablehlo.multiply %245, %240 : tensor<256x2x4xf32>
    %247 = stablehlo.add %241, %246 : tensor<256x2x4xf32>
    %248 = stablehlo.broadcast_in_dim %15, dims = [0, 2] : (tensor<256x4xf32>) -> tensor<256x1x4xf32>
    %249 = stablehlo.broadcast_in_dim %16, dims = [0, 2] : (tensor<256x4xf32>) -> tensor<256x1x4xf32>
    %250 = stablehlo.multiply %238, %248 : tensor<256x1x4xf32>
    %251 = stablehlo.slice %238 [0:256, 0:1, 0:2] : (tensor<256x1x4xf32>) -> tensor<256x1x2xf32>
    %252 = stablehlo.slice %238 [0:256, 0:1, 2:4] : (tensor<256x1x4xf32>) -> tensor<256x1x2xf32>
    %253 = stablehlo.negate %252 : tensor<256x1x2xf32>
    %254 = stablehlo.concatenate %253, %251, dim = 2 : (tensor<256x1x2xf32>, tensor<256x1x2xf32>) -> tensor<256x1x4xf32>
    %255 = stablehlo.multiply %254, %249 : tensor<256x1x4xf32>
    %256 = stablehlo.add %250, %255 : tensor<256x1x4xf32>
    %257 = stablehlo.reshape %256 : (tensor<256x1x4xf32>) -> tensor<1x256x1x4xf32>
    %258 = stablehlo.dynamic_update_slice %91, %257, %11, %9, %9, %9 : (tensor<2x256x1x4xf32>, tensor<1x256x1x4xf32>, tensor<i32>, tensor<i32>, tensor<i32>, tensor<i32>) -> tensor<2x256x1x4xf32>
    %259 = stablehlo.reshape %210 : (tensor<256x1x4xf32>) -> tensor<1x256x1x4xf32>
    %260 = stablehlo.dynamic_update_slice %93, %259, %11, %9, %9, %9 : (tensor<2x256x1x4xf32>, tensor<1x256x1x4xf32>, tensor<i32>, tensor<i32>, tensor<i32>, tensor<i32>) -> tensor<2x256x1x4xf32>
    %261 = stablehlo.reshape %247 : (tensor<256x2x4xf32>) -> tensor<256x1x2x4xf32>
    %262 = stablehlo.dot_general %261, %256, batching_dims = [1] x [1], contracting_dims = [3] x [2] : (tensor<256x1x2x4xf32>, tensor<256x1x4xf32>) -> tensor<1x256x2x256xf32>
    %263 = stablehlo.broadcast_in_dim %8, dims = [] : (tensor<f32>) -> tensor<1x256x2x256xf32>
    %264 = stablehlo.multiply %262, %263 : tensor<1x256x2x256xf32>
    %265 = stablehlo.broadcast_in_dim %24, dims = [1, 3] : (tensor<256x256xf32>) -> tensor<1x256x2x256xf32>
    %266 = stablehlo.add %264, %265 : tensor<1x256x2x256xf32>
    %267 = stablehlo.reduce(%266 init: %4) applies stablehlo.maximum across dimensions = [3] : (tensor<1x256x2x256xf32>, tensor<f32>) -> tensor<1x256x2xf32>
    %268 = stablehlo.broadcast_in_dim %267, dims = [0, 1, 2] : (tensor<1x256x2xf32>) -> tensor<1x256x2x256xf32>
    %269 = stablehlo.subtract %266, %268 : tensor<1x256x2x256xf32>
    %270 = stablehlo.exponential %269 : tensor<1x256x2x256xf32>
    %271 = stablehlo.reduce(%270 init: %2) applies stablehlo.add across dimensions = [3] : (tensor<1x256x2x256xf32>, tensor<f32>) -> tensor<1x256x2xf32>
    %272 = stablehlo.broadcast_in_dim %271, dims = [0, 1, 2] : (tensor<1x256x2xf32>) -> tensor<1x256x2x256xf32>
    %273 = stablehlo.divide %270, %272 : tensor<1x256x2x256xf32>
    %274 = stablehlo.dot_general %273, %210, batching_dims = [0] x [1], contracting_dims = [3] x [0] : (tensor<1x256x2x256xf32>, tensor<256x1x4xf32>) -> tensor<1x256x2x4xf32>
    %275 = stablehlo.transpose %274, dims = [1, 0, 2, 3] : (tensor<1x256x2x4xf32>) -> tensor<256x1x2x4xf32>
    %276 = stablehlo.reshape %275 : (tensor<256x1x2x4xf32>) -> tensor<256x8xf32>
    %277 = stablehlo.dot_general %276, %arg18, contracting_dims = [1] x [1] : (tensor<256x8xf32>, tensor<8x8xf32>) -> tensor<256x8xf32>
    %278 = stablehlo.add %193, %277 : tensor<256x8xf32>
    %279 = stablehlo.multiply %278, %278 : tensor<256x8xf32>
    %280 = stablehlo.reduce(%279 init: %2) applies stablehlo.add across dimensions = [1] : (tensor<256x8xf32>, tensor<f32>) -> tensor<256xf32>
    %281 = stablehlo.broadcast_in_dim %7, dims = [] : (tensor<f32>) -> tensor<256xf32>
    %282 = stablehlo.divide %280, %281 : tensor<256xf32>
    %283 = stablehlo.broadcast_in_dim %6, dims = [] : (tensor<f32>) -> tensor<256xf32>
    %284 = stablehlo.add %282, %283 : tensor<256xf32>
    %285 = stablehlo.rsqrt %284 : tensor<256xf32>
    %286 = stablehlo.broadcast_in_dim %285, dims = [0] : (tensor<256xf32>) -> tensor<256x8xf32>
    %287 = stablehlo.multiply %278, %286 : tensor<256x8xf32>
    %288 = stablehlo.broadcast_in_dim %arg16, dims = [1] : (tensor<8xf32>) -> tensor<256x8xf32>
    %289 = stablehlo.multiply %287, %288 : tensor<256x8xf32>
    %290 = stablehlo.dot_general %289, %arg23, contracting_dims = [1] x [1] : (tensor<256x8xf32>, tensor<4x8xf32>) -> tensor<256x4xf32>
    %291 = stablehlo.reduce(%290 init: %4) applies stablehlo.maximum across dimensions = [1] : (tensor<256x4xf32>, tensor<f32>) -> tensor<256xf32>
    %292 = stablehlo.broadcast_in_dim %291, dims = [0] : (tensor<256xf32>) -> tensor<256x4xf32>
    %293 = stablehlo.subtract %290, %292 : tensor<256x4xf32>
    %294 = stablehlo.exponential %293 : tensor<256x4xf32>
    %295 = stablehlo.reduce(%294 init: %2) applies stablehlo.add across dimensions = [1] : (tensor<256x4xf32>, tensor<f32>) -> tensor<256xf32>
    %296 = stablehlo.broadcast_in_dim %295, dims = [0] : (tensor<256xf32>) -> tensor<256x4xf32>
    %297 = stablehlo.divide %294, %296 : tensor<256x4xf32>
    %298 = stablehlo.iota dim = 0 : tensor<4xi32>
    %299 = stablehlo.broadcast_in_dim %298, dims = [1] : (tensor<4xi32>) -> tensor<256x4xi32>
    %300 = stablehlo.broadcast_in_dim %2, dims = [] : (tensor<f32>) -> tensor<256x4xf32>
    %301 = stablehlo.broadcast_in_dim %4, dims = [] : (tensor<f32>) -> tensor<256x4xf32>
    %302 = stablehlo.constant dense<0> : tensor<i32>
    %303 = stablehlo.constant dense<0xFF800000> : tensor<f32>
    %304 = stablehlo.iota dim = 1 : tensor<256x4xi32>
    %305:2 = stablehlo.reduce(%297 init: %303), (%304 init: %302) across dimensions = [1] : (tensor<256x4xf32>, tensor<256x4xi32>, tensor<f32>, tensor<i32>) -> (tensor<256xf32>, tensor<256xi32>)
    reducer(%amv_l: tensor<f32>, %amv_r: tensor<f32>) (%ami_l: tensor<i32>, %ami_r: tensor<i32>) {
      %306 = stablehlo.compare GT, %amv_l, %amv_r, FLOAT : (tensor<f32>, tensor<f32>) -> tensor<i1>
      %307 = stablehlo.compare NE, %amv_l, %amv_l, FLOAT : (tensor<f32>, tensor<f32>) -> tensor<i1>
      %308 = stablehlo.or %306, %307 : tensor<i1>
      %309 = stablehlo.compare EQ, %amv_l, %amv_r, FLOAT : (tensor<f32>, tensor<f32>) -> tensor<i1>
      %310 = stablehlo.compare LT, %ami_l, %ami_r, SIGNED : (tensor<i32>, tensor<i32>) -> tensor<i1>
      %311 = stablehlo.and %309, %310 : tensor<i1>
      %312 = stablehlo.or %308, %311 : tensor<i1>
      %313 = stablehlo.select %308, %amv_l, %amv_r : tensor<i1>, tensor<f32>
      %314 = stablehlo.select %312, %ami_l, %ami_r : tensor<i1>, tensor<i32>
      stablehlo.return %313, %314 : tensor<f32>, tensor<i32>
    }
    %315 = stablehlo.broadcast_in_dim %305#1, dims = [0] : (tensor<256xi32>) -> tensor<256x4xi32>
    %316 = stablehlo.compare EQ, %299, %315, SIGNED : (tensor<256x4xi32>, tensor<256x4xi32>) -> tensor<256x4xi1>
    %317 = stablehlo.select %316, %297, %300 : tensor<256x4xi1>, tensor<256x4xf32>
    %318 = stablehlo.reduce(%317 init: %2) applies stablehlo.add across dimensions = [1] : (tensor<256x4xf32>, tensor<f32>) -> tensor<256xf32>
    %319 = stablehlo.select %316, %301, %297 : tensor<256x4xi1>, tensor<256x4xf32>
    %320 = stablehlo.constant dense<0> : tensor<i32>
    %321 = stablehlo.constant dense<0xFF800000> : tensor<f32>
    %322 = stablehlo.iota dim = 1 : tensor<256x4xi32>
    %323:2 = stablehlo.reduce(%319 init: %321), (%322 init: %320) across dimensions = [1] : (tensor<256x4xf32>, tensor<256x4xi32>, tensor<f32>, tensor<i32>) -> (tensor<256xf32>, tensor<256xi32>)
    reducer(%amv_l: tensor<f32>, %amv_r: tensor<f32>) (%ami_l: tensor<i32>, %ami_r: tensor<i32>) {
      %324 = stablehlo.compare GT, %amv_l, %amv_r, FLOAT : (tensor<f32>, tensor<f32>) -> tensor<i1>
      %325 = stablehlo.compare NE, %amv_l, %amv_l, FLOAT : (tensor<f32>, tensor<f32>) -> tensor<i1>
      %326 = stablehlo.or %324, %325 : tensor<i1>
      %327 = stablehlo.compare EQ, %amv_l, %amv_r, FLOAT : (tensor<f32>, tensor<f32>) -> tensor<i1>
      %328 = stablehlo.compare LT, %ami_l, %ami_r, SIGNED : (tensor<i32>, tensor<i32>) -> tensor<i1>
      %329 = stablehlo.and %327, %328 : tensor<i1>
      %330 = stablehlo.or %326, %329 : tensor<i1>
      %331 = stablehlo.select %326, %amv_l, %amv_r : tensor<i1>, tensor<f32>
      %332 = stablehlo.select %330, %ami_l, %ami_r : tensor<i1>, tensor<i32>
      stablehlo.return %331, %332 : tensor<f32>, tensor<i32>
    }
    %333 = stablehlo.broadcast_in_dim %323#1, dims = [0] : (tensor<256xi32>) -> tensor<256x4xi32>
    %334 = stablehlo.compare EQ, %299, %333, SIGNED : (tensor<256x4xi32>, tensor<256x4xi32>) -> tensor<256x4xi1>
    %335 = stablehlo.select %334, %319, %300 : tensor<256x4xi1>, tensor<256x4xf32>
    %336 = stablehlo.reduce(%335 init: %2) applies stablehlo.add across dimensions = [1] : (tensor<256x4xf32>, tensor<f32>) -> tensor<256xf32>
    %337 = stablehlo.select %334, %301, %319 : tensor<256x4xi1>, tensor<256x4xf32>
    %338 = stablehlo.add %318, %336 : tensor<256xf32>
    %339 = stablehlo.divide %318, %338 : tensor<256xf32>
    %340 = stablehlo.divide %336, %338 : tensor<256xf32>
    %341 = stablehlo.broadcast_in_dim %2, dims = [] : (tensor<f32>) -> tensor<256x4xf32>
    %342 = stablehlo.broadcast_in_dim %339, dims = [0] : (tensor<256xf32>) -> tensor<256x4xf32>
    %343 = stablehlo.select %316, %342, %300 : tensor<256x4xi1>, tensor<256x4xf32>
    %344 = stablehlo.add %341, %343 : tensor<256x4xf32>
    %345 = stablehlo.broadcast_in_dim %340, dims = [0] : (tensor<256xf32>) -> tensor<256x4xf32>
    %346 = stablehlo.select %334, %345, %300 : tensor<256x4xi1>, tensor<256x4xf32>
    %347 = stablehlo.add %344, %346 : tensor<256x4xf32>
    %348 = stablehlo.broadcast_in_dim %289, dims = [1, 2] : (tensor<256x8xf32>) -> tensor<4x256x8xf32>
    %349 = stablehlo.dot_general %348, %arg24, batching_dims = [0] x [0], contracting_dims = [2] x [2] : (tensor<4x256x8xf32>, tensor<4x12x8xf32>) -> tensor<4x256x12xf32>
    %350 = stablehlo.dot_general %348, %arg25, batching_dims = [0] x [0], contracting_dims = [2] x [2] : (tensor<4x256x8xf32>, tensor<4x12x8xf32>) -> tensor<4x256x12xf32>
    %351 = stablehlo.broadcast_in_dim %3, dims = [] : (tensor<f32>) -> tensor<4x256x12xf32>
    %352 = stablehlo.negate %349 : tensor<4x256x12xf32>
    %353 = stablehlo.exponential %352 : tensor<4x256x12xf32>
    %354 = stablehlo.add %351, %353 : tensor<4x256x12xf32>
    %355 = stablehlo.divide %351, %354 : tensor<4x256x12xf32>
    %356 = stablehlo.multiply %349, %355 : tensor<4x256x12xf32>
    %357 = stablehlo.multiply %356, %350 : tensor<4x256x12xf32>
    %358 = stablehlo.dot_general %357, %arg26, batching_dims = [0] x [0], contracting_dims = [2] x [2] : (tensor<4x256x12xf32>, tensor<4x8x12xf32>) -> tensor<4x256x8xf32>
    %359 = stablehlo.dot_general %347, %358, batching_dims = [0] x [1], contracting_dims = [1] x [0] : (tensor<256x4xf32>, tensor<4x256x8xf32>) -> tensor<256x8xf32>
    %360 = stablehlo.add %278, %359 : tensor<256x8xf32>
    %361 = stablehlo.multiply %360, %360 : tensor<256x8xf32>
    %362 = stablehlo.reduce(%361 init: %2) applies stablehlo.add across dimensions = [1] : (tensor<256x8xf32>, tensor<f32>) -> tensor<256xf32>
    %363 = stablehlo.broadcast_in_dim %7, dims = [] : (tensor<f32>) -> tensor<256xf32>
    %364 = stablehlo.divide %362, %363 : tensor<256xf32>
    %365 = stablehlo.broadcast_in_dim %6, dims = [] : (tensor<f32>) -> tensor<256xf32>
    %366 = stablehlo.add %364, %365 : tensor<256xf32>
    %367 = stablehlo.rsqrt %366 : tensor<256xf32>
    %368 = stablehlo.broadcast_in_dim %367, dims = [0] : (tensor<256xf32>) -> tensor<256x8xf32>
    %369 = stablehlo.multiply %360, %368 : tensor<256x8xf32>
    %370 = stablehlo.broadcast_in_dim %arg1, dims = [1] : (tensor<8xf32>) -> tensor<256x8xf32>
    %371 = stablehlo.multiply %369, %370 : tensor<256x8xf32>
    %372 = stablehlo.constant dense<1> : tensor<i32>
    %373 = stablehlo.subtract %arg29, %372 : tensor<i32>
    %374 = stablehlo.dynamic_slice %371, %373, %9, sizes = [1, 8] : (tensor<256x8xf32>, tensor<i32>, tensor<i32>) -> tensor<1x8xf32>
    %375 = stablehlo.reshape %374 : (tensor<1x8xf32>) -> tensor<8xf32>
    %376 = stablehlo.dot_general %375, %arg2, contracting_dims = [0] x [1] : (tensor<8xf32>, tensor<10x8xf32>) -> tensor<10xf32>
    %377 = stablehlo.constant dense<0> : tensor<i32>
    %378 = stablehlo.constant dense<0xFF800000> : tensor<f32>
    %379 = stablehlo.iota dim = 0 : tensor<10xi32>
    %380:2 = stablehlo.reduce(%376 init: %378), (%379 init: %377) across dimensions = [0] : (tensor<10xf32>, tensor<10xi32>, tensor<f32>, tensor<i32>) -> (tensor<f32>, tensor<i32>)
    reducer(%amv_l: tensor<f32>, %amv_r: tensor<f32>) (%ami_l: tensor<i32>, %ami_r: tensor<i32>) {
      %381 = stablehlo.compare GT, %amv_l, %amv_r, FLOAT : (tensor<f32>, tensor<f32>) -> tensor<i1>
      %382 = stablehlo.compare NE, %amv_l, %amv_l, FLOAT : (tensor<f32>, tensor<f32>) -> tensor<i1>
      %383 = stablehlo.or %381, %382 : tensor<i1>
      %384 = stablehlo.compare EQ, %amv_l, %amv_r, FLOAT : (tensor<f32>, tensor<f32>) -> tensor<i1>
      %385 = stablehlo.compare LT, %ami_l, %ami_r, SIGNED : (tensor<i32>, tensor<i32>) -> tensor<i1>
      %386 = stablehlo.and %384, %385 : tensor<i1>
      %387 = stablehlo.or %383, %386 : tensor<i1>
      %388 = stablehlo.select %383, %amv_l, %amv_r : tensor<i1>, tensor<f32>
      %389 = stablehlo.select %387, %ami_l, %ami_r : tensor<i1>, tensor<i32>
      stablehlo.return %388, %389 : tensor<f32>, tensor<i32>
    }
    return %380#1, %258, %260 : tensor<i32>, tensor<2x256x1x4xf32>, tensor<2x256x1x4xf32>
  }
}
