module @prefill {
  func.func public @main(%arg0: tensor<32x32xf32> loc("params['embed']"), %arg1: tensor<32xf32> loc("params['final_norm']"), %arg2: tensor<32xf32> loc("params['final_norm_bias']"), %arg3: tensor<32x32xf32> loc("params['lm_head']"), %arg4: tensor<32x64xf32> loc("params['layers'][0]['down']"), %arg5: tensor<64x32xf32> loc("params['layers'][0]['gate']"), %arg6: tensor<32xf32> loc("params['layers'][0]['in_ln']"), %arg7: tensor<32xf32> loc("params['layers'][0]['post_ln']"), %arg8: tensor<64x32xf32> loc("params['layers'][0]['up']"), %arg9: tensor<16x32xf32> loc("params['layers'][0]['wk']"), %arg10: tensor<32x32xf32> loc("params['layers'][0]['wo']"), %arg11: tensor<32x32xf32> loc("params['layers'][0]['wq']"), %arg12: tensor<16x32xf32> loc("params['layers'][0]['wv']"), %arg13: tensor<16xf32> loc("params['layers'][0]['bk']"), %arg14: tensor<32xf32> loc("params['layers'][0]['bq']"), %arg15: tensor<16xf32> loc("params['layers'][0]['bv']"), %arg16: tensor<32xf32> loc("params['layers'][0]['in_ln_bias']"), %arg17: tensor<32xf32> loc("params['layers'][0]['post_ln_bias']"), %arg18: tensor<32x64xf32> loc("params['layers'][1]['down']"), %arg19: tensor<64x32xf32> loc("params['layers'][1]['gate']"), %arg20: tensor<32xf32> loc("params['layers'][1]['in_ln']"), %arg21: tensor<32xf32> loc("params['layers'][1]['post_ln']"), %arg22: tensor<64x32xf32> loc("params['layers'][1]['up']"), %arg23: tensor<16x32xf32> loc("params['layers'][1]['wk']"), %arg24: tensor<32x32xf32> loc("params['layers'][1]['wo']"), %arg25: tensor<32x32xf32> loc("params['layers'][1]['wq']"), %arg26: tensor<16x32xf32> loc("params['layers'][1]['wv']"), %arg27: tensor<16xf32> loc("params['layers'][1]['bk']"), %arg28: tensor<32xf32> loc("params['layers'][1]['bq']"), %arg29: tensor<16xf32> loc("params['layers'][1]['bv']"), %arg30: tensor<32xf32> loc("params['layers'][1]['in_ln_bias']"), %arg31: tensor<32xf32> loc("params['layers'][1]['post_ln_bias']"), %arg32: tensor<256xi32> loc("tokens"), %arg33: tensor<256xi32> loc("positions"), %arg34: tensor<i32> loc("real_len")) -> (tensor<32xf32>, tensor<2x256x2x8xf32>, tensor<2x256x2x8xf32>) {
    %0 = stablehlo.constant dense<"…"> : tensor<256x2xf32>
    %1 = stablehlo.constant dense<"…"> : tensor<256x2xf32>
    %2 = stablehlo.constant dense<0x00000000> : tensor<f32>
    %3 = stablehlo.constant dense<0x3F800000> : tensor<f32>
    %4 = stablehlo.constant dense<0xFF800000> : tensor<f32>
    %5 = stablehlo.constant dense<0xF149F2CA> : tensor<f32>
    %6 = stablehlo.constant dense<0x3727C5AC> : tensor<f32>
    %7 = stablehlo.constant dense<0x42000000> : tensor<f32>
    %8 = stablehlo.constant dense<0x3EB504F3> : tensor<f32>
    %9 = stablehlo.constant dense<0> : tensor<i32>
    %10 = stablehlo.constant dense<0> : tensor<i32>
    %11 = stablehlo.constant dense<1> : tensor<i32>
    %12 = stablehlo.reshape %arg32 : (tensor<256xi32>) -> tensor<256x1xi32>
    %13 = "stablehlo.gather"(%arg0, %12) <{dimension_numbers = #stablehlo.gather<offset_dims = [1], collapsed_slice_dims = [0], start_index_map = [0], index_vector_dim = 1>, slice_sizes = array<i64: 1, 32>}> : (tensor<32x32xf32>, tensor<256x1xi32>) -> tensor<256x32xf32>
    %14 = stablehlo.reshape %arg33 : (tensor<256xi32>) -> tensor<256x1xi32>
    %15 = "stablehlo.gather"(%0, %14) <{dimension_numbers = #stablehlo.gather<offset_dims = [1], collapsed_slice_dims = [0], start_index_map = [0], index_vector_dim = 1>, slice_sizes = array<i64: 1, 2>}> : (tensor<256x2xf32>, tensor<256x1xi32>) -> tensor<256x2xf32>
    %16 = "stablehlo.gather"(%1, %14) <{dimension_numbers = #stablehlo.gather<offset_dims = [1], collapsed_slice_dims = [0], start_index_map = [0], index_vector_dim = 1>, slice_sizes = array<i64: 1, 2>}> : (tensor<256x2xf32>, tensor<256x1xi32>) -> tensor<256x2xf32>
    %17 = stablehlo.iota dim = 0 : tensor<256xi32>
    %18 = stablehlo.broadcast_in_dim %17, dims = [0] : (tensor<256xi32>) -> tensor<256x256xi32>
    %19 = stablehlo.iota dim = 0 : tensor<256xi32>
    %20 = stablehlo.broadcast_in_dim %19, dims = [1] : (tensor<256xi32>) -> tensor<256x256xi32>
    %21 = stablehlo.compare LE, %20, %18, SIGNED : (tensor<256x256xi32>, tensor<256x256xi32>) -> tensor<256x256xi1>
    %22 = stablehlo.broadcast_in_dim %2, dims = [] : (tensor<f32>) -> tensor<256x256xf32>
    %23 = stablehlo.broadcast_in_dim %5, dims = [] : (tensor<f32>) -> tensor<256x256xf32>
    %24 = stablehlo.select %21, %22, %23 : tensor<256x256xi1>, tensor<256x256xf32>
    %25 = stablehlo.broadcast_in_dim %2, dims = [] : (tensor<f32>) -> tensor<2x256x2x8xf32>
    %26 = stablehlo.broadcast_in_dim %2, dims = [] : (tensor<f32>) -> tensor<2x256x2x8xf32>
    %27 = stablehlo.reduce(%13 init: %2) applies stablehlo.add across dimensions = [1] : (tensor<256x32xf32>, tensor<f32>) -> tensor<256xf32>
    %28 = stablehlo.broadcast_in_dim %7, dims = [] : (tensor<f32>) -> tensor<256xf32>
    %29 = stablehlo.divide %27, %28 : tensor<256xf32>
    %30 = stablehlo.broadcast_in_dim %29, dims = [0] : (tensor<256xf32>) -> tensor<256x32xf32>
    %31 = stablehlo.subtract %13, %30 : tensor<256x32xf32>
    %32 = stablehlo.multiply %31, %31 : tensor<256x32xf32>
    %33 = stablehlo.reduce(%32 init: %2) applies stablehlo.add across dimensions = [1] : (tensor<256x32xf32>, tensor<f32>) -> tensor<256xf32>
    %34 = stablehlo.divide %33, %28 : tensor<256xf32>
    %35 = stablehlo.broadcast_in_dim %6, dims = [] : (tensor<f32>) -> tensor<256xf32>
    %36 = stablehlo.add %34, %35 : tensor<256xf32>
    %37 = stablehlo.rsqrt %36 : tensor<256xf32>
    %38 = stablehlo.broadcast_in_dim %37, dims = [0] : (tensor<256xf32>) -> tensor<256x32xf32>
    %39 = stablehlo.multiply %31, %38 : tensor<256x32xf32>
    %40 = stablehlo.broadcast_in_dim %arg6, dims = [1] : (tensor<32xf32>) -> tensor<256x32xf32>
    %41 = stablehlo.multiply %39, %40 : tensor<256x32xf32>
    %42 = stablehlo.broadcast_in_dim %arg16, dims = [1] : (tensor<32xf32>) -> tensor<256x32xf32>
    %43 = stablehlo.add %41, %42 : tensor<256x32xf32>
    %44 = stablehlo.dot_general %43, %arg11, contracting_dims = [1] x [1] : (tensor<256x32xf32>, tensor<32x32xf32>) -> tensor<256x32xf32>
    %45 = stablehlo.broadcast_in_dim %arg14, dims = [1] : (tensor<32xf32>) -> tensor<256x32xf32>
    %46 = stablehlo.add %44, %45 : tensor<256x32xf32>
    %47 = stablehlo.reshape %46 : (tensor<256x32xf32>) -> tensor<256x4x8xf32>
    %48 = stablehlo.dot_general %43, %arg9, contracting_dims = [1] x [1] : (tensor<256x32xf32>, tensor<16x32xf32>) -> tensor<256x16xf32>
    %49 = stablehlo.broadcast_in_dim %arg13, dims = [1] : (tensor<16xf32>) -> tensor<256x16xf32>
    %50 = stablehlo.add %48, %49 : tensor<256x16xf32>
    %51 = stablehlo.reshape %50 : (tensor<256x16xf32>) -> tensor<256x2x8xf32>
    %52 = stablehlo.dot_general %43, %arg12, contracting_dims = [1] x [1] : (tensor<256x32xf32>, tensor<16x32xf32>) -> tensor<256x16xf32>
    %53 = stablehlo.broadcast_in_dim %arg15, dims = [1] : (tensor<16xf32>) -> tensor<256x16xf32>
    %54 = stablehlo.add %52, %53 : tensor<256x16xf32>
    %55 = stablehlo.reshape %54 : (tensor<256x16xf32>) -> tensor<256x2x8xf32>
    %56 = stablehlo.slice %47 [0:256, 0:4, 0:2] : (tensor<256x4x8xf32>) -> tensor<256x4x2xf32>
    %57 = stablehlo.slice %47 [0:256, 0:4, 2:8] : (tensor<256x4x8xf32>) -> tensor<256x4x6xf32>
    %58 = stablehlo.broadcast_in_dim %15, dims = [0, 2] : (tensor<256x2xf32>) -> tensor<256x4x2xf32>
    %59 = stablehlo.broadcast_in_dim %16, dims = [0, 2] : (tensor<256x2xf32>) -> tensor<256x4x2xf32>
    %60 = stablehlo.multiply %56, %58 : tensor<256x4x2xf32>
    %61 = stablehlo.slice %56 [0:256, 0:4, 0:1] : (tensor<256x4x2xf32>) -> tensor<256x4x1xf32>
    %62 = stablehlo.slice %56 [0:256, 0:4, 1:2] : (tensor<256x4x2xf32>) -> tensor<256x4x1xf32>
    %63 = stablehlo.negate %62 : tensor<256x4x1xf32>
    %64 = stablehlo.concatenate %63, %61, dim = 2 : (tensor<256x4x1xf32>, tensor<256x4x1xf32>) -> tensor<256x4x2xf32>
    %65 = stablehlo.multiply %64, %59 : tensor<256x4x2xf32>
    %66 = stablehlo.add %60, %65 : tensor<256x4x2xf32>
    %67 = stablehlo.concatenate %66, %57, dim = 2 : (tensor<256x4x2xf32>, tensor<256x4x6xf32>) -> tensor<256x4x8xf32>
    %68 = stablehlo.slice %51 [0:256, 0:2, 0:2] : (tensor<256x2x8xf32>) -> tensor<256x2x2xf32>
    %69 = stablehlo.slice %51 [0:256, 0:2, 2:8] : (tensor<256x2x8xf32>) -> tensor<256x2x6xf32>
    %70 = stablehlo.broadcast_in_dim %15, dims = [0, 2] : (tensor<256x2xf32>) -> tensor<256x2x2xf32>
    %71 = stablehlo.broadcast_in_dim %16, dims = [0, 2] : (tensor<256x2xf32>) -> tensor<256x2x2xf32>
    %72 = stablehlo.multiply %68, %70 : tensor<256x2x2xf32>
    %73 = stablehlo.slice %68 [0:256, 0:2, 0:1] : (tensor<256x2x2xf32>) -> tensor<256x2x1xf32>
    %74 = stablehlo.slice %68 [0:256, 0:2, 1:2] : (tensor<256x2x2xf32>) -> tensor<256x2x1xf32>
    %75 = stablehlo.negate %74 : tensor<256x2x1xf32>
    %76 = stablehlo.concatenate %75, %73, dim = 2 : (tensor<256x2x1xf32>, tensor<256x2x1xf32>) -> tensor<256x2x2xf32>
    %77 = stablehlo.multiply %76, %71 : tensor<256x2x2xf32>
    %78 = stablehlo.add %72, %77 : tensor<256x2x2xf32>
    %79 = stablehlo.concatenate %78, %69, dim = 2 : (tensor<256x2x2xf32>, tensor<256x2x6xf32>) -> tensor<256x2x8xf32>
    %80 = stablehlo.reshape %79 : (tensor<256x2x8xf32>) -> tensor<1x256x2x8xf32>
    %81 = stablehlo.dynamic_update_slice %25, %80, %10, %9, %9, %9 : (tensor<2x256x2x8xf32>, tensor<1x256x2x8xf32>, tensor<i32>, tensor<i32>, tensor<i32>, tensor<i32>) -> tensor<2x256x2x8xf32>
    %82 = stablehlo.reshape %55 : (tensor<256x2x8xf32>) -> tensor<1x256x2x8xf32>
    %83 = stablehlo.dynamic_update_slice %26, %82, %10, %9, %9, %9 : (tensor<2x256x2x8xf32>, tensor<1x256x2x8xf32>, tensor<i32>, tensor<i32>, tensor<i32>, tensor<i32>) -> tensor<2x256x2x8xf32>
    %84 = stablehlo.reshape %67 : (tensor<256x4x8xf32>) -> tensor<256x2x2x8xf32>
    %85 = stablehlo.dot_general %84, %79, batching_dims = [1] x [1], contracting_dims = [3] x [2] : (tensor<256x2x2x8xf32>, tensor<256x2x8xf32>) -> tensor<2x256x2x256xf32>
    %86 = stablehlo.broadcast_in_dim %8, dims = [] : (tensor<f32>) -> tensor<2x256x2x256xf32>
    %87 = stablehlo.multiply %85, %86 : tensor<2x256x2x256xf32>
    %88 = stablehlo.broadcast_in_dim %24, dims = [1, 3] : (tensor<256x256xf32>) -> tensor<2x256x2x256xf32>
    %89 = stablehlo.add %87, %88 : tensor<2x256x2x256xf32>
    %90 = stablehlo.reduce(%89 init: %4) applies stablehlo.maximum across dimensions = [3] : (tensor<2x256x2x256xf32>, tensor<f32>) -> tensor<2x256x2xf32>
    %91 = stablehlo.broadcast_in_dim %90, dims = [0, 1, 2] : (tensor<2x256x2xf32>) -> tensor<2x256x2x256xf32>
    %92 = stablehlo.subtract %89, %91 : tensor<2x256x2x256xf32>
    %93 = stablehlo.exponential %92 : tensor<2x256x2x256xf32>
    %94 = stablehlo.reduce(%93 init: %2) applies stablehlo.add across dimensions = [3] : (tensor<2x256x2x256xf32>, tensor<f32>) -> tensor<2x256x2xf32>
    %95 = stablehlo.broadcast_in_dim %94, dims = [0, 1, 2] : (tensor<2x256x2xf32>) -> tensor<2x256x2x256xf32>
    %96 = stablehlo.divide %93, %95 : tensor<2x256x2x256xf32>
    %97 = stablehlo.dot_general %96, %55, batching_dims = [0] x [1], contracting_dims = [3] x [0] : (tensor<2x256x2x256xf32>, tensor<256x2x8xf32>) -> tensor<2x256x2x8xf32>
    %98 = stablehlo.transpose %97, dims = [1, 0, 2, 3] : (tensor<2x256x2x8xf32>) -> tensor<256x2x2x8xf32>
    %99 = stablehlo.reshape %98 : (tensor<256x2x2x8xf32>) -> tensor<256x32xf32>
    %100 = stablehlo.dot_general %99, %arg10, contracting_dims = [1] x [1] : (tensor<256x32xf32>, tensor<32x32xf32>) -> tensor<256x32xf32>
    %101 = stablehlo.add %13, %100 : tensor<256x32xf32>
    %102 = stablehlo.reduce(%101 init: %2) applies stablehlo.add across dimensions = [1] : (tensor<256x32xf32>, tensor<f32>) -> tensor<256xf32>
    %103 = stablehlo.broadcast_in_dim %7, dims = [] : (tensor<f32>) -> tensor<256xf32>
    %104 = stablehlo.divide %102, %103 : tensor<256xf32>
    %105 = stablehlo.broadcast_in_dim %104, dims = [0] : (tensor<256xf32>) -> tensor<256x32xf32>
    %106 = stablehlo.subtract %101, %105 : tensor<256x32xf32>
    %107 = stablehlo.multiply %106, %106 : tensor<256x32xf32>
    %108 = stablehlo.reduce(%107 init: %2) applies stablehlo.add across dimensions = [1] : (tensor<256x32xf32>, tensor<f32>) -> tensor<256xf32>
    %109 = stablehlo.divide %108, %103 : tensor<256xf32>
    %110 = stablehlo.broadcast_in_dim %6, dims = [] : (tensor<f32>) -> tensor<256xf32>
    %111 = stablehlo.add %109, %110 : tensor<256xf32>
    %112 = stablehlo.rsqrt %111 : tensor<256xf32>
    %113 = stablehlo.broadcast_in_dim %112, dims = [0] : (tensor<256xf32>) -> tensor<256x32xf32>
    %114 = stablehlo.multiply %106, %113 : tensor<256x32xf32>
    %115 = stablehlo.broadcast_in_dim %arg7, dims = [1] : (tensor<32xf32>) -> tensor<256x32xf32>
    %116 = stablehlo.multiply %114, %115 : tensor<256x32xf32>
    %117 = stablehlo.broadcast_in_dim %arg17, dims = [1] : (tensor<32xf32>) -> tensor<256x32xf32>
    %118 = stablehlo.add %116, %117 : tensor<256x32xf32>
    %119 = stablehlo.dot_general %118, %arg5, contracting_dims = [1] x [1] : (tensor<256x32xf32>, tensor<64x32xf32>) -> tensor<256x64xf32>
    %120 = stablehlo.dot_general %118, %arg8, contracting_dims = [1] x [1] : (tensor<256x32xf32>, tensor<64x32xf32>) -> tensor<256x64xf32>
    %121 = stablehlo.negate %119 : tensor<256x64xf32>
    %122 = stablehlo.exponential %121 : tensor<256x64xf32>
    %123 = stablehlo.broadcast_in_dim %3, dims = [] : (tensor<f32>) -> tensor<256x64xf32>
    %124 = stablehlo.add %123, %122 : tensor<256x64xf32>
    %125 = stablehlo.divide %123, %124 : tensor<256x64xf32>
    %126 = stablehlo.multiply %119, %125 : tensor<256x64xf32>
    %127 = stablehlo.multiply %126, %120 : tensor<256x64xf32>
    %128 = stablehlo.dot_general %127, %arg4, contracting_dims = [1] x [1] : (tensor<256x64xf32>, tensor<32x64xf32>) -> tensor<256x32xf32>
    %129 = stablehlo.add %101, %128 : tensor<256x32xf32>
    %130 = stablehlo.reduce(%129 init: %2) applies stablehlo.add across dimensions = [1] : (tensor<256x32xf32>, tensor<f32>) -> tensor<256xf32>
    %131 = stablehlo.broadcast_in_dim %7, dims = [] : (tensor<f32>) -> tensor<256xf32>
    %132 = stablehlo.divide %130, %131 : tensor<256xf32>
    %133 = stablehlo.broadcast_in_dim %132, dims = [0] : (tensor<256xf32>) -> tensor<256x32xf32>
    %134 = stablehlo.subtract %129, %133 : tensor<256x32xf32>
    %135 = stablehlo.multiply %134, %134 : tensor<256x32xf32>
    %136 = stablehlo.reduce(%135 init: %2) applies stablehlo.add across dimensions = [1] : (tensor<256x32xf32>, tensor<f32>) -> tensor<256xf32>
    %137 = stablehlo.divide %136, %131 : tensor<256xf32>
    %138 = stablehlo.broadcast_in_dim %6, dims = [] : (tensor<f32>) -> tensor<256xf32>
    %139 = stablehlo.add %137, %138 : tensor<256xf32>
    %140 = stablehlo.rsqrt %139 : tensor<256xf32>
    %141 = stablehlo.broadcast_in_dim %140, dims = [0] : (tensor<256xf32>) -> tensor<256x32xf32>
    %142 = stablehlo.multiply %134, %141 : tensor<256x32xf32>
    %143 = stablehlo.broadcast_in_dim %arg20, dims = [1] : (tensor<32xf32>) -> tensor<256x32xf32>
    %144 = stablehlo.multiply %142, %143 : tensor<256x32xf32>
    %145 = stablehlo.broadcast_in_dim %arg30, dims = [1] : (tensor<32xf32>) -> tensor<256x32xf32>
    %146 = stablehlo.add %144, %145 : tensor<256x32xf32>
    %147 = stablehlo.dot_general %146, %arg25, contracting_dims = [1] x [1] : (tensor<256x32xf32>, tensor<32x32xf32>) -> tensor<256x32xf32>
    %148 = stablehlo.broadcast_in_dim %arg28, dims = [1] : (tensor<32xf32>) -> tensor<256x32xf32>
    %149 = stablehlo.add %147, %148 : tensor<256x32xf32>
    %150 = stablehlo.reshape %149 : (tensor<256x32xf32>) -> tensor<256x4x8xf32>
    %151 = stablehlo.dot_general %146, %arg23, contracting_dims = [1] x [1] : (tensor<256x32xf32>, tensor<16x32xf32>) -> tensor<256x16xf32>
    %152 = stablehlo.broadcast_in_dim %arg27, dims = [1] : (tensor<16xf32>) -> tensor<256x16xf32>
    %153 = stablehlo.add %151, %152 : tensor<256x16xf32>
    %154 = stablehlo.reshape %153 : (tensor<256x16xf32>) -> tensor<256x2x8xf32>
    %155 = stablehlo.dot_general %146, %arg26, contracting_dims = [1] x [1] : (tensor<256x32xf32>, tensor<16x32xf32>) -> tensor<256x16xf32>
    %156 = stablehlo.broadcast_in_dim %arg29, dims = [1] : (tensor<16xf32>) -> tensor<256x16xf32>
    %157 = stablehlo.add %155, %156 : tensor<256x16xf32>
    %158 = stablehlo.reshape %157 : (tensor<256x16xf32>) -> tensor<256x2x8xf32>
    %159 = stablehlo.slice %150 [0:256, 0:4, 0:2] : (tensor<256x4x8xf32>) -> tensor<256x4x2xf32>
    %160 = stablehlo.slice %150 [0:256, 0:4, 2:8] : (tensor<256x4x8xf32>) -> tensor<256x4x6xf32>
    %161 = stablehlo.broadcast_in_dim %15, dims = [0, 2] : (tensor<256x2xf32>) -> tensor<256x4x2xf32>
    %162 = stablehlo.broadcast_in_dim %16, dims = [0, 2] : (tensor<256x2xf32>) -> tensor<256x4x2xf32>
    %163 = stablehlo.multiply %159, %161 : tensor<256x4x2xf32>
    %164 = stablehlo.slice %159 [0:256, 0:4, 0:1] : (tensor<256x4x2xf32>) -> tensor<256x4x1xf32>
    %165 = stablehlo.slice %159 [0:256, 0:4, 1:2] : (tensor<256x4x2xf32>) -> tensor<256x4x1xf32>
    %166 = stablehlo.negate %165 : tensor<256x4x1xf32>
    %167 = stablehlo.concatenate %166, %164, dim = 2 : (tensor<256x4x1xf32>, tensor<256x4x1xf32>) -> tensor<256x4x2xf32>
    %168 = stablehlo.multiply %167, %162 : tensor<256x4x2xf32>
    %169 = stablehlo.add %163, %168 : tensor<256x4x2xf32>
    %170 = stablehlo.concatenate %169, %160, dim = 2 : (tensor<256x4x2xf32>, tensor<256x4x6xf32>) -> tensor<256x4x8xf32>
    %171 = stablehlo.slice %154 [0:256, 0:2, 0:2] : (tensor<256x2x8xf32>) -> tensor<256x2x2xf32>
    %172 = stablehlo.slice %154 [0:256, 0:2, 2:8] : (tensor<256x2x8xf32>) -> tensor<256x2x6xf32>
    %173 = stablehlo.broadcast_in_dim %15, dims = [0, 2] : (tensor<256x2xf32>) -> tensor<256x2x2xf32>
    %174 = stablehlo.broadcast_in_dim %16, dims = [0, 2] : (tensor<256x2xf32>) -> tensor<256x2x2xf32>
    %175 = stablehlo.multiply %171, %173 : tensor<256x2x2xf32>
    %176 = stablehlo.slice %171 [0:256, 0:2, 0:1] : (tensor<256x2x2xf32>) -> tensor<256x2x1xf32>
    %177 = stablehlo.slice %171 [0:256, 0:2, 1:2] : (tensor<256x2x2xf32>) -> tensor<256x2x1xf32>
    %178 = stablehlo.negate %177 : tensor<256x2x1xf32>
    %179 = stablehlo.concatenate %178, %176, dim = 2 : (tensor<256x2x1xf32>, tensor<256x2x1xf32>) -> tensor<256x2x2xf32>
    %180 = stablehlo.multiply %179, %174 : tensor<256x2x2xf32>
    %181 = stablehlo.add %175, %180 : tensor<256x2x2xf32>
    %182 = stablehlo.concatenate %181, %172, dim = 2 : (tensor<256x2x2xf32>, tensor<256x2x6xf32>) -> tensor<256x2x8xf32>
    %183 = stablehlo.reshape %182 : (tensor<256x2x8xf32>) -> tensor<1x256x2x8xf32>
    %184 = stablehlo.dynamic_update_slice %81, %183, %11, %9, %9, %9 : (tensor<2x256x2x8xf32>, tensor<1x256x2x8xf32>, tensor<i32>, tensor<i32>, tensor<i32>, tensor<i32>) -> tensor<2x256x2x8xf32>
    %185 = stablehlo.reshape %158 : (tensor<256x2x8xf32>) -> tensor<1x256x2x8xf32>
    %186 = stablehlo.dynamic_update_slice %83, %185, %11, %9, %9, %9 : (tensor<2x256x2x8xf32>, tensor<1x256x2x8xf32>, tensor<i32>, tensor<i32>, tensor<i32>, tensor<i32>) -> tensor<2x256x2x8xf32>
    %187 = stablehlo.reshape %170 : (tensor<256x4x8xf32>) -> tensor<256x2x2x8xf32>
    %188 = stablehlo.dot_general %187, %182, batching_dims = [1] x [1], contracting_dims = [3] x [2] : (tensor<256x2x2x8xf32>, tensor<256x2x8xf32>) -> tensor<2x256x2x256xf32>
    %189 = stablehlo.broadcast_in_dim %8, dims = [] : (tensor<f32>) -> tensor<2x256x2x256xf32>
    %190 = stablehlo.multiply %188, %189 : tensor<2x256x2x256xf32>
    %191 = stablehlo.broadcast_in_dim %24, dims = [1, 3] : (tensor<256x256xf32>) -> tensor<2x256x2x256xf32>
    %192 = stablehlo.add %190, %191 : tensor<2x256x2x256xf32>
    %193 = stablehlo.reduce(%192 init: %4) applies stablehlo.maximum across dimensions = [3] : (tensor<2x256x2x256xf32>, tensor<f32>) -> tensor<2x256x2xf32>
    %194 = stablehlo.broadcast_in_dim %193, dims = [0, 1, 2] : (tensor<2x256x2xf32>) -> tensor<2x256x2x256xf32>
    %195 = stablehlo.subtract %192, %194 : tensor<2x256x2x256xf32>
    %196 = stablehlo.exponential %195 : tensor<2x256x2x256xf32>
    %197 = stablehlo.reduce(%196 init: %2) applies stablehlo.add across dimensions = [3] : (tensor<2x256x2x256xf32>, tensor<f32>) -> tensor<2x256x2xf32>
    %198 = stablehlo.broadcast_in_dim %197, dims = [0, 1, 2] : (tensor<2x256x2xf32>) -> tensor<2x256x2x256xf32>
    %199 = stablehlo.divide %196, %198 : tensor<2x256x2x256xf32>
    %200 = stablehlo.dot_general %199, %158, batching_dims = [0] x [1], contracting_dims = [3] x [0] : (tensor<2x256x2x256xf32>, tensor<256x2x8xf32>) -> tensor<2x256x2x8xf32>
    %201 = stablehlo.transpose %200, dims = [1, 0, 2, 3] : (tensor<2x256x2x8xf32>) -> tensor<256x2x2x8xf32>
    %202 = stablehlo.reshape %201 : (tensor<256x2x2x8xf32>) -> tensor<256x32xf32>
    %203 = stablehlo.dot_general %202, %arg24, contracting_dims = [1] x [1] : (tensor<256x32xf32>, tensor<32x32xf32>) -> tensor<256x32xf32>
    %204 = stablehlo.add %129, %203 : tensor<256x32xf32>
    %205 = stablehlo.reduce(%204 init: %2) applies stablehlo.add across dimensions = [1] : (tensor<256x32xf32>, tensor<f32>) -> tensor<256xf32>
    %206 = stablehlo.broadcast_in_dim %7, dims = [] : (tensor<f32>) -> tensor<256xf32>
    %207 = stablehlo.divide %205, %206 : tensor<256xf32>
    %208 = stablehlo.broadcast_in_dim %207, dims = [0] : (tensor<256xf32>) -> tensor<256x32xf32>
    %209 = stablehlo.subtract %204, %208 : tensor<256x32xf32>
    %210 = stablehlo.multiply %209, %209 : tensor<256x32xf32>
    %211 = stablehlo.reduce(%210 init: %2) applies stablehlo.add across dimensions = [1] : (tensor<256x32xf32>, tensor<f32>) -> tensor<256xf32>
    %212 = stablehlo.divide %211, %206 : tensor<256xf32>
    %213 = stablehlo.broadcast_in_dim %6, dims = [] : (tensor<f32>) -> tensor<256xf32>
    %214 = stablehlo.add %212, %213 : tensor<256xf32>
    %215 = stablehlo.rsqrt %214 : tensor<256xf32>
    %216 = stablehlo.broadcast_in_dim %215, dims = [0] : (tensor<256xf32>) -> tensor<256x32xf32>
    %217 = stablehlo.multiply %209, %216 : tensor<256x32xf32>
    %218 = stablehlo.broadcast_in_dim %arg21, dims = [1] : (tensor<32xf32>) -> tensor<256x32xf32>
    %219 = stablehlo.multiply %217, %218 : tensor<256x32xf32>
    %220 = stablehlo.broadcast_in_dim %arg31, dims = [1] : (tensor<32xf32>) -> tensor<256x32xf32>
    %221 = stablehlo.add %219, %220 : tensor<256x32xf32>
    %222 = stablehlo.dot_general %221, %arg19, contracting_dims = [1] x [1] : (tensor<256x32xf32>, tensor<64x32xf32>) -> tensor<256x64xf32>
    %223 = stablehlo.dot_general %221, %arg22, contracting_dims = [1] x [1] : (tensor<256x32xf32>, tensor<64x32xf32>) -> tensor<256x64xf32>
    %224 = stablehlo.negate %222 : tensor<256x64xf32>
    %225 = stablehlo.exponential %224 : tensor<256x64xf32>
    %226 = stablehlo.broadcast_in_dim %3, dims = [] : (tensor<f32>) -> tensor<256x64xf32>
    %227 = stablehlo.add %226, %225 : tensor<256x64xf32>
    %228 = stablehlo.divide %226, %227 : tensor<256x64xf32>
    %229 = stablehlo.multiply %222, %228 : tensor<256x64xf32>
    %230 = stablehlo.multiply %229, %223 : tensor<256x64xf32>
    %231 = stablehlo.dot_general %230, %arg18, contracting_dims = [1] x [1] : (tensor<256x64xf32>, tensor<32x64xf32>) -> tensor<256x32xf32>
    %232 = stablehlo.add %204, %231 : tensor<256x32xf32>
    %233 = stablehlo.reduce(%232 init: %2) applies stablehlo.add across dimensions = [1] : (tensor<256x32xf32>, tensor<f32>) -> tensor<256xf32>
    %234 = stablehlo.broadcast_in_dim %7, dims = [] : (tensor<f32>) -> tensor<256xf32>
    %235 = stablehlo.divide %233, %234 : tensor<256xf32>
    %236 = stablehlo.broadcast_in_dim %235, dims = [0] : (tensor<256xf32>) -> tensor<256x32xf32>
    %237 = stablehlo.subtract %232, %236 : tensor<256x32xf32>
    %238 = stablehlo.multiply %237, %237 : tensor<256x32xf32>
    %239 = stablehlo.reduce(%238 init: %2) applies stablehlo.add across dimensions = [1] : (tensor<256x32xf32>, tensor<f32>) -> tensor<256xf32>
    %240 = stablehlo.divide %239, %234 : tensor<256xf32>
    %241 = stablehlo.broadcast_in_dim %6, dims = [] : (tensor<f32>) -> tensor<256xf32>
    %242 = stablehlo.add %240, %241 : tensor<256xf32>
    %243 = stablehlo.rsqrt %242 : tensor<256xf32>
    %244 = stablehlo.broadcast_in_dim %243, dims = [0] : (tensor<256xf32>) -> tensor<256x32xf32>
    %245 = stablehlo.multiply %237, %244 : tensor<256x32xf32>
    %246 = stablehlo.broadcast_in_dim %arg1, dims = [1] : (tensor<32xf32>) -> tensor<256x32xf32>
    %247 = stablehlo.multiply %245, %246 : tensor<256x32xf32>
    %248 = stablehlo.broadcast_in_dim %arg2, dims = [1] : (tensor<32xf32>) -> tensor<256x32xf32>
    %249 = stablehlo.add %247, %248 : tensor<256x32xf32>
    %250 = stablehlo.constant dense<1> : tensor<i32>
    %251 = stablehlo.subtract %arg34, %250 : tensor<i32>
    %252 = stablehlo.dynamic_slice %249, %251, %9, sizes = [1, 32] : (tensor<256x32xf32>, tensor<i32>, tensor<i32>) -> tensor<1x32xf32>
    %253 = stablehlo.reshape %252 : (tensor<1x32xf32>) -> tensor<32xf32>
    %254 = stablehlo.dot_general %253, %arg3, contracting_dims = [0] x [1] : (tensor<32xf32>, tensor<32x32xf32>) -> tensor<32xf32>
    return %254, %184, %186 : tensor<32xf32>, tensor<2x256x2x8xf32>, tensor<2x256x2x8xf32>
  }
}
