module @decode_step {
  func.func public @main(%arg0: tensor<10x8xf32> loc("params['embed']"), %arg1: tensor<8xf32> loc("params['final_norm']"), %arg2: tensor<10x8xf32> loc("params['lm_head']"), %arg3: tensor<8x16xf32> loc("params['layers'][0]['down']"), %arg4: tensor<16x8xf32> loc("params['layers'][0]['gate']"), %arg5: tensor<8xf32> loc("params['layers'][0]['in_ln']"), %arg6: tensor<8xf32> loc("params['layers'][0]['post_ln']"), %arg7: tensor<16x8xf32> loc("params['layers'][0]['up']"), %arg8: tensor<4x8xf32> loc("params['layers'][0]['wk']"), %arg9: tensor<8x8xf32> loc("params['layers'][0]['wo']"), %arg10: tensor<8x8xf32> loc("params['layers'][0]['wq']"), %arg11: tensor<4x8xf32> loc("params['layers'][0]['wv']"), %arg12: tensor<4xf32> loc("params['layers'][0]['bk']"), %arg13: tensor<8xf32> loc("params['layers'][0]['bq']"), %arg14: tensor<4xf32> loc("params['layers'][0]['bv']"), %arg15: tensor<8x16xf32> loc("params['layers'][1]['down']"), %arg16: tensor<16x8xf32> loc("params['layers'][1]['gate']"), %arg17: tensor<8xf32> loc("params['layers'][1]['in_ln']"), %arg18: tensor<8xf32> loc("params['layers'][1]['post_ln']"), %arg19: tensor<16x8xf32> loc("params['layers'][1]['up']"), %arg20: tensor<4x8xf32> loc("params['layers'][1]['wk']"), %arg21: tensor<8x8xf32> loc("params['layers'][1]['wo']"), %arg22: tensor<8x8xf32> loc("params['layers'][1]['wq']"), %arg23: tensor<4x8xf32> loc("params['layers'][1]['wv']"), %arg24: tensor<4xf32> loc("params['layers'][1]['bk']"), %arg25: tensor<8xf32> loc("params['layers'][1]['bq']"), %arg26: tensor<4xf32> loc("params['layers'][1]['bv']"), %arg27: tensor<i32> loc("token"), %arg28: tensor<i32> loc("pos"), %arg29: tensor<i32> loc("cache_len"), %arg30: tensor<2x256x1x4xf32> loc("kcache"), %arg31: tensor<2x256x1x4xf32> loc("vcache")) -> (tensor<i32>, tensor<2x256x1x4xf32>, tensor<2x256x1x4xf32>) {
    %0 = stablehlo.constant dense<"…"> : tensor<256x4xf32>
    %1 = stablehlo.constant dense<"…"> : tensor<256x4xf32>
    %2 = stablehlo.constant dense<0x00000000> : tensor<f32>
    %3 = stablehlo.constant dense<0x3F800000> : tensor<f32>
    %4 = stablehlo.constant dense<0xFF800000> : tensor<f32>
    %5 = stablehlo.constant dense<0xF149F2CA> : tensor<f32>
    %6 = stablehlo.constant dense<0x3727C5AC> : tensor<f32>
    %7 = stablehlo.constant dense<0x41000000> : tensor<f32>
    %8 = stablehlo.constant dense<0x3F000000> : tensor<f32>
    %9 = stablehlo.constant dense<0> : tensor<i32>
    %10 = stablehlo.constant dense<0> : tensor<i32>
    %11 = stablehlo.constant dense<1> : tensor<i32>
    %12 = stablehlo.dynamic_slice %arg0, %arg27, %9, sizes = [1, 8] : (tensor<10x8xf32>, tensor<i32>, tensor<i32>) -> tensor<1x8xf32>
    %13 = stablehlo.reshape %12 : (tensor<1x8xf32>) -> tensor<8xf32>
    %14 = stablehlo.dynamic_slice %0, %arg28, %9, sizes = [1, 4] : (tensor<256x4xf32>, tensor<i32>, tensor<i32>) -> tensor<1x4xf32>
    %15 = stablehlo.reshape %14 : (tensor<1x4xf32>) -> tensor<4xf32>
    %16 = stablehlo.dynamic_slice %1, %arg28, %9, sizes = [1, 4] : (tensor<256x4xf32>, tensor<i32>, tensor<i32>) -> tensor<1x4xf32>
    %17 = stablehlo.reshape %16 : (tensor<1x4xf32>) -> tensor<4xf32>
    %18 = stablehlo.iota dim = 0 : tensor<256xi32>
    %19 = stablehlo.broadcast_in_dim %arg29, dims = [] : (tensor<i32>) -> tensor<256xi32>
    %20 = stablehlo.compare LE, %18, %19, SIGNED : (tensor<256xi32>, tensor<256xi32>) -> tensor<256xi1>
    %21 = stablehlo.broadcast_in_dim %2, dims = [] : (tensor<f32>) -> tensor<256xf32>
    %22 = stablehlo.broadcast_in_dim %5, dims = [] : (tensor<f32>) -> tensor<256xf32>
    %23 = stablehlo.select %20, %21, %22 : tensor<256xi1>, tensor<256xf32>
    %24 = stablehlo.multiply %13, %13 : tensor<8xf32>
    %25 = stablehlo.reduce(%24 init: %2) applies stablehlo.add across dimensions = [0] : (tensor<8xf32>, tensor<f32>) -> tensor<f32>
    %26 = stablehlo.divide %25, %7 : tensor<f32>
    %27 = stablehlo.add %26, %6 : tensor<f32>
    %28 = stablehlo.rsqrt %27 : tensor<f32>
    %29 = stablehlo.broadcast_in_dim %28, dims = [] : (tensor<f32>) -> tensor<8xf32>
    %30 = stablehlo.multiply %13, %29 : tensor<8xf32>
    %31 = stablehlo.multiply %30, %arg5 : tensor<8xf32>
    %32 = stablehlo.dot_general %31, %arg10, contracting_dims = [0] x [1] : (tensor<8xf32>, tensor<8x8xf32>) -> tensor<8xf32>
    %33 = stablehlo.add %32, %arg13 : tensor<8xf32>
    %34 = stablehlo.reshape %33 : (tensor<8xf32>) -> tensor<2x4xf32>
    %35 = stablehlo.dot_general %31, %arg8, contracting_dims = [0] x [1] : (tensor<8xf32>, tensor<4x8xf32>) -> tensor<4xf32>
    %36 = stablehlo.add %35, %arg12 : tensor<4xf32>
    %37 = stablehlo.reshape %36 : (tensor<4xf32>) -> tensor<1x4xf32>
    %38 = stablehlo.dot_general %31, %arg11, contracting_dims = [0] x [1] : (tensor<8xf32>, tensor<4x8xf32>) -> tensor<4xf32>
    %39 = stablehlo.add %38, %arg14 : tensor<4xf32>
    %40 = stablehlo.reshape %39 : (tensor<4xf32>) -> tensor<1x4xf32>
    %41 = stablehlo.broadcast_in_dim %15, dims = [1] : (tensor<4xf32>) -> tensor<2x4xf32>
    %42 = stablehlo.broadcast_in_dim %17, dims = [1] : (tensor<4xf32>) -> tensor<2x4xf32>
    %43 = stablehlo.multiply %34, %41 : tensor<2x4xf32>
    %44 = stablehlo.slice %34 [0:2, 0:2] : (tensor<2x4xf32>) -> tensor<2x2xf32>
    %45 = stablehlo.slice %34 [0:2, 2:4] : (tensor<2x4xf32>) -> tensor<2x2xf32>
    %46 = stablehlo.negate %45 : tensor<2x2xf32>
    %47 = stablehlo.concatenate %46, %44, dim = 1 : (tensor<2x2xf32>, tensor<2x2xf32>) -> tensor<2x4xf32>
    %48 = stablehlo.multiply %47, %42 : tensor<2x4xf32>
    %49 = stablehlo.add %43, %48 : tensor<2x4xf32>
    %50 = stablehlo.broadcast_in_dim %15, dims = [1] : (tensor<4xf32>) -> tensor<1x4xf32>
    %51 = stablehlo.broadcast_in_dim %17, dims = [1] : (tensor<4xf32>) -> tensor<1x4xf32>
    %52 = stablehlo.multiply %37, %50 : tensor<1x4xf32>
    %53 = stablehlo.slice %37 [0:1, 0:2] : (tensor<1x4xf32>) -> tensor<1x2xf32>
    %54 = stablehlo.slice %37 [0:1, 2:4] : (tensor<1x4xf32>) -> tensor<1x2xf32>
    %55 = stablehlo.negate %54 : tensor<1x2xf32>
    %56 = stablehlo.concatenate %55, %53, dim = 1 : (tensor<1x2xf32>, tensor<1x2xf32>) -> tensor<1x4xf32>
    %57 = stablehlo.multiply %56, %51 : tensor<1x4xf32>
    %58 = stablehlo.add %52, %57 : tensor<1x4xf32>
    %59 = stablehlo.reshape %58 : (tensor<1x4xf32>) -> tensor<1x1x1x4xf32>
    %60 = stablehlo.dynamic_update_slice %arg30, %59, %10, %arg29, %9, %9 : (tensor<2x256x1x4xf32>, tensor<1x1x1x4xf32>, tensor<i32>, tensor<i32>, tensor<i32>, tensor<i32>) -> tensor<2x256x1x4xf32>
    %61 = stablehlo.reshape %40 : (tensor<1x4xf32>) -> tensor<1x1x1x4xf32>
    %62 = stablehlo.dynamic_update_slice %arg31, %61, %10, %arg29, %9, %9 : (tensor<2x256x1x4xf32>, tensor<1x1x1x4xf32>, tensor<i32>, tensor<i32>, tensor<i32>, tensor<i32>) -> tensor<2x256x1x4xf32>
    %63 = stablehlo.slice %60 [0:1, 0:256, 0:1, 0:4] : (tensor<2x256x1x4xf32>) -> tensor<1x256x1x4xf32>
    %64 = stablehlo.reshape %63 : (tensor<1x256x1x4xf32>) -> tensor<256x1x4xf32>
    %65 = stablehlo.slice %62 [0:1, 0:256, 0:1, 0:4] : (tensor<2x256x1x4xf32>) -> tensor<1x256x1x4xf32>
    %66 = stablehlo.reshape %65 : (tensor<1x256x1x4xf32>) -> tensor<256x1x4xf32>
    %67 = stablehlo.reshape %49 : (tensor<2x4xf32>) -> tensor<1x2x4xf32>
    %68 = stablehlo.dot_general %67, %64, batching_dims = [0] x [1], contracting_dims = [2] x [2] : (tensor<1x2x4xf32>, tensor<256x1x4xf32>) -> tensor<1x2x256xf32>
    %69 = stablehlo.reshape %68 : (tensor<1x2x256xf32>) -> tensor<2x256xf32>
    %70 = stablehlo.broadcast_in_dim %8, dims = [] : (tensor<f32>) -> tensor<2x256xf32>
    %71 = stablehlo.multiply %69, %70 : tensor<2x256xf32>
    %72 = stablehlo.broadcast_in_dim %23, dims = [1] : (tensor<256xf32>) -> tensor<2x256xf32>
    %73 = stablehlo.add %71, %72 : tensor<2x256xf32>
    %74 = stablehlo.reduce(%73 init: %4) applies stablehlo.maximum across dimensions = [1] : (tensor<2x256xf32>, tensor<f32>) -> tensor<2xf32>
    %75 = stablehlo.broadcast_in_dim %74, dims = [0] : (tensor<2xf32>) -> tensor<2x256xf32>
    %76 = stablehlo.subtract %73, %75 : tensor<2x256xf32>
    %77 = stablehlo.exponential %76 : tensor<2x256xf32>
    %78 = stablehlo.reduce(%77 init: %2) applies stablehlo.add across dimensions = [1] : (tensor<2x256xf32>, tensor<f32>) -> tensor<2xf32>
    %79 = stablehlo.broadcast_in_dim %78, dims = [0] : (tensor<2xf32>) -> tensor<2x256xf32>
    %80 = stablehlo.divide %77, %79 : tensor<2x256xf32>
    %81 = stablehlo.reshape %80 : (tensor<2x256xf32>) -> tensor<1x2x256xf32>
    %82 = stablehlo.dot_general %81, %66, batching_dims = [0] x [1], contracting_dims = [2] x [0] : (tensor<1x2x256xf32>, tensor<256x1x4xf32>) -> tensor<1x2x4xf32>
    %83 = stablehlo.reshape %82 : (tensor<1x2x4xf32>) -> tensor<2x4xf32>
    %84 = stablehlo.reshape %83 : (tensor<2x4xf32>) -> tensor<8xf32>
    %85 = stablehlo.dot_general %84, %arg9, contracting_dims = [0] x [1] : (tensor<8xf32>, tensor<8x8xf32>) -> tensor<8xf32>
    %86 = stablehlo.add %13, %85 : tensor<8xf32>
    %87 = stablehlo.multiply %86, %86 : tensor<8xf32>
    %88 = stablehlo.reduce(%87 init: %2) applies stablehlo.add across dimensions = [0] : (tensor<8xf32>, tensor<f32>) -> tensor<f32>
    %89 = stablehlo.divide %88, %7 : tensor<f32>
    %90 = stablehlo.add %89, %6 : tensor<f32>
    %91 = stablehlo.rsqrt %90 : tensor<f32>
    %92 = stablehlo.broadcast_in_dim %91, dims = [] : (tensor<f32>) -> tensor<8xf32>
    %93 = stablehlo.multiply %86, %92 : tensor<8xf32>
    %94 = stablehlo.multiply %93, %arg6 : tensor<8xf32>
    %95 = stablehlo.dot_general %94, %arg4, contracting_dims = [0] x [1] : (tensor<8xf32>, tensor<16x8xf32>) -> tensor<16xf32>
    %96 = stablehlo.dot_general %94, %arg7, contracting_dims = [0] x [1] : (tensor<8xf32>, tensor<16x8xf32>) -> tensor<16xf32>
    %97 = stablehlo.negate %95 : tensor<16xf32>
    %98 = stablehlo.exponential %97 : tensor<16xf32>
    %99 = stablehlo.broadcast_in_dim %3, dims = [] : (tensor<f32>) -> tensor<16xf32>
    %100 = stablehlo.add %99, %98 : tensor<16xf32>
    %101 = stablehlo.divide %99, %100 : tensor<16xf32>
    %102 = stablehlo.multiply %95, %101 : tensor<16xf32>
    %103 = stablehlo.multiply %102, %96 : tensor<16xf32>
    %104 = stablehlo.dot_general %103, %arg3, contracting_dims = [0] x [1] : (tensor<16xf32>, tensor<8x16xf32>) -> tensor<8xf32>
    %105 = stablehlo.add %86, %104 : tensor<8xf32>
    %106 = stablehlo.multiply %105, %105 : tensor<8xf32>
    %107 = stablehlo.reduce(%106 init: %2) applies stablehlo.add across dimensions = [0] : (tensor<8xf32>, tensor<f32>) -> tensor<f32>
    %108 = stablehlo.divide %107, %7 : tensor<f32>
    %109 = stablehlo.add %108, %6 : tensor<f32>
    %110 = stablehlo.rsqrt %109 : tensor<f32>
    %111 = stablehlo.broadcast_in_dim %110, dims = [] : (tensor<f32>) -> tensor<8xf32>
    %112 = stablehlo.multiply %105, %111 : tensor<8xf32>
    %113 = stablehlo.multiply %112, %arg17 : tensor<8xf32>
    %114 = stablehlo.dot_general %113, %arg22, contracting_dims = [0] x [1] : (tensor<8xf32>, tensor<8x8xf32>) -> tensor<8xf32>
    %115 = stablehlo.add %114, %arg25 : tensor<8xf32>
    %116 = stablehlo.reshape %115 : (tensor<8xf32>) -> tensor<2x4xf32>
    %117 = stablehlo.dot_general %113, %arg20, contracting_dims = [0] x [1] : (tensor<8xf32>, tensor<4x8xf32>) -> tensor<4xf32>
    %118 = stablehlo.add %117, %arg24 : tensor<4xf32>
    %119 = stablehlo.reshape %118 : (tensor<4xf32>) -> tensor<1x4xf32>
    %120 = stablehlo.dot_general %113, %arg23, contracting_dims = [0] x [1] : (tensor<8xf32>, tensor<4x8xf32>) -> tensor<4xf32>
    %121 = stablehlo.add %120, %arg26 : tensor<4xf32>
    %122 = stablehlo.reshape %121 : (tensor<4xf32>) -> tensor<1x4xf32>
    %123 = stablehlo.broadcast_in_dim %15, dims = [1] : (tensor<4xf32>) -> tensor<2x4xf32>
    %124 = stablehlo.broadcast_in_dim %17, dims = [1] : (tensor<4xf32>) -> tensor<2x4xf32>
    %125 = stablehlo.multiply %116, %123 : tensor<2x4xf32>
    %126 = stablehlo.slice %116 [0:2, 0:2] : (tensor<2x4xf32>) -> tensor<2x2xf32>
    %127 = stablehlo.slice %116 [0:2, 2:4] : (tensor<2x4xf32>) -> tensor<2x2xf32>
    %128 = stablehlo.negate %127 : tensor<2x2xf32>
    %129 = stablehlo.concatenate %128, %126, dim = 1 : (tensor<2x2xf32>, tensor<2x2xf32>) -> tensor<2x4xf32>
    %130 = stablehlo.multiply %129, %124 : tensor<2x4xf32>
    %131 = stablehlo.add %125, %130 : tensor<2x4xf32>
    %132 = stablehlo.broadcast_in_dim %15, dims = [1] : (tensor<4xf32>) -> tensor<1x4xf32>
    %133 = stablehlo.broadcast_in_dim %17, dims = [1] : (tensor<4xf32>) -> tensor<1x4xf32>
    %134 = stablehlo.multiply %119, %132 : tensor<1x4xf32>
    %135 = stablehlo.slice %119 [0:1, 0:2] : (tensor<1x4xf32>) -> tensor<1x2xf32>
    %136 = stablehlo.slice %119 [0:1, 2:4] : (tensor<1x4xf32>) -> tensor<1x2xf32>
    %137 = stablehlo.negate %136 : tensor<1x2xf32>
    %138 = stablehlo.concatenate %137, %135, dim = 1 : (tensor<1x2xf32>, tensor<1x2xf32>) -> tensor<1x4xf32>
    %139 = stablehlo.multiply %138, %133 : tensor<1x4xf32>
    %140 = stablehlo.add %134, %139 : tensor<1x4xf32>
    %141 = stablehlo.reshape %140 : (tensor<1x4xf32>) -> tensor<1x1x1x4xf32>
    %142 = stablehlo.dynamic_update_slice %60, %141, %11, %arg29, %9, %9 : (tensor<2x256x1x4xf32>, tensor<1x1x1x4xf32>, tensor<i32>, tensor<i32>, tensor<i32>, tensor<i32>) -> tensor<2x256x1x4xf32>
    %143 = stablehlo.reshape %122 : (tensor<1x4xf32>) -> tensor<1x1x1x4xf32>
    %144 = stablehlo.dynamic_update_slice %62, %143, %11, %arg29, %9, %9 : (tensor<2x256x1x4xf32>, tensor<1x1x1x4xf32>, tensor<i32>, tensor<i32>, tensor<i32>, tensor<i32>) -> tensor<2x256x1x4xf32>
    %145 = stablehlo.slice %142 [1:2, 0:256, 0:1, 0:4] : (tensor<2x256x1x4xf32>) -> tensor<1x256x1x4xf32>
    %146 = stablehlo.reshape %145 : (tensor<1x256x1x4xf32>) -> tensor<256x1x4xf32>
    %147 = stablehlo.slice %144 [1:2, 0:256, 0:1, 0:4] : (tensor<2x256x1x4xf32>) -> tensor<1x256x1x4xf32>
    %148 = stablehlo.reshape %147 : (tensor<1x256x1x4xf32>) -> tensor<256x1x4xf32>
    %149 = stablehlo.reshape %131 : (tensor<2x4xf32>) -> tensor<1x2x4xf32>
    %150 = stablehlo.dot_general %149, %146, batching_dims = [0] x [1], contracting_dims = [2] x [2] : (tensor<1x2x4xf32>, tensor<256x1x4xf32>) -> tensor<1x2x256xf32>
    %151 = stablehlo.reshape %150 : (tensor<1x2x256xf32>) -> tensor<2x256xf32>
    %152 = stablehlo.broadcast_in_dim %8, dims = [] : (tensor<f32>) -> tensor<2x256xf32>
    %153 = stablehlo.multiply %151, %152 : tensor<2x256xf32>
    %154 = stablehlo.broadcast_in_dim %23, dims = [1] : (tensor<256xf32>) -> tensor<2x256xf32>
    %155 = stablehlo.add %153, %154 : tensor<2x256xf32>
    %156 = stablehlo.reduce(%155 init: %4) applies stablehlo.maximum across dimensions = [1] : (tensor<2x256xf32>, tensor<f32>) -> tensor<2xf32>
    %157 = stablehlo.broadcast_in_dim %156, dims = [0] : (tensor<2xf32>) -> tensor<2x256xf32>
    %158 = stablehlo.subtract %155, %157 : tensor<2x256xf32>
    %159 = stablehlo.exponential %158 : tensor<2x256xf32>
    %160 = stablehlo.reduce(%159 init: %2) applies stablehlo.add across dimensions = [1] : (tensor<2x256xf32>, tensor<f32>) -> tensor<2xf32>
    %161 = stablehlo.broadcast_in_dim %160, dims = [0] : (tensor<2xf32>) -> tensor<2x256xf32>
    %162 = stablehlo.divide %159, %161 : tensor<2x256xf32>
    %163 = stablehlo.reshape %162 : (tensor<2x256xf32>) -> tensor<1x2x256xf32>
    %164 = stablehlo.dot_general %163, %148, batching_dims = [0] x [1], contracting_dims = [2] x [0] : (tensor<1x2x256xf32>, tensor<256x1x4xf32>) -> tensor<1x2x4xf32>
    %165 = stablehlo.reshape %164 : (tensor<1x2x4xf32>) -> tensor<2x4xf32>
    %166 = stablehlo.reshape %165 : (tensor<2x4xf32>) -> tensor<8xf32>
    %167 = stablehlo.dot_general %166, %arg21, contracting_dims = [0] x [1] : (tensor<8xf32>, tensor<8x8xf32>) -> tensor<8xf32>
    %168 = stablehlo.add %105, %167 : tensor<8xf32>
    %169 = stablehlo.multiply %168, %168 : tensor<8xf32>
    %170 = stablehlo.reduce(%169 init: %2) applies stablehlo.add across dimensions = [0] : (tensor<8xf32>, tensor<f32>) -> tensor<f32>
    %171 = stablehlo.divide %170, %7 : tensor<f32>
    %172 = stablehlo.add %171, %6 : tensor<f32>
    %173 = stablehlo.rsqrt %172 : tensor<f32>
    %174 = stablehlo.broadcast_in_dim %173, dims = [] : (tensor<f32>) -> tensor<8xf32>
    %175 = stablehlo.multiply %168, %174 : tensor<8xf32>
    %176 = stablehlo.multiply %175, %arg18 : tensor<8xf32>
    %177 = stablehlo.dot_general %176, %arg16, contracting_dims = [0] x [1] : (tensor<8xf32>, tensor<16x8xf32>) -> tensor<16xf32>
    %178 = stablehlo.dot_general %176, %arg19, contracting_dims = [0] x [1] : (tensor<8xf32>, tensor<16x8xf32>) -> tensor<16xf32>
    %179 = stablehlo.negate %177 : tensor<16xf32>
    %180 = stablehlo.exponential %179 : tensor<16xf32>
    %181 = stablehlo.broadcast_in_dim %3, dims = [] : (tensor<f32>) -> tensor<16xf32>
    %182 = stablehlo.add %181, %180 : tensor<16xf32>
    %183 = stablehlo.divide %181, %182 : tensor<16xf32>
    %184 = stablehlo.multiply %177, %183 : tensor<16xf32>
    %185 = stablehlo.multiply %184, %178 : tensor<16xf32>
    %186 = stablehlo.dot_general %185, %arg15, contracting_dims = [0] x [1] : (tensor<16xf32>, tensor<8x16xf32>) -> tensor<8xf32>
    %187 = stablehlo.add %168, %186 : tensor<8xf32>
    %188 = stablehlo.multiply %187, %187 : tensor<8xf32>
    %189 = stablehlo.reduce(%188 init: %2) applies stablehlo.add across dimensions = [0] : (tensor<8xf32>, tensor<f32>) -> tensor<f32>
    %190 = stablehlo.divide %189, %7 : tensor<f32>
    %191 = stablehlo.add %190, %6 : tensor<f32>
    %192 = stablehlo.rsqrt %191 : tensor<f32>
    %193 = stablehlo.broadcast_in_dim %192, dims = [] : (tensor<f32>) -> tensor<8xf32>
    %194 = stablehlo.multiply %187, %193 : tensor<8xf32>
    %195 = stablehlo.multiply %194, %arg1 : tensor<8xf32>
    %196 = stablehlo.dot_general %195, %arg2, contracting_dims = [0] x [1] : (tensor<8xf32>, tensor<10x8xf32>) -> tensor<10xf32>
    %197 = stablehlo.constant dense<0> : tensor<i32>
    %198 = stablehlo.constant dense<0xFF800000> : tensor<f32>
    %199 = stablehlo.iota dim = 0 : tensor<10xi32>
    %200:2 = stablehlo.reduce(%196 init: %198), (%199 init: %197) across dimensions = [0] : (tensor<10xf32>, tensor<10xi32>, tensor<f32>, tensor<i32>) -> (tensor<f32>, tensor<i32>)
    reducer(%amv_l: tensor<f32>, %amv_r: tensor<f32>) (%ami_l: tensor<i32>, %ami_r: tensor<i32>) {
      %201 = stablehlo.compare GT, %amv_l, %amv_r, FLOAT : (tensor<f32>, tensor<f32>) -> tensor<i1>
      %202 = stablehlo.compare NE, %amv_l, %amv_l, FLOAT : (tensor<f32>, tensor<f32>) -> tensor<i1>
      %203 = stablehlo.or %201, %202 : tensor<i1>
      %204 = stablehlo.compare EQ, %amv_l, %amv_r, FLOAT : (tensor<f32>, tensor<f32>) -> tensor<i1>
      %205 = stablehlo.compare LT, %ami_l, %ami_r, SIGNED : (tensor<i32>, tensor<i32>) -> tensor<i1>
      %206 = stablehlo.and %204, %205 : tensor<i1>
      %207 = stablehlo.or %203, %206 : tensor<i1>
      %208 = stablehlo.select %203, %amv_l, %amv_r : tensor<i1>, tensor<f32>
      %209 = stablehlo.select %207, %ami_l, %ami_r : tensor<i1>, tensor<i32>
      stablehlo.return %208, %209 : tensor<f32>, tensor<i32>
    }
    return %200#1, %142, %144 : tensor<i32>, tensor<2x256x1x4xf32>, tensor<2x256x1x4xf32>
  }
}
