module @decode_step {
  func.func public @main(%arg0: tensor<10x8xf32> loc("params['embed']"), %arg1: tensor<8xf32> loc("params['final_norm']"), %arg2: tensor<10x8xf32> loc("params['lm_head']"), %arg3: tensor<8xf32> loc("params['layers'][0]['in_ln']"), %arg4: tensor<8xf32> loc("params['layers'][0]['post_ln']"), %arg5: tensor<4x8xf32> loc("params['layers'][0]['wk']"), %arg6: tensor<8x12xf32> loc("params['layers'][0]['wo']"), %arg7: tensor<12x8xf32> loc("params['layers'][0]['wq']"), %arg8: tensor<4x8xf32> loc("params['layers'][0]['wv']"), %arg9: tensor<4xf32> loc("params['layers'][0]['q_norm']"), %arg10: tensor<4xf32> loc("params['layers'][0]['k_norm']"), %arg11: tensor<4x8xf32> loc("params['layers'][0]['moe_router']"), %arg12: tensor<4x12x8xf32> loc("params['layers'][0]['moe_gate']"), %arg13: tensor<4x12x8xf32> loc("params['layers'][0]['moe_up']"), %arg14: tensor<4x8x12xf32> loc("params['layers'][0]['moe_down']"), %arg15: tensor<8xf32> loc("params['layers'][1]['in_ln']"), %arg16: tensor<8xf32> loc("params['layers'][1]['post_ln']"), %arg17: tensor<4x8xf32> loc("params['layers'][1]['wk']"), %arg18: tensor<8x12xf32> loc("params['layers'][1]['wo']"), %arg19: tensor<12x8xf32> loc("params['layers'][1]['wq']"), %arg20: tensor<4x8xf32> loc("params['layers'][1]['wv']"), %arg21: tensor<4xf32> loc("params['layers'][1]['q_norm']"), %arg22: tensor<4xf32> loc("params['layers'][1]['k_norm']"), %arg23: tensor<4x8xf32> loc("params['layers'][1]['moe_router']"), %arg24: tensor<4x12x8xf32> loc("params['layers'][1]['moe_gate']"), %arg25: tensor<4x12x8xf32> loc("params['layers'][1]['moe_up']"), %arg26: tensor<4x8x12xf32> loc("params['layers'][1]['moe_down']"), %arg27: tensor<i32> loc("token"), %arg28: tensor<i32> loc("pos"), %arg29: tensor<i32> loc("cache_len"), %arg30: tensor<2x256x1x4xf32> loc("kcache"), %arg31: tensor<2x256x1x4xf32> loc("vcache")) -> (tensor<i32>, tensor<2x256x1x4xf32>, tensor<2x256x1x4xf32>) {
    %0 = stablehlo.constant dense<"…"> : tensor<256x4xf32>
    %1 = stablehlo.constant dense<"…"> : tensor<256x4xf32>
    %2 = stablehlo.constant dense<0x00000000> : tensor<f32>
    %3 = stablehlo.constant dense<0x3F800000> : tensor<f32>
    %4 = stablehlo.constant dense<0xFF800000> : tensor<f32>
    %5 = stablehlo.constant dense<0xF149F2CA> : tensor<f32>
    %6 = stablehlo.constant dense<0x358637BD> : tensor<f32>
    %7 = stablehlo.constant dense<0x41000000> : tensor<f32>
    %8 = stablehlo.constant dense<0x3F000000> : tensor<f32>
    %9 = stablehlo.constant dense<0> : tensor<i32>
    %10 = stablehlo.constant dense<0> : tensor<i32>
    %11 = stablehlo.constant dense<1> : tensor<i32>
    %12 = stablehlo.dynamic_slice %arg0, %arg27, %9, sizes = [1, 8] : (tensor<10x8xf32>, tensor<i32>, tensor<i32>) -> tensor<1x8xf32>
    %13 = stablehlo.reshape %12 : (tensor<1x8xf32>) -> tensor<8xf32>
    %14 = stablehlo.dynamic_slice %0, %arg28, %9, sizes = [1, 4] : (tensor<256x4xf32>, tensor<i32>, tensor<i32>) -> tensor<1x4xf32>
    %15 = stablehlo.reshape %14 : (tensor<1x4xf32>) -> tensor<4xf32>
    %16 = stablehlo.dynamic_slice %1, %arg28, %9, sizes = [1, 4] : (tensor<256x4xf32>, tensor<i32>, tensor<i32>) -> tensor<1x4xf32>
    %17 = stablehlo.reshape %16 : (tensor<1x4xf32>) -> tensor<4xf32>
    %18 = stablehlo.iota dim = 0 : tensor<256xi32>
    %19 = stablehlo.broadcast_in_dim %arg29, dims = [] : (tensor<i32>) -> tensor<256xi32>
    %20 = stablehlo.compare LE, %18, %19, SIGNED : (tensor<256xi32>, tensor<256xi32>) -> tensor<256xi1>
    %21 = stablehlo.broadcast_in_dim %2, dims = [] : (tensor<f32>) -> tensor<256xf32>
    %22 = stablehlo.broadcast_in_dim %5, dims = [] : (tensor<f32>) -> tensor<256xf32>
    %23 = stablehlo.select %20, %21, %22 : tensor<256xi1>, tensor<256xf32>
    %24 = stablehlo.multiply %13, %13 : tensor<8xf32>
    %25 = stablehlo.reduce(%24 init: %2) applies stablehlo.add across dimensions = [0] : (tensor<8xf32>, tensor<f32>) -> tensor<f32>
    %26 = stablehlo.divide %25, %7 : tensor<f32>
    %27 = stablehlo.add %26, %6 : tensor<f32>
    %28 = stablehlo.rsqrt %27 : tensor<f32>
    %29 = stablehlo.broadcast_in_dim %28, dims = [] : (tensor<f32>) -> tensor<8xf32>
    %30 = stablehlo.multiply %13, %29 : tensor<8xf32>
    %31 = stablehlo.multiply %30, %arg3 : tensor<8xf32>
    %32 = stablehlo.dot_general %31, %arg7, contracting_dims = [0] x [1] : (tensor<8xf32>, tensor<12x8xf32>) -> tensor<12xf32>
    %33 = stablehlo.reshape %32 : (tensor<12xf32>) -> tensor<3x4xf32>
    %34 = stablehlo.dot_general %31, %arg5, contracting_dims = [0] x [1] : (tensor<8xf32>, tensor<4x8xf32>) -> tensor<4xf32>
    %35 = stablehlo.reshape %34 : (tensor<4xf32>) -> tensor<1x4xf32>
    %36 = stablehlo.dot_general %31, %arg8, contracting_dims = [0] x [1] : (tensor<8xf32>, tensor<4x8xf32>) -> tensor<4xf32>
    %37 = stablehlo.reshape %36 : (tensor<4xf32>) -> tensor<1x4xf32>
    %38 = stablehlo.constant dense<0x40800000> : tensor<f32>
    %39 = stablehlo.multiply %33, %33 : tensor<3x4xf32>
    %40 = stablehlo.reduce(%39 init: %2) applies stablehlo.add across dimensions = [1] : (tensor<3x4xf32>, tensor<f32>) -> tensor<3xf32>
    %41 = stablehlo.broadcast_in_dim %38, dims = [] : (tensor<f32>) -> tensor<3xf32>
    %42 = stablehlo.divide %40, %41 : tensor<3xf32>
    %43 = stablehlo.broadcast_in_dim %6, dims = [] : (tensor<f32>) -> tensor<3xf32>
    %44 = stablehlo.add %42, %43 : tensor<3xf32>
    %45 = stablehlo.rsqrt %44 : tensor<3xf32>
    %46 = stablehlo.broadcast_in_dim %45, dims = [0] : (tensor<3xf32>) -> tensor<3x4xf32>
    %47 = stablehlo.multiply %33, %46 : tensor<3x4xf32>
    %48 = stablehlo.broadcast_in_dim %arg9, dims = [1] : (tensor<4xf32>) -> tensor<3x4xf32>
    %49 = stablehlo.multiply %47, %48 : tensor<3x4xf32>
    %50 = stablehlo.constant dense<0x40800000> : tensor<f32>
    %51 = stablehlo.multiply %35, %35 : tensor<1x4xf32>
    %52 = stablehlo.reduce(%51 init: %2) applies stablehlo.add across dimensions = [1] : (tensor<1x4xf32>, tensor<f32>) -> tensor<1xf32>
    %53 = stablehlo.broadcast_in_dim %50, dims = [] : (tensor<f32>) -> tensor<1xf32>
    %54 = stablehlo.divide %52, %53 : tensor<1xf32>
    %55 = stablehlo.broadcast_in_dim %6, dims = [] : (tensor<f32>) -> tensor<1xf32>
    %56 = stablehlo.add %54, %55 : tensor<1xf32>
    %57 = stablehlo.rsqrt %56 : tensor<1xf32>
    %58 = stablehlo.broadcast_in_dim %57, dims = [0] : (tensor<1xf32>) -> tensor<1x4xf32>
    %59 = stablehlo.multiply %35, %58 : tensor<1x4xf32>
    %60 = stablehlo.broadcast_in_dim %arg10, dims = [1] : (tensor<4xf32>) -> tensor<1x4xf32>
    %61 = stablehlo.multiply %59, %60 : tensor<1x4xf32>
    %62 = stablehlo.broadcast_in_dim %15, dims = [1] : (tensor<4xf32>) -> tensor<3x4xf32>
    %63 = stablehlo.broadcast_in_dim %17, dims = [1] : (tensor<4xf32>) -> tensor<3x4xf32>
    %64 = stablehlo.multiply %49, %62 : tensor<3x4xf32>
    %65 = stablehlo.slice %49 [0:3, 0:2] : (tensor<3x4xf32>) -> tensor<3x2xf32>
    %66 = stablehlo.slice %49 [0:3, 2:4] : (tensor<3x4xf32>) -> tensor<3x2xf32>
    %67 = stablehlo.negate %66 : tensor<3x2xf32>
    %68 = stablehlo.concatenate %67, %65, dim = 1 : (tensor<3x2xf32>, tensor<3x2xf32>) -> tensor<3x4xf32>
    %69 = stablehlo.multiply %68, %63 : tensor<3x4xf32>
    %70 = stablehlo.add %64, %69 : tensor<3x4xf32>
    %71 = stablehlo.broadcast_in_dim %15, dims = [1] : (tensor<4xf32>) -> tensor<1x4xf32>
    %72 = stablehlo.broadcast_in_dim %17, dims = [1] : (tensor<4xf32>) -> tensor<1x4xf32>
    %73 = stablehlo.multiply %61, %71 : tensor<1x4xf32>
    %74 = stablehlo.slice %61 [0:1, 0:2] : (tensor<1x4xf32>) -> tensor<1x2xf32>
    %75 = stablehlo.slice %61 [0:1, 2:4] : (tensor<1x4xf32>) -> tensor<1x2xf32>
    %76 = stablehlo.negate %75 : tensor<1x2xf32>
    %77 = stablehlo.concatenate %76, %74, dim = 1 : (tensor<1x2xf32>, tensor<1x2xf32>) -> tensor<1x4xf32>
    %78 = stablehlo.multiply %77, %72 : tensor<1x4xf32>
    %79 = stablehlo.add %73, %78 : tensor<1x4xf32>
    %80 = stablehlo.reshape %79 : (tensor<1x4xf32>) -> tensor<1x1x1x4xf32>
    %81 = stablehlo.dynamic_update_slice %arg30, %80, %10, %arg29, %9, %9 : (tensor<2x256x1x4xf32>, tensor<1x1x1x4xf32>, tensor<i32>, tensor<i32>, tensor<i32>, tensor<i32>) -> tensor<2x256x1x4xf32>
    %82 = stablehlo.reshape %37 : (tensor<1x4xf32>) -> tensor<1x1x1x4xf32>
    %83 = stablehlo.dynamic_update_slice %arg31, %82, %10, %arg29, %9, %9 : (tensor<2x256x1x4xf32>, tensor<1x1x1x4xf32>, tensor<i32>, tensor<i32>, tensor<i32>, tensor<i32>) -> tensor<2x256x1x4xf32>
    %84 = stablehlo.slice %81 [0:1, 0:256, 0:1, 0:4] : (tensor<2x256x1x4xf32>) -> tensor<1x256x1x4xf32>
    %85 = stablehlo.reshape %84 : (tensor<1x256x1x4xf32>) -> tensor<256x1x4xf32>
    %86 = stablehlo.slice %83 [0:1, 0:256, 0:1, 0:4] : (tensor<2x256x1x4xf32>) -> tensor<1x256x1x4xf32>
    %87 = stablehlo.reshape %86 : (tensor<1x256x1x4xf32>) -> tensor<256x1x4xf32>
    %88 = stablehlo.reshape %70 : (tensor<3x4xf32>) -> tensor<1x3x4xf32>
    %89 = stablehlo.dot_general %88, %85, batching_dims = [0] x [1], contracting_dims = [2] x [2] : (tensor<1x3x4xf32>, tensor<256x1x4xf32>) -> tensor<1x3x256xf32>
    %90 = stablehlo.reshape %89 : (tensor<1x3x256xf32>) -> tensor<3x256xf32>
    %91 = stablehlo.broadcast_in_dim %8, dims = [] : (tensor<f32>) -> tensor<3x256xf32>
    %92 = stablehlo.multiply %90, %91 : tensor<3x256xf32>
    %93 = stablehlo.broadcast_in_dim %23, dims = [1] : (tensor<256xf32>) -> tensor<3x256xf32>
    %94 = stablehlo.add %92, %93 : tensor<3x256xf32>
    %95 = stablehlo.reduce(%94 init: %4) applies stablehlo.maximum across dimensions = [1] : (tensor<3x256xf32>, tensor<f32>) -> tensor<3xf32>
    %96 = stablehlo.broadcast_in_dim %95, dims = [0] : (tensor<3xf32>) -> tensor<3x256xf32>
    %97 = stablehlo.subtract %94, %96 : tensor<3x256xf32>
    %98 = stablehlo.exponential %97 : tensor<3x256xf32>
    %99 = stablehlo.reduce(%98 init: %2) applies stablehlo.add across dimensions = [1] : (tensor<3x256xf32>, tensor<f32>) -> tensor<3xf32>
    %100 = stablehlo.broadcast_in_dim %99, dims = [0] : (tensor<3xf32>) -> tensor<3x256xf32>
    %101 = stablehlo.divide %98, %100 : tensor<3x256xf32>
    %102 = stablehlo.reshape %101 : (tensor<3x256xf32>) -> tensor<1x3x256xf32>
    %103 = stablehlo.dot_general %102, %87, batching_dims = [0] x [1], contracting_dims = [2] x [0] : (tensor<1x3x256xf32>, tensor<256x1x4xf32>) -> tensor<1x3x4xf32>
    %104 = stablehlo.reshape %103 : (tensor<1x3x4xf32>) -> tensor<3x4xf32>
    %105 = stablehlo.reshape %104 : (tensor<3x4xf32>) -> tensor<12xf32>
    %106 = stablehlo.dot_general %105, %arg6, contracting_dims = [0] x [1] : (tensor<12xf32>, tensor<8x12xf32>) -> tensor<8xf32>
    %107 = stablehlo.add %13, %106 : tensor<8xf32>
    %108 = stablehlo.multiply %107, %107 : tensor<8xf32>
    %109 = stablehlo.reduce(%108 init: %2) applies stablehlo.add across dimensions = [0] : (tensor<8xf32>, tensor<f32>) -> tensor<f32>
    %110 = stablehlo.divide %109, %7 : tensor<f32>
    %111 = stablehlo.add %110, %6 : tensor<f32>
    %112 = stablehlo.rsqrt %111 : tensor<f32>
    %113 = stablehlo.broadcast_in_dim %112, dims = [] : (tensor<f32>) -> tensor<8xf32>
    %114 = stablehlo.multiply %107, %113 : tensor<8xf32>
    %115 = stablehlo.multiply %114, %arg4 : tensor<8xf32>
    %116 = stablehlo.reshape %115 : (tensor<8xf32>) -> tensor<1x8xf32>
    %117 = stablehlo.dot_general %116, %arg11, contracting_dims = [1] x [1] : (tensor<1x8xf32>, tensor<4x8xf32>) -> tensor<1x4xf32>
    %118 = stablehlo.reduce(%117 init: %4) applies stablehlo.maximum across dimensions = [1] : (tensor<1x4xf32>, tensor<f32>) -> tensor<1xf32>
    %119 = stablehlo.broadcast_in_dim %118, dims = [0] : (tensor<1xf32>) -> tensor<1x4xf32>
    %120 = stablehlo.subtract %117, %119 : tensor<1x4xf32>
    %121 = stablehlo.exponential %120 : tensor<1x4xf32>
    %122 = stablehlo.reduce(%121 init: %2) applies stablehlo.add across dimensions = [1] : (tensor<1x4xf32>, tensor<f32>) -> tensor<1xf32>
    %123 = stablehlo.broadcast_in_dim %122, dims = [0] : (tensor<1xf32>) -> tensor<1x4xf32>
    %124 = stablehlo.divide %121, %123 : tensor<1x4xf32>
    %125 = stablehlo.iota dim = 0 : tensor<4xi32>
    %126 = stablehlo.broadcast_in_dim %125, dims = [1] : (tensor<4xi32>) -> tensor<1x4xi32>
    %127 = stablehlo.broadcast_in_dim %2, dims = [] : (tensor<f32>) -> tensor<1x4xf32>
    %128 = stablehlo.broadcast_in_dim %4, dims = [] : (tensor<f32>) -> tensor<1x4xf32>
    %129 = stablehlo.constant dense<0> : tensor<i32>
    %130 = stablehlo.constant dense<0xFF800000> : tensor<f32>
    %131 = stablehlo.iota dim = 1 : tensor<1x4xi32>
    %132:2 = stablehlo.reduce(%124 init: %130), (%131 init: %129) across dimensions = [1] : (tensor<1x4xf32>, tensor<1x4xi32>, tensor<f32>, tensor<i32>) -> (tensor<1xf32>, tensor<1xi32>)
    reducer(%amv_l: tensor<f32>, %amv_r: tensor<f32>) (%ami_l: tensor<i32>, %ami_r: tensor<i32>) {
      %133 = stablehlo.compare GT, %amv_l, %amv_r, FLOAT : (tensor<f32>, tensor<f32>) -> tensor<i1>
      %134 = stablehlo.compare NE, %amv_l, %amv_l, FLOAT : (tensor<f32>, tensor<f32>) -> tensor<i1>
      %135 = stablehlo.or %133, %134 : tensor<i1>
      %136 = stablehlo.compare EQ, %amv_l, %amv_r, FLOAT : (tensor<f32>, tensor<f32>) -> tensor<i1>
      %137 = stablehlo.compare LT, %ami_l, %ami_r, SIGNED : (tensor<i32>, tensor<i32>) -> tensor<i1>
      %138 = stablehlo.and %136, %137 : tensor<i1>
      %139 = stablehlo.or %135, %138 : tensor<i1>
      %140 = stablehlo.select %135, %amv_l, %amv_r : tensor<i1>, tensor<f32>
      %141 = stablehlo.select %139, %ami_l, %ami_r : tensor<i1>, tensor<i32>
      stablehlo.return %140, %141 : tensor<f32>, tensor<i32>
    }
    %142 = stablehlo.broadcast_in_dim %132#1, dims = [0] : (tensor<1xi32>) -> tensor<1x4xi32>
    %143 = stablehlo.compare EQ, %126, %142, SIGNED : (tensor<1x4xi32>, tensor<1x4xi32>) -> tensor<1x4xi1>
    %144 = stablehlo.select %143, %124, %127 : tensor<1x4xi1>, tensor<1x4xf32>
    %145 = stablehlo.reduce(%144 init: %2) applies stablehlo.add across dimensions = [1] : (tensor<1x4xf32>, tensor<f32>) -> tensor<1xf32>
    %146 = stablehlo.select %143, %128, %124 : tensor<1x4xi1>, tensor<1x4xf32>
    %147 = stablehlo.constant dense<0> : tensor<i32>
    %148 = stablehlo.constant dense<0xFF800000> : tensor<f32>
    %149 = stablehlo.iota dim = 1 : tensor<1x4xi32>
    %150:2 = stablehlo.reduce(%146 init: %148), (%149 init: %147) across dimensions = [1] : (tensor<1x4xf32>, tensor<1x4xi32>, tensor<f32>, tensor<i32>) -> (tensor<1xf32>, tensor<1xi32>)
    reducer(%amv_l: tensor<f32>, %amv_r: tensor<f32>) (%ami_l: tensor<i32>, %ami_r: tensor<i32>) {
      %151 = stablehlo.compare GT, %amv_l, %amv_r, FLOAT : (tensor<f32>, tensor<f32>) -> tensor<i1>
      %152 = stablehlo.compare NE, %amv_l, %amv_l, FLOAT : (tensor<f32>, tensor<f32>) -> tensor<i1>
      %153 = stablehlo.or %151, %152 : tensor<i1>
      %154 = stablehlo.compare EQ, %amv_l, %amv_r, FLOAT : (tensor<f32>, tensor<f32>) -> tensor<i1>
      %155 = stablehlo.compare LT, %ami_l, %ami_r, SIGNED : (tensor<i32>, tensor<i32>) -> tensor<i1>
      %156 = stablehlo.and %154, %155 : tensor<i1>
      %157 = stablehlo.or %153, %156 : tensor<i1>
      %158 = stablehlo.select %153, %amv_l, %amv_r : tensor<i1>, tensor<f32>
      %159 = stablehlo.select %157, %ami_l, %ami_r : tensor<i1>, tensor<i32>
      stablehlo.return %158, %159 : tensor<f32>, tensor<i32>
    }
    %160 = stablehlo.broadcast_in_dim %150#1, dims = [0] : (tensor<1xi32>) -> tensor<1x4xi32>
    %161 = stablehlo.compare EQ, %126, %160, SIGNED : (tensor<1x4xi32>, tensor<1x4xi32>) -> tensor<1x4xi1>
    %162 = stablehlo.select %161, %146, %127 : tensor<1x4xi1>, tensor<1x4xf32>
    %163 = stablehlo.reduce(%162 init: %2) applies stablehlo.add across dimensions = [1] : (tensor<1x4xf32>, tensor<f32>) -> tensor<1xf32>
    %164 = stablehlo.select %161, %128, %146 : tensor<1x4xi1>, tensor<1x4xf32>
    %165 = stablehlo.add %145, %163 : tensor<1xf32>
    %166 = stablehlo.divide %145, %165 : tensor<1xf32>
    %167 = stablehlo.divide %163, %165 : tensor<1xf32>
    %168 = stablehlo.broadcast_in_dim %2, dims = [] : (tensor<f32>) -> tensor<1x4xf32>
    %169 = stablehlo.broadcast_in_dim %166, dims = [0] : (tensor<1xf32>) -> tensor<1x4xf32>
    %170 = stablehlo.select %143, %169, %127 : tensor<1x4xi1>, tensor<1x4xf32>
    %171 = stablehlo.add %168, %170 : tensor<1x4xf32>
    %172 = stablehlo.broadcast_in_dim %167, dims = [0] : (tensor<1xf32>) -> tensor<1x4xf32>
    %173 = stablehlo.select %161, %172, %127 : tensor<1x4xi1>, tensor<1x4xf32>
    %174 = stablehlo.add %171, %173 : tensor<1x4xf32>
    %175 = stablehlo.broadcast_in_dim %116, dims = [1, 2] : (tensor<1x8xf32>) -> tensor<4x1x8xf32>
    %176 = stablehlo.dot_general %175, %arg12, batching_dims = [0] x [0], contracting_dims = [2] x [2] : (tensor<4x1x8xf32>, tensor<4x12x8xf32>) -> tensor<4x1x12xf32>
    %177 = stablehlo.dot_general %175, %arg13, batching_dims = [0] x [0], contracting_dims = [2] x [2] : (tensor<4x1x8xf32>, tensor<4x12x8xf32>) -> tensor<4x1x12xf32>
    %178 = stablehlo.broadcast_in_dim %3, dims = [] : (tensor<f32>) -> tensor<4x1x12xf32>
    %179 = stablehlo.negate %176 : tensor<4x1x12xf32>
    %180 = stablehlo.exponential %179 : tensor<4x1x12xf32>
    %181 = stablehlo.add %178, %180 : tensor<4x1x12xf32>
    %182 = stablehlo.divide %178, %181 : tensor<4x1x12xf32>
    %183 = stablehlo.multiply %176, %182 : tensor<4x1x12xf32>
    %184 = stablehlo.multiply %183, %177 : tensor<4x1x12xf32>
    %185 = stablehlo.dot_general %184, %arg14, batching_dims = [0] x [0], contracting_dims = [2] x [2] : (tensor<4x1x12xf32>, tensor<4x8x12xf32>) -> tensor<4x1x8xf32>
    %186 = stablehlo.dot_general %174, %185, batching_dims = [0] x [1], contracting_dims = [1] x [0] : (tensor<1x4xf32>, tensor<4x1x8xf32>) -> tensor<1x8xf32>
    %187 = stablehlo.reshape %186 : (tensor<1x8xf32>) -> tensor<8xf32>
    %188 = stablehlo.add %107, %187 : tensor<8xf32>
    %189 = stablehlo.multiply %188, %188 : tensor<8xf32>
    %190 = stablehlo.reduce(%189 init: %2) applies stablehlo.add across dimensions = [0] : (tensor<8xf32>, tensor<f32>) -> tensor<f32>
    %191 = stablehlo.divide %190, %7 : tensor<f32>
    %192 = stablehlo.add %191, %6 : tensor<f32>
    %193 = stablehlo.rsqrt %192 : tensor<f32>
    %194 = stablehlo.broadcast_in_dim %193, dims = [] : (tensor<f32>) -> tensor<8xf32>
    %195 = stablehlo.multiply %188, %194 : tensor<8xf32>
    %196 = stablehlo.multiply %195, %arg15 : tensor<8xf32>
    %197 = stablehlo.dot_general %196, %arg19, contracting_dims = [0] x [1] : (tensor<8xf32>, tensor<12x8xf32>) -> tensor<12xf32>
    %198 = stablehlo.reshape %197 : (tensor<12xf32>) -> tensor<3x4xf32>
    %199 = stablehlo.dot_general %196, %arg17, contracting_dims = [0] x [1] : (tensor<8xf32>, tensor<4x8xf32>) -> tensor<4xf32>
    %200 = stablehlo.reshape %199 : (tensor<4xf32>) -> tensor<1x4xf32>
    %201 = stablehlo.dot_general %196, %arg20, contracting_dims = [0] x [1] : (tensor<8xf32>, tensor<4x8xf32>) -> tensor<4xf32>
    %202 = stablehlo.reshape %201 : (tensor<4xf32>) -> tensor<1x4xf32>
    %203 = stablehlo.constant dense<0x40800000> : tensor<f32>
    %204 = stablehlo.multiply %198, %198 : tensor<3x4xf32>
    %205 = stablehlo.reduce(%204 init: %2) applies stablehlo.add across dimensions = [1] : (tensor<3x4xf32>, tensor<f32>) -> tensor<3xf32>
    %206 = stablehlo.broadcast_in_dim %203, dims = [] : (tensor<f32>) -> tensor<3xf32>
    %207 = stablehlo.divide %205, %206 : tensor<3xf32>
    %208 = stablehlo.broadcast_in_dim %6, dims = [] : (tensor<f32>) -> tensor<3xf32>
    %209 = stablehlo.add %207, %208 : tensor<3xf32>
    %210 = stablehlo.rsqrt %209 : tensor<3xf32>
    %211 = stablehlo.broadcast_in_dim %210, dims = [0] : (tensor<3xf32>) -> tensor<3x4xf32>
    %212 = stablehlo.multiply %198, %211 : tensor<3x4xf32>
    %213 = stablehlo.broadcast_in_dim %arg21, dims = [1] : (tensor<4xf32>) -> tensor<3x4xf32>
    %214 = stablehlo.multiply %212, %213 : tensor<3x4xf32>
    %215 = stablehlo.constant dense<0x40800000> : tensor<f32>
    %216 = stablehlo.multiply %200, %200 : tensor<1x4xf32>
    %217 = stablehlo.reduce(%216 init: %2) applies stablehlo.add across dimensions = [1] : (tensor<1x4xf32>, tensor<f32>) -> tensor<1xf32>
    %218 = stablehlo.broadcast_in_dim %215, dims = [] : (tensor<f32>) -> tensor<1xf32>
    %219 = stablehlo.divide %217, %218 : tensor<1xf32>
    %220 = stablehlo.broadcast_in_dim %6, dims = [] : (tensor<f32>) -> tensor<1xf32>
    %221 = stablehlo.add %219, %220 : tensor<1xf32>
    %222 = stablehlo.rsqrt %221 : tensor<1xf32>
    %223 = stablehlo.broadcast_in_dim %222, dims = [0] : (tensor<1xf32>) -> tensor<1x4xf32>
    %224 = stablehlo.multiply %200, %223 : tensor<1x4xf32>
    %225 = stablehlo.broadcast_in_dim %arg22, dims = [1] : (tensor<4xf32>) -> tensor<1x4xf32>
    %226 = stablehlo.multiply %224, %225 : tensor<1x4xf32>
    %227 = stablehlo.broadcast_in_dim %15, dims = [1] : (tensor<4xf32>) -> tensor<3x4xf32>
    %228 = stablehlo.broadcast_in_dim %17, dims = [1] : (tensor<4xf32>) -> tensor<3x4xf32>
    %229 = stablehlo.multiply %214, %227 : tensor<3x4xf32>
    %230 = stablehlo.slice %214 [0:3, 0:2] : (tensor<3x4xf32>) -> tensor<3x2xf32>
    %231 = stablehlo.slice %214 [0:3, 2:4] : (tensor<3x4xf32>) -> tensor<3x2xf32>
    %232 = stablehlo.negate %231 : tensor<3x2xf32>
    %233 = stablehlo.concatenate %232, %230, dim = 1 : (tensor<3x2xf32>, tensor<3x2xf32>) -> tensor<3x4xf32>
    %234 = stablehlo.multiply %233, %228 : tensor<3x4xf32>
    %235 = stablehlo.add %229, %234 : tensor<3x4xf32>
    %236 = stablehlo.broadcast_in_dim %15, dims = [1] : (tensor<4xf32>) -> tensor<1x4xf32>
    %237 = stablehlo.broadcast_in_dim %17, dims = [1] : (tensor<4xf32>) -> tensor<1x4xf32>
    %238 = stablehlo.multiply %226, %236 : tensor<1x4xf32>
    %239 = stablehlo.slice %226 [0:1, 0:2] : (tensor<1x4xf32>) -> tensor<1x2xf32>
    %240 = stablehlo.slice %226 [0:1, 2:4] : (tensor<1x4xf32>) -> tensor<1x2xf32>
    %241 = stablehlo.negate %240 : tensor<1x2xf32>
    %242 = stablehlo.concatenate %241, %239, dim = 1 : (tensor<1x2xf32>, tensor<1x2xf32>) -> tensor<1x4xf32>
    %243 = stablehlo.multiply %242, %237 : tensor<1x4xf32>
    %244 = stablehlo.add %238, %243 : tensor<1x4xf32>
    %245 = stablehlo.reshape %244 : (tensor<1x4xf32>) -> tensor<1x1x1x4xf32>
    %246 = stablehlo.dynamic_update_slice %81, %245, %11, %arg29, %9, %9 : (tensor<2x256x1x4xf32>, tensor<1x1x1x4xf32>, tensor<i32>, tensor<i32>, tensor<i32>, tensor<i32>) -> tensor<2x256x1x4xf32>
    %247 = stablehlo.reshape %202 : (tensor<1x4xf32>) -> tensor<1x1x1x4xf32>
    %248 = stablehlo.dynamic_update_slice %83, %247, %11, %arg29, %9, %9 : (tensor<2x256x1x4xf32>, tensor<1x1x1x4xf32>, tensor<i32>, tensor<i32>, tensor<i32>, tensor<i32>) -> tensor<2x256x1x4xf32>
    %249 = stablehlo.slice %246 [1:2, 0:256, 0:1, 0:4] : (tensor<2x256x1x4xf32>) -> tensor<1x256x1x4xf32>
    %250 = stablehlo.reshape %249 : (tensor<1x256x1x4xf32>) -> tensor<256x1x4xf32>
    %251 = stablehlo.slice %248 [1:2, 0:256, 0:1, 0:4] : (tensor<2x256x1x4xf32>) -> tensor<1x256x1x4xf32>
    %252 = stablehlo.reshape %251 : (tensor<1x256x1x4xf32>) -> tensor<256x1x4xf32>
    %253 = stablehlo.reshape %235 : (tensor<3x4xf32>) -> tensor<1x3x4xf32>
    %254 = stablehlo.dot_general %253, %250, batching_dims = [0] x [1], contracting_dims = [2] x [2] : (tensor<1x3x4xf32>, tensor<256x1x4xf32>) -> tensor<1x3x256xf32>
    %255 = stablehlo.reshape %254 : (tensor<1x3x256xf32>) -> tensor<3x256xf32>
    %256 = stablehlo.broadcast_in_dim %8, dims = [] : (tensor<f32>) -> tensor<3x256xf32>
    %257 = stablehlo.multiply %255, %256 : tensor<3x256xf32>
    %258 = stablehlo.broadcast_in_dim %23, dims = [1] : (tensor<256xf32>) -> tensor<3x256xf32>
    %259 = stablehlo.add %257, %258 : tensor<3x256xf32>
    %260 = stablehlo.reduce(%259 init: %4) applies stablehlo.maximum across dimensions = [1] : (tensor<3x256xf32>, tensor<f32>) -> tensor<3xf32>
    %261 = stablehlo.broadcast_in_dim %260, dims = [0] : (tensor<3xf32>) -> tensor<3x256xf32>
    %262 = stablehlo.subtract %259, %261 : tensor<3x256xf32>
    %263 = stablehlo.exponential %262 : tensor<3x256xf32>
    %264 = stablehlo.reduce(%263 init: %2) applies stablehlo.add across dimensions = [1] : (tensor<3x256xf32>, tensor<f32>) -> tensor<3xf32>
    %265 = stablehlo.broadcast_in_dim %264, dims = [0] : (tensor<3xf32>) -> tensor<3x256xf32>
    %266 = stablehlo.divide %263, %265 : tensor<3x256xf32>
    %267 = stablehlo.reshape %266 : (tensor<3x256xf32>) -> tensor<1x3x256xf32>
    %268 = stablehlo.dot_general %267, %252, batching_dims = [0] x [1], contracting_dims = [2] x [0] : (tensor<1x3x256xf32>, tensor<256x1x4xf32>) -> tensor<1x3x4xf32>
    %269 = stablehlo.reshape %268 : (tensor<1x3x4xf32>) -> tensor<3x4xf32>
    %270 = stablehlo.reshape %269 : (tensor<3x4xf32>) -> tensor<12xf32>
    %271 = stablehlo.dot_general %270, %arg18, contracting_dims = [0] x [1] : (tensor<12xf32>, tensor<8x12xf32>) -> tensor<8xf32>
    %272 = stablehlo.add %188, %271 : tensor<8xf32>
    %273 = stablehlo.multiply %272, %272 : tensor<8xf32>
    %274 = stablehlo.reduce(%273 init: %2) applies stablehlo.add across dimensions = [0] : (tensor<8xf32>, tensor<f32>) -> tensor<f32>
    %275 = stablehlo.divide %274, %7 : tensor<f32>
    %276 = stablehlo.add %275, %6 : tensor<f32>
    %277 = stablehlo.rsqrt %276 : tensor<f32>
    %278 = stablehlo.broadcast_in_dim %277, dims = [] : (tensor<f32>) -> tensor<8xf32>
    %279 = stablehlo.multiply %272, %278 : tensor<8xf32>
    %280 = stablehlo.multiply %279, %arg16 : tensor<8xf32>
    %281 = stablehlo.reshape %280 : (tensor<8xf32>) -> tensor<1x8xf32>
    %282 = stablehlo.dot_general %281, %arg23, contracting_dims = [1] x [1] : (tensor<1x8xf32>, tensor<4x8xf32>) -> tensor<1x4xf32>
    %283 = stablehlo.reduce(%282 init: %4) applies stablehlo.maximum across dimensions = [1] : (tensor<1x4xf32>, tensor<f32>) -> tensor<1xf32>
    %284 = stablehlo.broadcast_in_dim %283, dims = [0] : (tensor<1xf32>) -> tensor<1x4xf32>
    %285 = stablehlo.subtract %282, %284 : tensor<1x4xf32>
    %286 = stablehlo.exponential %285 : tensor<1x4xf32>
    %287 = stablehlo.reduce(%286 init: %2) applies stablehlo.add across dimensions = [1] : (tensor<1x4xf32>, tensor<f32>) -> tensor<1xf32>
    %288 = stablehlo.broadcast_in_dim %287, dims = [0] : (tensor<1xf32>) -> tensor<1x4xf32>
    %289 = stablehlo.divide %286, %288 : tensor<1x4xf32>
    %290 = stablehlo.iota dim = 0 : tensor<4xi32>
    %291 = stablehlo.broadcast_in_dim %290, dims = [1] : (tensor<4xi32>) -> tensor<1x4xi32>
    %292 = stablehlo.broadcast_in_dim %2, dims = [] : (tensor<f32>) -> tensor<1x4xf32>
    %293 = stablehlo.broadcast_in_dim %4, dims = [] : (tensor<f32>) -> tensor<1x4xf32>
    %294 = stablehlo.constant dense<0> : tensor<i32>
    %295 = stablehlo.constant dense<0xFF800000> : tensor<f32>
    %296 = stablehlo.iota dim = 1 : tensor<1x4xi32>
    %297:2 = stablehlo.reduce(%289 init: %295), (%296 init: %294) across dimensions = [1] : (tensor<1x4xf32>, tensor<1x4xi32>, tensor<f32>, tensor<i32>) -> (tensor<1xf32>, tensor<1xi32>)
    reducer(%amv_l: tensor<f32>, %amv_r: tensor<f32>) (%ami_l: tensor<i32>, %ami_r: tensor<i32>) {
      %298 = stablehlo.compare GT, %amv_l, %amv_r, FLOAT : (tensor<f32>, tensor<f32>) -> tensor<i1>
      %299 = stablehlo.compare NE, %amv_l, %amv_l, FLOAT : (tensor<f32>, tensor<f32>) -> tensor<i1>
      %300 = stablehlo.or %298, %299 : tensor<i1>
      %301 = stablehlo.compare EQ, %amv_l, %amv_r, FLOAT : (tensor<f32>, tensor<f32>) -> tensor<i1>
      %302 = stablehlo.compare LT, %ami_l, %ami_r, SIGNED : (tensor<i32>, tensor<i32>) -> tensor<i1>
      %303 = stablehlo.and %301, %302 : tensor<i1>
      %304 = stablehlo.or %300, %303 : tensor<i1>
      %305 = stablehlo.select %300, %amv_l, %amv_r : tensor<i1>, tensor<f32>
      %306 = stablehlo.select %304, %ami_l, %ami_r : tensor<i1>, tensor<i32>
      stablehlo.return %305, %306 : tensor<f32>, tensor<i32>
    }
    %307 = stablehlo.broadcast_in_dim %297#1, dims = [0] : (tensor<1xi32>) -> tensor<1x4xi32>
    %308 = stablehlo.compare EQ, %291, %307, SIGNED : (tensor<1x4xi32>, tensor<1x4xi32>) -> tensor<1x4xi1>
    %309 = stablehlo.select %308, %289, %292 : tensor<1x4xi1>, tensor<1x4xf32>
    %310 = stablehlo.reduce(%309 init: %2) applies stablehlo.add across dimensions = [1] : (tensor<1x4xf32>, tensor<f32>) -> tensor<1xf32>
    %311 = stablehlo.select %308, %293, %289 : tensor<1x4xi1>, tensor<1x4xf32>
    %312 = stablehlo.constant dense<0> : tensor<i32>
    %313 = stablehlo.constant dense<0xFF800000> : tensor<f32>
    %314 = stablehlo.iota dim = 1 : tensor<1x4xi32>
    %315:2 = stablehlo.reduce(%311 init: %313), (%314 init: %312) across dimensions = [1] : (tensor<1x4xf32>, tensor<1x4xi32>, tensor<f32>, tensor<i32>) -> (tensor<1xf32>, tensor<1xi32>)
    reducer(%amv_l: tensor<f32>, %amv_r: tensor<f32>) (%ami_l: tensor<i32>, %ami_r: tensor<i32>) {
      %316 = stablehlo.compare GT, %amv_l, %amv_r, FLOAT : (tensor<f32>, tensor<f32>) -> tensor<i1>
      %317 = stablehlo.compare NE, %amv_l, %amv_l, FLOAT : (tensor<f32>, tensor<f32>) -> tensor<i1>
      %318 = stablehlo.or %316, %317 : tensor<i1>
      %319 = stablehlo.compare EQ, %amv_l, %amv_r, FLOAT : (tensor<f32>, tensor<f32>) -> tensor<i1>
      %320 = stablehlo.compare LT, %ami_l, %ami_r, SIGNED : (tensor<i32>, tensor<i32>) -> tensor<i1>
      %321 = stablehlo.and %319, %320 : tensor<i1>
      %322 = stablehlo.or %318, %321 : tensor<i1>
      %323 = stablehlo.select %318, %amv_l, %amv_r : tensor<i1>, tensor<f32>
      %324 = stablehlo.select %322, %ami_l, %ami_r : tensor<i1>, tensor<i32>
      stablehlo.return %323, %324 : tensor<f32>, tensor<i32>
    }
    %325 = stablehlo.broadcast_in_dim %315#1, dims = [0] : (tensor<1xi32>) -> tensor<1x4xi32>
    %326 = stablehlo.compare EQ, %291, %325, SIGNED : (tensor<1x4xi32>, tensor<1x4xi32>) -> tensor<1x4xi1>
    %327 = stablehlo.select %326, %311, %292 : tensor<1x4xi1>, tensor<1x4xf32>
    %328 = stablehlo.reduce(%327 init: %2) applies stablehlo.add across dimensions = [1] : (tensor<1x4xf32>, tensor<f32>) -> tensor<1xf32>
    %329 = stablehlo.select %326, %293, %311 : tensor<1x4xi1>, tensor<1x4xf32>
    %330 = stablehlo.add %310, %328 : tensor<1xf32>
    %331 = stablehlo.divide %310, %330 : tensor<1xf32>
    %332 = stablehlo.divide %328, %330 : tensor<1xf32>
    %333 = stablehlo.broadcast_in_dim %2, dims = [] : (tensor<f32>) -> tensor<1x4xf32>
    %334 = stablehlo.broadcast_in_dim %331, dims = [0] : (tensor<1xf32>) -> tensor<1x4xf32>
    %335 = stablehlo.select %308, %334, %292 : tensor<1x4xi1>, tensor<1x4xf32>
    %336 = stablehlo.add %333, %335 : tensor<1x4xf32>
    %337 = stablehlo.broadcast_in_dim %332, dims = [0] : (tensor<1xf32>) -> tensor<1x4xf32>
    %338 = stablehlo.select %326, %337, %292 : tensor<1x4xi1>, tensor<1x4xf32>
    %339 = stablehlo.add %336, %338 : tensor<1x4xf32>
    %340 = stablehlo.broadcast_in_dim %281, dims = [1, 2] : (tensor<1x8xf32>) -> tensor<4x1x8xf32>
    %341 = stablehlo.dot_general %340, %arg24, batching_dims = [0] x [0], contracting_dims = [2] x [2] : (tensor<4x1x8xf32>, tensor<4x12x8xf32>) -> tensor<4x1x12xf32>
    %342 = stablehlo.dot_general %340, %arg25, batching_dims = [0] x [0], contracting_dims = [2] x [2] : (tensor<4x1x8xf32>, tensor<4x12x8xf32>) -> tensor<4x1x12xf32>
    %343 = stablehlo.broadcast_in_dim %3, dims = [] : (tensor<f32>) -> tensor<4x1x12xf32>
    %344 = stablehlo.negate %341 : tensor<4x1x12xf32>
    %345 = stablehlo.exponential %344 : tensor<4x1x12xf32>
    %346 = stablehlo.add %343, %345 : tensor<4x1x12xf32>
    %347 = stablehlo.divide %343, %346 : tensor<4x1x12xf32>
    %348 = stablehlo.multiply %341, %347 : tensor<4x1x12xf32>
    %349 = stablehlo.multiply %348, %342 : tensor<4x1x12xf32>
    %350 = stablehlo.dot_general %349, %arg26, batching_dims = [0] x [0], contracting_dims = [2] x [2] : (tensor<4x1x12xf32>, tensor<4x8x12xf32>) -> tensor<4x1x8xf32>
    %351 = stablehlo.dot_general %339, %350, batching_dims = [0] x [1], contracting_dims = [1] x [0] : (tensor<1x4xf32>, tensor<4x1x8xf32>) -> tensor<1x8xf32>
    %352 = stablehlo.reshape %351 : (tensor<1x8xf32>) -> tensor<8xf32>
    %353 = stablehlo.add %272, %352 : tensor<8xf32>
    %354 = stablehlo.multiply %353, %353 : tensor<8xf32>
    %355 = stablehlo.reduce(%354 init: %2) applies stablehlo.add across dimensions = [0] : (tensor<8xf32>, tensor<f32>) -> tensor<f32>
    %356 = stablehlo.divide %355, %7 : tensor<f32>
    %357 = stablehlo.add %356, %6 : tensor<f32>
    %358 = stablehlo.rsqrt %357 : tensor<f32>
    %359 = stablehlo.broadcast_in_dim %358, dims = [] : (tensor<f32>) -> tensor<8xf32>
    %360 = stablehlo.multiply %353, %359 : tensor<8xf32>
    %361 = stablehlo.multiply %360, %arg1 : tensor<8xf32>
    %362 = stablehlo.dot_general %361, %arg2, contracting_dims = [0] x [1] : (tensor<8xf32>, tensor<10x8xf32>) -> tensor<10xf32>
    %363 = stablehlo.constant dense<0> : tensor<i32>
    %364 = stablehlo.constant dense<0xFF800000> : tensor<f32>
    %365 = stablehlo.iota dim = 0 : tensor<10xi32>
    %366:2 = stablehlo.reduce(%362 init: %364), (%365 init: %363) across dimensions = [0] : (tensor<10xf32>, tensor<10xi32>, tensor<f32>, tensor<i32>) -> (tensor<f32>, tensor<i32>)
    reducer(%amv_l: tensor<f32>, %amv_r: tensor<f32>) (%ami_l: tensor<i32>, %ami_r: tensor<i32>) {
      %367 = stablehlo.compare GT, %amv_l, %amv_r, FLOAT : (tensor<f32>, tensor<f32>) -> tensor<i1>
      %368 = stablehlo.compare NE, %amv_l, %amv_l, FLOAT : (tensor<f32>, tensor<f32>) -> tensor<i1>
      %369 = stablehlo.or %367, %368 : tensor<i1>
      %370 = stablehlo.compare EQ, %amv_l, %amv_r, FLOAT : (tensor<f32>, tensor<f32>) -> tensor<i1>
      %371 = stablehlo.compare LT, %ami_l, %ami_r, SIGNED : (tensor<i32>, tensor<i32>) -> tensor<i1>
      %372 = stablehlo.and %370, %371 : tensor<i1>
      %373 = stablehlo.or %369, %372 : tensor<i1>
      %374 = stablehlo.select %369, %amv_l, %amv_r : tensor<i1>, tensor<f32>
      %375 = stablehlo.select %373, %ami_l, %ami_r : tensor<i1>, tensor<i32>
      stablehlo.return %374, %375 : tensor<f32>, tensor<i32>
    }
    return %366#1, %246, %248 : tensor<i32>, tensor<2x256x1x4xf32>, tensor<2x256x1x4xf32>
  }
}
