module @decode_step {
  func.func public @main(%arg0: tensor<10x8xf32> loc("params['embed']"), %arg1: tensor<8xf32> loc("params['final_norm']"), %arg2: tensor<10x8xf32> loc("params['lm_head']"), %arg3: tensor<8xf32> loc("params['layers'][0]['in_ln']"), %arg4: tensor<8xf32> loc("params['layers'][0]['post_ln']"), %arg5: tensor<4x8xf32> loc("params['layers'][0]['wk']"), %arg6: tensor<8x12xf32> loc("params['layers'][0]['wo']"), %arg7: tensor<12x8xf32> loc("params['layers'][0]['wq']"), %arg8: tensor<4x8xf32> loc("params['layers'][0]['wv']"), %arg9: tensor<4xf32> loc("params['layers'][0]['q_norm']"), %arg10: tensor<4xf32> loc("params['layers'][0]['k_norm']"), %arg11: tensor<4x8xf32> loc("params['layers'][0]['moe_router']"), %arg12: tensor<4x12x8xf32> loc("params['layers'][0]['moe_gate']"), %arg13: tensor<4x12x8xf32> loc("params['layers'][0]['moe_up']"), %arg14: tensor<4x8x12xf32> loc("params['layers'][0]['moe_down']"), %arg15: tensor<8xf32> loc("params['layers'][1]['in_ln']"), %arg16: tensor<8xf32> loc("params['layers'][1]['post_ln']"), %arg17: tensor<4x8xf32> loc("params['layers'][1]['wk']"), %arg18: tensor<8x12xf32> loc("params['layers'][1]['wo']"), %arg19: tensor<12x8xf32> loc("params['layers'][1]['wq']"), %arg20: tensor<4x8xf32> loc("params['layers'][1]['wv']"), %arg21: tensor<4xf32> loc("params['layers'][1]['q_norm']"), %arg22: tensor<4xf32> loc("params['layers'][1]['k_norm']"), %arg23: tensor<4x8xf32> loc("params['layers'][1]['moe_router']"), %arg24: tensor<4x12x8xf32> loc("params['layers'][1]['moe_gate']"), %arg25: tensor<4x12x8xf32> loc("params['layers'][1]['moe_up']"), %arg26: tensor<4x8x12xf32> loc("params['layers'][1]['moe_down']"), %arg27: tensor<4xi32> loc("token"), %arg28: tensor<4xi32> loc("pos"), %arg29: tensor<4xi32> loc("cache_len"), %arg30: tensor<4x2x256x1x4xf32> loc("kcache"), %arg31: tensor<4x2x256x1x4xf32> loc("vcache")) -> (tensor<4x10xf32>, tensor<4x2x256x1x4xf32>, tensor<4x2x256x1x4xf32>) {
    %0 = stablehlo.constant dense<"…"> : tensor<256x4xf32>
    %1 = stablehlo.constant dense<"…"> : tensor<256x4xf32>
    %2 = stablehlo.constant dense<0x00000000> : tensor<f32>
    %3 = stablehlo.constant dense<0x3F800000> : tensor<f32>
    %4 = stablehlo.constant dense<0xFF800000> : tensor<f32>
    %5 = stablehlo.constant dense<0xF149F2CA> : tensor<f32>
    %6 = stablehlo.constant dense<0x358637BD> : tensor<f32>
    %7 = stablehlo.constant dense<0x41000000> : tensor<f32>
    %8 = stablehlo.constant dense<0x3F000000> : tensor<f32>
    %9 = stablehlo.constant dense<0> : tensor<i32>
    %10 = stablehlo.constant dense<0> : tensor<i32>
    %11 = stablehlo.constant dense<1> : tensor<i32>
    %12 = stablehlo.constant dense<0> : tensor<i32>
    %13 = stablehlo.constant dense<1> : tensor<i32>
    %14 = stablehlo.constant dense<2> : tensor<i32>
    %15 = stablehlo.constant dense<3> : tensor<i32>
    %16 = stablehlo.reshape %arg27 : (tensor<4xi32>) -> tensor<4x1xi32>
    %17 = "stablehlo.gather"(%arg0, %16) <{dimension_numbers = #stablehlo.gather<offset_dims = [1], collapsed_slice_dims = [0], start_index_map = [0], index_vector_dim = 1>, slice_sizes = array<i64: 1, 8>}> : (tensor<10x8xf32>, tensor<4x1xi32>) -> tensor<4x8xf32>
    %18 = stablehlo.reshape %arg28 : (tensor<4xi32>) -> tensor<4x1xi32>
    %19 = "stablehlo.gather"(%0, %18) <{dimension_numbers = #stablehlo.gather<offset_dims = [1], collapsed_slice_dims = [0], start_index_map = [0], index_vector_dim = 1>, slice_sizes = array<i64: 1, 4>}> : (tensor<256x4xf32>, tensor<4x1xi32>) -> tensor<4x4xf32>
    %20 = "stablehlo.gather"(%1, %18) <{dimension_numbers = #stablehlo.gather<offset_dims = [1], collapsed_slice_dims = [0], start_index_map = [0], index_vector_dim = 1>, slice_sizes = array<i64: 1, 4>}> : (tensor<256x4xf32>, tensor<4x1xi32>) -> tensor<4x4xf32>
    %21 = stablehlo.iota dim = 0 : tensor<256xi32>
    %22 = stablehlo.broadcast_in_dim %21, dims = [1] : (tensor<256xi32>) -> tensor<4x256xi32>
    %23 = stablehlo.broadcast_in_dim %arg29, dims = [0] : (tensor<4xi32>) -> tensor<4x256xi32>
    %24 = stablehlo.compare LE, %22, %23, SIGNED : (tensor<4x256xi32>, tensor<4x256xi32>) -> tensor<4x256xi1>
    %25 = stablehlo.broadcast_in_dim %2, dims = [] : (tensor<f32>) -> tensor<4x256xf32>
    %26 = stablehlo.broadcast_in_dim %5, dims = [] : (tensor<f32>) -> tensor<4x256xf32>
    %27 = stablehlo.select %24, %25, %26 : tensor<4x256xi1>, tensor<4x256xf32>
    %28 = stablehlo.multiply %17, %17 : tensor<4x8xf32>
    %29 = stablehlo.reduce(%28 init: %2) applies stablehlo.add across dimensions = [1] : (tensor<4x8xf32>, tensor<f32>) -> tensor<4xf32>
    %30 = stablehlo.broadcast_in_dim %7, dims = [] : (tensor<f32>) -> tensor<4xf32>
    %31 = stablehlo.divide %29, %30 : tensor<4xf32>
    %32 = stablehlo.broadcast_in_dim %6, dims = [] : (tensor<f32>) -> tensor<4xf32>
    %33 = stablehlo.add %31, %32 : tensor<4xf32>
    %34 = stablehlo.rsqrt %33 : tensor<4xf32>
    %35 = stablehlo.broadcast_in_dim %34, dims = [0] : (tensor<4xf32>) -> tensor<4x8xf32>
    %36 = stablehlo.multiply %17, %35 : tensor<4x8xf32>
    %37 = stablehlo.broadcast_in_dim %arg3, dims = [1] : (tensor<8xf32>) -> tensor<4x8xf32>
    %38 = stablehlo.multiply %36, %37 : tensor<4x8xf32>
    %39 = stablehlo.dot_general %38, %arg7, contracting_dims = [1] x [1] : (tensor<4x8xf32>, tensor<12x8xf32>) -> tensor<4x12xf32>
    %40 = stablehlo.reshape %39 : (tensor<4x12xf32>) -> tensor<4x3x4xf32>
    %41 = stablehlo.dot_general %38, %arg5, contracting_dims = [1] x [1] : (tensor<4x8xf32>, tensor<4x8xf32>) -> tensor<4x4xf32>
    %42 = stablehlo.reshape %41 : (tensor<4x4xf32>) -> tensor<4x1x4xf32>
    %43 = stablehlo.dot_general %38, %arg8, contracting_dims = [1] x [1] : (tensor<4x8xf32>, tensor<4x8xf32>) -> tensor<4x4xf32>
    %44 = stablehlo.reshape %43 : (tensor<4x4xf32>) -> tensor<4x1x4xf32>
    %45 = stablehlo.constant dense<0x40800000> : tensor<f32>
    %46 = stablehlo.multiply %40, %40 : tensor<4x3x4xf32>
    %47 = stablehlo.reduce(%46 init: %2) applies stablehlo.add across dimensions = [2] : (tensor<4x3x4xf32>, tensor<f32>) -> tensor<4x3xf32>
    %48 = stablehlo.broadcast_in_dim %45, dims = [] : (tensor<f32>) -> tensor<4x3xf32>
    %49 = stablehlo.divide %47, %48 : tensor<4x3xf32>
    %50 = stablehlo.broadcast_in_dim %6, dims = [] : (tensor<f32>) -> tensor<4x3xf32>
    %51 = stablehlo.add %49, %50 : tensor<4x3xf32>
    %52 = stablehlo.rsqrt %51 : tensor<4x3xf32>
    %53 = stablehlo.broadcast_in_dim %52, dims = [0, 1] : (tensor<4x3xf32>) -> tensor<4x3x4xf32>
    %54 = stablehlo.multiply %40, %53 : tensor<4x3x4xf32>
    %55 = stablehlo.broadcast_in_dim %arg9, dims = [2] : (tensor<4xf32>) -> tensor<4x3x4xf32>
    %56 = stablehlo.multiply %54, %55 : tensor<4x3x4xf32>
    %57 = stablehlo.constant dense<0x40800000> : tensor<f32>
    %58 = stablehlo.multiply %42, %42 : tensor<4x1x4xf32>
    %59 = stablehlo.reduce(%58 init: %2) applies stablehlo.add across dimensions = [2] : (tensor<4x1x4xf32>, tensor<f32>) -> tensor<4x1xf32>
    %60 = stablehlo.broadcast_in_dim %57, dims = [] : (tensor<f32>) -> tensor<4x1xf32>
    %61 = stablehlo.divide %59, %60 : tensor<4x1xf32>
    %62 = stablehlo.broadcast_in_dim %6, dims = [] : (tensor<f32>) -> tensor<4x1xf32>
    %63 = stablehlo.add %61, %62 : tensor<4x1xf32>
    %64 = stablehlo.rsqrt %63 : tensor<4x1xf32>
    %65 = stablehlo.broadcast_in_dim %64, dims = [0, 1] : (tensor<4x1xf32>) -> tensor<4x1x4xf32>
    %66 = stablehlo.multiply %42, %65 : tensor<4x1x4xf32>
    %67 = stablehlo.broadcast_in_dim %arg10, dims = [2] : (tensor<4xf32>) -> tensor<4x1x4xf32>
    %68 = stablehlo.multiply %66, %67 : tensor<4x1x4xf32>
    %69 = stablehlo.broadcast_in_dim %19, dims = [0, 2] : (tensor<4x4xf32>) -> tensor<4x3x4xf32>
    %70 = stablehlo.broadcast_in_dim %20, dims = [0, 2] : (tensor<4x4xf32>) -> tensor<4x3x4xf32>
    %71 = stablehlo.multiply %56, %69 : tensor<4x3x4xf32>
    %72 = stablehlo.slice %56 [0:4, 0:3, 0:2] : (tensor<4x3x4xf32>) -> tensor<4x3x2xf32>
    %73 = stablehlo.slice %56 [0:4, 0:3, 2:4] : (tensor<4x3x4xf32>) -> tensor<4x3x2xf32>
    %74 = stablehlo.negate %73 : tensor<4x3x2xf32>
    %75 = stablehlo.concatenate %74, %72, dim = 2 : (tensor<4x3x2xf32>, tensor<4x3x2xf32>) -> tensor<4x3x4xf32>
    %76 = stablehlo.multiply %75, %70 : tensor<4x3x4xf32>
    %77 = stablehlo.add %71, %76 : tensor<4x3x4xf32>
    %78 = stablehlo.broadcast_in_dim %19, dims = [0, 2] : (tensor<4x4xf32>) -> tensor<4x1x4xf32>
    %79 = stablehlo.broadcast_in_dim %20, dims = [0, 2] : (tensor<4x4xf32>) -> tensor<4x1x4xf32>
    %80 = stablehlo.multiply %68, %78 : tensor<4x1x4xf32>
    %81 = stablehlo.slice %68 [0:4, 0:1, 0:2] : (tensor<4x1x4xf32>) -> tensor<4x1x2xf32>
    %82 = stablehlo.slice %68 [0:4, 0:1, 2:4] : (tensor<4x1x4xf32>) -> tensor<4x1x2xf32>
    %83 = stablehlo.negate %82 : tensor<4x1x2xf32>
    %84 = stablehlo.concatenate %83, %81, dim = 2 : (tensor<4x1x2xf32>, tensor<4x1x2xf32>) -> tensor<4x1x4xf32>
    %85 = stablehlo.multiply %84, %79 : tensor<4x1x4xf32>
    %86 = stablehlo.add %80, %85 : tensor<4x1x4xf32>
    %87 = stablehlo.slice %arg28 [0:1] : (tensor<4xi32>) -> tensor<1xi32>
    %88 = stablehlo.reshape %87 : (tensor<1xi32>) -> tensor<i32>
    %89 = stablehlo.slice %86 [0:1, 0:1, 0:4] : (tensor<4x1x4xf32>) -> tensor<1x1x4xf32>
    %90 = stablehlo.reshape %89 : (tensor<1x1x4xf32>) -> tensor<1x1x1x1x4xf32>
    %91 = stablehlo.dynamic_update_slice %arg30, %90, %12, %10, %88, %9, %9 : (tensor<4x2x256x1x4xf32>, tensor<1x1x1x1x4xf32>, tensor<i32>, tensor<i32>, tensor<i32>, tensor<i32>, tensor<i32>) -> tensor<4x2x256x1x4xf32>
    %92 = stablehlo.slice %44 [0:1, 0:1, 0:4] : (tensor<4x1x4xf32>) -> tensor<1x1x4xf32>
    %93 = stablehlo.reshape %92 : (tensor<1x1x4xf32>) -> tensor<1x1x1x1x4xf32>
    %94 = stablehlo.dynamic_update_slice %arg31, %93, %12, %10, %88, %9, %9 : (tensor<4x2x256x1x4xf32>, tensor<1x1x1x1x4xf32>, tensor<i32>, tensor<i32>, tensor<i32>, tensor<i32>, tensor<i32>) -> tensor<4x2x256x1x4xf32>
    %95 = stablehlo.slice %arg28 [1:2] : (tensor<4xi32>) -> tensor<1xi32>
    %96 = stablehlo.reshape %95 : (tensor<1xi32>) -> tensor<i32>
    %97 = stablehlo.slice %86 [1:2, 0:1, 0:4] : (tensor<4x1x4xf32>) -> tensor<1x1x4xf32>
    %98 = stablehlo.reshape %97 : (tensor<1x1x4xf32>) -> tensor<1x1x1x1x4xf32>
    %99 = stablehlo.dynamic_update_slice %91, %98, %13, %10, %96, %9, %9 : (tensor<4x2x256x1x4xf32>, tensor<1x1x1x1x4xf32>, tensor<i32>, tensor<i32>, tensor<i32>, tensor<i32>, tensor<i32>) -> tensor<4x2x256x1x4xf32>
    %100 = stablehlo.slice %44 [1:2, 0:1, 0:4] : (tensor<4x1x4xf32>) -> tensor<1x1x4xf32>
    %101 = stablehlo.reshape %100 : (tensor<1x1x4xf32>) -> tensor<1x1x1x1x4xf32>
    %102 = stablehlo.dynamic_update_slice %94, %101, %13, %10, %96, %9, %9 : (tensor<4x2x256x1x4xf32>, tensor<1x1x1x1x4xf32>, tensor<i32>, tensor<i32>, tensor<i32>, tensor<i32>, tensor<i32>) -> tensor<4x2x256x1x4xf32>
    %103 = stablehlo.slice %arg28 [2:3] : (tensor<4xi32>) -> tensor<1xi32>
    %104 = stablehlo.reshape %103 : (tensor<1xi32>) -> tensor<i32>
    %105 = stablehlo.slice %86 [2:3, 0:1, 0:4] : (tensor<4x1x4xf32>) -> tensor<1x1x4xf32>
    %106 = stablehlo.reshape %105 : (tensor<1x1x4xf32>) -> tensor<1x1x1x1x4xf32>
    %107 = stablehlo.dynamic_update_slice %99, %106, %14, %10, %104, %9, %9 : (tensor<4x2x256x1x4xf32>, tensor<1x1x1x1x4xf32>, tensor<i32>, tensor<i32>, tensor<i32>, tensor<i32>, tensor<i32>) -> tensor<4x2x256x1x4xf32>
    %108 = stablehlo.slice %44 [2:3, 0:1, 0:4] : (tensor<4x1x4xf32>) -> tensor<1x1x4xf32>
    %109 = stablehlo.reshape %108 : (tensor<1x1x4xf32>) -> tensor<1x1x1x1x4xf32>
    %110 = stablehlo.dynamic_update_slice %102, %109, %14, %10, %104, %9, %9 : (tensor<4x2x256x1x4xf32>, tensor<1x1x1x1x4xf32>, tensor<i32>, tensor<i32>, tensor<i32>, tensor<i32>, tensor<i32>) -> tensor<4x2x256x1x4xf32>
    %111 = stablehlo.slice %arg28 [3:4] : (tensor<4xi32>) -> tensor<1xi32>
    %112 = stablehlo.reshape %111 : (tensor<1xi32>) -> tensor<i32>
    %113 = stablehlo.slice %86 [3:4, 0:1, 0:4] : (tensor<4x1x4xf32>) -> tensor<1x1x4xf32>
    %114 = stablehlo.reshape %113 : (tensor<1x1x4xf32>) -> tensor<1x1x1x1x4xf32>
    %115 = stablehlo.dynamic_update_slice %107, %114, %15, %10, %112, %9, %9 : (tensor<4x2x256x1x4xf32>, tensor<1x1x1x1x4xf32>, tensor<i32>, tensor<i32>, tensor<i32>, tensor<i32>, tensor<i32>) -> tensor<4x2x256x1x4xf32>
    %116 = stablehlo.slice %44 [3:4, 0:1, 0:4] : (tensor<4x1x4xf32>) -> tensor<1x1x4xf32>
    %117 = stablehlo.reshape %116 : (tensor<1x1x4xf32>) -> tensor<1x1x1x1x4xf32>
    %118 = stablehlo.dynamic_update_slice %110, %117, %15, %10, %112, %9, %9 : (tensor<4x2x256x1x4xf32>, tensor<1x1x1x1x4xf32>, tensor<i32>, tensor<i32>, tensor<i32>, tensor<i32>, tensor<i32>) -> tensor<4x2x256x1x4xf32>
    %119 = stablehlo.slice %115 [0:4, 0:1, 0:256, 0:1, 0:4] : (tensor<4x2x256x1x4xf32>) -> tensor<4x1x256x1x4xf32>
    %120 = stablehlo.reshape %119 : (tensor<4x1x256x1x4xf32>) -> tensor<4x256x1x4xf32>
    %121 = stablehlo.slice %118 [0:4, 0:1, 0:256, 0:1, 0:4] : (tensor<4x2x256x1x4xf32>) -> tensor<4x1x256x1x4xf32>
    %122 = stablehlo.reshape %121 : (tensor<4x1x256x1x4xf32>) -> tensor<4x256x1x4xf32>
    %123 = stablehlo.reshape %77 : (tensor<4x3x4xf32>) -> tensor<4x1x3x4xf32>
    %124 = stablehlo.dot_general %123, %120, batching_dims = [0, 1] x [0, 2], contracting_dims = [3] x [3] : (tensor<4x1x3x4xf32>, tensor<4x256x1x4xf32>) -> tensor<4x1x3x256xf32>
    %125 = stablehlo.reshape %124 : (tensor<4x1x3x256xf32>) -> tensor<4x3x256xf32>
    %126 = stablehlo.broadcast_in_dim %8, dims = [] : (tensor<f32>) -> tensor<4x3x256xf32>
    %127 = stablehlo.multiply %125, %126 : tensor<4x3x256xf32>
    %128 = stablehlo.broadcast_in_dim %27, dims = [0, 2] : (tensor<4x256xf32>) -> tensor<4x3x256xf32>
    %129 = stablehlo.add %127, %128 : tensor<4x3x256xf32>
    %130 = stablehlo.reduce(%129 init: %4) applies stablehlo.maximum across dimensions = [2] : (tensor<4x3x256xf32>, tensor<f32>) -> tensor<4x3xf32>
    %131 = stablehlo.broadcast_in_dim %130, dims = [0, 1] : (tensor<4x3xf32>) -> tensor<4x3x256xf32>
    %132 = stablehlo.subtract %129, %131 : tensor<4x3x256xf32>
    %133 = stablehlo.exponential %132 : tensor<4x3x256xf32>
    %134 = stablehlo.reduce(%133 init: %2) applies stablehlo.add across dimensions = [2] : (tensor<4x3x256xf32>, tensor<f32>) -> tensor<4x3xf32>
    %135 = stablehlo.broadcast_in_dim %134, dims = [0, 1] : (tensor<4x3xf32>) -> tensor<4x3x256xf32>
    %136 = stablehlo.divide %133, %135 : tensor<4x3x256xf32>
    %137 = stablehlo.reshape %136 : (tensor<4x3x256xf32>) -> tensor<4x1x3x256xf32>
    %138 = stablehlo.dot_general %137, %122, batching_dims = [0, 1] x [0, 2], contracting_dims = [3] x [1] : (tensor<4x1x3x256xf32>, tensor<4x256x1x4xf32>) -> tensor<4x1x3x4xf32>
    %139 = stablehlo.reshape %138 : (tensor<4x1x3x4xf32>) -> tensor<4x3x4xf32>
    %140 = stablehlo.reshape %139 : (tensor<4x3x4xf32>) -> tensor<4x12xf32>
    %141 = stablehlo.dot_general %140, %arg6, contracting_dims = [1] x [1] : (tensor<4x12xf32>, tensor<8x12xf32>) -> tensor<4x8xf32>
    %142 = stablehlo.add %17, %141 : tensor<4x8xf32>
    %143 = stablehlo.multiply %142, %142 : tensor<4x8xf32>
    %144 = stablehlo.reduce(%143 init: %2) applies stablehlo.add across dimensions = [1] : (tensor<4x8xf32>, tensor<f32>) -> tensor<4xf32>
    %145 = stablehlo.broadcast_in_dim %7, dims = [] : (tensor<f32>) -> tensor<4xf32>
    %146 = stablehlo.divide %144, %145 : tensor<4xf32>
    %147 = stablehlo.broadcast_in_dim %6, dims = [] : (tensor<f32>) -> tensor<4xf32>
    %148 = stablehlo.add %146, %147 : tensor<4xf32>
    %149 = stablehlo.rsqrt %148 : tensor<4xf32>
    %150 = stablehlo.broadcast_in_dim %149, dims = [0] : (tensor<4xf32>) -> tensor<4x8xf32>
    %151 = stablehlo.multiply %142, %150 : tensor<4x8xf32>
    %152 = stablehlo.broadcast_in_dim %arg4, dims = [1] : (tensor<8xf32>) -> tensor<4x8xf32>
    %153 = stablehlo.multiply %151, %152 : tensor<4x8xf32>
    %154 = stablehlo.dot_general %153, %arg11, contracting_dims = [1] x [1] : (tensor<4x8xf32>, tensor<4x8xf32>) -> tensor<4x4xf32>
    %155 = stablehlo.reduce(%154 init: %4) applies stablehlo.maximum across dimensions = [1] : (tensor<4x4xf32>, tensor<f32>) -> tensor<4xf32>
    %156 = stablehlo.broadcast_in_dim %155, dims = [0] : (tensor<4xf32>) -> tensor<4x4xf32>
    %157 = stablehlo.subtract %154, %156 : tensor<4x4xf32>
    %158 = stablehlo.exponential %157 : tensor<4x4xf32>
    %159 = stablehlo.reduce(%158 init: %2) applies stablehlo.add across dimensions = [1] : (tensor<4x4xf32>, tensor<f32>) -> tensor<4xf32>
    %160 = stablehlo.broadcast_in_dim %159, dims = [0] : (tensor<4xf32>) -> tensor<4x4xf32>
    %161 = stablehlo.divide %158, %160 : tensor<4x4xf32>
    %162 = stablehlo.iota dim = 0 : tensor<4xi32>
    %163 = stablehlo.broadcast_in_dim %162, dims = [1] : (tensor<4xi32>) -> tensor<4x4xi32>
    %164 = stablehlo.broadcast_in_dim %2, dims = [] : (tensor<f32>) -> tensor<4x4xf32>
    %165 = stablehlo.broadcast_in_dim %4, dims = [] : (tensor<f32>) -> tensor<4x4xf32>
    %166 = stablehlo.constant dense<0> : tensor<i32>
    %167 = stablehlo.constant dense<0xFF800000> : tensor<f32>
    %168 = stablehlo.iota dim = 1 : tensor<4x4xi32>
    %169:2 = stablehlo.reduce(%161 init: %167), (%168 init: %166) across dimensions = [1] : (tensor<4x4xf32>, tensor<4x4xi32>, tensor<f32>, tensor<i32>) -> (tensor<4xf32>, tensor<4xi32>)
    reducer(%amv_l: tensor<f32>, %amv_r: tensor<f32>) (%ami_l: tensor<i32>, %ami_r: tensor<i32>) {
      %170 = stablehlo.compare GT, %amv_l, %amv_r, FLOAT : (tensor<f32>, tensor<f32>) -> tensor<i1>
      %171 = stablehlo.compare NE, %amv_l, %amv_l, FLOAT : (tensor<f32>, tensor<f32>) -> tensor<i1>
      %172 = stablehlo.or %170, %171 : tensor<i1>
      %173 = stablehlo.compare EQ, %amv_l, %amv_r, FLOAT : (tensor<f32>, tensor<f32>) -> tensor<i1>
      %174 = stablehlo.compare LT, %ami_l, %ami_r, SIGNED : (tensor<i32>, tensor<i32>) -> tensor<i1>
      %175 = stablehlo.and %173, %174 : tensor<i1>
      %176 = stablehlo.or %172, %175 : tensor<i1>
      %177 = stablehlo.select %172, %amv_l, %amv_r : tensor<i1>, tensor<f32>
      %178 = stablehlo.select %176, %ami_l, %ami_r : tensor<i1>, tensor<i32>
      stablehlo.return %177, %178 : tensor<f32>, tensor<i32>
    }
    %179 = stablehlo.broadcast_in_dim %169#1, dims = [0] : (tensor<4xi32>) -> tensor<4x4xi32>
    %180 = stablehlo.compare EQ, %163, %179, SIGNED : (tensor<4x4xi32>, tensor<4x4xi32>) -> tensor<4x4xi1>
    %181 = stablehlo.select %180, %161, %164 : tensor<4x4xi1>, tensor<4x4xf32>
    %182 = stablehlo.reduce(%181 init: %2) applies stablehlo.add across dimensions = [1] : (tensor<4x4xf32>, tensor<f32>) -> tensor<4xf32>
    %183 = stablehlo.select %180, %165, %161 : tensor<4x4xi1>, tensor<4x4xf32>
    %184 = stablehlo.constant dense<0> : tensor<i32>
    %185 = stablehlo.constant dense<0xFF800000> : tensor<f32>
    %186 = stablehlo.iota dim = 1 : tensor<4x4xi32>
    %187:2 = stablehlo.reduce(%183 init: %185), (%186 init: %184) across dimensions = [1] : (tensor<4x4xf32>, tensor<4x4xi32>, tensor<f32>, tensor<i32>) -> (tensor<4xf32>, tensor<4xi32>)
    reducer(%amv_l: tensor<f32>, %amv_r: tensor<f32>) (%ami_l: tensor<i32>, %ami_r: tensor<i32>) {
      %188 = stablehlo.compare GT, %amv_l, %amv_r, FLOAT : (tensor<f32>, tensor<f32>) -> tensor<i1>
      %189 = stablehlo.compare NE, %amv_l, %amv_l, FLOAT : (tensor<f32>, tensor<f32>) -> tensor<i1>
      %190 = stablehlo.or %188, %189 : tensor<i1>
      %191 = stablehlo.compare EQ, %amv_l, %amv_r, FLOAT : (tensor<f32>, tensor<f32>) -> tensor<i1>
      %192 = stablehlo.compare LT, %ami_l, %ami_r, SIGNED : (tensor<i32>, tensor<i32>) -> tensor<i1>
      %193 = stablehlo.and %191, %192 : tensor<i1>
      %194 = stablehlo.or %190, %193 : tensor<i1>
      %195 = stablehlo.select %190, %amv_l, %amv_r : tensor<i1>, tensor<f32>
      %196 = stablehlo.select %194, %ami_l, %ami_r : tensor<i1>, tensor<i32>
      stablehlo.return %195, %196 : tensor<f32>, tensor<i32>
    }
    %197 = stablehlo.broadcast_in_dim %187#1, dims = [0] : (tensor<4xi32>) -> tensor<4x4xi32>
    %198 = stablehlo.compare EQ, %163, %197, SIGNED : (tensor<4x4xi32>, tensor<4x4xi32>) -> tensor<4x4xi1>
    %199 = stablehlo.select %198, %183, %164 : tensor<4x4xi1>, tensor<4x4xf32>
    %200 = stablehlo.reduce(%199 init: %2) applies stablehlo.add across dimensions = [1] : (tensor<4x4xf32>, tensor<f32>) -> tensor<4xf32>
    %201 = stablehlo.select %198, %165, %183 : tensor<4x4xi1>, tensor<4x4xf32>
    %202 = stablehlo.add %182, %200 : tensor<4xf32>
    %203 = stablehlo.divide %182, %202 : tensor<4xf32>
    %204 = stablehlo.divide %200, %202 : tensor<4xf32>
    %205 = stablehlo.broadcast_in_dim %2, dims = [] : (tensor<f32>) -> tensor<4x4xf32>
    %206 = stablehlo.broadcast_in_dim %203, dims = [0] : (tensor<4xf32>) -> tensor<4x4xf32>
    %207 = stablehlo.select %180, %206, %164 : tensor<4x4xi1>, tensor<4x4xf32>
    %208 = stablehlo.add %205, %207 : tensor<4x4xf32>
    %209 = stablehlo.broadcast_in_dim %204, dims = [0] : (tensor<4xf32>) -> tensor<4x4xf32>
    %210 = stablehlo.select %198, %209, %164 : tensor<4x4xi1>, tensor<4x4xf32>
    %211 = stablehlo.add %208, %210 : tensor<4x4xf32>
    %212 = stablehlo.broadcast_in_dim %153, dims = [1, 2] : (tensor<4x8xf32>) -> tensor<4x4x8xf32>
    %213 = stablehlo.dot_general %212, %arg12, batching_dims = [0] x [0], contracting_dims = [2] x [2] : (tensor<4x4x8xf32>, tensor<4x12x8xf32>) -> tensor<4x4x12xf32>
    %214 = stablehlo.dot_general %212, %arg13, batching_dims = [0] x [0], contracting_dims = [2] x [2] : (tensor<4x4x8xf32>, tensor<4x12x8xf32>) -> tensor<4x4x12xf32>
    %215 = stablehlo.broadcast_in_dim %3, dims = [] : (tensor<f32>) -> tensor<4x4x12xf32>
    %216 = stablehlo.negate %213 : tensor<4x4x12xf32>
    %217 = stablehlo.exponential %216 : tensor<4x4x12xf32>
    %218 = stablehlo.add %215, %217 : tensor<4x4x12xf32>
    %219 = stablehlo.divide %215, %218 : tensor<4x4x12xf32>
    %220 = stablehlo.multiply %213, %219 : tensor<4x4x12xf32>
    %221 = stablehlo.multiply %220, %214 : tensor<4x4x12xf32>
    %222 = stablehlo.dot_general %221, %arg14, batching_dims = [0] x [0], contracting_dims = [2] x [2] : (tensor<4x4x12xf32>, tensor<4x8x12xf32>) -> tensor<4x4x8xf32>
    %223 = stablehlo.dot_general %211, %222, batching_dims = [0] x [1], contracting_dims = [1] x [0] : (tensor<4x4xf32>, tensor<4x4x8xf32>) -> tensor<4x8xf32>
    %224 = stablehlo.add %142, %223 : tensor<4x8xf32>
    %225 = stablehlo.multiply %224, %224 : tensor<4x8xf32>
    %226 = stablehlo.reduce(%225 init: %2) applies stablehlo.add across dimensions = [1] : (tensor<4x8xf32>, tensor<f32>) -> tensor<4xf32>
    %227 = stablehlo.broadcast_in_dim %7, dims = [] : (tensor<f32>) -> tensor<4xf32>
    %228 = stablehlo.divide %226, %227 : tensor<4xf32>
    %229 = stablehlo.broadcast_in_dim %6, dims = [] : (tensor<f32>) -> tensor<4xf32>
    %230 = stablehlo.add %228, %229 : tensor<4xf32>
    %231 = stablehlo.rsqrt %230 : tensor<4xf32>
    %232 = stablehlo.broadcast_in_dim %231, dims = [0] : (tensor<4xf32>) -> tensor<4x8xf32>
    %233 = stablehlo.multiply %224, %232 : tensor<4x8xf32>
    %234 = stablehlo.broadcast_in_dim %arg15, dims = [1] : (tensor<8xf32>) -> tensor<4x8xf32>
    %235 = stablehlo.multiply %233, %234 : tensor<4x8xf32>
    %236 = stablehlo.dot_general %235, %arg19, contracting_dims = [1] x [1] : (tensor<4x8xf32>, tensor<12x8xf32>) -> tensor<4x12xf32>
    %237 = stablehlo.reshape %236 : (tensor<4x12xf32>) -> tensor<4x3x4xf32>
    %238 = stablehlo.dot_general %235, %arg17, contracting_dims = [1] x [1] : (tensor<4x8xf32>, tensor<4x8xf32>) -> tensor<4x4xf32>
    %239 = stablehlo.reshape %238 : (tensor<4x4xf32>) -> tensor<4x1x4xf32>
    %240 = stablehlo.dot_general %235, %arg20, contracting_dims = [1] x [1] : (tensor<4x8xf32>, tensor<4x8xf32>) -> tensor<4x4xf32>
    %241 = stablehlo.reshape %240 : (tensor<4x4xf32>) -> tensor<4x1x4xf32>
    %242 = stablehlo.constant dense<0x40800000> : tensor<f32>
    %243 = stablehlo.multiply %237, %237 : tensor<4x3x4xf32>
    %244 = stablehlo.reduce(%243 init: %2) applies stablehlo.add across dimensions = [2] : (tensor<4x3x4xf32>, tensor<f32>) -> tensor<4x3xf32>
    %245 = stablehlo.broadcast_in_dim %242, dims = [] : (tensor<f32>) -> tensor<4x3xf32>
    %246 = stablehlo.divide %244, %245 : tensor<4x3xf32>
    %247 = stablehlo.broadcast_in_dim %6, dims = [] : (tensor<f32>) -> tensor<4x3xf32>
    %248 = stablehlo.add %246, %247 : tensor<4x3xf32>
    %249 = stablehlo.rsqrt %248 : tensor<4x3xf32>
    %250 = stablehlo.broadcast_in_dim %249, dims = [0, 1] : (tensor<4x3xf32>) -> tensor<4x3x4xf32>
    %251 = stablehlo.multiply %237, %250 : tensor<4x3x4xf32>
    %252 = stablehlo.broadcast_in_dim %arg21, dims = [2] : (tensor<4xf32>) -> tensor<4x3x4xf32>
    %253 = stablehlo.multiply %251, %252 : tensor<4x3x4xf32>
    %254 = stablehlo.constant dense<0x40800000> : tensor<f32>
    %255 = stablehlo.multiply %239, %239 : tensor<4x1x4xf32>
    %256 = stablehlo.reduce(%255 init: %2) applies stablehlo.add across dimensions = [2] : (tensor<4x1x4xf32>, tensor<f32>) -> tensor<4x1xf32>
    %257 = stablehlo.broadcast_in_dim %254, dims = [] : (tensor<f32>) -> tensor<4x1xf32>
    %258 = stablehlo.divide %256, %257 : tensor<4x1xf32>
    %259 = stablehlo.broadcast_in_dim %6, dims = [] : (tensor<f32>) -> tensor<4x1xf32>
    %260 = stablehlo.add %258, %259 : tensor<4x1xf32>
    %261 = stablehlo.rsqrt %260 : tensor<4x1xf32>
    %262 = stablehlo.broadcast_in_dim %261, dims = [0, 1] : (tensor<4x1xf32>) -> tensor<4x1x4xf32>
    %263 = stablehlo.multiply %239, %262 : tensor<4x1x4xf32>
    %264 = stablehlo.broadcast_in_dim %arg22, dims = [2] : (tensor<4xf32>) -> tensor<4x1x4xf32>
    %265 = stablehlo.multiply %263, %264 : tensor<4x1x4xf32>
    %266 = stablehlo.broadcast_in_dim %19, dims = [0, 2] : (tensor<4x4xf32>) -> tensor<4x3x4xf32>
    %267 = stablehlo.broadcast_in_dim %20, dims = [0, 2] : (tensor<4x4xf32>) -> tensor<4x3x4xf32>
    %268 = stablehlo.multiply %253, %266 : tensor<4x3x4xf32>
    %269 = stablehlo.slice %253 [0:4, 0:3, 0:2] : (tensor<4x3x4xf32>) -> tensor<4x3x2xf32>
    %270 = stablehlo.slice %253 [0:4, 0:3, 2:4] : (tensor<4x3x4xf32>) -> tensor<4x3x2xf32>
    %271 = stablehlo.negate %270 : tensor<4x3x2xf32>
    %272 = stablehlo.concatenate %271, %269, dim = 2 : (tensor<4x3x2xf32>, tensor<4x3x2xf32>) -> tensor<4x3x4xf32>
    %273 = stablehlo.multiply %272, %267 : tensor<4x3x4xf32>
    %274 = stablehlo.add %268, %273 : tensor<4x3x4xf32>
    %275 = stablehlo.broadcast_in_dim %19, dims = [0, 2] : (tensor<4x4xf32>) -> tensor<4x1x4xf32>
    %276 = stablehlo.broadcast_in_dim %20, dims = [0, 2] : (tensor<4x4xf32>) -> tensor<4x1x4xf32>
    %277 = stablehlo.multiply %265, %275 : tensor<4x1x4xf32>
    %278 = stablehlo.slice %265 [0:4, 0:1, 0:2] : (tensor<4x1x4xf32>) -> tensor<4x1x2xf32>
    %279 = stablehlo.slice %265 [0:4, 0:1, 2:4] : (tensor<4x1x4xf32>) -> tensor<4x1x2xf32>
    %280 = stablehlo.negate %279 : tensor<4x1x2xf32>
    %281 = stablehlo.concatenate %280, %278, dim = 2 : (tensor<4x1x2xf32>, tensor<4x1x2xf32>) -> tensor<4x1x4xf32>
    %282 = stablehlo.multiply %281, %276 : tensor<4x1x4xf32>
    %283 = stablehlo.add %277, %282 : tensor<4x1x4xf32>
    %284 = stablehlo.slice %arg28 [0:1] : (tensor<4xi32>) -> tensor<1xi32>
    %285 = stablehlo.reshape %284 : (tensor<1xi32>) -> tensor<i32>
    %286 = stablehlo.slice %283 [0:1, 0:1, 0:4] : (tensor<4x1x4xf32>) -> tensor<1x1x4xf32>
    %287 = stablehlo.reshape %286 : (tensor<1x1x4xf32>) -> tensor<1x1x1x1x4xf32>
    %288 = stablehlo.dynamic_update_slice %115, %287, %12, %11, %285, %9, %9 : (tensor<4x2x256x1x4xf32>, tensor<1x1x1x1x4xf32>, tensor<i32>, tensor<i32>, tensor<i32>, tensor<i32>, tensor<i32>) -> tensor<4x2x256x1x4xf32>
    %289 = stablehlo.slice %241 [0:1, 0:1, 0:4] : (tensor<4x1x4xf32>) -> tensor<1x1x4xf32>
    %290 = stablehlo.reshape %289 : (tensor<1x1x4xf32>) -> tensor<1x1x1x1x4xf32>
    %291 = stablehlo.dynamic_update_slice %118, %290, %12, %11, %285, %9, %9 : (tensor<4x2x256x1x4xf32>, tensor<1x1x1x1x4xf32>, tensor<i32>, tensor<i32>, tensor<i32>, tensor<i32>, tensor<i32>) -> tensor<4x2x256x1x4xf32>
    %292 = stablehlo.slice %arg28 [1:2] : (tensor<4xi32>) -> tensor<1xi32>
    %293 = stablehlo.reshape %292 : (tensor<1xi32>) -> tensor<i32>
    %294 = stablehlo.slice %283 [1:2, 0:1, 0:4] : (tensor<4x1x4xf32>) -> tensor<1x1x4xf32>
    %295 = stablehlo.reshape %294 : (tensor<1x1x4xf32>) -> tensor<1x1x1x1x4xf32>
    %296 = stablehlo.dynamic_update_slice %288, %295, %13, %11, %293, %9, %9 : (tensor<4x2x256x1x4xf32>, tensor<1x1x1x1x4xf32>, tensor<i32>, tensor<i32>, tensor<i32>, tensor<i32>, tensor<i32>) -> tensor<4x2x256x1x4xf32>
    %297 = stablehlo.slice %241 [1:2, 0:1, 0:4] : (tensor<4x1x4xf32>) -> tensor<1x1x4xf32>
    %298 = stablehlo.reshape %297 : (tensor<1x1x4xf32>) -> tensor<1x1x1x1x4xf32>
    %299 = stablehlo.dynamic_update_slice %291, %298, %13, %11, %293, %9, %9 : (tensor<4x2x256x1x4xf32>, tensor<1x1x1x1x4xf32>, tensor<i32>, tensor<i32>, tensor<i32>, tensor<i32>, tensor<i32>) -> tensor<4x2x256x1x4xf32>
    %300 = stablehlo.slice %arg28 [2:3] : (tensor<4xi32>) -> tensor<1xi32>
    %301 = stablehlo.reshape %300 : (tensor<1xi32>) -> tensor<i32>
    %302 = stablehlo.slice %283 [2:3, 0:1, 0:4] : (tensor<4x1x4xf32>) -> tensor<1x1x4xf32>
    %303 = stablehlo.reshape %302 : (tensor<1x1x4xf32>) -> tensor<1x1x1x1x4xf32>
    %304 = stablehlo.dynamic_update_slice %296, %303, %14, %11, %301, %9, %9 : (tensor<4x2x256x1x4xf32>, tensor<1x1x1x1x4xf32>, tensor<i32>, tensor<i32>, tensor<i32>, tensor<i32>, tensor<i32>) -> tensor<4x2x256x1x4xf32>
    %305 = stablehlo.slice %241 [2:3, 0:1, 0:4] : (tensor<4x1x4xf32>) -> tensor<1x1x4xf32>
    %306 = stablehlo.reshape %305 : (tensor<1x1x4xf32>) -> tensor<1x1x1x1x4xf32>
    %307 = stablehlo.dynamic_update_slice %299, %306, %14, %11, %301, %9, %9 : (tensor<4x2x256x1x4xf32>, tensor<1x1x1x1x4xf32>, tensor<i32>, tensor<i32>, tensor<i32>, tensor<i32>, tensor<i32>) -> tensor<4x2x256x1x4xf32>
    %308 = stablehlo.slice %arg28 [3:4] : (tensor<4xi32>) -> tensor<1xi32>
    %309 = stablehlo.reshape %308 : (tensor<1xi32>) -> tensor<i32>
    %310 = stablehlo.slice %283 [3:4, 0:1, 0:4] : (tensor<4x1x4xf32>) -> tensor<1x1x4xf32>
    %311 = stablehlo.reshape %310 : (tensor<1x1x4xf32>) -> tensor<1x1x1x1x4xf32>
    %312 = stablehlo.dynamic_update_slice %304, %311, %15, %11, %309, %9, %9 : (tensor<4x2x256x1x4xf32>, tensor<1x1x1x1x4xf32>, tensor<i32>, tensor<i32>, tensor<i32>, tensor<i32>, tensor<i32>) -> tensor<4x2x256x1x4xf32>
    %313 = stablehlo.slice %241 [3:4, 0:1, 0:4] : (tensor<4x1x4xf32>) -> tensor<1x1x4xf32>
    %314 = stablehlo.reshape %313 : (tensor<1x1x4xf32>) -> tensor<1x1x1x1x4xf32>
    %315 = stablehlo.dynamic_update_slice %307, %314, %15, %11, %309, %9, %9 : (tensor<4x2x256x1x4xf32>, tensor<1x1x1x1x4xf32>, tensor<i32>, tensor<i32>, tensor<i32>, tensor<i32>, tensor<i32>) -> tensor<4x2x256x1x4xf32>
    %316 = stablehlo.slice %312 [0:4, 1:2, 0:256, 0:1, 0:4] : (tensor<4x2x256x1x4xf32>) -> tensor<4x1x256x1x4xf32>
    %317 = stablehlo.reshape %316 : (tensor<4x1x256x1x4xf32>) -> tensor<4x256x1x4xf32>
    %318 = stablehlo.slice %315 [0:4, 1:2, 0:256, 0:1, 0:4] : (tensor<4x2x256x1x4xf32>) -> tensor<4x1x256x1x4xf32>
    %319 = stablehlo.reshape %318 : (tensor<4x1x256x1x4xf32>) -> tensor<4x256x1x4xf32>
    %320 = stablehlo.reshape %274 : (tensor<4x3x4xf32>) -> tensor<4x1x3x4xf32>
    %321 = stablehlo.dot_general %320, %317, batching_dims = [0, 1] x [0, 2], contracting_dims = [3] x [3] : (tensor<4x1x3x4xf32>, tensor<4x256x1x4xf32>) -> tensor<4x1x3x256xf32>
    %322 = stablehlo.reshape %321 : (tensor<4x1x3x256xf32>) -> tensor<4x3x256xf32>
    %323 = stablehlo.broadcast_in_dim %8, dims = [] : (tensor<f32>) -> tensor<4x3x256xf32>
    %324 = stablehlo.multiply %322, %323 : tensor<4x3x256xf32>
    %325 = stablehlo.broadcast_in_dim %27, dims = [0, 2] : (tensor<4x256xf32>) -> tensor<4x3x256xf32>
    %326 = stablehlo.add %324, %325 : tensor<4x3x256xf32>
    %327 = stablehlo.reduce(%326 init: %4) applies stablehlo.maximum across dimensions = [2] : (tensor<4x3x256xf32>, tensor<f32>) -> tensor<4x3xf32>
    %328 = stablehlo.broadcast_in_dim %327, dims = [0, 1] : (tensor<4x3xf32>) -> tensor<4x3x256xf32>
    %329 = stablehlo.subtract %326, %328 : tensor<4x3x256xf32>
    %330 = stablehlo.exponential %329 : tensor<4x3x256xf32>
    %331 = stablehlo.reduce(%330 init: %2) applies stablehlo.add across dimensions = [2] : (tensor<4x3x256xf32>, tensor<f32>) -> tensor<4x3xf32>
    %332 = stablehlo.broadcast_in_dim %331, dims = [0, 1] : (tensor<4x3xf32>) -> tensor<4x3x256xf32>
    %333 = stablehlo.divide %330, %332 : tensor<4x3x256xf32>
    %334 = stablehlo.reshape %333 : (tensor<4x3x256xf32>) -> tensor<4x1x3x256xf32>
    %335 = stablehlo.dot_general %334, %319, batching_dims = [0, 1] x [0, 2], contracting_dims = [3] x [1] : (tensor<4x1x3x256xf32>, tensor<4x256x1x4xf32>) -> tensor<4x1x3x4xf32>
    %336 = stablehlo.reshape %335 : (tensor<4x1x3x4xf32>) -> tensor<4x3x4xf32>
    %337 = stablehlo.reshape %336 : (tensor<4x3x4xf32>) -> tensor<4x12xf32>
    %338 = stablehlo.dot_general %337, %arg18, contracting_dims = [1] x [1] : (tensor<4x12xf32>, tensor<8x12xf32>) -> tensor<4x8xf32>
    %339 = stablehlo.add %224, %338 : tensor<4x8xf32>
    %340 = stablehlo.multiply %339, %339 : tensor<4x8xf32>
    %341 = stablehlo.reduce(%340 init: %2) applies stablehlo.add across dimensions = [1] : (tensor<4x8xf32>, tensor<f32>) -> tensor<4xf32>
    %342 = stablehlo.broadcast_in_dim %7, dims = [] : (tensor<f32>) -> tensor<4xf32>
    %343 = stablehlo.divide %341, %342 : tensor<4xf32>
    %344 = stablehlo.broadcast_in_dim %6, dims = [] : (tensor<f32>) -> tensor<4xf32>
    %345 = stablehlo.add %343, %344 : tensor<4xf32>
    %346 = stablehlo.rsqrt %345 : tensor<4xf32>
    %347 = stablehlo.broadcast_in_dim %346, dims = [0] : (tensor<4xf32>) -> tensor<4x8xf32>
    %348 = stablehlo.multiply %339, %347 : tensor<4x8xf32>
    %349 = stablehlo.broadcast_in_dim %arg16, dims = [1] : (tensor<8xf32>) -> tensor<4x8xf32>
    %350 = stablehlo.multiply %348, %349 : tensor<4x8xf32>
    %351 = stablehlo.dot_general %350, %arg23, contracting_dims = [1] x [1] : (tensor<4x8xf32>, tensor<4x8xf32>) -> tensor<4x4xf32>
    %352 = stablehlo.reduce(%351 init: %4) applies stablehlo.maximum across dimensions = [1] : (tensor<4x4xf32>, tensor<f32>) -> tensor<4xf32>
    %353 = stablehlo.broadcast_in_dim %352, dims = [0] : (tensor<4xf32>) -> tensor<4x4xf32>
    %354 = stablehlo.subtract %351, %353 : tensor<4x4xf32>
    %355 = stablehlo.exponential %354 : tensor<4x4xf32>
    %356 = stablehlo.reduce(%355 init: %2) applies stablehlo.add across dimensions = [1] : (tensor<4x4xf32>, tensor<f32>) -> tensor<4xf32>
    %357 = stablehlo.broadcast_in_dim %356, dims = [0] : (tensor<4xf32>) -> tensor<4x4xf32>
    %358 = stablehlo.divide %355, %357 : tensor<4x4xf32>
    %359 = stablehlo.iota dim = 0 : tensor<4xi32>
    %360 = stablehlo.broadcast_in_dim %359, dims = [1] : (tensor<4xi32>) -> tensor<4x4xi32>
    %361 = stablehlo.broadcast_in_dim %2, dims = [] : (tensor<f32>) -> tensor<4x4xf32>
    %362 = stablehlo.broadcast_in_dim %4, dims = [] : (tensor<f32>) -> tensor<4x4xf32>
    %363 = stablehlo.constant dense<0> : tensor<i32>
    %364 = stablehlo.constant dense<0xFF800000> : tensor<f32>
    %365 = stablehlo.iota dim = 1 : tensor<4x4xi32>
    %366:2 = stablehlo.reduce(%358 init: %364), (%365 init: %363) across dimensions = [1] : (tensor<4x4xf32>, tensor<4x4xi32>, tensor<f32>, tensor<i32>) -> (tensor<4xf32>, tensor<4xi32>)
    reducer(%amv_l: tensor<f32>, %amv_r: tensor<f32>) (%ami_l: tensor<i32>, %ami_r: tensor<i32>) {
      %367 = stablehlo.compare GT, %amv_l, %amv_r, FLOAT : (tensor<f32>, tensor<f32>) -> tensor<i1>
      %368 = stablehlo.compare NE, %amv_l, %amv_l, FLOAT : (tensor<f32>, tensor<f32>) -> tensor<i1>
      %369 = stablehlo.or %367, %368 : tensor<i1>
      %370 = stablehlo.compare EQ, %amv_l, %amv_r, FLOAT : (tensor<f32>, tensor<f32>) -> tensor<i1>
      %371 = stablehlo.compare LT, %ami_l, %ami_r, SIGNED : (tensor<i32>, tensor<i32>) -> tensor<i1>
      %372 = stablehlo.and %370, %371 : tensor<i1>
      %373 = stablehlo.or %369, %372 : tensor<i1>
      %374 = stablehlo.select %369, %amv_l, %amv_r : tensor<i1>, tensor<f32>
      %375 = stablehlo.select %373, %ami_l, %ami_r : tensor<i1>, tensor<i32>
      stablehlo.return %374, %375 : tensor<f32>, tensor<i32>
    }
    %376 = stablehlo.broadcast_in_dim %366#1, dims = [0] : (tensor<4xi32>) -> tensor<4x4xi32>
    %377 = stablehlo.compare EQ, %360, %376, SIGNED : (tensor<4x4xi32>, tensor<4x4xi32>) -> tensor<4x4xi1>
    %378 = stablehlo.select %377, %358, %361 : tensor<4x4xi1>, tensor<4x4xf32>
    %379 = stablehlo.reduce(%378 init: %2) applies stablehlo.add across dimensions = [1] : (tensor<4x4xf32>, tensor<f32>) -> tensor<4xf32>
    %380 = stablehlo.select %377, %362, %358 : tensor<4x4xi1>, tensor<4x4xf32>
    %381 = stablehlo.constant dense<0> : tensor<i32>
    %382 = stablehlo.constant dense<0xFF800000> : tensor<f32>
    %383 = stablehlo.iota dim = 1 : tensor<4x4xi32>
    %384:2 = stablehlo.reduce(%380 init: %382), (%383 init: %381) across dimensions = [1] : (tensor<4x4xf32>, tensor<4x4xi32>, tensor<f32>, tensor<i32>) -> (tensor<4xf32>, tensor<4xi32>)
    reducer(%amv_l: tensor<f32>, %amv_r: tensor<f32>) (%ami_l: tensor<i32>, %ami_r: tensor<i32>) {
      %385 = stablehlo.compare GT, %amv_l, %amv_r, FLOAT : (tensor<f32>, tensor<f32>) -> tensor<i1>
      %386 = stablehlo.compare NE, %amv_l, %amv_l, FLOAT : (tensor<f32>, tensor<f32>) -> tensor<i1>
      %387 = stablehlo.or %385, %386 : tensor<i1>
      %388 = stablehlo.compare EQ, %amv_l, %amv_r, FLOAT : (tensor<f32>, tensor<f32>) -> tensor<i1>
      %389 = stablehlo.compare LT, %ami_l, %ami_r, SIGNED : (tensor<i32>, tensor<i32>) -> tensor<i1>
      %390 = stablehlo.and %388, %389 : tensor<i1>
      %391 = stablehlo.or %387, %390 : tensor<i1>
      %392 = stablehlo.select %387, %amv_l, %amv_r : tensor<i1>, tensor<f32>
      %393 = stablehlo.select %391, %ami_l, %ami_r : tensor<i1>, tensor<i32>
      stablehlo.return %392, %393 : tensor<f32>, tensor<i32>
    }
    %394 = stablehlo.broadcast_in_dim %384#1, dims = [0] : (tensor<4xi32>) -> tensor<4x4xi32>
    %395 = stablehlo.compare EQ, %360, %394, SIGNED : (tensor<4x4xi32>, tensor<4x4xi32>) -> tensor<4x4xi1>
    %396 = stablehlo.select %395, %380, %361 : tensor<4x4xi1>, tensor<4x4xf32>
    %397 = stablehlo.reduce(%396 init: %2) applies stablehlo.add across dimensions = [1] : (tensor<4x4xf32>, tensor<f32>) -> tensor<4xf32>
    %398 = stablehlo.select %395, %362, %380 : tensor<4x4xi1>, tensor<4x4xf32>
    %399 = stablehlo.add %379, %397 : tensor<4xf32>
    %400 = stablehlo.divide %379, %399 : tensor<4xf32>
    %401 = stablehlo.divide %397, %399 : tensor<4xf32>
    %402 = stablehlo.broadcast_in_dim %2, dims = [] : (tensor<f32>) -> tensor<4x4xf32>
    %403 = stablehlo.broadcast_in_dim %400, dims = [0] : (tensor<4xf32>) -> tensor<4x4xf32>
    %404 = stablehlo.select %377, %403, %361 : tensor<4x4xi1>, tensor<4x4xf32>
    %405 = stablehlo.add %402, %404 : tensor<4x4xf32>
    %406 = stablehlo.broadcast_in_dim %401, dims = [0] : (tensor<4xf32>) -> tensor<4x4xf32>
    %407 = stablehlo.select %395, %406, %361 : tensor<4x4xi1>, tensor<4x4xf32>
    %408 = stablehlo.add %405, %407 : tensor<4x4xf32>
    %409 = stablehlo.broadcast_in_dim %350, dims = [1, 2] : (tensor<4x8xf32>) -> tensor<4x4x8xf32>
    %410 = stablehlo.dot_general %409, %arg24, batching_dims = [0] x [0], contracting_dims = [2] x [2] : (tensor<4x4x8xf32>, tensor<4x12x8xf32>) -> tensor<4x4x12xf32>
    %411 = stablehlo.dot_general %409, %arg25, batching_dims = [0] x [0], contracting_dims = [2] x [2] : (tensor<4x4x8xf32>, tensor<4x12x8xf32>) -> tensor<4x4x12xf32>
    %412 = stablehlo.broadcast_in_dim %3, dims = [] : (tensor<f32>) -> tensor<4x4x12xf32>
    %413 = stablehlo.negate %410 : tensor<4x4x12xf32>
    %414 = stablehlo.exponential %413 : tensor<4x4x12xf32>
    %415 = stablehlo.add %412, %414 : tensor<4x4x12xf32>
    %416 = stablehlo.divide %412, %415 : tensor<4x4x12xf32>
    %417 = stablehlo.multiply %410, %416 : tensor<4x4x12xf32>
    %418 = stablehlo.multiply %417, %411 : tensor<4x4x12xf32>
    %419 = stablehlo.dot_general %418, %arg26, batching_dims = [0] x [0], contracting_dims = [2] x [2] : (tensor<4x4x12xf32>, tensor<4x8x12xf32>) -> tensor<4x4x8xf32>
    %420 = stablehlo.dot_general %408, %419, batching_dims = [0] x [1], contracting_dims = [1] x [0] : (tensor<4x4xf32>, tensor<4x4x8xf32>) -> tensor<4x8xf32>
    %421 = stablehlo.add %339, %420 : tensor<4x8xf32>
    %422 = stablehlo.multiply %421, %421 : tensor<4x8xf32>
    %423 = stablehlo.reduce(%422 init: %2) applies stablehlo.add across dimensions = [1] : (tensor<4x8xf32>, tensor<f32>) -> tensor<4xf32>
    %424 = stablehlo.broadcast_in_dim %7, dims = [] : (tensor<f32>) -> tensor<4xf32>
    %425 = stablehlo.divide %423, %424 : tensor<4xf32>
    %426 = stablehlo.broadcast_in_dim %6, dims = [] : (tensor<f32>) -> tensor<4xf32>
    %427 = stablehlo.add %425, %426 : tensor<4xf32>
    %428 = stablehlo.rsqrt %427 : tensor<4xf32>
    %429 = stablehlo.broadcast_in_dim %428, dims = [0] : (tensor<4xf32>) -> tensor<4x8xf32>
    %430 = stablehlo.multiply %421, %429 : tensor<4x8xf32>
    %431 = stablehlo.broadcast_in_dim %arg1, dims = [1] : (tensor<8xf32>) -> tensor<4x8xf32>
    %432 = stablehlo.multiply %430, %431 : tensor<4x8xf32>
    %433 = stablehlo.dot_general %432, %arg2, contracting_dims = [1] x [1] : (tensor<4x8xf32>, tensor<10x8xf32>) -> tensor<4x10xf32>
    return %433, %312, %315 : tensor<4x10xf32>, tensor<4x2x256x1x4xf32>, tensor<4x2x256x1x4xf32>
  }
}
