module @prefill {
  func.func public @main(%arg0: tensor<10x8xf32> loc("params['embed']"), %arg1: tensor<8xf32> loc("params['final_norm']"), %arg2: tensor<10x8xf32> loc("params['lm_head']"), %arg3: tensor<8xf32> loc("params['layers'][0]['in_ln']"), %arg4: tensor<8xf32> loc("params['layers'][0]['post_ln']"), %arg5: tensor<4x8xf32> loc("params['layers'][0]['wk']"), %arg6: tensor<8x12xf32> loc("params['layers'][0]['wo']"), %arg7: tensor<12x8xf32> loc("params['layers'][0]['wq']"), %arg8: tensor<4x8xf32> loc("params['layers'][0]['wv']"), %arg9: tensor<4xf32> loc("params['layers'][0]['q_norm']"), %arg10: tensor<4xf32> loc("params['layers'][0]['k_norm']"), %arg11: tensor<4x8xf32> loc("params['layers'][0]['moe_router']"), %arg12: tensor<4x12x8xf32> loc("params['layers'][0]['moe_gate']"), %arg13: tensor<4x12x8xf32> loc("params['layers'][0]['moe_up']"), %arg14: tensor<4x8x12xf32> loc("params['layers'][0]['moe_down']"), %arg15: tensor<8xf32> loc("params['layers'][1]['in_ln']"), %arg16: tensor<8xf32> loc("params['layers'][1]['post_ln']"), %arg17: tensor<4x8xf32> loc("params['layers'][1]['wk']"), %arg18: tensor<8x12xf32> loc("params['layers'][1]['wo']"), %arg19: tensor<12x8xf32> loc("params['layers'][1]['wq']"), %arg20: tensor<4x8xf32> loc("params['layers'][1]['wv']"), %arg21: tensor<4xf32> loc("params['layers'][1]['q_norm']"), %arg22: tensor<4xf32> loc("params['layers'][1]['k_norm']"), %arg23: tensor<4x8xf32> loc("params['layers'][1]['moe_router']"), %arg24: tensor<4x12x8xf32> loc("params['layers'][1]['moe_gate']"), %arg25: tensor<4x12x8xf32> loc("params['layers'][1]['moe_up']"), %arg26: tensor<4x8x12xf32> loc("params['layers'][1]['moe_down']"), %arg27: tensor<256xi32> loc("tokens"), %arg28: tensor<256xi32> loc("positions"), %arg29: tensor<i32> loc("real_len")) -> (tensor<10xf32>, tensor<2x256x1x4xf32>, tensor<2x256x1x4xf32>) {
    %0 = stablehlo.constant dense<"…"> : tensor<256x4xf32>
    %1 = stablehlo.constant dense<"…"> : tensor<256x4xf32>
    %2 = stablehlo.constant dense<0x00000000> : tensor<f32>
    %3 = stablehlo.constant dense<0x3F800000> : tensor<f32>
    %4 = stablehlo.constant dense<0xFF800000> : tensor<f32>
    %5 = stablehlo.constant dense<0xF149F2CA> : tensor<f32>
    %6 = stablehlo.constant dense<0x358637BD> : tensor<f32>
    %7 = stablehlo.constant dense<0x41000000> : tensor<f32>
    %8 = stablehlo.constant dense<0x3F000000> : tensor<f32>
    %9 = stablehlo.constant dense<0> : tensor<i32>
    %10 = stablehlo.constant dense<0> : tensor<i32>
    %11 = stablehlo.constant dense<1> : tensor<i32>
    %12 = stablehlo.reshape %arg27 : (tensor<256xi32>) -> tensor<256x1xi32>
    %13 = "stablehlo.gather"(%arg0, %12) <{dimension_numbers = #stablehlo.gather<offset_dims = [1], collapsed_slice_dims = [0], start_index_map = [0], index_vector_dim = 1>, slice_sizes = array<i64: 1, 8>}> : (tensor<10x8xf32>, tensor<256x1xi32>) -> tensor<256x8xf32>
    %14 = stablehlo.reshape %arg28 : (tensor<256xi32>) -> tensor<256x1xi32>
    %15 = "stablehlo.gather"(%0, %14) <{dimension_numbers = #stablehlo.gather<offset_dims = [1], collapsed_slice_dims = [0], start_index_map = [0], index_vector_dim = 1>, slice_sizes = array<i64: 1, 4>}> : (tensor<256x4xf32>, tensor<256x1xi32>) -> tensor<256x4xf32>
    %16 = "stablehlo.gather"(%1, %14) <{dimension_numbers = #stablehlo.gather<offset_dims = [1], collapsed_slice_dims = [0], start_index_map = [0], index_vector_dim = 1>, slice_sizes = array<i64: 1, 4>}> : (tensor<256x4xf32>, tensor<256x1xi32>) -> tensor<256x4xf32>
    %17 = stablehlo.iota dim = 0 : tensor<256xi32>
    %18 = stablehlo.broadcast_in_dim %17, dims = [0] : (tensor<256xi32>) -> tensor<256x256xi32>
    %19 = stablehlo.iota dim = 0 : tensor<256xi32>
    %20 = stablehlo.broadcast_in_dim %19, dims = [1] : (tensor<256xi32>) -> tensor<256x256xi32>
    %21 = stablehlo.compare LE, %20, %18, SIGNED : (tensor<256x256xi32>, tensor<256x256xi32>) -> tensor<256x256xi1>
    %22 = stablehlo.broadcast_in_dim %2, dims = [] : (tensor<f32>) -> tensor<256x256xf32>
    %23 = stablehlo.broadcast_in_dim %5, dims = [] : (tensor<f32>) -> tensor<256x256xf32>
    %24 = stablehlo.select %21, %22, %23 : tensor<256x256xi1>, tensor<256x256xf32>
    %25 = stablehlo.broadcast_in_dim %2, dims = [] : (tensor<f32>) -> tensor<2x256x1x4xf32>
    %26 = stablehlo.broadcast_in_dim %2, dims = [] : (tensor<f32>) -> tensor<2x256x1x4xf32>
    %27 = stablehlo.multiply %13, %13 : tensor<256x8xf32>
    %28 = stablehlo.reduce(%27 init: %2) applies stablehlo.add across dimensions = [1] : (tensor<256x8xf32>, tensor<f32>) -> tensor<256xf32>
    %29 = stablehlo.broadcast_in_dim %7, dims = [] : (tensor<f32>) -> tensor<256xf32>
    %30 = stablehlo.divide %28, %29 : tensor<256xf32>
    %31 = stablehlo.broadcast_in_dim %6, dims = [] : (tensor<f32>) -> tensor<256xf32>
    %32 = stablehlo.add %30, %31 : tensor<256xf32>
    %33 = stablehlo.rsqrt %32 : tensor<256xf32>
    %34 = stablehlo.broadcast_in_dim %33, dims = [0] : (tensor<256xf32>) -> tensor<256x8xf32>
    %35 = stablehlo.multiply %13, %34 : tensor<256x8xf32>
    %36 = stablehlo.broadcast_in_dim %arg3, dims = [1] : (tensor<8xf32>) -> tensor<256x8xf32>
    %37 = stablehlo.multiply %35, %36 : tensor<256x8xf32>
    %38 = stablehlo.dot_general %37, %arg7, contracting_dims = [1] x [1] : (tensor<256x8xf32>, tensor<12x8xf32>) -> tensor<256x12xf32>
    %39 = stablehlo.reshape %38 : (tensor<256x12xf32>) -> tensor<256x3x4xf32>
    %40 = stablehlo.dot_general %37, %arg5, contracting_dims = [1] x [1] : (tensor<256x8xf32>, tensor<4x8xf32>) -> tensor<256x4xf32>
    %41 = stablehlo.reshape %40 : (tensor<256x4xf32>) -> tensor<256x1x4xf32>
    %42 = stablehlo.dot_general %37, %arg8, contracting_dims = [1] x [1] : (tensor<256x8xf32>, tensor<4x8xf32>) -> tensor<256x4xf32>
    %43 = stablehlo.reshape %42 : (tensor<256x4xf32>) -> tensor<256x1x4xf32>
    %44 = stablehlo.constant dense<0x40800000> : tensor<f32>
    %45 = stablehlo.multiply %39, %39 : tensor<256x3x4xf32>
    %46 = stablehlo.reduce(%45 init: %2) applies stablehlo.add across dimensions = [2] : (tensor<256x3x4xf32>, tensor<f32>) -> tensor<256x3xf32>
    %47 = stablehlo.broadcast_in_dim %44, dims = [] : (tensor<f32>) -> tensor<256x3xf32>
    %48 = stablehlo.divide %46, %47 : tensor<256x3xf32>
    %49 = stablehlo.broadcast_in_dim %6, dims = [] : (tensor<f32>) -> tensor<256x3xf32>
    %50 = stablehlo.add %48, %49 : tensor<256x3xf32>
    %51 = stablehlo.rsqrt %50 : tensor<256x3xf32>
    %52 = stablehlo.broadcast_in_dim %51, dims = [0, 1] : (tensor<256x3xf32>) -> tensor<256x3x4xf32>
    %53 = stablehlo.multiply %39, %52 : tensor<256x3x4xf32>
    %54 = stablehlo.broadcast_in_dim %arg9, dims = [2] : (tensor<4xf32>) -> tensor<256x3x4xf32>
    %55 = stablehlo.multiply %53, %54 : tensor<256x3x4xf32>
    %56 = stablehlo.constant dense<0x40800000> : tensor<f32>
    %57 = stablehlo.multiply %41, %41 : tensor<256x1x4xf32>
    %58 = stablehlo.reduce(%57 init: %2) applies stablehlo.add across dimensions = [2] : (tensor<256x1x4xf32>, tensor<f32>) -> tensor<256x1xf32>
    %59 = stablehlo.broadcast_in_dim %56, dims = [] : (tensor<f32>) -> tensor<256x1xf32>
    %60 = stablehlo.divide %58, %59 : tensor<256x1xf32>
    %61 = stablehlo.broadcast_in_dim %6, dims = [] : (tensor<f32>) -> tensor<256x1xf32>
    %62 = stablehlo.add %60, %61 : tensor<256x1xf32>
    %63 = stablehlo.rsqrt %62 : tensor<256x1xf32>
    %64 = stablehlo.broadcast_in_dim %63, dims = [0, 1] : (tensor<256x1xf32>) -> tensor<256x1x4xf32>
    %65 = stablehlo.multiply %41, %64 : tensor<256x1x4xf32>
    %66 = stablehlo.broadcast_in_dim %arg10, dims = [2] : (tensor<4xf32>) -> tensor<256x1x4xf32>
    %67 = stablehlo.multiply %65, %66 : tensor<256x1x4xf32>
    %68 = stablehlo.broadcast_in_dim %15, dims = [0, 2] : (tensor<256x4xf32>) -> tensor<256x3x4xf32>
    %69 = stablehlo.broadcast_in_dim %16, dims = [0, 2] : (tensor<256x4xf32>) -> tensor<256x3x4xf32>
    %70 = stablehlo.multiply %55, %68 : tensor<256x3x4xf32>
    %71 = stablehlo.slice %55 [0:256, 0:3, 0:2] : (tensor<256x3x4xf32>) -> tensor<256x3x2xf32>
    %72 = stablehlo.slice %55 [0:256, 0:3, 2:4] : (tensor<256x3x4xf32>) -> tensor<256x3x2xf32>
    %73 = stablehlo.negate %72 : tensor<256x3x2xf32>
    %74 = stablehlo.concatenate %73, %71, dim = 2 : (tensor<256x3x2xf32>, tensor<256x3x2xf32>) -> tensor<256x3x4xf32>
    %75 = stablehlo.multiply %74, %69 : tensor<256x3x4xf32>
    %76 = stablehlo.add %70, %75 : tensor<256x3x4xf32>
    %77 = stablehlo.broadcast_in_dim %15, dims = [0, 2] : (tensor<256x4xf32>) -> tensor<256x1x4xf32>
    %78 = stablehlo.broadcast_in_dim %16, dims = [0, 2] : (tensor<256x4xf32>) -> tensor<256x1x4xf32>
    %79 = stablehlo.multiply %67, %77 : tensor<256x1x4xf32>
    %80 = stablehlo.slice %67 [0:256, 0:1, 0:2] : (tensor<256x1x4xf32>) -> tensor<256x1x2xf32>
    %81 = stablehlo.slice %67 [0:256, 0:1, 2:4] : (tensor<256x1x4xf32>) -> tensor<256x1x2xf32>
    %82 = stablehlo.negate %81 : tensor<256x1x2xf32>
    %83 = stablehlo.concatenate %82, %80, dim = 2 : (tensor<256x1x2xf32>, tensor<256x1x2xf32>) -> tensor<256x1x4xf32>
    %84 = stablehlo.multiply %83, %78 : tensor<256x1x4xf32>
    %85 = stablehlo.add %79, %84 : tensor<256x1x4xf32>
    %86 = stablehlo.reshape %85 : (tensor<256x1x4xf32>) -> tensor<1x256x1x4xf32>
    %87 = stablehlo.dynamic_update_slice %25, %86, %10, %9, %9, %9 : (tensor<2x256x1x4xf32>, tensor<1x256x1x4xf32>, tensor<i32>, tensor<i32>, tensor<i32>, tensor<i32>) -> tensor<2x256x1x4xf32>
    %88 = stablehlo.reshape %43 : (tensor<256x1x4xf32>) -> tensor<1x256x1x4xf32>
    %89 = stablehlo.dynamic_update_slice %26, %88, %10, %9, %9, %9 : (tensor<2x256x1x4xf32>, tensor<1x256x1x4xf32>, tensor<i32>, tensor<i32>, tensor<i32>, tensor<i32>) -> tensor<2x256x1x4xf32>
    %90 = stablehlo.reshape %76 : (tensor<256x3x4xf32>) -> tensor<256x1x3x4xf32>
    %91 = stablehlo.dot_general %90, %85, batching_dims = [1] x [1], contracting_dims = [3] x [2] : (tensor<256x1x3x4xf32>, tensor<256x1x4xf32>) -> tensor<1x256x3x256xf32>
    %92 = stablehlo.broadcast_in_dim %8, dims = [] : (tensor<f32>) -> tensor<1x256x3x256xf32>
    %93 = stablehlo.multiply %91, %92 : tensor<1x256x3x256xf32>
    %94 = stablehlo.broadcast_in_dim %24, dims = [1, 3] : (tensor<256x256xf32>) -> tensor<1x256x3x256xf32>
    %95 = stablehlo.add %93, %94 : tensor<1x256x3x256xf32>
    %96 = stablehlo.reduce(%95 init: %4) applies stablehlo.maximum across dimensions = [3] : (tensor<1x256x3x256xf32>, tensor<f32>) -> tensor<1x256x3xf32>
    %97 = stablehlo.broadcast_in_dim %96, dims = [0, 1, 2] : (tensor<1x256x3xf32>) -> tensor<1x256x3x256xf32>
    %98 = stablehlo.subtract %95, %97 : tensor<1x256x3x256xf32>
    %99 = stablehlo.exponential %98 : tensor<1x256x3x256xf32>
    %100 = stablehlo.reduce(%99 init: %2) applies stablehlo.add across dimensions = [3] : (tensor<1x256x3x256xf32>, tensor<f32>) -> tensor<1x256x3xf32>
    %101 = stablehlo.broadcast_in_dim %100, dims = [0, 1, 2] : (tensor<1x256x3xf32>) -> tensor<1x256x3x256xf32>
    %102 = stablehlo.divide %99, %101 : tensor<1x256x3x256xf32>
    %103 = stablehlo.dot_general %102, %43, batching_dims = [0] x [1], contracting_dims = [3] x [0] : (tensor<1x256x3x256xf32>, tensor<256x1x4xf32>) -> tensor<1x256x3x4xf32>
    %104 = stablehlo.transpose %103, dims = [1, 0, 2, 3] : (tensor<1x256x3x4xf32>) -> tensor<256x1x3x4xf32>
    %105 = stablehlo.reshape %104 : (tensor<256x1x3x4xf32>) -> tensor<256x12xf32>
    %106 = stablehlo.dot_general %105, %arg6, contracting_dims = [1] x [1] : (tensor<256x12xf32>, tensor<8x12xf32>) -> tensor<256x8xf32>
    %107 = stablehlo.add %13, %106 : tensor<256x8xf32>
    %108 = stablehlo.multiply %107, %107 : tensor<256x8xf32>
    %109 = stablehlo.reduce(%108 init: %2) applies stablehlo.add across dimensions = [1] : (tensor<256x8xf32>, tensor<f32>) -> tensor<256xf32>
    %110 = stablehlo.broadcast_in_dim %7, dims = [] : (tensor<f32>) -> tensor<256xf32>
    %111 = stablehlo.divide %109, %110 : tensor<256xf32>
    %112 = stablehlo.broadcast_in_dim %6, dims = [] : (tensor<f32>) -> tensor<256xf32>
    %113 = stablehlo.add %111, %112 : tensor<256xf32>
    %114 = stablehlo.rsqrt %113 : tensor<256xf32>
    %115 = stablehlo.broadcast_in_dim %114, dims = [0] : (tensor<256xf32>) -> tensor<256x8xf32>
    %116 = stablehlo.multiply %107, %115 : tensor<256x8xf32>
    %117 = stablehlo.broadcast_in_dim %arg4, dims = [1] : (tensor<8xf32>) -> tensor<256x8xf32>
    %118 = stablehlo.multiply %116, %117 : tensor<256x8xf32>
    %119 = stablehlo.dot_general %118, %arg11, contracting_dims = [1] x [1] : (tensor<256x8xf32>, tensor<4x8xf32>) -> tensor<256x4xf32>
    %120 = stablehlo.reduce(%119 init: %4) applies stablehlo.maximum across dimensions = [1] : (tensor<256x4xf32>, tensor<f32>) -> tensor<256xf32>
    %121 = stablehlo.broadcast_in_dim %120, dims = [0] : (tensor<256xf32>) -> tensor<256x4xf32>
    %122 = stablehlo.subtract %119, %121 : tensor<256x4xf32>
    %123 = stablehlo.exponential %122 : tensor<256x4xf32>
    %124 = stablehlo.reduce(%123 init: %2) applies stablehlo.add across dimensions = [1] : (tensor<256x4xf32>, tensor<f32>) -> tensor<256xf32>
    %125 = stablehlo.broadcast_in_dim %124, dims = [0] : (tensor<256xf32>) -> tensor<256x4xf32>
    %126 = stablehlo.divide %123, %125 : tensor<256x4xf32>
    %127 = stablehlo.iota dim = 0 : tensor<4xi32>
    %128 = stablehlo.broadcast_in_dim %127, dims = [1] : (tensor<4xi32>) -> tensor<256x4xi32>
    %129 = stablehlo.broadcast_in_dim %2, dims = [] : (tensor<f32>) -> tensor<256x4xf32>
    %130 = stablehlo.broadcast_in_dim %4, dims = [] : (tensor<f32>) -> tensor<256x4xf32>
    %131 = stablehlo.constant dense<0> : tensor<i32>
    %132 = stablehlo.constant dense<0xFF800000> : tensor<f32>
    %133 = stablehlo.iota dim = 1 : tensor<256x4xi32>
    %134:2 = stablehlo.reduce(%126 init: %132), (%133 init: %131) across dimensions = [1] : (tensor<256x4xf32>, tensor<256x4xi32>, tensor<f32>, tensor<i32>) -> (tensor<256xf32>, tensor<256xi32>)
    reducer(%amv_l: tensor<f32>, %amv_r: tensor<f32>) (%ami_l: tensor<i32>, %ami_r: tensor<i32>) {
      %135 = stablehlo.compare GT, %amv_l, %amv_r, FLOAT : (tensor<f32>, tensor<f32>) -> tensor<i1>
      %136 = stablehlo.compare NE, %amv_l, %amv_l, FLOAT : (tensor<f32>, tensor<f32>) -> tensor<i1>
      %137 = stablehlo.or %135, %136 : tensor<i1>
      %138 = stablehlo.compare EQ, %amv_l, %amv_r, FLOAT : (tensor<f32>, tensor<f32>) -> tensor<i1>
      %139 = stablehlo.compare LT, %ami_l, %ami_r, SIGNED : (tensor<i32>, tensor<i32>) -> tensor<i1>
      %140 = stablehlo.and %138, %139 : tensor<i1>
      %141 = stablehlo.or %137, %140 : tensor<i1>
      %142 = stablehlo.select %137, %amv_l, %amv_r : tensor<i1>, tensor<f32>
      %143 = stablehlo.select %141, %ami_l, %ami_r : tensor<i1>, tensor<i32>
      stablehlo.return %142, %143 : tensor<f32>, tensor<i32>
    }
    %144 = stablehlo.broadcast_in_dim %134#1, dims = [0] : (tensor<256xi32>) -> tensor<256x4xi32>
    %145 = stablehlo.compare EQ, %128, %144, SIGNED : (tensor<256x4xi32>, tensor<256x4xi32>) -> tensor<256x4xi1>
    %146 = stablehlo.select %145, %126, %129 : tensor<256x4xi1>, tensor<256x4xf32>
    %147 = stablehlo.reduce(%146 init: %2) applies stablehlo.add across dimensions = [1] : (tensor<256x4xf32>, tensor<f32>) -> tensor<256xf32>
    %148 = stablehlo.select %145, %130, %126 : tensor<256x4xi1>, tensor<256x4xf32>
    %149 = stablehlo.constant dense<0> : tensor<i32>
    %150 = stablehlo.constant dense<0xFF800000> : tensor<f32>
    %151 = stablehlo.iota dim = 1 : tensor<256x4xi32>
    %152:2 = stablehlo.reduce(%148 init: %150), (%151 init: %149) across dimensions = [1] : (tensor<256x4xf32>, tensor<256x4xi32>, tensor<f32>, tensor<i32>) -> (tensor<256xf32>, tensor<256xi32>)
    reducer(%amv_l: tensor<f32>, %amv_r: tensor<f32>) (%ami_l: tensor<i32>, %ami_r: tensor<i32>) {
      %153 = stablehlo.compare GT, %amv_l, %amv_r, FLOAT : (tensor<f32>, tensor<f32>) -> tensor<i1>
      %154 = stablehlo.compare NE, %amv_l, %amv_l, FLOAT : (tensor<f32>, tensor<f32>) -> tensor<i1>
      %155 = stablehlo.or %153, %154 : tensor<i1>
      %156 = stablehlo.compare EQ, %amv_l, %amv_r, FLOAT : (tensor<f32>, tensor<f32>) -> tensor<i1>
      %157 = stablehlo.compare LT, %ami_l, %ami_r, SIGNED : (tensor<i32>, tensor<i32>) -> tensor<i1>
      %158 = stablehlo.and %156, %157 : tensor<i1>
      %159 = stablehlo.or %155, %158 : tensor<i1>
      %160 = stablehlo.select %155, %amv_l, %amv_r : tensor<i1>, tensor<f32>
      %161 = stablehlo.select %159, %ami_l, %ami_r : tensor<i1>, tensor<i32>
      stablehlo.return %160, %161 : tensor<f32>, tensor<i32>
    }
    %162 = stablehlo.broadcast_in_dim %152#1, dims = [0] : (tensor<256xi32>) -> tensor<256x4xi32>
    %163 = stablehlo.compare EQ, %128, %162, SIGNED : (tensor<256x4xi32>, tensor<256x4xi32>) -> tensor<256x4xi1>
    %164 = stablehlo.select %163, %148, %129 : tensor<256x4xi1>, tensor<256x4xf32>
    %165 = stablehlo.reduce(%164 init: %2) applies stablehlo.add across dimensions = [1] : (tensor<256x4xf32>, tensor<f32>) -> tensor<256xf32>
    %166 = stablehlo.select %163, %130, %148 : tensor<256x4xi1>, tensor<256x4xf32>
    %167 = stablehlo.add %147, %165 : tensor<256xf32>
    %168 = stablehlo.divide %147, %167 : tensor<256xf32>
    %169 = stablehlo.divide %165, %167 : tensor<256xf32>
    %170 = stablehlo.broadcast_in_dim %2, dims = [] : (tensor<f32>) -> tensor<256x4xf32>
    %171 = stablehlo.broadcast_in_dim %168, dims = [0] : (tensor<256xf32>) -> tensor<256x4xf32>
    %172 = stablehlo.select %145, %171, %129 : tensor<256x4xi1>, tensor<256x4xf32>
    %173 = stablehlo.add %170, %172 : tensor<256x4xf32>
    %174 = stablehlo.broadcast_in_dim %169, dims = [0] : (tensor<256xf32>) -> tensor<256x4xf32>
    %175 = stablehlo.select %163, %174, %129 : tensor<256x4xi1>, tensor<256x4xf32>
    %176 = stablehlo.add %173, %175 : tensor<256x4xf32>
    %177 = stablehlo.broadcast_in_dim %118, dims = [1, 2] : (tensor<256x8xf32>) -> tensor<4x256x8xf32>
    %178 = stablehlo.dot_general %177, %arg12, batching_dims = [0] x [0], contracting_dims = [2] x [2] : (tensor<4x256x8xf32>, tensor<4x12x8xf32>) -> tensor<4x256x12xf32>
    %179 = stablehlo.dot_general %177, %arg13, batching_dims = [0] x [0], contracting_dims = [2] x [2] : (tensor<4x256x8xf32>, tensor<4x12x8xf32>) -> tensor<4x256x12xf32>
    %180 = stablehlo.broadcast_in_dim %3, dims = [] : (tensor<f32>) -> tensor<4x256x12xf32>
    %181 = stablehlo.negate %178 : tensor<4x256x12xf32>
    %182 = stablehlo.exponential %181 : tensor<4x256x12xf32>
    %183 = stablehlo.add %180, %182 : tensor<4x256x12xf32>
    %184 = stablehlo.divide %180, %183 : tensor<4x256x12xf32>
    %185 = stablehlo.multiply %178, %184 : tensor<4x256x12xf32>
    %186 = stablehlo.multiply %185, %179 : tensor<4x256x12xf32>
    %187 = stablehlo.dot_general %186, %arg14, batching_dims = [0] x [0], contracting_dims = [2] x [2] : (tensor<4x256x12xf32>, tensor<4x8x12xf32>) -> tensor<4x256x8xf32>
    %188 = stablehlo.dot_general %176, %187, batching_dims = [0] x [1], contracting_dims = [1] x [0] : (tensor<256x4xf32>, tensor<4x256x8xf32>) -> tensor<256x8xf32>
    %189 = stablehlo.add %107, %188 : tensor<256x8xf32>
    %190 = stablehlo.multiply %189, %189 : tensor<256x8xf32>
    %191 = stablehlo.reduce(%190 init: %2) applies stablehlo.add across dimensions = [1] : (tensor<256x8xf32>, tensor<f32>) -> tensor<256xf32>
    %192 = stablehlo.broadcast_in_dim %7, dims = [] : (tensor<f32>) -> tensor<256xf32>
    %193 = stablehlo.divide %191, %192 : tensor<256xf32>
    %194 = stablehlo.broadcast_in_dim %6, dims = [] : (tensor<f32>) -> tensor<256xf32>
    %195 = stablehlo.add %193, %194 : tensor<256xf32>
    %196 = stablehlo.rsqrt %195 : tensor<256xf32>
    %197 = stablehlo.broadcast_in_dim %196, dims = [0] : (tensor<256xf32>) -> tensor<256x8xf32>
    %198 = stablehlo.multiply %189, %197 : tensor<256x8xf32>
    %199 = stablehlo.broadcast_in_dim %arg15, dims = [1] : (tensor<8xf32>) -> tensor<256x8xf32>
    %200 = stablehlo.multiply %198, %199 : tensor<256x8xf32>
    %201 = stablehlo.dot_general %200, %arg19, contracting_dims = [1] x [1] : (tensor<256x8xf32>, tensor<12x8xf32>) -> tensor<256x12xf32>
    %202 = stablehlo.reshape %201 : (tensor<256x12xf32>) -> tensor<256x3x4xf32>
    %203 = stablehlo.dot_general %200, %arg17, contracting_dims = [1] x [1] : (tensor<256x8xf32>, tensor<4x8xf32>) -> tensor<256x4xf32>
    %204 = stablehlo.reshape %203 : (tensor<256x4xf32>) -> tensor<256x1x4xf32>
    %205 = stablehlo.dot_general %200, %arg20, contracting_dims = [1] x [1] : (tensor<256x8xf32>, tensor<4x8xf32>) -> tensor<256x4xf32>
    %206 = stablehlo.reshape %205 : (tensor<256x4xf32>) -> tensor<256x1x4xf32>
    %207 = stablehlo.constant dense<0x40800000> : tensor<f32>
    %208 = stablehlo.multiply %202, %202 : tensor<256x3x4xf32>
    %209 = stablehlo.reduce(%208 init: %2) applies stablehlo.add across dimensions = [2] : (tensor<256x3x4xf32>, tensor<f32>) -> tensor<256x3xf32>
    %210 = stablehlo.broadcast_in_dim %207, dims = [] : (tensor<f32>) -> tensor<256x3xf32>
    %211 = stablehlo.divide %209, %210 : tensor<256x3xf32>
    %212 = stablehlo.broadcast_in_dim %6, dims = [] : (tensor<f32>) -> tensor<256x3xf32>
    %213 = stablehlo.add %211, %212 : tensor<256x3xf32>
    %214 = stablehlo.rsqrt %213 : tensor<256x3xf32>
    %215 = stablehlo.broadcast_in_dim %214, dims = [0, 1] : (tensor<256x3xf32>) -> tensor<256x3x4xf32>
    %216 = stablehlo.multiply %202, %215 : tensor<256x3x4xf32>
    %217 = stablehlo.broadcast_in_dim %arg21, dims = [2] : (tensor<4xf32>) -> tensor<256x3x4xf32>
    %218 = stablehlo.multiply %216, %217 : tensor<256x3x4xf32>
    %219 = stablehlo.constant dense<0x40800000> : tensor<f32>
    %220 = stablehlo.multiply %204, %204 : tensor<256x1x4xf32>
    %221 = stablehlo.reduce(%220 init: %2) applies stablehlo.add across dimensions = [2] : (tensor<256x1x4xf32>, tensor<f32>) -> tensor<256x1xf32>
    %222 = stablehlo.broadcast_in_dim %219, dims = [] : (tensor<f32>) -> tensor<256x1xf32>
    %223 = stablehlo.divide %221, %222 : tensor<256x1xf32>
    %224 = stablehlo.broadcast_in_dim %6, dims = [] : (tensor<f32>) -> tensor<256x1xf32>
    %225 = stablehlo.add %223, %224 : tensor<256x1xf32>
    %226 = stablehlo.rsqrt %225 : tensor<256x1xf32>
    %227 = stablehlo.broadcast_in_dim %226, dims = [0, 1] : (tensor<256x1xf32>) -> tensor<256x1x4xf32>
    %228 = stablehlo.multiply %204, %227 : tensor<256x1x4xf32>
    %229 = stablehlo.broadcast_in_dim %arg22, dims = [2] : (tensor<4xf32>) -> tensor<256x1x4xf32>
    %230 = stablehlo.multiply %228, %229 : tensor<256x1x4xf32>
    %231 = stablehlo.broadcast_in_dim %15, dims = [0, 2] : (tensor<256x4xf32>) -> tensor<256x3x4xf32>
    %232 = stablehlo.broadcast_in_dim %16, dims = [0, 2] : (tensor<256x4xf32>) -> tensor<256x3x4xf32>
    %233 = stablehlo.multiply %218, %231 : tensor<256x3x4xf32>
    %234 = stablehlo.slice %218 [0:256, 0:3, 0:2] : (tensor<256x3x4xf32>) -> tensor<256x3x2xf32>
    %235 = stablehlo.slice %218 [0:256, 0:3, 2:4] : (tensor<256x3x4xf32>) -> tensor<256x3x2xf32>
    %236 = stablehlo.negate %235 : tensor<256x3x2xf32>
    %237 = stablehlo.concatenate %236, %234, dim = 2 : (tensor<256x3x2xf32>, tensor<256x3x2xf32>) -> tensor<256x3x4xf32>
    %238 = stablehlo.multiply %237, %232 : tensor<256x3x4xf32>
    %239 = stablehlo.add %233, %238 : tensor<256x3x4xf32>
    %240 = stablehlo.broadcast_in_dim %15, dims = [0, 2] : (tensor<256x4xf32>) -> tensor<256x1x4xf32>
    %241 = stablehlo.broadcast_in_dim %16, dims = [0, 2] : (tensor<256x4xf32>) -> tensor<256x1x4xf32>
    %242 = stablehlo.multiply %230, %240 : tensor<256x1x4xf32>
    %243 = stablehlo.slice %230 [0:256, 0:1, 0:2] : (tensor<256x1x4xf32>) -> tensor<256x1x2xf32>
    %244 = stablehlo.slice %230 [0:256, 0:1, 2:4] : (tensor<256x1x4xf32>) -> tensor<256x1x2xf32>
    %245 = stablehlo.negate %244 : tensor<256x1x2xf32>
    %246 = stablehlo.concatenate %245, %243, dim = 2 : (tensor<256x1x2xf32>, tensor<256x1x2xf32>) -> tensor<256x1x4xf32>
    %247 = stablehlo.multiply %246, %241 : tensor<256x1x4xf32>
    %248 = stablehlo.add %242, %247 : tensor<256x1x4xf32>
    %249 = stablehlo.reshape %248 : (tensor<256x1x4xf32>) -> tensor<1x256x1x4xf32>
    %250 = stablehlo.dynamic_update_slice %87, %249, %11, %9, %9, %9 : (tensor<2x256x1x4xf32>, tensor<1x256x1x4xf32>, tensor<i32>, tensor<i32>, tensor<i32>, tensor<i32>) -> tensor<2x256x1x4xf32>
    %251 = stablehlo.reshape %206 : (tensor<256x1x4xf32>) -> tensor<1x256x1x4xf32>
    %252 = stablehlo.dynamic_update_slice %89, %251, %11, %9, %9, %9 : (tensor<2x256x1x4xf32>, tensor<1x256x1x4xf32>, tensor<i32>, tensor<i32>, tensor<i32>, tensor<i32>) -> tensor<2x256x1x4xf32>
    %253 = stablehlo.reshape %239 : (tensor<256x3x4xf32>) -> tensor<256x1x3x4xf32>
    %254 = stablehlo.dot_general %253, %248, batching_dims = [1] x [1], contracting_dims = [3] x [2] : (tensor<256x1x3x4xf32>, tensor<256x1x4xf32>) -> tensor<1x256x3x256xf32>
    %255 = stablehlo.broadcast_in_dim %8, dims = [] : (tensor<f32>) -> tensor<1x256x3x256xf32>
    %256 = stablehlo.multiply %254, %255 : tensor<1x256x3x256xf32>
    %257 = stablehlo.broadcast_in_dim %24, dims = [1, 3] : (tensor<256x256xf32>) -> tensor<1x256x3x256xf32>
    %258 = stablehlo.add %256, %257 : tensor<1x256x3x256xf32>
    %259 = stablehlo.reduce(%258 init: %4) applies stablehlo.maximum across dimensions = [3] : (tensor<1x256x3x256xf32>, tensor<f32>) -> tensor<1x256x3xf32>
    %260 = stablehlo.broadcast_in_dim %259, dims = [0, 1, 2] : (tensor<1x256x3xf32>) -> tensor<1x256x3x256xf32>
    %261 = stablehlo.subtract %258, %260 : tensor<1x256x3x256xf32>
    %262 = stablehlo.exponential %261 : tensor<1x256x3x256xf32>
    %263 = stablehlo.reduce(%262 init: %2) applies stablehlo.add across dimensions = [3] : (tensor<1x256x3x256xf32>, tensor<f32>) -> tensor<1x256x3xf32>
    %264 = stablehlo.broadcast_in_dim %263, dims = [0, 1, 2] : (tensor<1x256x3xf32>) -> tensor<1x256x3x256xf32>
    %265 = stablehlo.divide %262, %264 : tensor<1x256x3x256xf32>
    %266 = stablehlo.dot_general %265, %206, batching_dims = [0] x [1], contracting_dims = [3] x [0] : (tensor<1x256x3x256xf32>, tensor<256x1x4xf32>) -> tensor<1x256x3x4xf32>
    %267 = stablehlo.transpose %266, dims = [1, 0, 2, 3] : (tensor<1x256x3x4xf32>) -> tensor<256x1x3x4xf32>
    %268 = stablehlo.reshape %267 : (tensor<256x1x3x4xf32>) -> tensor<256x12xf32>
    %269 = stablehlo.dot_general %268, %arg18, contracting_dims = [1] x [1] : (tensor<256x12xf32>, tensor<8x12xf32>) -> tensor<256x8xf32>
    %270 = stablehlo.add %189, %269 : tensor<256x8xf32>
    %271 = stablehlo.multiply %270, %270 : tensor<256x8xf32>
    %272 = stablehlo.reduce(%271 init: %2) applies stablehlo.add across dimensions = [1] : (tensor<256x8xf32>, tensor<f32>) -> tensor<256xf32>
    %273 = stablehlo.broadcast_in_dim %7, dims = [] : (tensor<f32>) -> tensor<256xf32>
    %274 = stablehlo.divide %272, %273 : tensor<256xf32>
    %275 = stablehlo.broadcast_in_dim %6, dims = [] : (tensor<f32>) -> tensor<256xf32>
    %276 = stablehlo.add %274, %275 : tensor<256xf32>
    %277 = stablehlo.rsqrt %276 : tensor<256xf32>
    %278 = stablehlo.broadcast_in_dim %277, dims = [0] : (tensor<256xf32>) -> tensor<256x8xf32>
    %279 = stablehlo.multiply %270, %278 : tensor<256x8xf32>
    %280 = stablehlo.broadcast_in_dim %arg16, dims = [1] : (tensor<8xf32>) -> tensor<256x8xf32>
    %281 = stablehlo.multiply %279, %280 : tensor<256x8xf32>
    %282 = stablehlo.dot_general %281, %arg23, contracting_dims = [1] x [1] : (tensor<256x8xf32>, tensor<4x8xf32>) -> tensor<256x4xf32>
    %283 = stablehlo.reduce(%282 init: %4) applies stablehlo.maximum across dimensions = [1] : (tensor<256x4xf32>, tensor<f32>) -> tensor<256xf32>
    %284 = stablehlo.broadcast_in_dim %283, dims = [0] : (tensor<256xf32>) -> tensor<256x4xf32>
    %285 = stablehlo.subtract %282, %284 : tensor<256x4xf32>
    %286 = stablehlo.exponential %285 : tensor<256x4xf32>
    %287 = stablehlo.reduce(%286 init: %2) applies stablehlo.add across dimensions = [1] : (tensor<256x4xf32>, tensor<f32>) -> tensor<256xf32>
    %288 = stablehlo.broadcast_in_dim %287, dims = [0] : (tensor<256xf32>) -> tensor<256x4xf32>
    %289 = stablehlo.divide %286, %288 : tensor<256x4xf32>
    %290 = stablehlo.iota dim = 0 : tensor<4xi32>
    %291 = stablehlo.broadcast_in_dim %290, dims = [1] : (tensor<4xi32>) -> tensor<256x4xi32>
    %292 = stablehlo.broadcast_in_dim %2, dims = [] : (tensor<f32>) -> tensor<256x4xf32>
    %293 = stablehlo.broadcast_in_dim %4, dims = [] : (tensor<f32>) -> tensor<256x4xf32>
    %294 = stablehlo.constant dense<0> : tensor<i32>
    %295 = stablehlo.constant dense<0xFF800000> : tensor<f32>
    %296 = stablehlo.iota dim = 1 : tensor<256x4xi32>
    %297:2 = stablehlo.reduce(%289 init: %295), (%296 init: %294) across dimensions = [1] : (tensor<256x4xf32>, tensor<256x4xi32>, tensor<f32>, tensor<i32>) -> (tensor<256xf32>, tensor<256xi32>)
    reducer(%amv_l: tensor<f32>, %amv_r: tensor<f32>) (%ami_l: tensor<i32>, %ami_r: tensor<i32>) {
      %298 = stablehlo.compare GT, %amv_l, %amv_r, FLOAT : (tensor<f32>, tensor<f32>) -> tensor<i1>
      %299 = stablehlo.compare NE, %amv_l, %amv_l, FLOAT : (tensor<f32>, tensor<f32>) -> tensor<i1>
      %300 = stablehlo.or %298, %299 : tensor<i1>
      %301 = stablehlo.compare EQ, %amv_l, %amv_r, FLOAT : (tensor<f32>, tensor<f32>) -> tensor<i1>
      %302 = stablehlo.compare LT, %ami_l, %ami_r, SIGNED : (tensor<i32>, tensor<i32>) -> tensor<i1>
      %303 = stablehlo.and %301, %302 : tensor<i1>
      %304 = stablehlo.or %300, %303 : tensor<i1>
      %305 = stablehlo.select %300, %amv_l, %amv_r : tensor<i1>, tensor<f32>
      %306 = stablehlo.select %304, %ami_l, %ami_r : tensor<i1>, tensor<i32>
      stablehlo.return %305, %306 : tensor<f32>, tensor<i32>
    }
    %307 = stablehlo.broadcast_in_dim %297#1, dims = [0] : (tensor<256xi32>) -> tensor<256x4xi32>
    %308 = stablehlo.compare EQ, %291, %307, SIGNED : (tensor<256x4xi32>, tensor<256x4xi32>) -> tensor<256x4xi1>
    %309 = stablehlo.select %308, %289, %292 : tensor<256x4xi1>, tensor<256x4xf32>
    %310 = stablehlo.reduce(%309 init: %2) applies stablehlo.add across dimensions = [1] : (tensor<256x4xf32>, tensor<f32>) -> tensor<256xf32>
    %311 = stablehlo.select %308, %293, %289 : tensor<256x4xi1>, tensor<256x4xf32>
    %312 = stablehlo.constant dense<0> : tensor<i32>
    %313 = stablehlo.constant dense<0xFF800000> : tensor<f32>
    %314 = stablehlo.iota dim = 1 : tensor<256x4xi32>
    %315:2 = stablehlo.reduce(%311 init: %313), (%314 init: %312) across dimensions = [1] : (tensor<256x4xf32>, tensor<256x4xi32>, tensor<f32>, tensor<i32>) -> (tensor<256xf32>, tensor<256xi32>)
    reducer(%amv_l: tensor<f32>, %amv_r: tensor<f32>) (%ami_l: tensor<i32>, %ami_r: tensor<i32>) {
      %316 = stablehlo.compare GT, %amv_l, %amv_r, FLOAT : (tensor<f32>, tensor<f32>) -> tensor<i1>
      %317 = stablehlo.compare NE, %amv_l, %amv_l, FLOAT : (tensor<f32>, tensor<f32>) -> tensor<i1>
      %318 = stablehlo.or %316, %317 : tensor<i1>
      %319 = stablehlo.compare EQ, %amv_l, %amv_r, FLOAT : (tensor<f32>, tensor<f32>) -> tensor<i1>
      %320 = stablehlo.compare LT, %ami_l, %ami_r, SIGNED : (tensor<i32>, tensor<i32>) -> tensor<i1>
      %321 = stablehlo.and %319, %320 : tensor<i1>
      %322 = stablehlo.or %318, %321 : tensor<i1>
      %323 = stablehlo.select %318, %amv_l, %amv_r : tensor<i1>, tensor<f32>
      %324 = stablehlo.select %322, %ami_l, %ami_r : tensor<i1>, tensor<i32>
      stablehlo.return %323, %324 : tensor<f32>, tensor<i32>
    }
    %325 = stablehlo.broadcast_in_dim %315#1, dims = [0] : (tensor<256xi32>) -> tensor<256x4xi32>
    %326 = stablehlo.compare EQ, %291, %325, SIGNED : (tensor<256x4xi32>, tensor<256x4xi32>) -> tensor<256x4xi1>
    %327 = stablehlo.select %326, %311, %292 : tensor<256x4xi1>, tensor<256x4xf32>
    %328 = stablehlo.reduce(%327 init: %2) applies stablehlo.add across dimensions = [1] : (tensor<256x4xf32>, tensor<f32>) -> tensor<256xf32>
    %329 = stablehlo.select %326, %293, %311 : tensor<256x4xi1>, tensor<256x4xf32>
    %330 = stablehlo.add %310, %328 : tensor<256xf32>
    %331 = stablehlo.divide %310, %330 : tensor<256xf32>
    %332 = stablehlo.divide %328, %330 : tensor<256xf32>
    %333 = stablehlo.broadcast_in_dim %2, dims = [] : (tensor<f32>) -> tensor<256x4xf32>
    %334 = stablehlo.broadcast_in_dim %331, dims = [0] : (tensor<256xf32>) -> tensor<256x4xf32>
    %335 = stablehlo.select %308, %334, %292 : tensor<256x4xi1>, tensor<256x4xf32>
    %336 = stablehlo.add %333, %335 : tensor<256x4xf32>
    %337 = stablehlo.broadcast_in_dim %332, dims = [0] : (tensor<256xf32>) -> tensor<256x4xf32>
    %338 = stablehlo.select %326, %337, %292 : tensor<256x4xi1>, tensor<256x4xf32>
    %339 = stablehlo.add %336, %338 : tensor<256x4xf32>
    %340 = stablehlo.broadcast_in_dim %281, dims = [1, 2] : (tensor<256x8xf32>) -> tensor<4x256x8xf32>
    %341 = stablehlo.dot_general %340, %arg24, batching_dims = [0] x [0], contracting_dims = [2] x [2] : (tensor<4x256x8xf32>, tensor<4x12x8xf32>) -> tensor<4x256x12xf32>
    %342 = stablehlo.dot_general %340, %arg25, batching_dims = [0] x [0], contracting_dims = [2] x [2] : (tensor<4x256x8xf32>, tensor<4x12x8xf32>) -> tensor<4x256x12xf32>
    %343 = stablehlo.broadcast_in_dim %3, dims = [] : (tensor<f32>) -> tensor<4x256x12xf32>
    %344 = stablehlo.negate %341 : tensor<4x256x12xf32>
    %345 = stablehlo.exponential %344 : tensor<4x256x12xf32>
    %346 = stablehlo.add %343, %345 : tensor<4x256x12xf32>
    %347 = stablehlo.divide %343, %346 : tensor<4x256x12xf32>
    %348 = stablehlo.multiply %341, %347 : tensor<4x256x12xf32>
    %349 = stablehlo.multiply %348, %342 : tensor<4x256x12xf32>
    %350 = stablehlo.dot_general %349, %arg26, batching_dims = [0] x [0], contracting_dims = [2] x [2] : (tensor<4x256x12xf32>, tensor<4x8x12xf32>) -> tensor<4x256x8xf32>
    %351 = stablehlo.dot_general %339, %350, batching_dims = [0] x [1], contracting_dims = [1] x [0] : (tensor<256x4xf32>, tensor<4x256x8xf32>) -> tensor<256x8xf32>
    %352 = stablehlo.add %270, %351 : tensor<256x8xf32>
    %353 = stablehlo.multiply %352, %352 : tensor<256x8xf32>
    %354 = stablehlo.reduce(%353 init: %2) applies stablehlo.add across dimensions = [1] : (tensor<256x8xf32>, tensor<f32>) -> tensor<256xf32>
    %355 = stablehlo.broadcast_in_dim %7, dims = [] : (tensor<f32>) -> tensor<256xf32>
    %356 = stablehlo.divide %354, %355 : tensor<256xf32>
    %357 = stablehlo.broadcast_in_dim %6, dims = [] : (tensor<f32>) -> tensor<256xf32>
    %358 = stablehlo.add %356, %357 : tensor<256xf32>
    %359 = stablehlo.rsqrt %358 : tensor<256xf32>
    %360 = stablehlo.broadcast_in_dim %359, dims = [0] : (tensor<256xf32>) -> tensor<256x8xf32>
    %361 = stablehlo.multiply %352, %360 : tensor<256x8xf32>
    %362 = stablehlo.broadcast_in_dim %arg1, dims = [1] : (tensor<8xf32>) -> tensor<256x8xf32>
    %363 = stablehlo.multiply %361, %362 : tensor<256x8xf32>
    %364 = stablehlo.constant dense<1> : tensor<i32>
    %365 = stablehlo.subtract %arg29, %364 : tensor<i32>
    %366 = stablehlo.dynamic_slice %363, %365, %9, sizes = [1, 8] : (tensor<256x8xf32>, tensor<i32>, tensor<i32>) -> tensor<1x8xf32>
    %367 = stablehlo.reshape %366 : (tensor<1x8xf32>) -> tensor<8xf32>
    %368 = stablehlo.dot_general %367, %arg2, contracting_dims = [0] x [1] : (tensor<8xf32>, tensor<10x8xf32>) -> tensor<10xf32>
    return %368, %250, %252 : tensor<10xf32>, tensor<2x256x1x4xf32>, tensor<2x256x1x4xf32>
  }
}
