module @decode_step {
  func.func public @main(%arg0: tensor<32x32xf32> loc("params['embed']"), %arg1: tensor<32xf32> loc("params['final_norm']"), %arg2: tensor<32xf32> loc("params['final_norm_bias']"), %arg3: tensor<32x64xf32> loc("params['layers'][0]['down']"), %arg4: tensor<32xf32> loc("params['layers'][0]['in_ln']"), %arg5: tensor<32xf32> loc("params['layers'][0]['post_ln']"), %arg6: tensor<64x32xf32> loc("params['layers'][0]['up']"), %arg7: tensor<16x32xf32> loc("params['layers'][0]['wk']"), %arg8: tensor<32x32xf32> loc("params['layers'][0]['wo']"), %arg9: tensor<32x32xf32> loc("params['layers'][0]['wq']"), %arg10: tensor<16x32xf32> loc("params['layers'][0]['wv']"), %arg11: tensor<16xf32> loc("params['layers'][0]['bk']"), %arg12: tensor<32xf32> loc("params['layers'][0]['bq']"), %arg13: tensor<16xf32> loc("params['layers'][0]['bv']"), %arg14: tensor<32xf32> loc("params['layers'][0]['in_ln_bias']"), %arg15: tensor<32xf32> loc("params['layers'][0]['post_ln_bias']"), %arg16: tensor<32xf32> loc("params['layers'][0]['wo_bias']"), %arg17: tensor<32xf32> loc("params['layers'][0]['down_bias']"), %arg18: tensor<64xf32> loc("params['layers'][0]['up_bias']"), %arg19: tensor<32x64xf32> loc("params['layers'][1]['down']"), %arg20: tensor<32xf32> loc("params['layers'][1]['in_ln']"), %arg21: tensor<32xf32> loc("params['layers'][1]['post_ln']"), %arg22: tensor<64x32xf32> loc("params['layers'][1]['up']"), %arg23: tensor<16x32xf32> loc("params['layers'][1]['wk']"), %arg24: tensor<32x32xf32> loc("params['layers'][1]['wo']"), %arg25: tensor<32x32xf32> loc("params['layers'][1]['wq']"), %arg26: tensor<16x32xf32> loc("params['layers'][1]['wv']"), %arg27: tensor<16xf32> loc("params['layers'][1]['bk']"), %arg28: tensor<32xf32> loc("params['layers'][1]['bq']"), %arg29: tensor<16xf32> loc("params['layers'][1]['bv']"), %arg30: tensor<32xf32> loc("params['layers'][1]['in_ln_bias']"), %arg31: tensor<32xf32> loc("params['layers'][1]['post_ln_bias']"), %arg32: tensor<32xf32> loc("params['layers'][1]['wo_bias']"), %arg33: tensor<32xf32> loc("params['layers'][1]['down_bias']"), %arg34: tensor<64xf32> loc("params['layers'][1]['up_bias']"), %arg35: tensor<i32> loc("token"), %arg36: tensor<i32> loc("pos"), %arg37: tensor<i32> loc("cache_len"), %arg38: tensor<2x256x2x8xf32> loc("kcache"), %arg39: tensor<2x256x2x8xf32> loc("vcache")) -> (tensor<32xf32>, tensor<2x256x2x8xf32>, tensor<2x256x2x8xf32>) {
    %0 = stablehlo.constant dense<"…"> : tensor<256x8xf32>
    %1 = stablehlo.constant dense<"…"> : tensor<256x8xf32>
    %2 = stablehlo.constant dense<0x00000000> : tensor<f32>
    %3 = stablehlo.constant dense<0x3F800000> : tensor<f32>
    %4 = stablehlo.constant dense<0xFF800000> : tensor<f32>
    %5 = stablehlo.constant dense<0xF149F2CA> : tensor<f32>
    %6 = stablehlo.constant dense<0x3727C5AC> : tensor<f32>
    %7 = stablehlo.constant dense<0x42000000> : tensor<f32>
    %8 = stablehlo.constant dense<0x3EB504F3> : tensor<f32>
    %9 = stablehlo.constant dense<0> : tensor<i32>
    %10 = stablehlo.constant dense<0> : tensor<i32>
    %11 = stablehlo.constant dense<1> : tensor<i32>
    %12 = stablehlo.dynamic_slice %arg0, %arg35, %9, sizes = [1, 32] : (tensor<32x32xf32>, tensor<i32>, tensor<i32>) -> tensor<1x32xf32>
    %13 = stablehlo.reshape %12 : (tensor<1x32xf32>) -> tensor<32xf32>
    %14 = stablehlo.dynamic_slice %0, %arg36, %9, sizes = [1, 8] : (tensor<256x8xf32>, tensor<i32>, tensor<i32>) -> tensor<1x8xf32>
    %15 = stablehlo.reshape %14 : (tensor<1x8xf32>) -> tensor<8xf32>
    %16 = stablehlo.dynamic_slice %1, %arg36, %9, sizes = [1, 8] : (tensor<256x8xf32>, tensor<i32>, tensor<i32>) -> tensor<1x8xf32>
    %17 = stablehlo.reshape %16 : (tensor<1x8xf32>) -> tensor<8xf32>
    %18 = stablehlo.iota dim = 0 : tensor<256xi32>
    %19 = stablehlo.broadcast_in_dim %arg37, dims = [] : (tensor<i32>) -> tensor<256xi32>
    %20 = stablehlo.compare LE, %18, %19, SIGNED : (tensor<256xi32>, tensor<256xi32>) -> tensor<256xi1>
    %21 = stablehlo.broadcast_in_dim %2, dims = [] : (tensor<f32>) -> tensor<256xf32>
    %22 = stablehlo.broadcast_in_dim %5, dims = [] : (tensor<f32>) -> tensor<256xf32>
    %23 = stablehlo.select %20, %21, %22 : tensor<256xi1>, tensor<256xf32>
    %24 = stablehlo.reduce(%13 init: %2) applies stablehlo.add across dimensions = [0] : (tensor<32xf32>, tensor<f32>) -> tensor<f32>
    %25 = stablehlo.divide %24, %7 : tensor<f32>
    %26 = stablehlo.broadcast_in_dim %25, dims = [] : (tensor<f32>) -> tensor<32xf32>
    %27 = stablehlo.subtract %13, %26 : tensor<32xf32>
    %28 = stablehlo.multiply %27, %27 : tensor<32xf32>
    %29 = stablehlo.reduce(%28 init: %2) applies stablehlo.add across dimensions = [0] : (tensor<32xf32>, tensor<f32>) -> tensor<f32>
    %30 = stablehlo.divide %29, %7 : tensor<f32>
    %31 = stablehlo.add %30, %6 : tensor<f32>
    %32 = stablehlo.rsqrt %31 : tensor<f32>
    %33 = stablehlo.broadcast_in_dim %32, dims = [] : (tensor<f32>) -> tensor<32xf32>
    %34 = stablehlo.multiply %27, %33 : tensor<32xf32>
    %35 = stablehlo.multiply %34, %arg4 : tensor<32xf32>
    %36 = stablehlo.add %35, %arg14 : tensor<32xf32>
    %37 = stablehlo.dot_general %36, %arg9, contracting_dims = [0] x [1] : (tensor<32xf32>, tensor<32x32xf32>) -> tensor<32xf32>
    %38 = stablehlo.add %37, %arg12 : tensor<32xf32>
    %39 = stablehlo.reshape %38 : (tensor<32xf32>) -> tensor<4x8xf32>
    %40 = stablehlo.dot_general %36, %arg7, contracting_dims = [0] x [1] : (tensor<32xf32>, tensor<16x32xf32>) -> tensor<16xf32>
    %41 = stablehlo.add %40, %arg11 : tensor<16xf32>
    %42 = stablehlo.reshape %41 : (tensor<16xf32>) -> tensor<2x8xf32>
    %43 = stablehlo.dot_general %36, %arg10, contracting_dims = [0] x [1] : (tensor<32xf32>, tensor<16x32xf32>) -> tensor<16xf32>
    %44 = stablehlo.add %43, %arg13 : tensor<16xf32>
    %45 = stablehlo.reshape %44 : (tensor<16xf32>) -> tensor<2x8xf32>
    %46 = stablehlo.broadcast_in_dim %15, dims = [1] : (tensor<8xf32>) -> tensor<4x8xf32>
    %47 = stablehlo.broadcast_in_dim %17, dims = [1] : (tensor<8xf32>) -> tensor<4x8xf32>
    %48 = stablehlo.multiply %39, %46 : tensor<4x8xf32>
    %49 = stablehlo.slice %39 [0:4, 0:4] : (tensor<4x8xf32>) -> tensor<4x4xf32>
    %50 = stablehlo.slice %39 [0:4, 4:8] : (tensor<4x8xf32>) -> tensor<4x4xf32>
    %51 = stablehlo.negate %50 : tensor<4x4xf32>
    %52 = stablehlo.concatenate %51, %49, dim = 1 : (tensor<4x4xf32>, tensor<4x4xf32>) -> tensor<4x8xf32>
    %53 = stablehlo.multiply %52, %47 : tensor<4x8xf32>
    %54 = stablehlo.add %48, %53 : tensor<4x8xf32>
    %55 = stablehlo.broadcast_in_dim %15, dims = [1] : (tensor<8xf32>) -> tensor<2x8xf32>
    %56 = stablehlo.broadcast_in_dim %17, dims = [1] : (tensor<8xf32>) -> tensor<2x8xf32>
    %57 = stablehlo.multiply %42, %55 : tensor<2x8xf32>
    %58 = stablehlo.slice %42 [0:2, 0:4] : (tensor<2x8xf32>) -> tensor<2x4xf32>
    %59 = stablehlo.slice %42 [0:2, 4:8] : (tensor<2x8xf32>) -> tensor<2x4xf32>
    %60 = stablehlo.negate %59 : tensor<2x4xf32>
    %61 = stablehlo.concatenate %60, %58, dim = 1 : (tensor<2x4xf32>, tensor<2x4xf32>) -> tensor<2x8xf32>
    %62 = stablehlo.multiply %61, %56 : tensor<2x8xf32>
    %63 = stablehlo.add %57, %62 : tensor<2x8xf32>
    %64 = stablehlo.reshape %63 : (tensor<2x8xf32>) -> tensor<1x1x2x8xf32>
    %65 = stablehlo.dynamic_update_slice %arg38, %64, %10, %arg37, %9, %9 : (tensor<2x256x2x8xf32>, tensor<1x1x2x8xf32>, tensor<i32>, tensor<i32>, tensor<i32>, tensor<i32>) -> tensor<2x256x2x8xf32>
    %66 = stablehlo.reshape %45 : (tensor<2x8xf32>) -> tensor<1x1x2x8xf32>
    %67 = stablehlo.dynamic_update_slice %arg39, %66, %10, %arg37, %9, %9 : (tensor<2x256x2x8xf32>, tensor<1x1x2x8xf32>, tensor<i32>, tensor<i32>, tensor<i32>, tensor<i32>) -> tensor<2x256x2x8xf32>
    %68 = stablehlo.slice %65 [0:1, 0:256, 0:2, 0:8] : (tensor<2x256x2x8xf32>) -> tensor<1x256x2x8xf32>
    %69 = stablehlo.reshape %68 : (tensor<1x256x2x8xf32>) -> tensor<256x2x8xf32>
    %70 = stablehlo.slice %67 [0:1, 0:256, 0:2, 0:8] : (tensor<2x256x2x8xf32>) -> tensor<1x256x2x8xf32>
    %71 = stablehlo.reshape %70 : (tensor<1x256x2x8xf32>) -> tensor<256x2x8xf32>
    %72 = stablehlo.reshape %54 : (tensor<4x8xf32>) -> tensor<2x2x8xf32>
    %73 = stablehlo.dot_general %72, %69, batching_dims = [0] x [1], contracting_dims = [2] x [2] : (tensor<2x2x8xf32>, tensor<256x2x8xf32>) -> tensor<2x2x256xf32>
    %74 = stablehlo.reshape %73 : (tensor<2x2x256xf32>) -> tensor<4x256xf32>
    %75 = stablehlo.broadcast_in_dim %8, dims = [] : (tensor<f32>) -> tensor<4x256xf32>
    %76 = stablehlo.multiply %74, %75 : tensor<4x256xf32>
    %77 = stablehlo.broadcast_in_dim %23, dims = [1] : (tensor<256xf32>) -> tensor<4x256xf32>
    %78 = stablehlo.add %76, %77 : tensor<4x256xf32>
    %79 = stablehlo.reduce(%78 init: %4) applies stablehlo.maximum across dimensions = [1] : (tensor<4x256xf32>, tensor<f32>) -> tensor<4xf32>
    %80 = stablehlo.broadcast_in_dim %79, dims = [0] : (tensor<4xf32>) -> tensor<4x256xf32>
    %81 = stablehlo.subtract %78, %80 : tensor<4x256xf32>
    %82 = stablehlo.exponential %81 : tensor<4x256xf32>
    %83 = stablehlo.reduce(%82 init: %2) applies stablehlo.add across dimensions = [1] : (tensor<4x256xf32>, tensor<f32>) -> tensor<4xf32>
    %84 = stablehlo.broadcast_in_dim %83, dims = [0] : (tensor<4xf32>) -> tensor<4x256xf32>
    %85 = stablehlo.divide %82, %84 : tensor<4x256xf32>
    %86 = stablehlo.reshape %85 : (tensor<4x256xf32>) -> tensor<2x2x256xf32>
    %87 = stablehlo.dot_general %86, %71, batching_dims = [0] x [1], contracting_dims = [2] x [0] : (tensor<2x2x256xf32>, tensor<256x2x8xf32>) -> tensor<2x2x8xf32>
    %88 = stablehlo.reshape %87 : (tensor<2x2x8xf32>) -> tensor<4x8xf32>
    %89 = stablehlo.reshape %88 : (tensor<4x8xf32>) -> tensor<32xf32>
    %90 = stablehlo.dot_general %89, %arg8, contracting_dims = [0] x [1] : (tensor<32xf32>, tensor<32x32xf32>) -> tensor<32xf32>
    %91 = stablehlo.add %90, %arg16 : tensor<32xf32>
    %92 = stablehlo.add %13, %91 : tensor<32xf32>
    %93 = stablehlo.reduce(%92 init: %2) applies stablehlo.add across dimensions = [0] : (tensor<32xf32>, tensor<f32>) -> tensor<f32>
    %94 = stablehlo.divide %93, %7 : tensor<f32>
    %95 = stablehlo.broadcast_in_dim %94, dims = [] : (tensor<f32>) -> tensor<32xf32>
    %96 = stablehlo.subtract %92, %95 : tensor<32xf32>
    %97 = stablehlo.multiply %96, %96 : tensor<32xf32>
    %98 = stablehlo.reduce(%97 init: %2) applies stablehlo.add across dimensions = [0] : (tensor<32xf32>, tensor<f32>) -> tensor<f32>
    %99 = stablehlo.divide %98, %7 : tensor<f32>
    %100 = stablehlo.add %99, %6 : tensor<f32>
    %101 = stablehlo.rsqrt %100 : tensor<f32>
    %102 = stablehlo.broadcast_in_dim %101, dims = [] : (tensor<f32>) -> tensor<32xf32>
    %103 = stablehlo.multiply %96, %102 : tensor<32xf32>
    %104 = stablehlo.multiply %103, %arg5 : tensor<32xf32>
    %105 = stablehlo.add %104, %arg15 : tensor<32xf32>
    %106 = stablehlo.dot_general %105, %arg6, contracting_dims = [0] x [1] : (tensor<32xf32>, tensor<64x32xf32>) -> tensor<64xf32>
    %107 = stablehlo.add %106, %arg18 : tensor<64xf32>
    %108 = stablehlo.constant dense<0x3F4C422A> : tensor<f32>
    %109 = stablehlo.broadcast_in_dim %108, dims = [] : (tensor<f32>) -> tensor<64xf32>
    %110 = stablehlo.constant dense<0x3D372713> : tensor<f32>
    %111 = stablehlo.broadcast_in_dim %110, dims = [] : (tensor<f32>) -> tensor<64xf32>
    %112 = stablehlo.constant dense<0x3F000000> : tensor<f32>
    %113 = stablehlo.broadcast_in_dim %112, dims = [] : (tensor<f32>) -> tensor<64xf32>
    %114 = stablehlo.constant dense<0x3F800000> : tensor<f32>
    %115 = stablehlo.broadcast_in_dim %114, dims = [] : (tensor<f32>) -> tensor<64xf32>
    %116 = stablehlo.multiply %107, %107 : tensor<64xf32>
    %117 = stablehlo.multiply %116, %107 : tensor<64xf32>
    %118 = stablehlo.multiply %111, %117 : tensor<64xf32>
    %119 = stablehlo.add %107, %118 : tensor<64xf32>
    %120 = stablehlo.multiply %109, %119 : tensor<64xf32>
    %121 = stablehlo.tanh %120 : tensor<64xf32>
    %122 = stablehlo.add %115, %121 : tensor<64xf32>
    %123 = stablehlo.multiply %113, %107 : tensor<64xf32>
    %124 = stablehlo.multiply %123, %122 : tensor<64xf32>
    %125 = stablehlo.dot_general %124, %arg3, contracting_dims = [0] x [1] : (tensor<64xf32>, tensor<32x64xf32>) -> tensor<32xf32>
    %126 = stablehlo.add %125, %arg17 : tensor<32xf32>
    %127 = stablehlo.add %92, %126 : tensor<32xf32>
    %128 = stablehlo.reduce(%127 init: %2) applies stablehlo.add across dimensions = [0] : (tensor<32xf32>, tensor<f32>) -> tensor<f32>
    %129 = stablehlo.divide %128, %7 : tensor<f32>
    %130 = stablehlo.broadcast_in_dim %129, dims = [] : (tensor<f32>) -> tensor<32xf32>
    %131 = stablehlo.subtract %127, %130 : tensor<32xf32>
    %132 = stablehlo.multiply %131, %131 : tensor<32xf32>
    %133 = stablehlo.reduce(%132 init: %2) applies stablehlo.add across dimensions = [0] : (tensor<32xf32>, tensor<f32>) -> tensor<f32>
    %134 = stablehlo.divide %133, %7 : tensor<f32>
    %135 = stablehlo.add %134, %6 : tensor<f32>
    %136 = stablehlo.rsqrt %135 : tensor<f32>
    %137 = stablehlo.broadcast_in_dim %136, dims = [] : (tensor<f32>) -> tensor<32xf32>
    %138 = stablehlo.multiply %131, %137 : tensor<32xf32>
    %139 = stablehlo.multiply %138, %arg20 : tensor<32xf32>
    %140 = stablehlo.add %139, %arg30 : tensor<32xf32>
    %141 = stablehlo.dot_general %140, %arg25, contracting_dims = [0] x [1] : (tensor<32xf32>, tensor<32x32xf32>) -> tensor<32xf32>
    %142 = stablehlo.add %141, %arg28 : tensor<32xf32>
    %143 = stablehlo.reshape %142 : (tensor<32xf32>) -> tensor<4x8xf32>
    %144 = stablehlo.dot_general %140, %arg23, contracting_dims = [0] x [1] : (tensor<32xf32>, tensor<16x32xf32>) -> tensor<16xf32>
    %145 = stablehlo.add %144, %arg27 : tensor<16xf32>
    %146 = stablehlo.reshape %145 : (tensor<16xf32>) -> tensor<2x8xf32>
    %147 = stablehlo.dot_general %140, %arg26, contracting_dims = [0] x [1] : (tensor<32xf32>, tensor<16x32xf32>) -> tensor<16xf32>
    %148 = stablehlo.add %147, %arg29 : tensor<16xf32>
    %149 = stablehlo.reshape %148 : (tensor<16xf32>) -> tensor<2x8xf32>
    %150 = stablehlo.broadcast_in_dim %15, dims = [1] : (tensor<8xf32>) -> tensor<4x8xf32>
    %151 = stablehlo.broadcast_in_dim %17, dims = [1] : (tensor<8xf32>) -> tensor<4x8xf32>
    %152 = stablehlo.multiply %143, %150 : tensor<4x8xf32>
    %153 = stablehlo.slice %143 [0:4, 0:4] : (tensor<4x8xf32>) -> tensor<4x4xf32>
    %154 = stablehlo.slice %143 [0:4, 4:8] : (tensor<4x8xf32>) -> tensor<4x4xf32>
    %155 = stablehlo.negate %154 : tensor<4x4xf32>
    %156 = stablehlo.concatenate %155, %153, dim = 1 : (tensor<4x4xf32>, tensor<4x4xf32>) -> tensor<4x8xf32>
    %157 = stablehlo.multiply %156, %151 : tensor<4x8xf32>
    %158 = stablehlo.add %152, %157 : tensor<4x8xf32>
    %159 = stablehlo.broadcast_in_dim %15, dims = [1] : (tensor<8xf32>) -> tensor<2x8xf32>
    %160 = stablehlo.broadcast_in_dim %17, dims = [1] : (tensor<8xf32>) -> tensor<2x8xf32>
    %161 = stablehlo.multiply %146, %159 : tensor<2x8xf32>
    %162 = stablehlo.slice %146 [0:2, 0:4] : (tensor<2x8xf32>) -> tensor<2x4xf32>
    %163 = stablehlo.slice %146 [0:2, 4:8] : (tensor<2x8xf32>) -> tensor<2x4xf32>
    %164 = stablehlo.negate %163 : tensor<2x4xf32>
    %165 = stablehlo.concatenate %164, %162, dim = 1 : (tensor<2x4xf32>, tensor<2x4xf32>) -> tensor<2x8xf32>
    %166 = stablehlo.multiply %165, %160 : tensor<2x8xf32>
    %167 = stablehlo.add %161, %166 : tensor<2x8xf32>
    %168 = stablehlo.reshape %167 : (tensor<2x8xf32>) -> tensor<1x1x2x8xf32>
    %169 = stablehlo.dynamic_update_slice %65, %168, %11, %arg37, %9, %9 : (tensor<2x256x2x8xf32>, tensor<1x1x2x8xf32>, tensor<i32>, tensor<i32>, tensor<i32>, tensor<i32>) -> tensor<2x256x2x8xf32>
    %170 = stablehlo.reshape %149 : (tensor<2x8xf32>) -> tensor<1x1x2x8xf32>
    %171 = stablehlo.dynamic_update_slice %67, %170, %11, %arg37, %9, %9 : (tensor<2x256x2x8xf32>, tensor<1x1x2x8xf32>, tensor<i32>, tensor<i32>, tensor<i32>, tensor<i32>) -> tensor<2x256x2x8xf32>
    %172 = stablehlo.slice %169 [1:2, 0:256, 0:2, 0:8] : (tensor<2x256x2x8xf32>) -> tensor<1x256x2x8xf32>
    %173 = stablehlo.reshape %172 : (tensor<1x256x2x8xf32>) -> tensor<256x2x8xf32>
    %174 = stablehlo.slice %171 [1:2, 0:256, 0:2, 0:8] : (tensor<2x256x2x8xf32>) -> tensor<1x256x2x8xf32>
    %175 = stablehlo.reshape %174 : (tensor<1x256x2x8xf32>) -> tensor<256x2x8xf32>
    %176 = stablehlo.reshape %158 : (tensor<4x8xf32>) -> tensor<2x2x8xf32>
    %177 = stablehlo.dot_general %176, %173, batching_dims = [0] x [1], contracting_dims = [2] x [2] : (tensor<2x2x8xf32>, tensor<256x2x8xf32>) -> tensor<2x2x256xf32>
    %178 = stablehlo.reshape %177 : (tensor<2x2x256xf32>) -> tensor<4x256xf32>
    %179 = stablehlo.broadcast_in_dim %8, dims = [] : (tensor<f32>) -> tensor<4x256xf32>
    %180 = stablehlo.multiply %178, %179 : tensor<4x256xf32>
    %181 = stablehlo.broadcast_in_dim %23, dims = [1] : (tensor<256xf32>) -> tensor<4x256xf32>
    %182 = stablehlo.add %180, %181 : tensor<4x256xf32>
    %183 = stablehlo.reduce(%182 init: %4) applies stablehlo.maximum across dimensions = [1] : (tensor<4x256xf32>, tensor<f32>) -> tensor<4xf32>
    %184 = stablehlo.broadcast_in_dim %183, dims = [0] : (tensor<4xf32>) -> tensor<4x256xf32>
    %185 = stablehlo.subtract %182, %184 : tensor<4x256xf32>
    %186 = stablehlo.exponential %185 : tensor<4x256xf32>
    %187 = stablehlo.reduce(%186 init: %2) applies stablehlo.add across dimensions = [1] : (tensor<4x256xf32>, tensor<f32>) -> tensor<4xf32>
    %188 = stablehlo.broadcast_in_dim %187, dims = [0] : (tensor<4xf32>) -> tensor<4x256xf32>
    %189 = stablehlo.divide %186, %188 : tensor<4x256xf32>
    %190 = stablehlo.reshape %189 : (tensor<4x256xf32>) -> tensor<2x2x256xf32>
    %191 = stablehlo.dot_general %190, %175, batching_dims = [0] x [1], contracting_dims = [2] x [0] : (tensor<2x2x256xf32>, tensor<256x2x8xf32>) -> tensor<2x2x8xf32>
    %192 = stablehlo.reshape %191 : (tensor<2x2x8xf32>) -> tensor<4x8xf32>
    %193 = stablehlo.reshape %192 : (tensor<4x8xf32>) -> tensor<32xf32>
    %194 = stablehlo.dot_general %193, %arg24, contracting_dims = [0] x [1] : (tensor<32xf32>, tensor<32x32xf32>) -> tensor<32xf32>
    %195 = stablehlo.add %194, %arg32 : tensor<32xf32>
    %196 = stablehlo.add %127, %195 : tensor<32xf32>
    %197 = stablehlo.reduce(%196 init: %2) applies stablehlo.add across dimensions = [0] : (tensor<32xf32>, tensor<f32>) -> tensor<f32>
    %198 = stablehlo.divide %197, %7 : tensor<f32>
    %199 = stablehlo.broadcast_in_dim %198, dims = [] : (tensor<f32>) -> tensor<32xf32>
    %200 = stablehlo.subtract %196, %199 : tensor<32xf32>
    %201 = stablehlo.multiply %200, %200 : tensor<32xf32>
    %202 = stablehlo.reduce(%201 init: %2) applies stablehlo.add across dimensions = [0] : (tensor<32xf32>, tensor<f32>) -> tensor<f32>
    %203 = stablehlo.divide %202, %7 : tensor<f32>
    %204 = stablehlo.add %203, %6 : tensor<f32>
    %205 = stablehlo.rsqrt %204 : tensor<f32>
    %206 = stablehlo.broadcast_in_dim %205, dims = [] : (tensor<f32>) -> tensor<32xf32>
    %207 = stablehlo.multiply %200, %206 : tensor<32xf32>
    %208 = stablehlo.multiply %207, %arg21 : tensor<32xf32>
    %209 = stablehlo.add %208, %arg31 : tensor<32xf32>
    %210 = stablehlo.dot_general %209, %arg22, contracting_dims = [0] x [1] : (tensor<32xf32>, tensor<64x32xf32>) -> tensor<64xf32>
    %211 = stablehlo.add %210, %arg34 : tensor<64xf32>
    %212 = stablehlo.constant dense<0x3F4C422A> : tensor<f32>
    %213 = stablehlo.broadcast_in_dim %212, dims = [] : (tensor<f32>) -> tensor<64xf32>
    %214 = stablehlo.constant dense<0x3D372713> : tensor<f32>
    %215 = stablehlo.broadcast_in_dim %214, dims = [] : (tensor<f32>) -> tensor<64xf32>
    %216 = stablehlo.constant dense<0x3F000000> : tensor<f32>
    %217 = stablehlo.broadcast_in_dim %216, dims = [] : (tensor<f32>) -> tensor<64xf32>
    %218 = stablehlo.constant dense<0x3F800000> : tensor<f32>
    %219 = stablehlo.broadcast_in_dim %218, dims = [] : (tensor<f32>) -> tensor<64xf32>
    %220 = stablehlo.multiply %211, %211 : tensor<64xf32>
    %221 = stablehlo.multiply %220, %211 : tensor<64xf32>
    %222 = stablehlo.multiply %215, %221 : tensor<64xf32>
    %223 = stablehlo.add %211, %222 : tensor<64xf32>
    %224 = stablehlo.multiply %213, %223 : tensor<64xf32>
    %225 = stablehlo.tanh %224 : tensor<64xf32>
    %226 = stablehlo.add %219, %225 : tensor<64xf32>
    %227 = stablehlo.multiply %217, %211 : tensor<64xf32>
    %228 = stablehlo.multiply %227, %226 : tensor<64xf32>
    %229 = stablehlo.dot_general %228, %arg19, contracting_dims = [0] x [1] : (tensor<64xf32>, tensor<32x64xf32>) -> tensor<32xf32>
    %230 = stablehlo.add %229, %arg33 : tensor<32xf32>
    %231 = stablehlo.add %196, %230 : tensor<32xf32>
    %232 = stablehlo.reduce(%231 init: %2) applies stablehlo.add across dimensions = [0] : (tensor<32xf32>, tensor<f32>) -> tensor<f32>
    %233 = stablehlo.divide %232, %7 : tensor<f32>
    %234 = stablehlo.broadcast_in_dim %233, dims = [] : (tensor<f32>) -> tensor<32xf32>
    %235 = stablehlo.subtract %231, %234 : tensor<32xf32>
    %236 = stablehlo.multiply %235, %235 : tensor<32xf32>
    %237 = stablehlo.reduce(%236 init: %2) applies stablehlo.add across dimensions = [0] : (tensor<32xf32>, tensor<f32>) -> tensor<f32>
    %238 = stablehlo.divide %237, %7 : tensor<f32>
    %239 = stablehlo.add %238, %6 : tensor<f32>
    %240 = stablehlo.rsqrt %239 : tensor<f32>
    %241 = stablehlo.broadcast_in_dim %240, dims = [] : (tensor<f32>) -> tensor<32xf32>
    %242 = stablehlo.multiply %235, %241 : tensor<32xf32>
    %243 = stablehlo.multiply %242, %arg1 : tensor<32xf32>
    %244 = stablehlo.add %243, %arg2 : tensor<32xf32>
    %245 = stablehlo.dot_general %244, %arg0, contracting_dims = [0] x [1] : (tensor<32xf32>, tensor<32x32xf32>) -> tensor<32xf32>
    return %245, %169, %171 : tensor<32xf32>, tensor<2x256x2x8xf32>, tensor<2x256x2x8xf32>
  }
}
