module @decode_step {
  func.func public @main(%arg0: tensor<128256x2048xf32> loc("params['embed']"), %arg1: tensor<2048xf32> loc("params['final_norm']"), %arg2: tensor<2048x8192xf32> loc("params['layers'][0]['down']"), %arg3: tensor<8192x2048xf32> loc("params['layers'][0]['gate']"), %arg4: tensor<2048xf32> loc("params['layers'][0]['in_ln']"), %arg5: tensor<2048xf32> loc("params['layers'][0]['post_ln']"), %arg6: tensor<8192x2048xf32> loc("params['layers'][0]['up']"), %arg7: tensor<512x2048xf32> loc("params['layers'][0]['wk']"), %arg8: tensor<2048x2048xf32> loc("params['layers'][0]['wo']"), %arg9: tensor<2048x2048xf32> loc("params['layers'][0]['wq']"), %arg10: tensor<512x2048xf32> loc("params['layers'][0]['wv']"), %arg11: tensor<2048x8192xf32> loc("params['layers'][1]['down']"), %arg12: tensor<8192x2048xf32> loc("params['layers'][1]['gate']"), %arg13: tensor<2048xf32> loc("params['layers'][1]['in_ln']"), %arg14: tensor<2048xf32> loc("params['layers'][1]['post_ln']"), %arg15: tensor<8192x2048xf32> loc("params['layers'][1]['up']"), %arg16: tensor<512x2048xf32> loc("params['layers'][1]['wk']"), %arg17: tensor<2048x2048xf32> loc("params['layers'][1]['wo']"), %arg18: tensor<2048x2048xf32> loc("params['layers'][1]['wq']"), %arg19: tensor<512x2048xf32> loc("params['layers'][1]['wv']"), %arg20: tensor<2048x8192xf32> loc("params['layers'][2]['down']"), %arg21: tensor<8192x2048xf32> loc("params['layers'][2]['gate']"), %arg22: tensor<2048xf32> loc("params['layers'][2]['in_ln']"), %arg23: tensor<2048xf32> loc("params['layers'][2]['post_ln']"), %arg24: tensor<8192x2048xf32> loc("params['layers'][2]['up']"), %arg25: tensor<512x2048xf32> loc("params['layers'][2]['wk']"), %arg26: tensor<2048x2048xf32> loc("params['layers'][2]['wo']"), %arg27: tensor<2048x2048xf32> loc("params['layers'][2]['wq']"), %arg28: tensor<512x2048xf32> loc("params['layers'][2]['wv']"), %arg29: tensor<2048x8192xf32> loc("params['layers'][3]['down']"), %arg30: tensor<8192x2048xf32> loc("params['layers'][3]['gate']"), %arg31: tensor<2048xf32> loc("params['layers'][3]['in_ln']"), %arg32: tensor<2048xf32> loc("params['layers'][3]['post_ln']"), %arg33: tensor<8192x2048xf32> loc("params['layers'][3]['up']"), %arg34: tensor<512x2048xf32> loc("params['layers'][3]['wk']"), %arg35: tensor<2048x2048xf32> loc("params['layers'][3]['wo']"), %arg36: tensor<2048x2048xf32> loc("params['layers'][3]['wq']"), %arg37: tensor<512x2048xf32> loc("params['layers'][3]['wv']"), %arg38: tensor<2048x8192xf32> loc("params['layers'][4]['down']"), %arg39: tensor<8192x2048xf32> loc("params['layers'][4]['gate']"), %arg40: tensor<2048xf32> loc("params['layers'][4]['in_ln']"), %arg41: tensor<2048xf32> loc("params['layers'][4]['post_ln']"), %arg42: tensor<8192x2048xf32> loc("params['layers'][4]['up']"), %arg43: tensor<512x2048xf32> loc("params['layers'][4]['wk']"), %arg44: tensor<2048x2048xf32> loc("params['layers'][4]['wo']"), %arg45: tensor<2048x2048xf32> loc("params['layers'][4]['wq']"), %arg46: tensor<512x2048xf32> loc("params['layers'][4]['wv']"), %arg47: tensor<2048x8192xf32> loc("params['layers'][5]['down']"), %arg48: tensor<8192x2048xf32> loc("params['layers'][5]['gate']"), %arg49: tensor<2048xf32> loc("params['layers'][5]['in_ln']"), %arg50: tensor<2048xf32> loc("params['layers'][5]['post_ln']"), %arg51: tensor<8192x2048xf32> loc("params['layers'][5]['up']"), %arg52: tensor<512x2048xf32> loc("params['layers'][5]['wk']"), %arg53: tensor<2048x2048xf32> loc("params['layers'][5]['wo']"), %arg54: tensor<2048x2048xf32> loc("params['layers'][5]['wq']"), %arg55: tensor<512x2048xf32> loc("params['layers'][5]['wv']"), %arg56: tensor<2048x8192xf32> loc("params['layers'][6]['down']"), %arg57: tensor<8192x2048xf32> loc("params['layers'][6]['gate']"), %arg58: tensor<2048xf32> loc("params['layers'][6]['in_ln']"), %arg59: tensor<2048xf32> loc("params['layers'][6]['post_ln']"), %arg60: tensor<8192x2048xf32> loc("params['layers'][6]['up']"), %arg61: tensor<512x2048xf32> loc("params['layers'][6]['wk']"), %arg62: tensor<2048x2048xf32> loc("params['layers'][6]['wo']"), %arg63: tensor<2048x2048xf32> loc("params['layers'][6]['wq']"), %arg64: tensor<512x2048xf32> loc("params['layers'][6]['wv']"), %arg65: tensor<2048x8192xf32> loc("params['layers'][7]['down']"), %arg66: tensor<8192x2048xf32> loc("params['layers'][7]['gate']"), %arg67: tensor<2048xf32> loc("params['layers'][7]['in_ln']"), %arg68: tensor<2048xf32> loc("params['layers'][7]['post_ln']"), %arg69: tensor<8192x2048xf32> loc("params['layers'][7]['up']"), %arg70: tensor<512x2048xf32> loc("params['layers'][7]['wk']"), %arg71: tensor<2048x2048xf32> loc("params['layers'][7]['wo']"), %arg72: tensor<2048x2048xf32> loc("params['layers'][7]['wq']"), %arg73: tensor<512x2048xf32> loc("params['layers'][7]['wv']"), %arg74: tensor<2048x8192xf32> loc("params['layers'][8]['down']"), %arg75: tensor<8192x2048xf32> loc("params['layers'][8]['gate']"), %arg76: tensor<2048xf32> loc("params['layers'][8]['in_ln']"), %arg77: tensor<2048xf32> loc("params['layers'][8]['post_ln']"), %arg78: tensor<8192x2048xf32> loc("params['layers'][8]['up']"), %arg79: tensor<512x2048xf32> loc("params['layers'][8]['wk']"), %arg80: tensor<2048x2048xf32> loc("params['layers'][8]['wo']"), %arg81: tensor<2048x2048xf32> loc("params['layers'][8]['wq']"), %arg82: tensor<512x2048xf32> loc("params['layers'][8]['wv']"), %arg83: tensor<2048x8192xf32> loc("params['layers'][9]['down']"), %arg84: tensor<8192x2048xf32> loc("params['layers'][9]['gate']"), %arg85: tensor<2048xf32> loc("params['layers'][9]['in_ln']"), %arg86: tensor<2048xf32> loc("params['layers'][9]['post_ln']"), %arg87: tensor<8192x2048xf32> loc("params['layers'][9]['up']"), %arg88: tensor<512x2048xf32> loc("params['layers'][9]['wk']"), %arg89: tensor<2048x2048xf32> loc("params['layers'][9]['wo']"), %arg90: tensor<2048x2048xf32> loc("params['layers'][9]['wq']"), %arg91: tensor<512x2048xf32> loc("params['layers'][9]['wv']"), %arg92: tensor<2048x8192xf32> loc("params['layers'][10]['down']"), %arg93: tensor<8192x2048xf32> loc("params['layers'][10]['gate']"), %arg94: tensor<2048xf32> loc("params['layers'][10]['in_ln']"), %arg95: tensor<2048xf32> loc("params['layers'][10]['post_ln']"), %arg96: tensor<8192x2048xf32> loc("params['layers'][10]['up']"), %arg97: tensor<512x2048xf32> loc("params['layers'][10]['wk']"), %arg98: tensor<2048x2048xf32> loc("params['layers'][10]['wo']"), %arg99: tensor<2048x2048xf32> loc("params['layers'][10]['wq']"), %arg100: tensor<512x2048xf32> loc("params['layers'][10]['wv']"), %arg101: tensor<2048x8192xf32> loc("params['layers'][11]['down']"), %arg102: tensor<8192x2048xf32> loc("params['layers'][11]['gate']"), %arg103: tensor<2048xf32> loc("params['layers'][11]['in_ln']"), %arg104: tensor<2048xf32> loc("params['layers'][11]['post_ln']"), %arg105: tensor<8192x2048xf32> loc("params['layers'][11]['up']"), %arg106: tensor<512x2048xf32> loc("params['layers'][11]['wk']"), %arg107: tensor<2048x2048xf32> loc("params['layers'][11]['wo']"), %arg108: tensor<2048x2048xf32> loc("params['layers'][11]['wq']"), %arg109: tensor<512x2048xf32> loc("params['layers'][11]['wv']"), %arg110: tensor<2048x8192xf32> loc("params['layers'][12]['down']"), %arg111: tensor<8192x2048xf32> loc("params['layers'][12]['gate']"), %arg112: tensor<2048xf32> loc("params['layers'][12]['in_ln']"), %arg113: tensor<2048xf32> loc("params['layers'][12]['post_ln']"), %arg114: tensor<8192x2048xf32> loc("params['layers'][12]['up']"), %arg115: tensor<512x2048xf32> loc("params['layers'][12]['wk']"), %arg116: tensor<2048x2048xf32> loc("params['layers'][12]['wo']"), %arg117: tensor<2048x2048xf32> loc("params['layers'][12]['wq']"), %arg118: tensor<512x2048xf32> loc("params['layers'][12]['wv']"), %arg119: tensor<2048x8192xf32> loc("params['layers'][13]['down']"), %arg120: tensor<8192x2048xf32> loc("params['layers'][13]['gate']"), %arg121: tensor<2048xf32> loc("params['layers'][13]['in_ln']"), %arg122: tensor<2048xf32> loc("params['layers'][13]['post_ln']"), %arg123: tensor<8192x2048xf32> loc("params['layers'][13]['up']"), %arg124: tensor<512x2048xf32> loc("params['layers'][13]['wk']"), %arg125: tensor<2048x2048xf32> loc("params['layers'][13]['wo']"), %arg126: tensor<2048x2048xf32> loc("params['layers'][13]['wq']"), %arg127: tensor<512x2048xf32> loc("params['layers'][13]['wv']"), %arg128: tensor<2048x8192xf32> loc("params['layers'][14]['down']"), %arg129: tensor<8192x2048xf32> loc("params['layers'][14]['gate']"), %arg130: tensor<2048xf32> loc("params['layers'][14]['in_ln']"), %arg131: tensor<2048xf32> loc("params['layers'][14]['post_ln']"), %arg132: tensor<8192x2048xf32> loc("params['layers'][14]['up']"), %arg133: tensor<512x2048xf32> loc("params['layers'][14]['wk']"), %arg134: tensor<2048x2048xf32> loc("params['layers'][14]['wo']"), %arg135: tensor<2048x2048xf32> loc("params['layers'][14]['wq']"), %arg136: tensor<512x2048xf32> loc("params['layers'][14]['wv']"), %arg137: tensor<2048x8192xf32> loc("params['layers'][15]['down']"), %arg138: tensor<8192x2048xf32> loc("params['layers'][15]['gate']"), %arg139: tensor<2048xf32> loc("params['layers'][15]['in_ln']"), %arg140: tensor<2048xf32> loc("params['layers'][15]['post_ln']"), %arg141: tensor<8192x2048xf32> loc("params['layers'][15]['up']"), %arg142: tensor<512x2048xf32> loc("params['layers'][15]['wk']"), %arg143: tensor<2048x2048xf32> loc("params['layers'][15]['wo']"), %arg144: tensor<2048x2048xf32> loc("params['layers'][15]['wq']"), %arg145: tensor<512x2048xf32> loc("params['layers'][15]['wv']"), %arg146: tensor<8xi32> loc("token"), %arg147: tensor<8xi32> loc("pos"), %arg148: tensor<8xi32> loc("cache_len"), %arg149: tensor<8x16x256x8x64xf32> loc("kcache"), %arg150: tensor<8x16x256x8x64xf32> loc("vcache")) -> (tensor<8x128256xf32>, tensor<8x16x256x8x64xf32>, tensor<8x16x256x8x64xf32>) {
    %0 = stablehlo.constant dense<"…"> : tensor<256x64xf32>
    %1 = stablehlo.constant dense<"…"> : tensor<256x64xf32>
    %2 = stablehlo.constant dense<0x00000000> : tensor<f32>
    %3 = stablehlo.constant dense<0x3F800000> : tensor<f32>
    %4 = stablehlo.constant dense<0xFF800000> : tensor<f32>
    %5 = stablehlo.constant dense<0xF149F2CA> : tensor<f32>
    %6 = stablehlo.constant dense<0x3727C5AC> : tensor<f32>
    %7 = stablehlo.constant dense<0x45000000> : tensor<f32>
    %8 = stablehlo.constant dense<0x3E000000> : tensor<f32>
    %9 = stablehlo.constant dense<0> : tensor<i32>
    %10 = stablehlo.constant dense<0> : tensor<i32>
    %11 = stablehlo.constant dense<1> : tensor<i32>
    %12 = stablehlo.constant dense<2> : tensor<i32>
    %13 = stablehlo.constant dense<3> : tensor<i32>
    %14 = stablehlo.constant dense<4> : tensor<i32>
    %15 = stablehlo.constant dense<5> : tensor<i32>
    %16 = stablehlo.constant dense<6> : tensor<i32>
    %17 = stablehlo.constant dense<7> : tensor<i32>
    %18 = stablehlo.constant dense<8> : tensor<i32>
    %19 = stablehlo.constant dense<9> : tensor<i32>
    %20 = stablehlo.constant dense<10> : tensor<i32>
    %21 = stablehlo.constant dense<11> : tensor<i32>
    %22 = stablehlo.constant dense<12> : tensor<i32>
    %23 = stablehlo.constant dense<13> : tensor<i32>
    %24 = stablehlo.constant dense<14> : tensor<i32>
    %25 = stablehlo.constant dense<15> : tensor<i32>
    %26 = stablehlo.constant dense<0> : tensor<i32>
    %27 = stablehlo.constant dense<1> : tensor<i32>
    %28 = stablehlo.constant dense<2> : tensor<i32>
    %29 = stablehlo.constant dense<3> : tensor<i32>
    %30 = stablehlo.constant dense<4> : tensor<i32>
    %31 = stablehlo.constant dense<5> : tensor<i32>
    %32 = stablehlo.constant dense<6> : tensor<i32>
    %33 = stablehlo.constant dense<7> : tensor<i32>
    %34 = stablehlo.reshape %arg146 : (tensor<8xi32>) -> tensor<8x1xi32>
    %35 = "stablehlo.gather"(%arg0, %34) <{dimension_numbers = #stablehlo.gather<offset_dims = [1], collapsed_slice_dims = [0], start_index_map = [0], index_vector_dim = 1>, slice_sizes = array<i64: 1, 2048>}> : (tensor<128256x2048xf32>, tensor<8x1xi32>) -> tensor<8x2048xf32>
    %36 = stablehlo.reshape %arg147 : (tensor<8xi32>) -> tensor<8x1xi32>
    %37 = "stablehlo.gather"(%0, %36) <{dimension_numbers = #stablehlo.gather<offset_dims = [1], collapsed_slice_dims = [0], start_index_map = [0], index_vector_dim = 1>, slice_sizes = array<i64: 1, 64>}> : (tensor<256x64xf32>, tensor<8x1xi32>) -> tensor<8x64xf32>
    %38 = "stablehlo.gather"(%1, %36) <{dimension_numbers = #stablehlo.gather<offset_dims = [1], collapsed_slice_dims = [0], start_index_map = [0], index_vector_dim = 1>, slice_sizes = array<i64: 1, 64>}> : (tensor<256x64xf32>, tensor<8x1xi32>) -> tensor<8x64xf32>
    %39 = stablehlo.iota dim = 0 : tensor<256xi32>
    %40 = stablehlo.broadcast_in_dim %39, dims = [1] : (tensor<256xi32>) -> tensor<8x256xi32>
    %41 = stablehlo.broadcast_in_dim %arg148, dims = [0] : (tensor<8xi32>) -> tensor<8x256xi32>
    %42 = stablehlo.compare LE, %40, %41, SIGNED : (tensor<8x256xi32>, tensor<8x256xi32>) -> tensor<8x256xi1>
    %43 = stablehlo.broadcast_in_dim %2, dims = [] : (tensor<f32>) -> tensor<8x256xf32>
    %44 = stablehlo.broadcast_in_dim %5, dims = [] : (tensor<f32>) -> tensor<8x256xf32>
    %45 = stablehlo.select %42, %43, %44 : tensor<8x256xi1>, tensor<8x256xf32>
    %46 = stablehlo.multiply %35, %35 : tensor<8x2048xf32>
    %47 = stablehlo.reduce(%46 init: %2) applies stablehlo.add across dimensions = [1] : (tensor<8x2048xf32>, tensor<f32>) -> tensor<8xf32>
    %48 = stablehlo.broadcast_in_dim %7, dims = [] : (tensor<f32>) -> tensor<8xf32>
    %49 = stablehlo.divide %47, %48 : tensor<8xf32>
    %50 = stablehlo.broadcast_in_dim %6, dims = [] : (tensor<f32>) -> tensor<8xf32>
    %51 = stablehlo.add %49, %50 : tensor<8xf32>
    %52 = stablehlo.rsqrt %51 : tensor<8xf32>
    %53 = stablehlo.broadcast_in_dim %52, dims = [0] : (tensor<8xf32>) -> tensor<8x2048xf32>
    %54 = stablehlo.multiply %35, %53 : tensor<8x2048xf32>
    %55 = stablehlo.broadcast_in_dim %arg4, dims = [1] : (tensor<2048xf32>) -> tensor<8x2048xf32>
    %56 = stablehlo.multiply %54, %55 : tensor<8x2048xf32>
    %57 = stablehlo.dot_general %56, %arg9, contracting_dims = [1] x [1] : (tensor<8x2048xf32>, tensor<2048x2048xf32>) -> tensor<8x2048xf32>
    %58 = stablehlo.reshape %57 : (tensor<8x2048xf32>) -> tensor<8x32x64xf32>
    %59 = stablehlo.dot_general %56, %arg7, contracting_dims = [1] x [1] : (tensor<8x2048xf32>, tensor<512x2048xf32>) -> tensor<8x512xf32>
    %60 = stablehlo.reshape %59 : (tensor<8x512xf32>) -> tensor<8x8x64xf32>
    %61 = stablehlo.dot_general %56, %arg10, contracting_dims = [1] x [1] : (tensor<8x2048xf32>, tensor<512x2048xf32>) -> tensor<8x512xf32>
    %62 = stablehlo.reshape %61 : (tensor<8x512xf32>) -> tensor<8x8x64xf32>
    %63 = stablehlo.broadcast_in_dim %37, dims = [0, 2] : (tensor<8x64xf32>) -> tensor<8x32x64xf32>
    %64 = stablehlo.broadcast_in_dim %38, dims = [0, 2] : (tensor<8x64xf32>) -> tensor<8x32x64xf32>
    %65 = stablehlo.multiply %58, %63 : tensor<8x32x64xf32>
    %66 = stablehlo.slice %58 [0:8, 0:32, 0:32] : (tensor<8x32x64xf32>) -> tensor<8x32x32xf32>
    %67 = stablehlo.slice %58 [0:8, 0:32, 32:64] : (tensor<8x32x64xf32>) -> tensor<8x32x32xf32>
    %68 = stablehlo.negate %67 : tensor<8x32x32xf32>
    %69 = stablehlo.concatenate %68, %66, dim = 2 : (tensor<8x32x32xf32>, tensor<8x32x32xf32>) -> tensor<8x32x64xf32>
    %70 = stablehlo.multiply %69, %64 : tensor<8x32x64xf32>
    %71 = stablehlo.add %65, %70 : tensor<8x32x64xf32>
    %72 = stablehlo.broadcast_in_dim %37, dims = [0, 2] : (tensor<8x64xf32>) -> tensor<8x8x64xf32>
    %73 = stablehlo.broadcast_in_dim %38, dims = [0, 2] : (tensor<8x64xf32>) -> tensor<8x8x64xf32>
    %74 = stablehlo.multiply %60, %72 : tensor<8x8x64xf32>
    %75 = stablehlo.slice %60 [0:8, 0:8, 0:32] : (tensor<8x8x64xf32>) -> tensor<8x8x32xf32>
    %76 = stablehlo.slice %60 [0:8, 0:8, 32:64] : (tensor<8x8x64xf32>) -> tensor<8x8x32xf32>
    %77 = stablehlo.negate %76 : tensor<8x8x32xf32>
    %78 = stablehlo.concatenate %77, %75, dim = 2 : (tensor<8x8x32xf32>, tensor<8x8x32xf32>) -> tensor<8x8x64xf32>
    %79 = stablehlo.multiply %78, %73 : tensor<8x8x64xf32>
    %80 = stablehlo.add %74, %79 : tensor<8x8x64xf32>
    %81 = stablehlo.slice %arg147 [0:1] : (tensor<8xi32>) -> tensor<1xi32>
    %82 = stablehlo.reshape %81 : (tensor<1xi32>) -> tensor<i32>
    %83 = stablehlo.slice %80 [0:1, 0:8, 0:64] : (tensor<8x8x64xf32>) -> tensor<1x8x64xf32>
    %84 = stablehlo.reshape %83 : (tensor<1x8x64xf32>) -> tensor<1x1x1x8x64xf32>
    %85 = stablehlo.dynamic_update_slice %arg149, %84, %26, %10, %82, %9, %9 : (tensor<8x16x256x8x64xf32>, tensor<1x1x1x8x64xf32>, tensor<i32>, tensor<i32>, tensor<i32>, tensor<i32>, tensor<i32>) -> tensor<8x16x256x8x64xf32>
    %86 = stablehlo.slice %62 [0:1, 0:8, 0:64] : (tensor<8x8x64xf32>) -> tensor<1x8x64xf32>
    %87 = stablehlo.reshape %86 : (tensor<1x8x64xf32>) -> tensor<1x1x1x8x64xf32>
    %88 = stablehlo.dynamic_update_slice %arg150, %87, %26, %10, %82, %9, %9 : (tensor<8x16x256x8x64xf32>, tensor<1x1x1x8x64xf32>, tensor<i32>, tensor<i32>, tensor<i32>, tensor<i32>, tensor<i32>) -> tensor<8x16x256x8x64xf32>
    %89 = stablehlo.slice %arg147 [1:2] : (tensor<8xi32>) -> tensor<1xi32>
    %90 = stablehlo.reshape %89 : (tensor<1xi32>) -> tensor<i32>
    %91 = stablehlo.slice %80 [1:2, 0:8, 0:64] : (tensor<8x8x64xf32>) -> tensor<1x8x64xf32>
    %92 = stablehlo.reshape %91 : (tensor<1x8x64xf32>) -> tensor<1x1x1x8x64xf32>
    %93 = stablehlo.dynamic_update_slice %85, %92, %27, %10, %90, %9, %9 : (tensor<8x16x256x8x64xf32>, tensor<1x1x1x8x64xf32>, tensor<i32>, tensor<i32>, tensor<i32>, tensor<i32>, tensor<i32>) -> tensor<8x16x256x8x64xf32>
    %94 = stablehlo.slice %62 [1:2, 0:8, 0:64] : (tensor<8x8x64xf32>) -> tensor<1x8x64xf32>
    %95 = stablehlo.reshape %94 : (tensor<1x8x64xf32>) -> tensor<1x1x1x8x64xf32>
    %96 = stablehlo.dynamic_update_slice %88, %95, %27, %10, %90, %9, %9 : (tensor<8x16x256x8x64xf32>, tensor<1x1x1x8x64xf32>, tensor<i32>, tensor<i32>, tensor<i32>, tensor<i32>, tensor<i32>) -> tensor<8x16x256x8x64xf32>
    %97 = stablehlo.slice %arg147 [2:3] : (tensor<8xi32>) -> tensor<1xi32>
    %98 = stablehlo.reshape %97 : (tensor<1xi32>) -> tensor<i32>
    %99 = stablehlo.slice %80 [2:3, 0:8, 0:64] : (tensor<8x8x64xf32>) -> tensor<1x8x64xf32>
    %100 = stablehlo.reshape %99 : (tensor<1x8x64xf32>) -> tensor<1x1x1x8x64xf32>
    %101 = stablehlo.dynamic_update_slice %93, %100, %28, %10, %98, %9, %9 : (tensor<8x16x256x8x64xf32>, tensor<1x1x1x8x64xf32>, tensor<i32>, tensor<i32>, tensor<i32>, tensor<i32>, tensor<i32>) -> tensor<8x16x256x8x64xf32>
    %102 = stablehlo.slice %62 [2:3, 0:8, 0:64] : (tensor<8x8x64xf32>) -> tensor<1x8x64xf32>
    %103 = stablehlo.reshape %102 : (tensor<1x8x64xf32>) -> tensor<1x1x1x8x64xf32>
    %104 = stablehlo.dynamic_update_slice %96, %103, %28, %10, %98, %9, %9 : (tensor<8x16x256x8x64xf32>, tensor<1x1x1x8x64xf32>, tensor<i32>, tensor<i32>, tensor<i32>, tensor<i32>, tensor<i32>) -> tensor<8x16x256x8x64xf32>
    %105 = stablehlo.slice %arg147 [3:4] : (tensor<8xi32>) -> tensor<1xi32>
    %106 = stablehlo.reshape %105 : (tensor<1xi32>) -> tensor<i32>
    %107 = stablehlo.slice %80 [3:4, 0:8, 0:64] : (tensor<8x8x64xf32>) -> tensor<1x8x64xf32>
    %108 = stablehlo.reshape %107 : (tensor<1x8x64xf32>) -> tensor<1x1x1x8x64xf32>
    %109 = stablehlo.dynamic_update_slice %101, %108, %29, %10, %106, %9, %9 : (tensor<8x16x256x8x64xf32>, tensor<1x1x1x8x64xf32>, tensor<i32>, tensor<i32>, tensor<i32>, tensor<i32>, tensor<i32>) -> tensor<8x16x256x8x64xf32>
    %110 = stablehlo.slice %62 [3:4, 0:8, 0:64] : (tensor<8x8x64xf32>) -> tensor<1x8x64xf32>
    %111 = stablehlo.reshape %110 : (tensor<1x8x64xf32>) -> tensor<1x1x1x8x64xf32>
    %112 = stablehlo.dynamic_update_slice %104, %111, %29, %10, %106, %9, %9 : (tensor<8x16x256x8x64xf32>, tensor<1x1x1x8x64xf32>, tensor<i32>, tensor<i32>, tensor<i32>, tensor<i32>, tensor<i32>) -> tensor<8x16x256x8x64xf32>
    %113 = stablehlo.slice %arg147 [4:5] : (tensor<8xi32>) -> tensor<1xi32>
    %114 = stablehlo.reshape %113 : (tensor<1xi32>) -> tensor<i32>
    %115 = stablehlo.slice %80 [4:5, 0:8, 0:64] : (tensor<8x8x64xf32>) -> tensor<1x8x64xf32>
    %116 = stablehlo.reshape %115 : (tensor<1x8x64xf32>) -> tensor<1x1x1x8x64xf32>
    %117 = stablehlo.dynamic_update_slice %109, %116, %30, %10, %114, %9, %9 : (tensor<8x16x256x8x64xf32>, tensor<1x1x1x8x64xf32>, tensor<i32>, tensor<i32>, tensor<i32>, tensor<i32>, tensor<i32>) -> tensor<8x16x256x8x64xf32>
    %118 = stablehlo.slice %62 [4:5, 0:8, 0:64] : (tensor<8x8x64xf32>) -> tensor<1x8x64xf32>
    %119 = stablehlo.reshape %118 : (tensor<1x8x64xf32>) -> tensor<1x1x1x8x64xf32>
    %120 = stablehlo.dynamic_update_slice %112, %119, %30, %10, %114, %9, %9 : (tensor<8x16x256x8x64xf32>, tensor<1x1x1x8x64xf32>, tensor<i32>, tensor<i32>, tensor<i32>, tensor<i32>, tensor<i32>) -> tensor<8x16x256x8x64xf32>
    %121 = stablehlo.slice %arg147 [5:6] : (tensor<8xi32>) -> tensor<1xi32>
    %122 = stablehlo.reshape %121 : (tensor<1xi32>) -> tensor<i32>
    %123 = stablehlo.slice %80 [5:6, 0:8, 0:64] : (tensor<8x8x64xf32>) -> tensor<1x8x64xf32>
    %124 = stablehlo.reshape %123 : (tensor<1x8x64xf32>) -> tensor<1x1x1x8x64xf32>
    %125 = stablehlo.dynamic_update_slice %117, %124, %31, %10, %122, %9, %9 : (tensor<8x16x256x8x64xf32>, tensor<1x1x1x8x64xf32>, tensor<i32>, tensor<i32>, tensor<i32>, tensor<i32>, tensor<i32>) -> tensor<8x16x256x8x64xf32>
    %126 = stablehlo.slice %62 [5:6, 0:8, 0:64] : (tensor<8x8x64xf32>) -> tensor<1x8x64xf32>
    %127 = stablehlo.reshape %126 : (tensor<1x8x64xf32>) -> tensor<1x1x1x8x64xf32>
    %128 = stablehlo.dynamic_update_slice %120, %127, %31, %10, %122, %9, %9 : (tensor<8x16x256x8x64xf32>, tensor<1x1x1x8x64xf32>, tensor<i32>, tensor<i32>, tensor<i32>, tensor<i32>, tensor<i32>) -> tensor<8x16x256x8x64xf32>
    %129 = stablehlo.slice %arg147 [6:7] : (tensor<8xi32>) -> tensor<1xi32>
    %130 = stablehlo.reshape %129 : (tensor<1xi32>) -> tensor<i32>
    %131 = stablehlo.slice %80 [6:7, 0:8, 0:64] : (tensor<8x8x64xf32>) -> tensor<1x8x64xf32>
    %132 = stablehlo.reshape %131 : (tensor<1x8x64xf32>) -> tensor<1x1x1x8x64xf32>
    %133 = stablehlo.dynamic_update_slice %125, %132, %32, %10, %130, %9, %9 : (tensor<8x16x256x8x64xf32>, tensor<1x1x1x8x64xf32>, tensor<i32>, tensor<i32>, tensor<i32>, tensor<i32>, tensor<i32>) -> tensor<8x16x256x8x64xf32>
    %134 = stablehlo.slice %62 [6:7, 0:8, 0:64] : (tensor<8x8x64xf32>) -> tensor<1x8x64xf32>
    %135 = stablehlo.reshape %134 : (tensor<1x8x64xf32>) -> tensor<1x1x1x8x64xf32>
    %136 = stablehlo.dynamic_update_slice %128, %135, %32, %10, %130, %9, %9 : (tensor<8x16x256x8x64xf32>, tensor<1x1x1x8x64xf32>, tensor<i32>, tensor<i32>, tensor<i32>, tensor<i32>, tensor<i32>) -> tensor<8x16x256x8x64xf32>
    %137 = stablehlo.slice %arg147 [7:8] : (tensor<8xi32>) -> tensor<1xi32>
    %138 = stablehlo.reshape %137 : (tensor<1xi32>) -> tensor<i32>
    %139 = stablehlo.slice %80 [7:8, 0:8, 0:64] : (tensor<8x8x64xf32>) -> tensor<1x8x64xf32>
    %140 = stablehlo.reshape %139 : (tensor<1x8x64xf32>) -> tensor<1x1x1x8x64xf32>
    %141 = stablehlo.dynamic_update_slice %133, %140, %33, %10, %138, %9, %9 : (tensor<8x16x256x8x64xf32>, tensor<1x1x1x8x64xf32>, tensor<i32>, tensor<i32>, tensor<i32>, tensor<i32>, tensor<i32>) -> tensor<8x16x256x8x64xf32>
    %142 = stablehlo.slice %62 [7:8, 0:8, 0:64] : (tensor<8x8x64xf32>) -> tensor<1x8x64xf32>
    %143 = stablehlo.reshape %142 : (tensor<1x8x64xf32>) -> tensor<1x1x1x8x64xf32>
    %144 = stablehlo.dynamic_update_slice %136, %143, %33, %10, %138, %9, %9 : (tensor<8x16x256x8x64xf32>, tensor<1x1x1x8x64xf32>, tensor<i32>, tensor<i32>, tensor<i32>, tensor<i32>, tensor<i32>) -> tensor<8x16x256x8x64xf32>
    %145 = stablehlo.slice %141 [0:8, 0:1, 0:256, 0:8, 0:64] : (tensor<8x16x256x8x64xf32>) -> tensor<8x1x256x8x64xf32>
    %146 = stablehlo.reshape %145 : (tensor<8x1x256x8x64xf32>) -> tensor<8x256x8x64xf32>
    %147 = stablehlo.slice %144 [0:8, 0:1, 0:256, 0:8, 0:64] : (tensor<8x16x256x8x64xf32>) -> tensor<8x1x256x8x64xf32>
    %148 = stablehlo.reshape %147 : (tensor<8x1x256x8x64xf32>) -> tensor<8x256x8x64xf32>
    %149 = stablehlo.reshape %71 : (tensor<8x32x64xf32>) -> tensor<8x8x4x64xf32>
    %150 = stablehlo.dot_general %149, %146, batching_dims = [0, 1] x [0, 2], contracting_dims = [3] x [3] : (tensor<8x8x4x64xf32>, tensor<8x256x8x64xf32>) -> tensor<8x8x4x256xf32>
    %151 = stablehlo.reshape %150 : (tensor<8x8x4x256xf32>) -> tensor<8x32x256xf32>
    %152 = stablehlo.broadcast_in_dim %8, dims = [] : (tensor<f32>) -> tensor<8x32x256xf32>
    %153 = stablehlo.multiply %151, %152 : tensor<8x32x256xf32>
    %154 = stablehlo.broadcast_in_dim %45, dims = [0, 2] : (tensor<8x256xf32>) -> tensor<8x32x256xf32>
    %155 = stablehlo.add %153, %154 : tensor<8x32x256xf32>
    %156 = stablehlo.reduce(%155 init: %4) applies stablehlo.maximum across dimensions = [2] : (tensor<8x32x256xf32>, tensor<f32>) -> tensor<8x32xf32>
    %157 = stablehlo.broadcast_in_dim %156, dims = [0, 1] : (tensor<8x32xf32>) -> tensor<8x32x256xf32>
    %158 = stablehlo.subtract %155, %157 : tensor<8x32x256xf32>
    %159 = stablehlo.exponential %158 : tensor<8x32x256xf32>
    %160 = stablehlo.reduce(%159 init: %2) applies stablehlo.add across dimensions = [2] : (tensor<8x32x256xf32>, tensor<f32>) -> tensor<8x32xf32>
    %161 = stablehlo.broadcast_in_dim %160, dims = [0, 1] : (tensor<8x32xf32>) -> tensor<8x32x256xf32>
    %162 = stablehlo.divide %159, %161 : tensor<8x32x256xf32>
    %163 = stablehlo.reshape %162 : (tensor<8x32x256xf32>) -> tensor<8x8x4x256xf32>
    %164 = stablehlo.dot_general %163, %148, batching_dims = [0, 1] x [0, 2], contracting_dims = [3] x [1] : (tensor<8x8x4x256xf32>, tensor<8x256x8x64xf32>) -> tensor<8x8x4x64xf32>
    %165 = stablehlo.reshape %164 : (tensor<8x8x4x64xf32>) -> tensor<8x32x64xf32>
    %166 = stablehlo.reshape %165 : (tensor<8x32x64xf32>) -> tensor<8x2048xf32>
    %167 = stablehlo.dot_general %166, %arg8, contracting_dims = [1] x [1] : (tensor<8x2048xf32>, tensor<2048x2048xf32>) -> tensor<8x2048xf32>
    %168 = stablehlo.add %35, %167 : tensor<8x2048xf32>
    %169 = stablehlo.multiply %168, %168 : tensor<8x2048xf32>
    %170 = stablehlo.reduce(%169 init: %2) applies stablehlo.add across dimensions = [1] : (tensor<8x2048xf32>, tensor<f32>) -> tensor<8xf32>
    %171 = stablehlo.broadcast_in_dim %7, dims = [] : (tensor<f32>) -> tensor<8xf32>
    %172 = stablehlo.divide %170, %171 : tensor<8xf32>
    %173 = stablehlo.broadcast_in_dim %6, dims = [] : (tensor<f32>) -> tensor<8xf32>
    %174 = stablehlo.add %172, %173 : tensor<8xf32>
    %175 = stablehlo.rsqrt %174 : tensor<8xf32>
    %176 = stablehlo.broadcast_in_dim %175, dims = [0] : (tensor<8xf32>) -> tensor<8x2048xf32>
    %177 = stablehlo.multiply %168, %176 : tensor<8x2048xf32>
    %178 = stablehlo.broadcast_in_dim %arg5, dims = [1] : (tensor<2048xf32>) -> tensor<8x2048xf32>
    %179 = stablehlo.multiply %177, %178 : tensor<8x2048xf32>
    %180 = stablehlo.dot_general %179, %arg3, contracting_dims = [1] x [1] : (tensor<8x2048xf32>, tensor<8192x2048xf32>) -> tensor<8x8192xf32>
    %181 = stablehlo.dot_general %179, %arg6, contracting_dims = [1] x [1] : (tensor<8x2048xf32>, tensor<8192x2048xf32>) -> tensor<8x8192xf32>
    %182 = stablehlo.negate %180 : tensor<8x8192xf32>
    %183 = stablehlo.exponential %182 : tensor<8x8192xf32>
    %184 = stablehlo.broadcast_in_dim %3, dims = [] : (tensor<f32>) -> tensor<8x8192xf32>
    %185 = stablehlo.add %184, %183 : tensor<8x8192xf32>
    %186 = stablehlo.divide %184, %185 : tensor<8x8192xf32>
    %187 = stablehlo.multiply %180, %186 : tensor<8x8192xf32>
    %188 = stablehlo.multiply %187, %181 : tensor<8x8192xf32>
    %189 = stablehlo.dot_general %188, %arg2, contracting_dims = [1] x [1] : (tensor<8x8192xf32>, tensor<2048x8192xf32>) -> tensor<8x2048xf32>
    %190 = stablehlo.add %168, %189 : tensor<8x2048xf32>
    %191 = stablehlo.multiply %190, %190 : tensor<8x2048xf32>
    %192 = stablehlo.reduce(%191 init: %2) applies stablehlo.add across dimensions = [1] : (tensor<8x2048xf32>, tensor<f32>) -> tensor<8xf32>
    %193 = stablehlo.broadcast_in_dim %7, dims = [] : (tensor<f32>) -> tensor<8xf32>
    %194 = stablehlo.divide %192, %193 : tensor<8xf32>
    %195 = stablehlo.broadcast_in_dim %6, dims = [] : (tensor<f32>) -> tensor<8xf32>
    %196 = stablehlo.add %194, %195 : tensor<8xf32>
    %197 = stablehlo.rsqrt %196 : tensor<8xf32>
    %198 = stablehlo.broadcast_in_dim %197, dims = [0] : (tensor<8xf32>) -> tensor<8x2048xf32>
    %199 = stablehlo.multiply %190, %198 : tensor<8x2048xf32>
    %200 = stablehlo.broadcast_in_dim %arg13, dims = [1] : (tensor<2048xf32>) -> tensor<8x2048xf32>
    %201 = stablehlo.multiply %199, %200 : tensor<8x2048xf32>
    %202 = stablehlo.dot_general %201, %arg18, contracting_dims = [1] x [1] : (tensor<8x2048xf32>, tensor<2048x2048xf32>) -> tensor<8x2048xf32>
    %203 = stablehlo.reshape %202 : (tensor<8x2048xf32>) -> tensor<8x32x64xf32>
    %204 = stablehlo.dot_general %201, %arg16, contracting_dims = [1] x [1] : (tensor<8x2048xf32>, tensor<512x2048xf32>) -> tensor<8x512xf32>
    %205 = stablehlo.reshape %204 : (tensor<8x512xf32>) -> tensor<8x8x64xf32>
    %206 = stablehlo.dot_general %201, %arg19, contracting_dims = [1] x [1] : (tensor<8x2048xf32>, tensor<512x2048xf32>) -> tensor<8x512xf32>
    %207 = stablehlo.reshape %206 : (tensor<8x512xf32>) -> tensor<8x8x64xf32>
    %208 = stablehlo.broadcast_in_dim %37, dims = [0, 2] : (tensor<8x64xf32>) -> tensor<8x32x64xf32>
    %209 = stablehlo.broadcast_in_dim %38, dims = [0, 2] : (tensor<8x64xf32>) -> tensor<8x32x64xf32>
    %210 = stablehlo.multiply %203, %208 : tensor<8x32x64xf32>
    %211 = stablehlo.slice %203 [0:8, 0:32, 0:32] : (tensor<8x32x64xf32>) -> tensor<8x32x32xf32>
    %212 = stablehlo.slice %203 [0:8, 0:32, 32:64] : (tensor<8x32x64xf32>) -> tensor<8x32x32xf32>
    %213 = stablehlo.negate %212 : tensor<8x32x32xf32>
    %214 = stablehlo.concatenate %213, %211, dim = 2 : (tensor<8x32x32xf32>, tensor<8x32x32xf32>) -> tensor<8x32x64xf32>
    %215 = stablehlo.multiply %214, %209 : tensor<8x32x64xf32>
    %216 = stablehlo.add %210, %215 : tensor<8x32x64xf32>
    %217 = stablehlo.broadcast_in_dim %37, dims = [0, 2] : (tensor<8x64xf32>) -> tensor<8x8x64xf32>
    %218 = stablehlo.broadcast_in_dim %38, dims = [0, 2] : (tensor<8x64xf32>) -> tensor<8x8x64xf32>
    %219 = stablehlo.multiply %205, %217 : tensor<8x8x64xf32>
    %220 = stablehlo.slice %205 [0:8, 0:8, 0:32] : (tensor<8x8x64xf32>) -> tensor<8x8x32xf32>
    %221 = stablehlo.slice %205 [0:8, 0:8, 32:64] : (tensor<8x8x64xf32>) -> tensor<8x8x32xf32>
    %222 = stablehlo.negate %221 : tensor<8x8x32xf32>
    %223 = stablehlo.concatenate %222, %220, dim = 2 : (tensor<8x8x32xf32>, tensor<8x8x32xf32>) -> tensor<8x8x64xf32>
    %224 = stablehlo.multiply %223, %218 : tensor<8x8x64xf32>
    %225 = stablehlo.add %219, %224 : tensor<8x8x64xf32>
    %226 = stablehlo.slice %arg147 [0:1] : (tensor<8xi32>) -> tensor<1xi32>
    %227 = stablehlo.reshape %226 : (tensor<1xi32>) -> tensor<i32>
    %228 = stablehlo.slice %225 [0:1, 0:8, 0:64] : (tensor<8x8x64xf32>) -> tensor<1x8x64xf32>
    %229 = stablehlo.reshape %228 : (tensor<1x8x64xf32>) -> tensor<1x1x1x8x64xf32>
    %230 = stablehlo.dynamic_update_slice %141, %229, %26, %11, %227, %9, %9 : (tensor<8x16x256x8x64xf32>, tensor<1x1x1x8x64xf32>, tensor<i32>, tensor<i32>, tensor<i32>, tensor<i32>, tensor<i32>) -> tensor<8x16x256x8x64xf32>
    %231 = stablehlo.slice %207 [0:1, 0:8, 0:64] : (tensor<8x8x64xf32>) -> tensor<1x8x64xf32>
    %232 = stablehlo.reshape %231 : (tensor<1x8x64xf32>) -> tensor<1x1x1x8x64xf32>
    %233 = stablehlo.dynamic_update_slice %144, %232, %26, %11, %227, %9, %9 : (tensor<8x16x256x8x64xf32>, tensor<1x1x1x8x64xf32>, tensor<i32>, tensor<i32>, tensor<i32>, tensor<i32>, tensor<i32>) -> tensor<8x16x256x8x64xf32>
    %234 = stablehlo.slice %arg147 [1:2] : (tensor<8xi32>) -> tensor<1xi32>
    %235 = stablehlo.reshape %234 : (tensor<1xi32>) -> tensor<i32>
    %236 = stablehlo.slice %225 [1:2, 0:8, 0:64] : (tensor<8x8x64xf32>) -> tensor<1x8x64xf32>
    %237 = stablehlo.reshape %236 : (tensor<1x8x64xf32>) -> tensor<1x1x1x8x64xf32>
    %238 = stablehlo.dynamic_update_slice %230, %237, %27, %11, %235, %9, %9 : (tensor<8x16x256x8x64xf32>, tensor<1x1x1x8x64xf32>, tensor<i32>, tensor<i32>, tensor<i32>, tensor<i32>, tensor<i32>) -> tensor<8x16x256x8x64xf32>
    %239 = stablehlo.slice %207 [1:2, 0:8, 0:64] : (tensor<8x8x64xf32>) -> tensor<1x8x64xf32>
    %240 = stablehlo.reshape %239 : (tensor<1x8x64xf32>) -> tensor<1x1x1x8x64xf32>
    %241 = stablehlo.dynamic_update_slice %233, %240, %27, %11, %235, %9, %9 : (tensor<8x16x256x8x64xf32>, tensor<1x1x1x8x64xf32>, tensor<i32>, tensor<i32>, tensor<i32>, tensor<i32>, tensor<i32>) -> tensor<8x16x256x8x64xf32>
    %242 = stablehlo.slice %arg147 [2:3] : (tensor<8xi32>) -> tensor<1xi32>
    %243 = stablehlo.reshape %242 : (tensor<1xi32>) -> tensor<i32>
    %244 = stablehlo.slice %225 [2:3, 0:8, 0:64] : (tensor<8x8x64xf32>) -> tensor<1x8x64xf32>
    %245 = stablehlo.reshape %244 : (tensor<1x8x64xf32>) -> tensor<1x1x1x8x64xf32>
    %246 = stablehlo.dynamic_update_slice %238, %245, %28, %11, %243, %9, %9 : (tensor<8x16x256x8x64xf32>, tensor<1x1x1x8x64xf32>, tensor<i32>, tensor<i32>, tensor<i32>, tensor<i32>, tensor<i32>) -> tensor<8x16x256x8x64xf32>
    %247 = stablehlo.slice %207 [2:3, 0:8, 0:64] : (tensor<8x8x64xf32>) -> tensor<1x8x64xf32>
    %248 = stablehlo.reshape %247 : (tensor<1x8x64xf32>) -> tensor<1x1x1x8x64xf32>
    %249 = stablehlo.dynamic_update_slice %241, %248, %28, %11, %243, %9, %9 : (tensor<8x16x256x8x64xf32>, tensor<1x1x1x8x64xf32>, tensor<i32>, tensor<i32>, tensor<i32>, tensor<i32>, tensor<i32>) -> tensor<8x16x256x8x64xf32>
    %250 = stablehlo.slice %arg147 [3:4] : (tensor<8xi32>) -> tensor<1xi32>
    %251 = stablehlo.reshape %250 : (tensor<1xi32>) -> tensor<i32>
    %252 = stablehlo.slice %225 [3:4, 0:8, 0:64] : (tensor<8x8x64xf32>) -> tensor<1x8x64xf32>
    %253 = stablehlo.reshape %252 : (tensor<1x8x64xf32>) -> tensor<1x1x1x8x64xf32>
    %254 = stablehlo.dynamic_update_slice %246, %253, %29, %11, %251, %9, %9 : (tensor<8x16x256x8x64xf32>, tensor<1x1x1x8x64xf32>, tensor<i32>, tensor<i32>, tensor<i32>, tensor<i32>, tensor<i32>) -> tensor<8x16x256x8x64xf32>
    %255 = stablehlo.slice %207 [3:4, 0:8, 0:64] : (tensor<8x8x64xf32>) -> tensor<1x8x64xf32>
    %256 = stablehlo.reshape %255 : (tensor<1x8x64xf32>) -> tensor<1x1x1x8x64xf32>
    %257 = stablehlo.dynamic_update_slice %249, %256, %29, %11, %251, %9, %9 : (tensor<8x16x256x8x64xf32>, tensor<1x1x1x8x64xf32>, tensor<i32>, tensor<i32>, tensor<i32>, tensor<i32>, tensor<i32>) -> tensor<8x16x256x8x64xf32>
    %258 = stablehlo.slice %arg147 [4:5] : (tensor<8xi32>) -> tensor<1xi32>
    %259 = stablehlo.reshape %258 : (tensor<1xi32>) -> tensor<i32>
    %260 = stablehlo.slice %225 [4:5, 0:8, 0:64] : (tensor<8x8x64xf32>) -> tensor<1x8x64xf32>
    %261 = stablehlo.reshape %260 : (tensor<1x8x64xf32>) -> tensor<1x1x1x8x64xf32>
    %262 = stablehlo.dynamic_update_slice %254, %261, %30, %11, %259, %9, %9 : (tensor<8x16x256x8x64xf32>, tensor<1x1x1x8x64xf32>, tensor<i32>, tensor<i32>, tensor<i32>, tensor<i32>, tensor<i32>) -> tensor<8x16x256x8x64xf32>
    %263 = stablehlo.slice %207 [4:5, 0:8, 0:64] : (tensor<8x8x64xf32>) -> tensor<1x8x64xf32>
    %264 = stablehlo.reshape %263 : (tensor<1x8x64xf32>) -> tensor<1x1x1x8x64xf32>
    %265 = stablehlo.dynamic_update_slice %257, %264, %30, %11, %259, %9, %9 : (tensor<8x16x256x8x64xf32>, tensor<1x1x1x8x64xf32>, tensor<i32>, tensor<i32>, tensor<i32>, tensor<i32>, tensor<i32>) -> tensor<8x16x256x8x64xf32>
    %266 = stablehlo.slice %arg147 [5:6] : (tensor<8xi32>) -> tensor<1xi32>
    %267 = stablehlo.reshape %266 : (tensor<1xi32>) -> tensor<i32>
    %268 = stablehlo.slice %225 [5:6, 0:8, 0:64] : (tensor<8x8x64xf32>) -> tensor<1x8x64xf32>
    %269 = stablehlo.reshape %268 : (tensor<1x8x64xf32>) -> tensor<1x1x1x8x64xf32>
    %270 = stablehlo.dynamic_update_slice %262, %269, %31, %11, %267, %9, %9 : (tensor<8x16x256x8x64xf32>, tensor<1x1x1x8x64xf32>, tensor<i32>, tensor<i32>, tensor<i32>, tensor<i32>, tensor<i32>) -> tensor<8x16x256x8x64xf32>
    %271 = stablehlo.slice %207 [5:6, 0:8, 0:64] : (tensor<8x8x64xf32>) -> tensor<1x8x64xf32>
    %272 = stablehlo.reshape %271 : (tensor<1x8x64xf32>) -> tensor<1x1x1x8x64xf32>
    %273 = stablehlo.dynamic_update_slice %265, %272, %31, %11, %267, %9, %9 : (tensor<8x16x256x8x64xf32>, tensor<1x1x1x8x64xf32>, tensor<i32>, tensor<i32>, tensor<i32>, tensor<i32>, tensor<i32>) -> tensor<8x16x256x8x64xf32>
    %274 = stablehlo.slice %arg147 [6:7] : (tensor<8xi32>) -> tensor<1xi32>
    %275 = stablehlo.reshape %274 : (tensor<1xi32>) -> tensor<i32>
    %276 = stablehlo.slice %225 [6:7, 0:8, 0:64] : (tensor<8x8x64xf32>) -> tensor<1x8x64xf32>
    %277 = stablehlo.reshape %276 : (tensor<1x8x64xf32>) -> tensor<1x1x1x8x64xf32>
    %278 = stablehlo.dynamic_update_slice %270, %277, %32, %11, %275, %9, %9 : (tensor<8x16x256x8x64xf32>, tensor<1x1x1x8x64xf32>, tensor<i32>, tensor<i32>, tensor<i32>, tensor<i32>, tensor<i32>) -> tensor<8x16x256x8x64xf32>
    %279 = stablehlo.slice %207 [6:7, 0:8, 0:64] : (tensor<8x8x64xf32>) -> tensor<1x8x64xf32>
    %280 = stablehlo.reshape %279 : (tensor<1x8x64xf32>) -> tensor<1x1x1x8x64xf32>
    %281 = stablehlo.dynamic_update_slice %273, %280, %32, %11, %275, %9, %9 : (tensor<8x16x256x8x64xf32>, tensor<1x1x1x8x64xf32>, tensor<i32>, tensor<i32>, tensor<i32>, tensor<i32>, tensor<i32>) -> tensor<8x16x256x8x64xf32>
    %282 = stablehlo.slice %arg147 [7:8] : (tensor<8xi32>) -> tensor<1xi32>
    %283 = stablehlo.reshape %282 : (tensor<1xi32>) -> tensor<i32>
    %284 = stablehlo.slice %225 [7:8, 0:8, 0:64] : (tensor<8x8x64xf32>) -> tensor<1x8x64xf32>
    %285 = stablehlo.reshape %284 : (tensor<1x8x64xf32>) -> tensor<1x1x1x8x64xf32>
    %286 = stablehlo.dynamic_update_slice %278, %285, %33, %11, %283, %9, %9 : (tensor<8x16x256x8x64xf32>, tensor<1x1x1x8x64xf32>, tensor<i32>, tensor<i32>, tensor<i32>, tensor<i32>, tensor<i32>) -> tensor<8x16x256x8x64xf32>
    %287 = stablehlo.slice %207 [7:8, 0:8, 0:64] : (tensor<8x8x64xf32>) -> tensor<1x8x64xf32>
    %288 = stablehlo.reshape %287 : (tensor<1x8x64xf32>) -> tensor<1x1x1x8x64xf32>
    %289 = stablehlo.dynamic_update_slice %281, %288, %33, %11, %283, %9, %9 : (tensor<8x16x256x8x64xf32>, tensor<1x1x1x8x64xf32>, tensor<i32>, tensor<i32>, tensor<i32>, tensor<i32>, tensor<i32>) -> tensor<8x16x256x8x64xf32>
    %290 = stablehlo.slice %286 [0:8, 1:2, 0:256, 0:8, 0:64] : (tensor<8x16x256x8x64xf32>) -> tensor<8x1x256x8x64xf32>
    %291 = stablehlo.reshape %290 : (tensor<8x1x256x8x64xf32>) -> tensor<8x256x8x64xf32>
    %292 = stablehlo.slice %289 [0:8, 1:2, 0:256, 0:8, 0:64] : (tensor<8x16x256x8x64xf32>) -> tensor<8x1x256x8x64xf32>
    %293 = stablehlo.reshape %292 : (tensor<8x1x256x8x64xf32>) -> tensor<8x256x8x64xf32>
    %294 = stablehlo.reshape %216 : (tensor<8x32x64xf32>) -> tensor<8x8x4x64xf32>
    %295 = stablehlo.dot_general %294, %291, batching_dims = [0, 1] x [0, 2], contracting_dims = [3] x [3] : (tensor<8x8x4x64xf32>, tensor<8x256x8x64xf32>) -> tensor<8x8x4x256xf32>
    %296 = stablehlo.reshape %295 : (tensor<8x8x4x256xf32>) -> tensor<8x32x256xf32>
    %297 = stablehlo.broadcast_in_dim %8, dims = [] : (tensor<f32>) -> tensor<8x32x256xf32>
    %298 = stablehlo.multiply %296, %297 : tensor<8x32x256xf32>
    %299 = stablehlo.broadcast_in_dim %45, dims = [0, 2] : (tensor<8x256xf32>) -> tensor<8x32x256xf32>
    %300 = stablehlo.add %298, %299 : tensor<8x32x256xf32>
    %301 = stablehlo.reduce(%300 init: %4) applies stablehlo.maximum across dimensions = [2] : (tensor<8x32x256xf32>, tensor<f32>) -> tensor<8x32xf32>
    %302 = stablehlo.broadcast_in_dim %301, dims = [0, 1] : (tensor<8x32xf32>) -> tensor<8x32x256xf32>
    %303 = stablehlo.subtract %300, %302 : tensor<8x32x256xf32>
    %304 = stablehlo.exponential %303 : tensor<8x32x256xf32>
    %305 = stablehlo.reduce(%304 init: %2) applies stablehlo.add across dimensions = [2] : (tensor<8x32x256xf32>, tensor<f32>) -> tensor<8x32xf32>
    %306 = stablehlo.broadcast_in_dim %305, dims = [0, 1] : (tensor<8x32xf32>) -> tensor<8x32x256xf32>
    %307 = stablehlo.divide %304, %306 : tensor<8x32x256xf32>
    %308 = stablehlo.reshape %307 : (tensor<8x32x256xf32>) -> tensor<8x8x4x256xf32>
    %309 = stablehlo.dot_general %308, %293, batching_dims = [0, 1] x [0, 2], contracting_dims = [3] x [1] : (tensor<8x8x4x256xf32>, tensor<8x256x8x64xf32>) -> tensor<8x8x4x64xf32>
    %310 = stablehlo.reshape %309 : (tensor<8x8x4x64xf32>) -> tensor<8x32x64xf32>
    %311 = stablehlo.reshape %310 : (tensor<8x32x64xf32>) -> tensor<8x2048xf32>
    %312 = stablehlo.dot_general %311, %arg17, contracting_dims = [1] x [1] : (tensor<8x2048xf32>, tensor<2048x2048xf32>) -> tensor<8x2048xf32>
    %313 = stablehlo.add %190, %312 : tensor<8x2048xf32>
    %314 = stablehlo.multiply %313, %313 : tensor<8x2048xf32>
    %315 = stablehlo.reduce(%314 init: %2) applies stablehlo.add across dimensions = [1] : (tensor<8x2048xf32>, tensor<f32>) -> tensor<8xf32>
    %316 = stablehlo.broadcast_in_dim %7, dims = [] : (tensor<f32>) -> tensor<8xf32>
    %317 = stablehlo.divide %315, %316 : tensor<8xf32>
    %318 = stablehlo.broadcast_in_dim %6, dims = [] : (tensor<f32>) -> tensor<8xf32>
    %319 = stablehlo.add %317, %318 : tensor<8xf32>
    %320 = stablehlo.rsqrt %319 : tensor<8xf32>
    %321 = stablehlo.broadcast_in_dim %320, dims = [0] : (tensor<8xf32>) -> tensor<8x2048xf32>
    %322 = stablehlo.multiply %313, %321 : tensor<8x2048xf32>
    %323 = stablehlo.broadcast_in_dim %arg14, dims = [1] : (tensor<2048xf32>) -> tensor<8x2048xf32>
    %324 = stablehlo.multiply %322, %323 : tensor<8x2048xf32>
    %325 = stablehlo.dot_general %324, %arg12, contracting_dims = [1] x [1] : (tensor<8x2048xf32>, tensor<8192x2048xf32>) -> tensor<8x8192xf32>
    %326 = stablehlo.dot_general %324, %arg15, contracting_dims = [1] x [1] : (tensor<8x2048xf32>, tensor<8192x2048xf32>) -> tensor<8x8192xf32>
    %327 = stablehlo.negate %325 : tensor<8x8192xf32>
    %328 = stablehlo.exponential %327 : tensor<8x8192xf32>
    %329 = stablehlo.broadcast_in_dim %3, dims = [] : (tensor<f32>) -> tensor<8x8192xf32>
    %330 = stablehlo.add %329, %328 : tensor<8x8192xf32>
    %331 = stablehlo.divide %329, %330 : tensor<8x8192xf32>
    %332 = stablehlo.multiply %325, %331 : tensor<8x8192xf32>
    %333 = stablehlo.multiply %332, %326 : tensor<8x8192xf32>
    %334 = stablehlo.dot_general %333, %arg11, contracting_dims = [1] x [1] : (tensor<8x8192xf32>, tensor<2048x8192xf32>) -> tensor<8x2048xf32>
    %335 = stablehlo.add %313, %334 : tensor<8x2048xf32>
    %336 = stablehlo.multiply %335, %335 : tensor<8x2048xf32>
    %337 = stablehlo.reduce(%336 init: %2) applies stablehlo.add across dimensions = [1] : (tensor<8x2048xf32>, tensor<f32>) -> tensor<8xf32>
    %338 = stablehlo.broadcast_in_dim %7, dims = [] : (tensor<f32>) -> tensor<8xf32>
    %339 = stablehlo.divide %337, %338 : tensor<8xf32>
    %340 = stablehlo.broadcast_in_dim %6, dims = [] : (tensor<f32>) -> tensor<8xf32>
    %341 = stablehlo.add %339, %340 : tensor<8xf32>
    %342 = stablehlo.rsqrt %341 : tensor<8xf32>
    %343 = stablehlo.broadcast_in_dim %342, dims = [0] : (tensor<8xf32>) -> tensor<8x2048xf32>
    %344 = stablehlo.multiply %335, %343 : tensor<8x2048xf32>
    %345 = stablehlo.broadcast_in_dim %arg22, dims = [1] : (tensor<2048xf32>) -> tensor<8x2048xf32>
    %346 = stablehlo.multiply %344, %345 : tensor<8x2048xf32>
    %347 = stablehlo.dot_general %346, %arg27, contracting_dims = [1] x [1] : (tensor<8x2048xf32>, tensor<2048x2048xf32>) -> tensor<8x2048xf32>
    %348 = stablehlo.reshape %347 : (tensor<8x2048xf32>) -> tensor<8x32x64xf32>
    %349 = stablehlo.dot_general %346, %arg25, contracting_dims = [1] x [1] : (tensor<8x2048xf32>, tensor<512x2048xf32>) -> tensor<8x512xf32>
    %350 = stablehlo.reshape %349 : (tensor<8x512xf32>) -> tensor<8x8x64xf32>
    %351 = stablehlo.dot_general %346, %arg28, contracting_dims = [1] x [1] : (tensor<8x2048xf32>, tensor<512x2048xf32>) -> tensor<8x512xf32>
    %352 = stablehlo.reshape %351 : (tensor<8x512xf32>) -> tensor<8x8x64xf32>
    %353 = stablehlo.broadcast_in_dim %37, dims = [0, 2] : (tensor<8x64xf32>) -> tensor<8x32x64xf32>
    %354 = stablehlo.broadcast_in_dim %38, dims = [0, 2] : (tensor<8x64xf32>) -> tensor<8x32x64xf32>
    %355 = stablehlo.multiply %348, %353 : tensor<8x32x64xf32>
    %356 = stablehlo.slice %348 [0:8, 0:32, 0:32] : (tensor<8x32x64xf32>) -> tensor<8x32x32xf32>
    %357 = stablehlo.slice %348 [0:8, 0:32, 32:64] : (tensor<8x32x64xf32>) -> tensor<8x32x32xf32>
    %358 = stablehlo.negate %357 : tensor<8x32x32xf32>
    %359 = stablehlo.concatenate %358, %356, dim = 2 : (tensor<8x32x32xf32>, tensor<8x32x32xf32>) -> tensor<8x32x64xf32>
    %360 = stablehlo.multiply %359, %354 : tensor<8x32x64xf32>
    %361 = stablehlo.add %355, %360 : tensor<8x32x64xf32>
    %362 = stablehlo.broadcast_in_dim %37, dims = [0, 2] : (tensor<8x64xf32>) -> tensor<8x8x64xf32>
    %363 = stablehlo.broadcast_in_dim %38, dims = [0, 2] : (tensor<8x64xf32>) -> tensor<8x8x64xf32>
    %364 = stablehlo.multiply %350, %362 : tensor<8x8x64xf32>
    %365 = stablehlo.slice %350 [0:8, 0:8, 0:32] : (tensor<8x8x64xf32>) -> tensor<8x8x32xf32>
    %366 = stablehlo.slice %350 [0:8, 0:8, 32:64] : (tensor<8x8x64xf32>) -> tensor<8x8x32xf32>
    %367 = stablehlo.negate %366 : tensor<8x8x32xf32>
    %368 = stablehlo.concatenate %367, %365, dim = 2 : (tensor<8x8x32xf32>, tensor<8x8x32xf32>) -> tensor<8x8x64xf32>
    %369 = stablehlo.multiply %368, %363 : tensor<8x8x64xf32>
    %370 = stablehlo.add %364, %369 : tensor<8x8x64xf32>
    %371 = stablehlo.slice %arg147 [0:1] : (tensor<8xi32>) -> tensor<1xi32>
    %372 = stablehlo.reshape %371 : (tensor<1xi32>) -> tensor<i32>
    %373 = stablehlo.slice %370 [0:1, 0:8, 0:64] : (tensor<8x8x64xf32>) -> tensor<1x8x64xf32>
    %374 = stablehlo.reshape %373 : (tensor<1x8x64xf32>) -> tensor<1x1x1x8x64xf32>
    %375 = stablehlo.dynamic_update_slice %286, %374, %26, %12, %372, %9, %9 : (tensor<8x16x256x8x64xf32>, tensor<1x1x1x8x64xf32>, tensor<i32>, tensor<i32>, tensor<i32>, tensor<i32>, tensor<i32>) -> tensor<8x16x256x8x64xf32>
    %376 = stablehlo.slice %352 [0:1, 0:8, 0:64] : (tensor<8x8x64xf32>) -> tensor<1x8x64xf32>
    %377 = stablehlo.reshape %376 : (tensor<1x8x64xf32>) -> tensor<1x1x1x8x64xf32>
    %378 = stablehlo.dynamic_update_slice %289, %377, %26, %12, %372, %9, %9 : (tensor<8x16x256x8x64xf32>, tensor<1x1x1x8x64xf32>, tensor<i32>, tensor<i32>, tensor<i32>, tensor<i32>, tensor<i32>) -> tensor<8x16x256x8x64xf32>
    %379 = stablehlo.slice %arg147 [1:2] : (tensor<8xi32>) -> tensor<1xi32>
    %380 = stablehlo.reshape %379 : (tensor<1xi32>) -> tensor<i32>
    %381 = stablehlo.slice %370 [1:2, 0:8, 0:64] : (tensor<8x8x64xf32>) -> tensor<1x8x64xf32>
    %382 = stablehlo.reshape %381 : (tensor<1x8x64xf32>) -> tensor<1x1x1x8x64xf32>
    %383 = stablehlo.dynamic_update_slice %375, %382, %27, %12, %380, %9, %9 : (tensor<8x16x256x8x64xf32>, tensor<1x1x1x8x64xf32>, tensor<i32>, tensor<i32>, tensor<i32>, tensor<i32>, tensor<i32>) -> tensor<8x16x256x8x64xf32>
    %384 = stablehlo.slice %352 [1:2, 0:8, 0:64] : (tensor<8x8x64xf32>) -> tensor<1x8x64xf32>
    %385 = stablehlo.reshape %384 : (tensor<1x8x64xf32>) -> tensor<1x1x1x8x64xf32>
    %386 = stablehlo.dynamic_update_slice %378, %385, %27, %12, %380, %9, %9 : (tensor<8x16x256x8x64xf32>, tensor<1x1x1x8x64xf32>, tensor<i32>, tensor<i32>, tensor<i32>, tensor<i32>, tensor<i32>) -> tensor<8x16x256x8x64xf32>
    %387 = stablehlo.slice %arg147 [2:3] : (tensor<8xi32>) -> tensor<1xi32>
    %388 = stablehlo.reshape %387 : (tensor<1xi32>) -> tensor<i32>
    %389 = stablehlo.slice %370 [2:3, 0:8, 0:64] : (tensor<8x8x64xf32>) -> tensor<1x8x64xf32>
    %390 = stablehlo.reshape %389 : (tensor<1x8x64xf32>) -> tensor<1x1x1x8x64xf32>
    %391 = stablehlo.dynamic_update_slice %383, %390, %28, %12, %388, %9, %9 : (tensor<8x16x256x8x64xf32>, tensor<1x1x1x8x64xf32>, tensor<i32>, tensor<i32>, tensor<i32>, tensor<i32>, tensor<i32>) -> tensor<8x16x256x8x64xf32>
    %392 = stablehlo.slice %352 [2:3, 0:8, 0:64] : (tensor<8x8x64xf32>) -> tensor<1x8x64xf32>
    %393 = stablehlo.reshape %392 : (tensor<1x8x64xf32>) -> tensor<1x1x1x8x64xf32>
    %394 = stablehlo.dynamic_update_slice %386, %393, %28, %12, %388, %9, %9 : (tensor<8x16x256x8x64xf32>, tensor<1x1x1x8x64xf32>, tensor<i32>, tensor<i32>, tensor<i32>, tensor<i32>, tensor<i32>) -> tensor<8x16x256x8x64xf32>
    %395 = stablehlo.slice %arg147 [3:4] : (tensor<8xi32>) -> tensor<1xi32>
    %396 = stablehlo.reshape %395 : (tensor<1xi32>) -> tensor<i32>
    %397 = stablehlo.slice %370 [3:4, 0:8, 0:64] : (tensor<8x8x64xf32>) -> tensor<1x8x64xf32>
    %398 = stablehlo.reshape %397 : (tensor<1x8x64xf32>) -> tensor<1x1x1x8x64xf32>
    %399 = stablehlo.dynamic_update_slice %391, %398, %29, %12, %396, %9, %9 : (tensor<8x16x256x8x64xf32>, tensor<1x1x1x8x64xf32>, tensor<i32>, tensor<i32>, tensor<i32>, tensor<i32>, tensor<i32>) -> tensor<8x16x256x8x64xf32>
    %400 = stablehlo.slice %352 [3:4, 0:8, 0:64] : (tensor<8x8x64xf32>) -> tensor<1x8x64xf32>
    %401 = stablehlo.reshape %400 : (tensor<1x8x64xf32>) -> tensor<1x1x1x8x64xf32>
    %402 = stablehlo.dynamic_update_slice %394, %401, %29, %12, %396, %9, %9 : (tensor<8x16x256x8x64xf32>, tensor<1x1x1x8x64xf32>, tensor<i32>, tensor<i32>, tensor<i32>, tensor<i32>, tensor<i32>) -> tensor<8x16x256x8x64xf32>
    %403 = stablehlo.slice %arg147 [4:5] : (tensor<8xi32>) -> tensor<1xi32>
    %404 = stablehlo.reshape %403 : (tensor<1xi32>) -> tensor<i32>
    %405 = stablehlo.slice %370 [4:5, 0:8, 0:64] : (tensor<8x8x64xf32>) -> tensor<1x8x64xf32>
    %406 = stablehlo.reshape %405 : (tensor<1x8x64xf32>) -> tensor<1x1x1x8x64xf32>
    %407 = stablehlo.dynamic_update_slice %399, %406, %30, %12, %404, %9, %9 : (tensor<8x16x256x8x64xf32>, tensor<1x1x1x8x64xf32>, tensor<i32>, tensor<i32>, tensor<i32>, tensor<i32>, tensor<i32>) -> tensor<8x16x256x8x64xf32>
    %408 = stablehlo.slice %352 [4:5, 0:8, 0:64] : (tensor<8x8x64xf32>) -> tensor<1x8x64xf32>
    %409 = stablehlo.reshape %408 : (tensor<1x8x64xf32>) -> tensor<1x1x1x8x64xf32>
    %410 = stablehlo.dynamic_update_slice %402, %409, %30, %12, %404, %9, %9 : (tensor<8x16x256x8x64xf32>, tensor<1x1x1x8x64xf32>, tensor<i32>, tensor<i32>, tensor<i32>, tensor<i32>, tensor<i32>) -> tensor<8x16x256x8x64xf32>
    %411 = stablehlo.slice %arg147 [5:6] : (tensor<8xi32>) -> tensor<1xi32>
    %412 = stablehlo.reshape %411 : (tensor<1xi32>) -> tensor<i32>
    %413 = stablehlo.slice %370 [5:6, 0:8, 0:64] : (tensor<8x8x64xf32>) -> tensor<1x8x64xf32>
    %414 = stablehlo.reshape %413 : (tensor<1x8x64xf32>) -> tensor<1x1x1x8x64xf32>
    %415 = stablehlo.dynamic_update_slice %407, %414, %31, %12, %412, %9, %9 : (tensor<8x16x256x8x64xf32>, tensor<1x1x1x8x64xf32>, tensor<i32>, tensor<i32>, tensor<i32>, tensor<i32>, tensor<i32>) -> tensor<8x16x256x8x64xf32>
    %416 = stablehlo.slice %352 [5:6, 0:8, 0:64] : (tensor<8x8x64xf32>) -> tensor<1x8x64xf32>
    %417 = stablehlo.reshape %416 : (tensor<1x8x64xf32>) -> tensor<1x1x1x8x64xf32>
    %418 = stablehlo.dynamic_update_slice %410, %417, %31, %12, %412, %9, %9 : (tensor<8x16x256x8x64xf32>, tensor<1x1x1x8x64xf32>, tensor<i32>, tensor<i32>, tensor<i32>, tensor<i32>, tensor<i32>) -> tensor<8x16x256x8x64xf32>
    %419 = stablehlo.slice %arg147 [6:7] : (tensor<8xi32>) -> tensor<1xi32>
    %420 = stablehlo.reshape %419 : (tensor<1xi32>) -> tensor<i32>
    %421 = stablehlo.slice %370 [6:7, 0:8, 0:64] : (tensor<8x8x64xf32>) -> tensor<1x8x64xf32>
    %422 = stablehlo.reshape %421 : (tensor<1x8x64xf32>) -> tensor<1x1x1x8x64xf32>
    %423 = stablehlo.dynamic_update_slice %415, %422, %32, %12, %420, %9, %9 : (tensor<8x16x256x8x64xf32>, tensor<1x1x1x8x64xf32>, tensor<i32>, tensor<i32>, tensor<i32>, tensor<i32>, tensor<i32>) -> tensor<8x16x256x8x64xf32>
    %424 = stablehlo.slice %352 [6:7, 0:8, 0:64] : (tensor<8x8x64xf32>) -> tensor<1x8x64xf32>
    %425 = stablehlo.reshape %424 : (tensor<1x8x64xf32>) -> tensor<1x1x1x8x64xf32>
    %426 = stablehlo.dynamic_update_slice %418, %425, %32, %12, %420, %9, %9 : (tensor<8x16x256x8x64xf32>, tensor<1x1x1x8x64xf32>, tensor<i32>, tensor<i32>, tensor<i32>, tensor<i32>, tensor<i32>) -> tensor<8x16x256x8x64xf32>
    %427 = stablehlo.slice %arg147 [7:8] : (tensor<8xi32>) -> tensor<1xi32>
    %428 = stablehlo.reshape %427 : (tensor<1xi32>) -> tensor<i32>
    %429 = stablehlo.slice %370 [7:8, 0:8, 0:64] : (tensor<8x8x64xf32>) -> tensor<1x8x64xf32>
    %430 = stablehlo.reshape %429 : (tensor<1x8x64xf32>) -> tensor<1x1x1x8x64xf32>
    %431 = stablehlo.dynamic_update_slice %423, %430, %33, %12, %428, %9, %9 : (tensor<8x16x256x8x64xf32>, tensor<1x1x1x8x64xf32>, tensor<i32>, tensor<i32>, tensor<i32>, tensor<i32>, tensor<i32>) -> tensor<8x16x256x8x64xf32>
    %432 = stablehlo.slice %352 [7:8, 0:8, 0:64] : (tensor<8x8x64xf32>) -> tensor<1x8x64xf32>
    %433 = stablehlo.reshape %432 : (tensor<1x8x64xf32>) -> tensor<1x1x1x8x64xf32>
    %434 = stablehlo.dynamic_update_slice %426, %433, %33, %12, %428, %9, %9 : (tensor<8x16x256x8x64xf32>, tensor<1x1x1x8x64xf32>, tensor<i32>, tensor<i32>, tensor<i32>, tensor<i32>, tensor<i32>) -> tensor<8x16x256x8x64xf32>
    %435 = stablehlo.slice %431 [0:8, 2:3, 0:256, 0:8, 0:64] : (tensor<8x16x256x8x64xf32>) -> tensor<8x1x256x8x64xf32>
    %436 = stablehlo.reshape %435 : (tensor<8x1x256x8x64xf32>) -> tensor<8x256x8x64xf32>
    %437 = stablehlo.slice %434 [0:8, 2:3, 0:256, 0:8, 0:64] : (tensor<8x16x256x8x64xf32>) -> tensor<8x1x256x8x64xf32>
    %438 = stablehlo.reshape %437 : (tensor<8x1x256x8x64xf32>) -> tensor<8x256x8x64xf32>
    %439 = stablehlo.reshape %361 : (tensor<8x32x64xf32>) -> tensor<8x8x4x64xf32>
    %440 = stablehlo.dot_general %439, %436, batching_dims = [0, 1] x [0, 2], contracting_dims = [3] x [3] : (tensor<8x8x4x64xf32>, tensor<8x256x8x64xf32>) -> tensor<8x8x4x256xf32>
    %441 = stablehlo.reshape %440 : (tensor<8x8x4x256xf32>) -> tensor<8x32x256xf32>
    %442 = stablehlo.broadcast_in_dim %8, dims = [] : (tensor<f32>) -> tensor<8x32x256xf32>
    %443 = stablehlo.multiply %441, %442 : tensor<8x32x256xf32>
    %444 = stablehlo.broadcast_in_dim %45, dims = [0, 2] : (tensor<8x256xf32>) -> tensor<8x32x256xf32>
    %445 = stablehlo.add %443, %444 : tensor<8x32x256xf32>
    %446 = stablehlo.reduce(%445 init: %4) applies stablehlo.maximum across dimensions = [2] : (tensor<8x32x256xf32>, tensor<f32>) -> tensor<8x32xf32>
    %447 = stablehlo.broadcast_in_dim %446, dims = [0, 1] : (tensor<8x32xf32>) -> tensor<8x32x256xf32>
    %448 = stablehlo.subtract %445, %447 : tensor<8x32x256xf32>
    %449 = stablehlo.exponential %448 : tensor<8x32x256xf32>
    %450 = stablehlo.reduce(%449 init: %2) applies stablehlo.add across dimensions = [2] : (tensor<8x32x256xf32>, tensor<f32>) -> tensor<8x32xf32>
    %451 = stablehlo.broadcast_in_dim %450, dims = [0, 1] : (tensor<8x32xf32>) -> tensor<8x32x256xf32>
    %452 = stablehlo.divide %449, %451 : tensor<8x32x256xf32>
    %453 = stablehlo.reshape %452 : (tensor<8x32x256xf32>) -> tensor<8x8x4x256xf32>
    %454 = stablehlo.dot_general %453, %438, batching_dims = [0, 1] x [0, 2], contracting_dims = [3] x [1] : (tensor<8x8x4x256xf32>, tensor<8x256x8x64xf32>) -> tensor<8x8x4x64xf32>
    %455 = stablehlo.reshape %454 : (tensor<8x8x4x64xf32>) -> tensor<8x32x64xf32>
    %456 = stablehlo.reshape %455 : (tensor<8x32x64xf32>) -> tensor<8x2048xf32>
    %457 = stablehlo.dot_general %456, %arg26, contracting_dims = [1] x [1] : (tensor<8x2048xf32>, tensor<2048x2048xf32>) -> tensor<8x2048xf32>
    %458 = stablehlo.add %335, %457 : tensor<8x2048xf32>
    %459 = stablehlo.multiply %458, %458 : tensor<8x2048xf32>
    %460 = stablehlo.reduce(%459 init: %2) applies stablehlo.add across dimensions = [1] : (tensor<8x2048xf32>, tensor<f32>) -> tensor<8xf32>
    %461 = stablehlo.broadcast_in_dim %7, dims = [] : (tensor<f32>) -> tensor<8xf32>
    %462 = stablehlo.divide %460, %461 : tensor<8xf32>
    %463 = stablehlo.broadcast_in_dim %6, dims = [] : (tensor<f32>) -> tensor<8xf32>
    %464 = stablehlo.add %462, %463 : tensor<8xf32>
    %465 = stablehlo.rsqrt %464 : tensor<8xf32>
    %466 = stablehlo.broadcast_in_dim %465, dims = [0] : (tensor<8xf32>) -> tensor<8x2048xf32>
    %467 = stablehlo.multiply %458, %466 : tensor<8x2048xf32>
    %468 = stablehlo.broadcast_in_dim %arg23, dims = [1] : (tensor<2048xf32>) -> tensor<8x2048xf32>
    %469 = stablehlo.multiply %467, %468 : tensor<8x2048xf32>
    %470 = stablehlo.dot_general %469, %arg21, contracting_dims = [1] x [1] : (tensor<8x2048xf32>, tensor<8192x2048xf32>) -> tensor<8x8192xf32>
    %471 = stablehlo.dot_general %469, %arg24, contracting_dims = [1] x [1] : (tensor<8x2048xf32>, tensor<8192x2048xf32>) -> tensor<8x8192xf32>
    %472 = stablehlo.negate %470 : tensor<8x8192xf32>
    %473 = stablehlo.exponential %472 : tensor<8x8192xf32>
    %474 = stablehlo.broadcast_in_dim %3, dims = [] : (tensor<f32>) -> tensor<8x8192xf32>
    %475 = stablehlo.add %474, %473 : tensor<8x8192xf32>
    %476 = stablehlo.divide %474, %475 : tensor<8x8192xf32>
    %477 = stablehlo.multiply %470, %476 : tensor<8x8192xf32>
    %478 = stablehlo.multiply %477, %471 : tensor<8x8192xf32>
    %479 = stablehlo.dot_general %478, %arg20, contracting_dims = [1] x [1] : (tensor<8x8192xf32>, tensor<2048x8192xf32>) -> tensor<8x2048xf32>
    %480 = stablehlo.add %458, %479 : tensor<8x2048xf32>
    %481 = stablehlo.multiply %480, %480 : tensor<8x2048xf32>
    %482 = stablehlo.reduce(%481 init: %2) applies stablehlo.add across dimensions = [1] : (tensor<8x2048xf32>, tensor<f32>) -> tensor<8xf32>
    %483 = stablehlo.broadcast_in_dim %7, dims = [] : (tensor<f32>) -> tensor<8xf32>
    %484 = stablehlo.divide %482, %483 : tensor<8xf32>
    %485 = stablehlo.broadcast_in_dim %6, dims = [] : (tensor<f32>) -> tensor<8xf32>
    %486 = stablehlo.add %484, %485 : tensor<8xf32>
    %487 = stablehlo.rsqrt %486 : tensor<8xf32>
    %488 = stablehlo.broadcast_in_dim %487, dims = [0] : (tensor<8xf32>) -> tensor<8x2048xf32>
    %489 = stablehlo.multiply %480, %488 : tensor<8x2048xf32>
    %490 = stablehlo.broadcast_in_dim %arg31, dims = [1] : (tensor<2048xf32>) -> tensor<8x2048xf32>
    %491 = stablehlo.multiply %489, %490 : tensor<8x2048xf32>
    %492 = stablehlo.dot_general %491, %arg36, contracting_dims = [1] x [1] : (tensor<8x2048xf32>, tensor<2048x2048xf32>) -> tensor<8x2048xf32>
    %493 = stablehlo.reshape %492 : (tensor<8x2048xf32>) -> tensor<8x32x64xf32>
    %494 = stablehlo.dot_general %491, %arg34, contracting_dims = [1] x [1] : (tensor<8x2048xf32>, tensor<512x2048xf32>) -> tensor<8x512xf32>
    %495 = stablehlo.reshape %494 : (tensor<8x512xf32>) -> tensor<8x8x64xf32>
    %496 = stablehlo.dot_general %491, %arg37, contracting_dims = [1] x [1] : (tensor<8x2048xf32>, tensor<512x2048xf32>) -> tensor<8x512xf32>
    %497 = stablehlo.reshape %496 : (tensor<8x512xf32>) -> tensor<8x8x64xf32>
    %498 = stablehlo.broadcast_in_dim %37, dims = [0, 2] : (tensor<8x64xf32>) -> tensor<8x32x64xf32>
    %499 = stablehlo.broadcast_in_dim %38, dims = [0, 2] : (tensor<8x64xf32>) -> tensor<8x32x64xf32>
    %500 = stablehlo.multiply %493, %498 : tensor<8x32x64xf32>
    %501 = stablehlo.slice %493 [0:8, 0:32, 0:32] : (tensor<8x32x64xf32>) -> tensor<8x32x32xf32>
    %502 = stablehlo.slice %493 [0:8, 0:32, 32:64] : (tensor<8x32x64xf32>) -> tensor<8x32x32xf32>
    %503 = stablehlo.negate %502 : tensor<8x32x32xf32>
    %504 = stablehlo.concatenate %503, %501, dim = 2 : (tensor<8x32x32xf32>, tensor<8x32x32xf32>) -> tensor<8x32x64xf32>
    %505 = stablehlo.multiply %504, %499 : tensor<8x32x64xf32>
    %506 = stablehlo.add %500, %505 : tensor<8x32x64xf32>
    %507 = stablehlo.broadcast_in_dim %37, dims = [0, 2] : (tensor<8x64xf32>) -> tensor<8x8x64xf32>
    %508 = stablehlo.broadcast_in_dim %38, dims = [0, 2] : (tensor<8x64xf32>) -> tensor<8x8x64xf32>
    %509 = stablehlo.multiply %495, %507 : tensor<8x8x64xf32>
    %510 = stablehlo.slice %495 [0:8, 0:8, 0:32] : (tensor<8x8x64xf32>) -> tensor<8x8x32xf32>
    %511 = stablehlo.slice %495 [0:8, 0:8, 32:64] : (tensor<8x8x64xf32>) -> tensor<8x8x32xf32>
    %512 = stablehlo.negate %511 : tensor<8x8x32xf32>
    %513 = stablehlo.concatenate %512, %510, dim = 2 : (tensor<8x8x32xf32>, tensor<8x8x32xf32>) -> tensor<8x8x64xf32>
    %514 = stablehlo.multiply %513, %508 : tensor<8x8x64xf32>
    %515 = stablehlo.add %509, %514 : tensor<8x8x64xf32>
    %516 = stablehlo.slice %arg147 [0:1] : (tensor<8xi32>) -> tensor<1xi32>
    %517 = stablehlo.reshape %516 : (tensor<1xi32>) -> tensor<i32>
    %518 = stablehlo.slice %515 [0:1, 0:8, 0:64] : (tensor<8x8x64xf32>) -> tensor<1x8x64xf32>
    %519 = stablehlo.reshape %518 : (tensor<1x8x64xf32>) -> tensor<1x1x1x8x64xf32>
    %520 = stablehlo.dynamic_update_slice %431, %519, %26, %13, %517, %9, %9 : (tensor<8x16x256x8x64xf32>, tensor<1x1x1x8x64xf32>, tensor<i32>, tensor<i32>, tensor<i32>, tensor<i32>, tensor<i32>) -> tensor<8x16x256x8x64xf32>
    %521 = stablehlo.slice %497 [0:1, 0:8, 0:64] : (tensor<8x8x64xf32>) -> tensor<1x8x64xf32>
    %522 = stablehlo.reshape %521 : (tensor<1x8x64xf32>) -> tensor<1x1x1x8x64xf32>
    %523 = stablehlo.dynamic_update_slice %434, %522, %26, %13, %517, %9, %9 : (tensor<8x16x256x8x64xf32>, tensor<1x1x1x8x64xf32>, tensor<i32>, tensor<i32>, tensor<i32>, tensor<i32>, tensor<i32>) -> tensor<8x16x256x8x64xf32>
    %524 = stablehlo.slice %arg147 [1:2] : (tensor<8xi32>) -> tensor<1xi32>
    %525 = stablehlo.reshape %524 : (tensor<1xi32>) -> tensor<i32>
    %526 = stablehlo.slice %515 [1:2, 0:8, 0:64] : (tensor<8x8x64xf32>) -> tensor<1x8x64xf32>
    %527 = stablehlo.reshape %526 : (tensor<1x8x64xf32>) -> tensor<1x1x1x8x64xf32>
    %528 = stablehlo.dynamic_update_slice %520, %527, %27, %13, %525, %9, %9 : (tensor<8x16x256x8x64xf32>, tensor<1x1x1x8x64xf32>, tensor<i32>, tensor<i32>, tensor<i32>, tensor<i32>, tensor<i32>) -> tensor<8x16x256x8x64xf32>
    %529 = stablehlo.slice %497 [1:2, 0:8, 0:64] : (tensor<8x8x64xf32>) -> tensor<1x8x64xf32>
    %530 = stablehlo.reshape %529 : (tensor<1x8x64xf32>) -> tensor<1x1x1x8x64xf32>
    %531 = stablehlo.dynamic_update_slice %523, %530, %27, %13, %525, %9, %9 : (tensor<8x16x256x8x64xf32>, tensor<1x1x1x8x64xf32>, tensor<i32>, tensor<i32>, tensor<i32>, tensor<i32>, tensor<i32>) -> tensor<8x16x256x8x64xf32>
    %532 = stablehlo.slice %arg147 [2:3] : (tensor<8xi32>) -> tensor<1xi32>
    %533 = stablehlo.reshape %532 : (tensor<1xi32>) -> tensor<i32>
    %534 = stablehlo.slice %515 [2:3, 0:8, 0:64] : (tensor<8x8x64xf32>) -> tensor<1x8x64xf32>
    %535 = stablehlo.reshape %534 : (tensor<1x8x64xf32>) -> tensor<1x1x1x8x64xf32>
    %536 = stablehlo.dynamic_update_slice %528, %535, %28, %13, %533, %9, %9 : (tensor<8x16x256x8x64xf32>, tensor<1x1x1x8x64xf32>, tensor<i32>, tensor<i32>, tensor<i32>, tensor<i32>, tensor<i32>) -> tensor<8x16x256x8x64xf32>
    %537 = stablehlo.slice %497 [2:3, 0:8, 0:64] : (tensor<8x8x64xf32>) -> tensor<1x8x64xf32>
    %538 = stablehlo.reshape %537 : (tensor<1x8x64xf32>) -> tensor<1x1x1x8x64xf32>
    %539 = stablehlo.dynamic_update_slice %531, %538, %28, %13, %533, %9, %9 : (tensor<8x16x256x8x64xf32>, tensor<1x1x1x8x64xf32>, tensor<i32>, tensor<i32>, tensor<i32>, tensor<i32>, tensor<i32>) -> tensor<8x16x256x8x64xf32>
    %540 = stablehlo.slice %arg147 [3:4] : (tensor<8xi32>) -> tensor<1xi32>
    %541 = stablehlo.reshape %540 : (tensor<1xi32>) -> tensor<i32>
    %542 = stablehlo.slice %515 [3:4, 0:8, 0:64] : (tensor<8x8x64xf32>) -> tensor<1x8x64xf32>
    %543 = stablehlo.reshape %542 : (tensor<1x8x64xf32>) -> tensor<1x1x1x8x64xf32>
    %544 = stablehlo.dynamic_update_slice %536, %543, %29, %13, %541, %9, %9 : (tensor<8x16x256x8x64xf32>, tensor<1x1x1x8x64xf32>, tensor<i32>, tensor<i32>, tensor<i32>, tensor<i32>, tensor<i32>) -> tensor<8x16x256x8x64xf32>
    %545 = stablehlo.slice %497 [3:4, 0:8, 0:64] : (tensor<8x8x64xf32>) -> tensor<1x8x64xf32>
    %546 = stablehlo.reshape %545 : (tensor<1x8x64xf32>) -> tensor<1x1x1x8x64xf32>
    %547 = stablehlo.dynamic_update_slice %539, %546, %29, %13, %541, %9, %9 : (tensor<8x16x256x8x64xf32>, tensor<1x1x1x8x64xf32>, tensor<i32>, tensor<i32>, tensor<i32>, tensor<i32>, tensor<i32>) -> tensor<8x16x256x8x64xf32>
    %548 = stablehlo.slice %arg147 [4:5] : (tensor<8xi32>) -> tensor<1xi32>
    %549 = stablehlo.reshape %548 : (tensor<1xi32>) -> tensor<i32>
    %550 = stablehlo.slice %515 [4:5, 0:8, 0:64] : (tensor<8x8x64xf32>) -> tensor<1x8x64xf32>
    %551 = stablehlo.reshape %550 : (tensor<1x8x64xf32>) -> tensor<1x1x1x8x64xf32>
    %552 = stablehlo.dynamic_update_slice %544, %551, %30, %13, %549, %9, %9 : (tensor<8x16x256x8x64xf32>, tensor<1x1x1x8x64xf32>, tensor<i32>, tensor<i32>, tensor<i32>, tensor<i32>, tensor<i32>) -> tensor<8x16x256x8x64xf32>
    %553 = stablehlo.slice %497 [4:5, 0:8, 0:64] : (tensor<8x8x64xf32>) -> tensor<1x8x64xf32>
    %554 = stablehlo.reshape %553 : (tensor<1x8x64xf32>) -> tensor<1x1x1x8x64xf32>
    %555 = stablehlo.dynamic_update_slice %547, %554, %30, %13, %549, %9, %9 : (tensor<8x16x256x8x64xf32>, tensor<1x1x1x8x64xf32>, tensor<i32>, tensor<i32>, tensor<i32>, tensor<i32>, tensor<i32>) -> tensor<8x16x256x8x64xf32>
    %556 = stablehlo.slice %arg147 [5:6] : (tensor<8xi32>) -> tensor<1xi32>
    %557 = stablehlo.reshape %556 : (tensor<1xi32>) -> tensor<i32>
    %558 = stablehlo.slice %515 [5:6, 0:8, 0:64] : (tensor<8x8x64xf32>) -> tensor<1x8x64xf32>
    %559 = stablehlo.reshape %558 : (tensor<1x8x64xf32>) -> tensor<1x1x1x8x64xf32>
    %560 = stablehlo.dynamic_update_slice %552, %559, %31, %13, %557, %9, %9 : (tensor<8x16x256x8x64xf32>, tensor<1x1x1x8x64xf32>, tensor<i32>, tensor<i32>, tensor<i32>, tensor<i32>, tensor<i32>) -> tensor<8x16x256x8x64xf32>
    %561 = stablehlo.slice %497 [5:6, 0:8, 0:64] : (tensor<8x8x64xf32>) -> tensor<1x8x64xf32>
    %562 = stablehlo.reshape %561 : (tensor<1x8x64xf32>) -> tensor<1x1x1x8x64xf32>
    %563 = stablehlo.dynamic_update_slice %555, %562, %31, %13, %557, %9, %9 : (tensor<8x16x256x8x64xf32>, tensor<1x1x1x8x64xf32>, tensor<i32>, tensor<i32>, tensor<i32>, tensor<i32>, tensor<i32>) -> tensor<8x16x256x8x64xf32>
    %564 = stablehlo.slice %arg147 [6:7] : (tensor<8xi32>) -> tensor<1xi32>
    %565 = stablehlo.reshape %564 : (tensor<1xi32>) -> tensor<i32>
    %566 = stablehlo.slice %515 [6:7, 0:8, 0:64] : (tensor<8x8x64xf32>) -> tensor<1x8x64xf32>
    %567 = stablehlo.reshape %566 : (tensor<1x8x64xf32>) -> tensor<1x1x1x8x64xf32>
    %568 = stablehlo.dynamic_update_slice %560, %567, %32, %13, %565, %9, %9 : (tensor<8x16x256x8x64xf32>, tensor<1x1x1x8x64xf32>, tensor<i32>, tensor<i32>, tensor<i32>, tensor<i32>, tensor<i32>) -> tensor<8x16x256x8x64xf32>
    %569 = stablehlo.slice %497 [6:7, 0:8, 0:64] : (tensor<8x8x64xf32>) -> tensor<1x8x64xf32>
    %570 = stablehlo.reshape %569 : (tensor<1x8x64xf32>) -> tensor<1x1x1x8x64xf32>
    %571 = stablehlo.dynamic_update_slice %563, %570, %32, %13, %565, %9, %9 : (tensor<8x16x256x8x64xf32>, tensor<1x1x1x8x64xf32>, tensor<i32>, tensor<i32>, tensor<i32>, tensor<i32>, tensor<i32>) -> tensor<8x16x256x8x64xf32>
    %572 = stablehlo.slice %arg147 [7:8] : (tensor<8xi32>) -> tensor<1xi32>
    %573 = stablehlo.reshape %572 : (tensor<1xi32>) -> tensor<i32>
    %574 = stablehlo.slice %515 [7:8, 0:8, 0:64] : (tensor<8x8x64xf32>) -> tensor<1x8x64xf32>
    %575 = stablehlo.reshape %574 : (tensor<1x8x64xf32>) -> tensor<1x1x1x8x64xf32>
    %576 = stablehlo.dynamic_update_slice %568, %575, %33, %13, %573, %9, %9 : (tensor<8x16x256x8x64xf32>, tensor<1x1x1x8x64xf32>, tensor<i32>, tensor<i32>, tensor<i32>, tensor<i32>, tensor<i32>) -> tensor<8x16x256x8x64xf32>
    %577 = stablehlo.slice %497 [7:8, 0:8, 0:64] : (tensor<8x8x64xf32>) -> tensor<1x8x64xf32>
    %578 = stablehlo.reshape %577 : (tensor<1x8x64xf32>) -> tensor<1x1x1x8x64xf32>
    %579 = stablehlo.dynamic_update_slice %571, %578, %33, %13, %573, %9, %9 : (tensor<8x16x256x8x64xf32>, tensor<1x1x1x8x64xf32>, tensor<i32>, tensor<i32>, tensor<i32>, tensor<i32>, tensor<i32>) -> tensor<8x16x256x8x64xf32>
    %580 = stablehlo.slice %576 [0:8, 3:4, 0:256, 0:8, 0:64] : (tensor<8x16x256x8x64xf32>) -> tensor<8x1x256x8x64xf32>
    %581 = stablehlo.reshape %580 : (tensor<8x1x256x8x64xf32>) -> tensor<8x256x8x64xf32>
    %582 = stablehlo.slice %579 [0:8, 3:4, 0:256, 0:8, 0:64] : (tensor<8x16x256x8x64xf32>) -> tensor<8x1x256x8x64xf32>
    %583 = stablehlo.reshape %582 : (tensor<8x1x256x8x64xf32>) -> tensor<8x256x8x64xf32>
    %584 = stablehlo.reshape %506 : (tensor<8x32x64xf32>) -> tensor<8x8x4x64xf32>
    %585 = stablehlo.dot_general %584, %581, batching_dims = [0, 1] x [0, 2], contracting_dims = [3] x [3] : (tensor<8x8x4x64xf32>, tensor<8x256x8x64xf32>) -> tensor<8x8x4x256xf32>
    %586 = stablehlo.reshape %585 : (tensor<8x8x4x256xf32>) -> tensor<8x32x256xf32>
    %587 = stablehlo.broadcast_in_dim %8, dims = [] : (tensor<f32>) -> tensor<8x32x256xf32>
    %588 = stablehlo.multiply %586, %587 : tensor<8x32x256xf32>
    %589 = stablehlo.broadcast_in_dim %45, dims = [0, 2] : (tensor<8x256xf32>) -> tensor<8x32x256xf32>
    %590 = stablehlo.add %588, %589 : tensor<8x32x256xf32>
    %591 = stablehlo.reduce(%590 init: %4) applies stablehlo.maximum across dimensions = [2] : (tensor<8x32x256xf32>, tensor<f32>) -> tensor<8x32xf32>
    %592 = stablehlo.broadcast_in_dim %591, dims = [0, 1] : (tensor<8x32xf32>) -> tensor<8x32x256xf32>
    %593 = stablehlo.subtract %590, %592 : tensor<8x32x256xf32>
    %594 = stablehlo.exponential %593 : tensor<8x32x256xf32>
    %595 = stablehlo.reduce(%594 init: %2) applies stablehlo.add across dimensions = [2] : (tensor<8x32x256xf32>, tensor<f32>) -> tensor<8x32xf32>
    %596 = stablehlo.broadcast_in_dim %595, dims = [0, 1] : (tensor<8x32xf32>) -> tensor<8x32x256xf32>
    %597 = stablehlo.divide %594, %596 : tensor<8x32x256xf32>
    %598 = stablehlo.reshape %597 : (tensor<8x32x256xf32>) -> tensor<8x8x4x256xf32>
    %599 = stablehlo.dot_general %598, %583, batching_dims = [0, 1] x [0, 2], contracting_dims = [3] x [1] : (tensor<8x8x4x256xf32>, tensor<8x256x8x64xf32>) -> tensor<8x8x4x64xf32>
    %600 = stablehlo.reshape %599 : (tensor<8x8x4x64xf32>) -> tensor<8x32x64xf32>
    %601 = stablehlo.reshape %600 : (tensor<8x32x64xf32>) -> tensor<8x2048xf32>
    %602 = stablehlo.dot_general %601, %arg35, contracting_dims = [1] x [1] : (tensor<8x2048xf32>, tensor<2048x2048xf32>) -> tensor<8x2048xf32>
    %603 = stablehlo.add %480, %602 : tensor<8x2048xf32>
    %604 = stablehlo.multiply %603, %603 : tensor<8x2048xf32>
    %605 = stablehlo.reduce(%604 init: %2) applies stablehlo.add across dimensions = [1] : (tensor<8x2048xf32>, tensor<f32>) -> tensor<8xf32>
    %606 = stablehlo.broadcast_in_dim %7, dims = [] : (tensor<f32>) -> tensor<8xf32>
    %607 = stablehlo.divide %605, %606 : tensor<8xf32>
    %608 = stablehlo.broadcast_in_dim %6, dims = [] : (tensor<f32>) -> tensor<8xf32>
    %609 = stablehlo.add %607, %608 : tensor<8xf32>
    %610 = stablehlo.rsqrt %609 : tensor<8xf32>
    %611 = stablehlo.broadcast_in_dim %610, dims = [0] : (tensor<8xf32>) -> tensor<8x2048xf32>
    %612 = stablehlo.multiply %603, %611 : tensor<8x2048xf32>
    %613 = stablehlo.broadcast_in_dim %arg32, dims = [1] : (tensor<2048xf32>) -> tensor<8x2048xf32>
    %614 = stablehlo.multiply %612, %613 : tensor<8x2048xf32>
    %615 = stablehlo.dot_general %614, %arg30, contracting_dims = [1] x [1] : (tensor<8x2048xf32>, tensor<8192x2048xf32>) -> tensor<8x8192xf32>
    %616 = stablehlo.dot_general %614, %arg33, contracting_dims = [1] x [1] : (tensor<8x2048xf32>, tensor<8192x2048xf32>) -> tensor<8x8192xf32>
    %617 = stablehlo.negate %615 : tensor<8x8192xf32>
    %618 = stablehlo.exponential %617 : tensor<8x8192xf32>
    %619 = stablehlo.broadcast_in_dim %3, dims = [] : (tensor<f32>) -> tensor<8x8192xf32>
    %620 = stablehlo.add %619, %618 : tensor<8x8192xf32>
    %621 = stablehlo.divide %619, %620 : tensor<8x8192xf32>
    %622 = stablehlo.multiply %615, %621 : tensor<8x8192xf32>
    %623 = stablehlo.multiply %622, %616 : tensor<8x8192xf32>
    %624 = stablehlo.dot_general %623, %arg29, contracting_dims = [1] x [1] : (tensor<8x8192xf32>, tensor<2048x8192xf32>) -> tensor<8x2048xf32>
    %625 = stablehlo.add %603, %624 : tensor<8x2048xf32>
    %626 = stablehlo.multiply %625, %625 : tensor<8x2048xf32>
    %627 = stablehlo.reduce(%626 init: %2) applies stablehlo.add across dimensions = [1] : (tensor<8x2048xf32>, tensor<f32>) -> tensor<8xf32>
    %628 = stablehlo.broadcast_in_dim %7, dims = [] : (tensor<f32>) -> tensor<8xf32>
    %629 = stablehlo.divide %627, %628 : tensor<8xf32>
    %630 = stablehlo.broadcast_in_dim %6, dims = [] : (tensor<f32>) -> tensor<8xf32>
    %631 = stablehlo.add %629, %630 : tensor<8xf32>
    %632 = stablehlo.rsqrt %631 : tensor<8xf32>
    %633 = stablehlo.broadcast_in_dim %632, dims = [0] : (tensor<8xf32>) -> tensor<8x2048xf32>
    %634 = stablehlo.multiply %625, %633 : tensor<8x2048xf32>
    %635 = stablehlo.broadcast_in_dim %arg40, dims = [1] : (tensor<2048xf32>) -> tensor<8x2048xf32>
    %636 = stablehlo.multiply %634, %635 : tensor<8x2048xf32>
    %637 = stablehlo.dot_general %636, %arg45, contracting_dims = [1] x [1] : (tensor<8x2048xf32>, tensor<2048x2048xf32>) -> tensor<8x2048xf32>
    %638 = stablehlo.reshape %637 : (tensor<8x2048xf32>) -> tensor<8x32x64xf32>
    %639 = stablehlo.dot_general %636, %arg43, contracting_dims = [1] x [1] : (tensor<8x2048xf32>, tensor<512x2048xf32>) -> tensor<8x512xf32>
    %640 = stablehlo.reshape %639 : (tensor<8x512xf32>) -> tensor<8x8x64xf32>
    %641 = stablehlo.dot_general %636, %arg46, contracting_dims = [1] x [1] : (tensor<8x2048xf32>, tensor<512x2048xf32>) -> tensor<8x512xf32>
    %642 = stablehlo.reshape %641 : (tensor<8x512xf32>) -> tensor<8x8x64xf32>
    %643 = stablehlo.broadcast_in_dim %37, dims = [0, 2] : (tensor<8x64xf32>) -> tensor<8x32x64xf32>
    %644 = stablehlo.broadcast_in_dim %38, dims = [0, 2] : (tensor<8x64xf32>) -> tensor<8x32x64xf32>
    %645 = stablehlo.multiply %638, %643 : tensor<8x32x64xf32>
    %646 = stablehlo.slice %638 [0:8, 0:32, 0:32] : (tensor<8x32x64xf32>) -> tensor<8x32x32xf32>
    %647 = stablehlo.slice %638 [0:8, 0:32, 32:64] : (tensor<8x32x64xf32>) -> tensor<8x32x32xf32>
    %648 = stablehlo.negate %647 : tensor<8x32x32xf32>
    %649 = stablehlo.concatenate %648, %646, dim = 2 : (tensor<8x32x32xf32>, tensor<8x32x32xf32>) -> tensor<8x32x64xf32>
    %650 = stablehlo.multiply %649, %644 : tensor<8x32x64xf32>
    %651 = stablehlo.add %645, %650 : tensor<8x32x64xf32>
    %652 = stablehlo.broadcast_in_dim %37, dims = [0, 2] : (tensor<8x64xf32>) -> tensor<8x8x64xf32>
    %653 = stablehlo.broadcast_in_dim %38, dims = [0, 2] : (tensor<8x64xf32>) -> tensor<8x8x64xf32>
    %654 = stablehlo.multiply %640, %652 : tensor<8x8x64xf32>
    %655 = stablehlo.slice %640 [0:8, 0:8, 0:32] : (tensor<8x8x64xf32>) -> tensor<8x8x32xf32>
    %656 = stablehlo.slice %640 [0:8, 0:8, 32:64] : (tensor<8x8x64xf32>) -> tensor<8x8x32xf32>
    %657 = stablehlo.negate %656 : tensor<8x8x32xf32>
    %658 = stablehlo.concatenate %657, %655, dim = 2 : (tensor<8x8x32xf32>, tensor<8x8x32xf32>) -> tensor<8x8x64xf32>
    %659 = stablehlo.multiply %658, %653 : tensor<8x8x64xf32>
    %660 = stablehlo.add %654, %659 : tensor<8x8x64xf32>
    %661 = stablehlo.slice %arg147 [0:1] : (tensor<8xi32>) -> tensor<1xi32>
    %662 = stablehlo.reshape %661 : (tensor<1xi32>) -> tensor<i32>
    %663 = stablehlo.slice %660 [0:1, 0:8, 0:64] : (tensor<8x8x64xf32>) -> tensor<1x8x64xf32>
    %664 = stablehlo.reshape %663 : (tensor<1x8x64xf32>) -> tensor<1x1x1x8x64xf32>
    %665 = stablehlo.dynamic_update_slice %576, %664, %26, %14, %662, %9, %9 : (tensor<8x16x256x8x64xf32>, tensor<1x1x1x8x64xf32>, tensor<i32>, tensor<i32>, tensor<i32>, tensor<i32>, tensor<i32>) -> tensor<8x16x256x8x64xf32>
    %666 = stablehlo.slice %642 [0:1, 0:8, 0:64] : (tensor<8x8x64xf32>) -> tensor<1x8x64xf32>
    %667 = stablehlo.reshape %666 : (tensor<1x8x64xf32>) -> tensor<1x1x1x8x64xf32>
    %668 = stablehlo.dynamic_update_slice %579, %667, %26, %14, %662, %9, %9 : (tensor<8x16x256x8x64xf32>, tensor<1x1x1x8x64xf32>, tensor<i32>, tensor<i32>, tensor<i32>, tensor<i32>, tensor<i32>) -> tensor<8x16x256x8x64xf32>
    %669 = stablehlo.slice %arg147 [1:2] : (tensor<8xi32>) -> tensor<1xi32>
    %670 = stablehlo.reshape %669 : (tensor<1xi32>) -> tensor<i32>
    %671 = stablehlo.slice %660 [1:2, 0:8, 0:64] : (tensor<8x8x64xf32>) -> tensor<1x8x64xf32>
    %672 = stablehlo.reshape %671 : (tensor<1x8x64xf32>) -> tensor<1x1x1x8x64xf32>
    %673 = stablehlo.dynamic_update_slice %665, %672, %27, %14, %670, %9, %9 : (tensor<8x16x256x8x64xf32>, tensor<1x1x1x8x64xf32>, tensor<i32>, tensor<i32>, tensor<i32>, tensor<i32>, tensor<i32>) -> tensor<8x16x256x8x64xf32>
    %674 = stablehlo.slice %642 [1:2, 0:8, 0:64] : (tensor<8x8x64xf32>) -> tensor<1x8x64xf32>
    %675 = stablehlo.reshape %674 : (tensor<1x8x64xf32>) -> tensor<1x1x1x8x64xf32>
    %676 = stablehlo.dynamic_update_slice %668, %675, %27, %14, %670, %9, %9 : (tensor<8x16x256x8x64xf32>, tensor<1x1x1x8x64xf32>, tensor<i32>, tensor<i32>, tensor<i32>, tensor<i32>, tensor<i32>) -> tensor<8x16x256x8x64xf32>
    %677 = stablehlo.slice %arg147 [2:3] : (tensor<8xi32>) -> tensor<1xi32>
    %678 = stablehlo.reshape %677 : (tensor<1xi32>) -> tensor<i32>
    %679 = stablehlo.slice %660 [2:3, 0:8, 0:64] : (tensor<8x8x64xf32>) -> tensor<1x8x64xf32>
    %680 = stablehlo.reshape %679 : (tensor<1x8x64xf32>) -> tensor<1x1x1x8x64xf32>
    %681 = stablehlo.dynamic_update_slice %673, %680, %28, %14, %678, %9, %9 : (tensor<8x16x256x8x64xf32>, tensor<1x1x1x8x64xf32>, tensor<i32>, tensor<i32>, tensor<i32>, tensor<i32>, tensor<i32>) -> tensor<8x16x256x8x64xf32>
    %682 = stablehlo.slice %642 [2:3, 0:8, 0:64] : (tensor<8x8x64xf32>) -> tensor<1x8x64xf32>
    %683 = stablehlo.reshape %682 : (tensor<1x8x64xf32>) -> tensor<1x1x1x8x64xf32>
    %684 = stablehlo.dynamic_update_slice %676, %683, %28, %14, %678, %9, %9 : (tensor<8x16x256x8x64xf32>, tensor<1x1x1x8x64xf32>, tensor<i32>, tensor<i32>, tensor<i32>, tensor<i32>, tensor<i32>) -> tensor<8x16x256x8x64xf32>
    %685 = stablehlo.slice %arg147 [3:4] : (tensor<8xi32>) -> tensor<1xi32>
    %686 = stablehlo.reshape %685 : (tensor<1xi32>) -> tensor<i32>
    %687 = stablehlo.slice %660 [3:4, 0:8, 0:64] : (tensor<8x8x64xf32>) -> tensor<1x8x64xf32>
    %688 = stablehlo.reshape %687 : (tensor<1x8x64xf32>) -> tensor<1x1x1x8x64xf32>
    %689 = stablehlo.dynamic_update_slice %681, %688, %29, %14, %686, %9, %9 : (tensor<8x16x256x8x64xf32>, tensor<1x1x1x8x64xf32>, tensor<i32>, tensor<i32>, tensor<i32>, tensor<i32>, tensor<i32>) -> tensor<8x16x256x8x64xf32>
    %690 = stablehlo.slice %642 [3:4, 0:8, 0:64] : (tensor<8x8x64xf32>) -> tensor<1x8x64xf32>
    %691 = stablehlo.reshape %690 : (tensor<1x8x64xf32>) -> tensor<1x1x1x8x64xf32>
    %692 = stablehlo.dynamic_update_slice %684, %691, %29, %14, %686, %9, %9 : (tensor<8x16x256x8x64xf32>, tensor<1x1x1x8x64xf32>, tensor<i32>, tensor<i32>, tensor<i32>, tensor<i32>, tensor<i32>) -> tensor<8x16x256x8x64xf32>
    %693 = stablehlo.slice %arg147 [4:5] : (tensor<8xi32>) -> tensor<1xi32>
    %694 = stablehlo.reshape %693 : (tensor<1xi32>) -> tensor<i32>
    %695 = stablehlo.slice %660 [4:5, 0:8, 0:64] : (tensor<8x8x64xf32>) -> tensor<1x8x64xf32>
    %696 = stablehlo.reshape %695 : (tensor<1x8x64xf32>) -> tensor<1x1x1x8x64xf32>
    %697 = stablehlo.dynamic_update_slice %689, %696, %30, %14, %694, %9, %9 : (tensor<8x16x256x8x64xf32>, tensor<1x1x1x8x64xf32>, tensor<i32>, tensor<i32>, tensor<i32>, tensor<i32>, tensor<i32>) -> tensor<8x16x256x8x64xf32>
    %698 = stablehlo.slice %642 [4:5, 0:8, 0:64] : (tensor<8x8x64xf32>) -> tensor<1x8x64xf32>
    %699 = stablehlo.reshape %698 : (tensor<1x8x64xf32>) -> tensor<1x1x1x8x64xf32>
    %700 = stablehlo.dynamic_update_slice %692, %699, %30, %14, %694, %9, %9 : (tensor<8x16x256x8x64xf32>, tensor<1x1x1x8x64xf32>, tensor<i32>, tensor<i32>, tensor<i32>, tensor<i32>, tensor<i32>) -> tensor<8x16x256x8x64xf32>
    %701 = stablehlo.slice %arg147 [5:6] : (tensor<8xi32>) -> tensor<1xi32>
    %702 = stablehlo.reshape %701 : (tensor<1xi32>) -> tensor<i32>
    %703 = stablehlo.slice %660 [5:6, 0:8, 0:64] : (tensor<8x8x64xf32>) -> tensor<1x8x64xf32>
    %704 = stablehlo.reshape %703 : (tensor<1x8x64xf32>) -> tensor<1x1x1x8x64xf32>
    %705 = stablehlo.dynamic_update_slice %697, %704, %31, %14, %702, %9, %9 : (tensor<8x16x256x8x64xf32>, tensor<1x1x1x8x64xf32>, tensor<i32>, tensor<i32>, tensor<i32>, tensor<i32>, tensor<i32>) -> tensor<8x16x256x8x64xf32>
    %706 = stablehlo.slice %642 [5:6, 0:8, 0:64] : (tensor<8x8x64xf32>) -> tensor<1x8x64xf32>
    %707 = stablehlo.reshape %706 : (tensor<1x8x64xf32>) -> tensor<1x1x1x8x64xf32>
    %708 = stablehlo.dynamic_update_slice %700, %707, %31, %14, %702, %9, %9 : (tensor<8x16x256x8x64xf32>, tensor<1x1x1x8x64xf32>, tensor<i32>, tensor<i32>, tensor<i32>, tensor<i32>, tensor<i32>) -> tensor<8x16x256x8x64xf32>
    %709 = stablehlo.slice %arg147 [6:7] : (tensor<8xi32>) -> tensor<1xi32>
    %710 = stablehlo.reshape %709 : (tensor<1xi32>) -> tensor<i32>
    %711 = stablehlo.slice %660 [6:7, 0:8, 0:64] : (tensor<8x8x64xf32>) -> tensor<1x8x64xf32>
    %712 = stablehlo.reshape %711 : (tensor<1x8x64xf32>) -> tensor<1x1x1x8x64xf32>
    %713 = stablehlo.dynamic_update_slice %705, %712, %32, %14, %710, %9, %9 : (tensor<8x16x256x8x64xf32>, tensor<1x1x1x8x64xf32>, tensor<i32>, tensor<i32>, tensor<i32>, tensor<i32>, tensor<i32>) -> tensor<8x16x256x8x64xf32>
    %714 = stablehlo.slice %642 [6:7, 0:8, 0:64] : (tensor<8x8x64xf32>) -> tensor<1x8x64xf32>
    %715 = stablehlo.reshape %714 : (tensor<1x8x64xf32>) -> tensor<1x1x1x8x64xf32>
    %716 = stablehlo.dynamic_update_slice %708, %715, %32, %14, %710, %9, %9 : (tensor<8x16x256x8x64xf32>, tensor<1x1x1x8x64xf32>, tensor<i32>, tensor<i32>, tensor<i32>, tensor<i32>, tensor<i32>) -> tensor<8x16x256x8x64xf32>
    %717 = stablehlo.slice %arg147 [7:8] : (tensor<8xi32>) -> tensor<1xi32>
    %718 = stablehlo.reshape %717 : (tensor<1xi32>) -> tensor<i32>
    %719 = stablehlo.slice %660 [7:8, 0:8, 0:64] : (tensor<8x8x64xf32>) -> tensor<1x8x64xf32>
    %720 = stablehlo.reshape %719 : (tensor<1x8x64xf32>) -> tensor<1x1x1x8x64xf32>
    %721 = stablehlo.dynamic_update_slice %713, %720, %33, %14, %718, %9, %9 : (tensor<8x16x256x8x64xf32>, tensor<1x1x1x8x64xf32>, tensor<i32>, tensor<i32>, tensor<i32>, tensor<i32>, tensor<i32>) -> tensor<8x16x256x8x64xf32>
    %722 = stablehlo.slice %642 [7:8, 0:8, 0:64] : (tensor<8x8x64xf32>) -> tensor<1x8x64xf32>
    %723 = stablehlo.reshape %722 : (tensor<1x8x64xf32>) -> tensor<1x1x1x8x64xf32>
    %724 = stablehlo.dynamic_update_slice %716, %723, %33, %14, %718, %9, %9 : (tensor<8x16x256x8x64xf32>, tensor<1x1x1x8x64xf32>, tensor<i32>, tensor<i32>, tensor<i32>, tensor<i32>, tensor<i32>) -> tensor<8x16x256x8x64xf32>
    %725 = stablehlo.slice %721 [0:8, 4:5, 0:256, 0:8, 0:64] : (tensor<8x16x256x8x64xf32>) -> tensor<8x1x256x8x64xf32>
    %726 = stablehlo.reshape %725 : (tensor<8x1x256x8x64xf32>) -> tensor<8x256x8x64xf32>
    %727 = stablehlo.slice %724 [0:8, 4:5, 0:256, 0:8, 0:64] : (tensor<8x16x256x8x64xf32>) -> tensor<8x1x256x8x64xf32>
    %728 = stablehlo.reshape %727 : (tensor<8x1x256x8x64xf32>) -> tensor<8x256x8x64xf32>
    %729 = stablehlo.reshape %651 : (tensor<8x32x64xf32>) -> tensor<8x8x4x64xf32>
    %730 = stablehlo.dot_general %729, %726, batching_dims = [0, 1] x [0, 2], contracting_dims = [3] x [3] : (tensor<8x8x4x64xf32>, tensor<8x256x8x64xf32>) -> tensor<8x8x4x256xf32>
    %731 = stablehlo.reshape %730 : (tensor<8x8x4x256xf32>) -> tensor<8x32x256xf32>
    %732 = stablehlo.broadcast_in_dim %8, dims = [] : (tensor<f32>) -> tensor<8x32x256xf32>
    %733 = stablehlo.multiply %731, %732 : tensor<8x32x256xf32>
    %734 = stablehlo.broadcast_in_dim %45, dims = [0, 2] : (tensor<8x256xf32>) -> tensor<8x32x256xf32>
    %735 = stablehlo.add %733, %734 : tensor<8x32x256xf32>
    %736 = stablehlo.reduce(%735 init: %4) applies stablehlo.maximum across dimensions = [2] : (tensor<8x32x256xf32>, tensor<f32>) -> tensor<8x32xf32>
    %737 = stablehlo.broadcast_in_dim %736, dims = [0, 1] : (tensor<8x32xf32>) -> tensor<8x32x256xf32>
    %738 = stablehlo.subtract %735, %737 : tensor<8x32x256xf32>
    %739 = stablehlo.exponential %738 : tensor<8x32x256xf32>
    %740 = stablehlo.reduce(%739 init: %2) applies stablehlo.add across dimensions = [2] : (tensor<8x32x256xf32>, tensor<f32>) -> tensor<8x32xf32>
    %741 = stablehlo.broadcast_in_dim %740, dims = [0, 1] : (tensor<8x32xf32>) -> tensor<8x32x256xf32>
    %742 = stablehlo.divide %739, %741 : tensor<8x32x256xf32>
    %743 = stablehlo.reshape %742 : (tensor<8x32x256xf32>) -> tensor<8x8x4x256xf32>
    %744 = stablehlo.dot_general %743, %728, batching_dims = [0, 1] x [0, 2], contracting_dims = [3] x [1] : (tensor<8x8x4x256xf32>, tensor<8x256x8x64xf32>) -> tensor<8x8x4x64xf32>
    %745 = stablehlo.reshape %744 : (tensor<8x8x4x64xf32>) -> tensor<8x32x64xf32>
    %746 = stablehlo.reshape %745 : (tensor<8x32x64xf32>) -> tensor<8x2048xf32>
    %747 = stablehlo.dot_general %746, %arg44, contracting_dims = [1] x [1] : (tensor<8x2048xf32>, tensor<2048x2048xf32>) -> tensor<8x2048xf32>
    %748 = stablehlo.add %625, %747 : tensor<8x2048xf32>
    %749 = stablehlo.multiply %748, %748 : tensor<8x2048xf32>
    %750 = stablehlo.reduce(%749 init: %2) applies stablehlo.add across dimensions = [1] : (tensor<8x2048xf32>, tensor<f32>) -> tensor<8xf32>
    %751 = stablehlo.broadcast_in_dim %7, dims = [] : (tensor<f32>) -> tensor<8xf32>
    %752 = stablehlo.divide %750, %751 : tensor<8xf32>
    %753 = stablehlo.broadcast_in_dim %6, dims = [] : (tensor<f32>) -> tensor<8xf32>
    %754 = stablehlo.add %752, %753 : tensor<8xf32>
    %755 = stablehlo.rsqrt %754 : tensor<8xf32>
    %756 = stablehlo.broadcast_in_dim %755, dims = [0] : (tensor<8xf32>) -> tensor<8x2048xf32>
    %757 = stablehlo.multiply %748, %756 : tensor<8x2048xf32>
    %758 = stablehlo.broadcast_in_dim %arg41, dims = [1] : (tensor<2048xf32>) -> tensor<8x2048xf32>
    %759 = stablehlo.multiply %757, %758 : tensor<8x2048xf32>
    %760 = stablehlo.dot_general %759, %arg39, contracting_dims = [1] x [1] : (tensor<8x2048xf32>, tensor<8192x2048xf32>) -> tensor<8x8192xf32>
    %761 = stablehlo.dot_general %759, %arg42, contracting_dims = [1] x [1] : (tensor<8x2048xf32>, tensor<8192x2048xf32>) -> tensor<8x8192xf32>
    %762 = stablehlo.negate %760 : tensor<8x8192xf32>
    %763 = stablehlo.exponential %762 : tensor<8x8192xf32>
    %764 = stablehlo.broadcast_in_dim %3, dims = [] : (tensor<f32>) -> tensor<8x8192xf32>
    %765 = stablehlo.add %764, %763 : tensor<8x8192xf32>
    %766 = stablehlo.divide %764, %765 : tensor<8x8192xf32>
    %767 = stablehlo.multiply %760, %766 : tensor<8x8192xf32>
    %768 = stablehlo.multiply %767, %761 : tensor<8x8192xf32>
    %769 = stablehlo.dot_general %768, %arg38, contracting_dims = [1] x [1] : (tensor<8x8192xf32>, tensor<2048x8192xf32>) -> tensor<8x2048xf32>
    %770 = stablehlo.add %748, %769 : tensor<8x2048xf32>
    %771 = stablehlo.multiply %770, %770 : tensor<8x2048xf32>
    %772 = stablehlo.reduce(%771 init: %2) applies stablehlo.add across dimensions = [1] : (tensor<8x2048xf32>, tensor<f32>) -> tensor<8xf32>
    %773 = stablehlo.broadcast_in_dim %7, dims = [] : (tensor<f32>) -> tensor<8xf32>
    %774 = stablehlo.divide %772, %773 : tensor<8xf32>
    %775 = stablehlo.broadcast_in_dim %6, dims = [] : (tensor<f32>) -> tensor<8xf32>
    %776 = stablehlo.add %774, %775 : tensor<8xf32>
    %777 = stablehlo.rsqrt %776 : tensor<8xf32>
    %778 = stablehlo.broadcast_in_dim %777, dims = [0] : (tensor<8xf32>) -> tensor<8x2048xf32>
    %779 = stablehlo.multiply %770, %778 : tensor<8x2048xf32>
    %780 = stablehlo.broadcast_in_dim %arg49, dims = [1] : (tensor<2048xf32>) -> tensor<8x2048xf32>
    %781 = stablehlo.multiply %779, %780 : tensor<8x2048xf32>
    %782 = stablehlo.dot_general %781, %arg54, contracting_dims = [1] x [1] : (tensor<8x2048xf32>, tensor<2048x2048xf32>) -> tensor<8x2048xf32>
    %783 = stablehlo.reshape %782 : (tensor<8x2048xf32>) -> tensor<8x32x64xf32>
    %784 = stablehlo.dot_general %781, %arg52, contracting_dims = [1] x [1] : (tensor<8x2048xf32>, tensor<512x2048xf32>) -> tensor<8x512xf32>
    %785 = stablehlo.reshape %784 : (tensor<8x512xf32>) -> tensor<8x8x64xf32>
    %786 = stablehlo.dot_general %781, %arg55, contracting_dims = [1] x [1] : (tensor<8x2048xf32>, tensor<512x2048xf32>) -> tensor<8x512xf32>
    %787 = stablehlo.reshape %786 : (tensor<8x512xf32>) -> tensor<8x8x64xf32>
    %788 = stablehlo.broadcast_in_dim %37, dims = [0, 2] : (tensor<8x64xf32>) -> tensor<8x32x64xf32>
    %789 = stablehlo.broadcast_in_dim %38, dims = [0, 2] : (tensor<8x64xf32>) -> tensor<8x32x64xf32>
    %790 = stablehlo.multiply %783, %788 : tensor<8x32x64xf32>
    %791 = stablehlo.slice %783 [0:8, 0:32, 0:32] : (tensor<8x32x64xf32>) -> tensor<8x32x32xf32>
    %792 = stablehlo.slice %783 [0:8, 0:32, 32:64] : (tensor<8x32x64xf32>) -> tensor<8x32x32xf32>
    %793 = stablehlo.negate %792 : tensor<8x32x32xf32>
    %794 = stablehlo.concatenate %793, %791, dim = 2 : (tensor<8x32x32xf32>, tensor<8x32x32xf32>) -> tensor<8x32x64xf32>
    %795 = stablehlo.multiply %794, %789 : tensor<8x32x64xf32>
    %796 = stablehlo.add %790, %795 : tensor<8x32x64xf32>
    %797 = stablehlo.broadcast_in_dim %37, dims = [0, 2] : (tensor<8x64xf32>) -> tensor<8x8x64xf32>
    %798 = stablehlo.broadcast_in_dim %38, dims = [0, 2] : (tensor<8x64xf32>) -> tensor<8x8x64xf32>
    %799 = stablehlo.multiply %785, %797 : tensor<8x8x64xf32>
    %800 = stablehlo.slice %785 [0:8, 0:8, 0:32] : (tensor<8x8x64xf32>) -> tensor<8x8x32xf32>
    %801 = stablehlo.slice %785 [0:8, 0:8, 32:64] : (tensor<8x8x64xf32>) -> tensor<8x8x32xf32>
    %802 = stablehlo.negate %801 : tensor<8x8x32xf32>
    %803 = stablehlo.concatenate %802, %800, dim = 2 : (tensor<8x8x32xf32>, tensor<8x8x32xf32>) -> tensor<8x8x64xf32>
    %804 = stablehlo.multiply %803, %798 : tensor<8x8x64xf32>
    %805 = stablehlo.add %799, %804 : tensor<8x8x64xf32>
    %806 = stablehlo.slice %arg147 [0:1] : (tensor<8xi32>) -> tensor<1xi32>
    %807 = stablehlo.reshape %806 : (tensor<1xi32>) -> tensor<i32>
    %808 = stablehlo.slice %805 [0:1, 0:8, 0:64] : (tensor<8x8x64xf32>) -> tensor<1x8x64xf32>
    %809 = stablehlo.reshape %808 : (tensor<1x8x64xf32>) -> tensor<1x1x1x8x64xf32>
    %810 = stablehlo.dynamic_update_slice %721, %809, %26, %15, %807, %9, %9 : (tensor<8x16x256x8x64xf32>, tensor<1x1x1x8x64xf32>, tensor<i32>, tensor<i32>, tensor<i32>, tensor<i32>, tensor<i32>) -> tensor<8x16x256x8x64xf32>
    %811 = stablehlo.slice %787 [0:1, 0:8, 0:64] : (tensor<8x8x64xf32>) -> tensor<1x8x64xf32>
    %812 = stablehlo.reshape %811 : (tensor<1x8x64xf32>) -> tensor<1x1x1x8x64xf32>
    %813 = stablehlo.dynamic_update_slice %724, %812, %26, %15, %807, %9, %9 : (tensor<8x16x256x8x64xf32>, tensor<1x1x1x8x64xf32>, tensor<i32>, tensor<i32>, tensor<i32>, tensor<i32>, tensor<i32>) -> tensor<8x16x256x8x64xf32>
    %814 = stablehlo.slice %arg147 [1:2] : (tensor<8xi32>) -> tensor<1xi32>
    %815 = stablehlo.reshape %814 : (tensor<1xi32>) -> tensor<i32>
    %816 = stablehlo.slice %805 [1:2, 0:8, 0:64] : (tensor<8x8x64xf32>) -> tensor<1x8x64xf32>
    %817 = stablehlo.reshape %816 : (tensor<1x8x64xf32>) -> tensor<1x1x1x8x64xf32>
    %818 = stablehlo.dynamic_update_slice %810, %817, %27, %15, %815, %9, %9 : (tensor<8x16x256x8x64xf32>, tensor<1x1x1x8x64xf32>, tensor<i32>, tensor<i32>, tensor<i32>, tensor<i32>, tensor<i32>) -> tensor<8x16x256x8x64xf32>
    %819 = stablehlo.slice %787 [1:2, 0:8, 0:64] : (tensor<8x8x64xf32>) -> tensor<1x8x64xf32>
    %820 = stablehlo.reshape %819 : (tensor<1x8x64xf32>) -> tensor<1x1x1x8x64xf32>
    %821 = stablehlo.dynamic_update_slice %813, %820, %27, %15, %815, %9, %9 : (tensor<8x16x256x8x64xf32>, tensor<1x1x1x8x64xf32>, tensor<i32>, tensor<i32>, tensor<i32>, tensor<i32>, tensor<i32>) -> tensor<8x16x256x8x64xf32>
    %822 = stablehlo.slice %arg147 [2:3] : (tensor<8xi32>) -> tensor<1xi32>
    %823 = stablehlo.reshape %822 : (tensor<1xi32>) -> tensor<i32>
    %824 = stablehlo.slice %805 [2:3, 0:8, 0:64] : (tensor<8x8x64xf32>) -> tensor<1x8x64xf32>
    %825 = stablehlo.reshape %824 : (tensor<1x8x64xf32>) -> tensor<1x1x1x8x64xf32>
    %826 = stablehlo.dynamic_update_slice %818, %825, %28, %15, %823, %9, %9 : (tensor<8x16x256x8x64xf32>, tensor<1x1x1x8x64xf32>, tensor<i32>, tensor<i32>, tensor<i32>, tensor<i32>, tensor<i32>) -> tensor<8x16x256x8x64xf32>
    %827 = stablehlo.slice %787 [2:3, 0:8, 0:64] : (tensor<8x8x64xf32>) -> tensor<1x8x64xf32>
    %828 = stablehlo.reshape %827 : (tensor<1x8x64xf32>) -> tensor<1x1x1x8x64xf32>
    %829 = stablehlo.dynamic_update_slice %821, %828, %28, %15, %823, %9, %9 : (tensor<8x16x256x8x64xf32>, tensor<1x1x1x8x64xf32>, tensor<i32>, tensor<i32>, tensor<i32>, tensor<i32>, tensor<i32>) -> tensor<8x16x256x8x64xf32>
    %830 = stablehlo.slice %arg147 [3:4] : (tensor<8xi32>) -> tensor<1xi32>
    %831 = stablehlo.reshape %830 : (tensor<1xi32>) -> tensor<i32>
    %832 = stablehlo.slice %805 [3:4, 0:8, 0:64] : (tensor<8x8x64xf32>) -> tensor<1x8x64xf32>
    %833 = stablehlo.reshape %832 : (tensor<1x8x64xf32>) -> tensor<1x1x1x8x64xf32>
    %834 = stablehlo.dynamic_update_slice %826, %833, %29, %15, %831, %9, %9 : (tensor<8x16x256x8x64xf32>, tensor<1x1x1x8x64xf32>, tensor<i32>, tensor<i32>, tensor<i32>, tensor<i32>, tensor<i32>) -> tensor<8x16x256x8x64xf32>
    %835 = stablehlo.slice %787 [3:4, 0:8, 0:64] : (tensor<8x8x64xf32>) -> tensor<1x8x64xf32>
    %836 = stablehlo.reshape %835 : (tensor<1x8x64xf32>) -> tensor<1x1x1x8x64xf32>
    %837 = stablehlo.dynamic_update_slice %829, %836, %29, %15, %831, %9, %9 : (tensor<8x16x256x8x64xf32>, tensor<1x1x1x8x64xf32>, tensor<i32>, tensor<i32>, tensor<i32>, tensor<i32>, tensor<i32>) -> tensor<8x16x256x8x64xf32>
    %838 = stablehlo.slice %arg147 [4:5] : (tensor<8xi32>) -> tensor<1xi32>
    %839 = stablehlo.reshape %838 : (tensor<1xi32>) -> tensor<i32>
    %840 = stablehlo.slice %805 [4:5, 0:8, 0:64] : (tensor<8x8x64xf32>) -> tensor<1x8x64xf32>
    %841 = stablehlo.reshape %840 : (tensor<1x8x64xf32>) -> tensor<1x1x1x8x64xf32>
    %842 = stablehlo.dynamic_update_slice %834, %841, %30, %15, %839, %9, %9 : (tensor<8x16x256x8x64xf32>, tensor<1x1x1x8x64xf32>, tensor<i32>, tensor<i32>, tensor<i32>, tensor<i32>, tensor<i32>) -> tensor<8x16x256x8x64xf32>
    %843 = stablehlo.slice %787 [4:5, 0:8, 0:64] : (tensor<8x8x64xf32>) -> tensor<1x8x64xf32>
    %844 = stablehlo.reshape %843 : (tensor<1x8x64xf32>) -> tensor<1x1x1x8x64xf32>
    %845 = stablehlo.dynamic_update_slice %837, %844, %30, %15, %839, %9, %9 : (tensor<8x16x256x8x64xf32>, tensor<1x1x1x8x64xf32>, tensor<i32>, tensor<i32>, tensor<i32>, tensor<i32>, tensor<i32>) -> tensor<8x16x256x8x64xf32>
    %846 = stablehlo.slice %arg147 [5:6] : (tensor<8xi32>) -> tensor<1xi32>
    %847 = stablehlo.reshape %846 : (tensor<1xi32>) -> tensor<i32>
    %848 = stablehlo.slice %805 [5:6, 0:8, 0:64] : (tensor<8x8x64xf32>) -> tensor<1x8x64xf32>
    %849 = stablehlo.reshape %848 : (tensor<1x8x64xf32>) -> tensor<1x1x1x8x64xf32>
    %850 = stablehlo.dynamic_update_slice %842, %849, %31, %15, %847, %9, %9 : (tensor<8x16x256x8x64xf32>, tensor<1x1x1x8x64xf32>, tensor<i32>, tensor<i32>, tensor<i32>, tensor<i32>, tensor<i32>) -> tensor<8x16x256x8x64xf32>
    %851 = stablehlo.slice %787 [5:6, 0:8, 0:64] : (tensor<8x8x64xf32>) -> tensor<1x8x64xf32>
    %852 = stablehlo.reshape %851 : (tensor<1x8x64xf32>) -> tensor<1x1x1x8x64xf32>
    %853 = stablehlo.dynamic_update_slice %845, %852, %31, %15, %847, %9, %9 : (tensor<8x16x256x8x64xf32>, tensor<1x1x1x8x64xf32>, tensor<i32>, tensor<i32>, tensor<i32>, tensor<i32>, tensor<i32>) -> tensor<8x16x256x8x64xf32>
    %854 = stablehlo.slice %arg147 [6:7] : (tensor<8xi32>) -> tensor<1xi32>
    %855 = stablehlo.reshape %854 : (tensor<1xi32>) -> tensor<i32>
    %856 = stablehlo.slice %805 [6:7, 0:8, 0:64] : (tensor<8x8x64xf32>) -> tensor<1x8x64xf32>
    %857 = stablehlo.reshape %856 : (tensor<1x8x64xf32>) -> tensor<1x1x1x8x64xf32>
    %858 = stablehlo.dynamic_update_slice %850, %857, %32, %15, %855, %9, %9 : (tensor<8x16x256x8x64xf32>, tensor<1x1x1x8x64xf32>, tensor<i32>, tensor<i32>, tensor<i32>, tensor<i32>, tensor<i32>) -> tensor<8x16x256x8x64xf32>
    %859 = stablehlo.slice %787 [6:7, 0:8, 0:64] : (tensor<8x8x64xf32>) -> tensor<1x8x64xf32>
    %860 = stablehlo.reshape %859 : (tensor<1x8x64xf32>) -> tensor<1x1x1x8x64xf32>
    %861 = stablehlo.dynamic_update_slice %853, %860, %32, %15, %855, %9, %9 : (tensor<8x16x256x8x64xf32>, tensor<1x1x1x8x64xf32>, tensor<i32>, tensor<i32>, tensor<i32>, tensor<i32>, tensor<i32>) -> tensor<8x16x256x8x64xf32>
    %862 = stablehlo.slice %arg147 [7:8] : (tensor<8xi32>) -> tensor<1xi32>
    %863 = stablehlo.reshape %862 : (tensor<1xi32>) -> tensor<i32>
    %864 = stablehlo.slice %805 [7:8, 0:8, 0:64] : (tensor<8x8x64xf32>) -> tensor<1x8x64xf32>
    %865 = stablehlo.reshape %864 : (tensor<1x8x64xf32>) -> tensor<1x1x1x8x64xf32>
    %866 = stablehlo.dynamic_update_slice %858, %865, %33, %15, %863, %9, %9 : (tensor<8x16x256x8x64xf32>, tensor<1x1x1x8x64xf32>, tensor<i32>, tensor<i32>, tensor<i32>, tensor<i32>, tensor<i32>) -> tensor<8x16x256x8x64xf32>
    %867 = stablehlo.slice %787 [7:8, 0:8, 0:64] : (tensor<8x8x64xf32>) -> tensor<1x8x64xf32>
    %868 = stablehlo.reshape %867 : (tensor<1x8x64xf32>) -> tensor<1x1x1x8x64xf32>
    %869 = stablehlo.dynamic_update_slice %861, %868, %33, %15, %863, %9, %9 : (tensor<8x16x256x8x64xf32>, tensor<1x1x1x8x64xf32>, tensor<i32>, tensor<i32>, tensor<i32>, tensor<i32>, tensor<i32>) -> tensor<8x16x256x8x64xf32>
    %870 = stablehlo.slice %866 [0:8, 5:6, 0:256, 0:8, 0:64] : (tensor<8x16x256x8x64xf32>) -> tensor<8x1x256x8x64xf32>
    %871 = stablehlo.reshape %870 : (tensor<8x1x256x8x64xf32>) -> tensor<8x256x8x64xf32>
    %872 = stablehlo.slice %869 [0:8, 5:6, 0:256, 0:8, 0:64] : (tensor<8x16x256x8x64xf32>) -> tensor<8x1x256x8x64xf32>
    %873 = stablehlo.reshape %872 : (tensor<8x1x256x8x64xf32>) -> tensor<8x256x8x64xf32>
    %874 = stablehlo.reshape %796 : (tensor<8x32x64xf32>) -> tensor<8x8x4x64xf32>
    %875 = stablehlo.dot_general %874, %871, batching_dims = [0, 1] x [0, 2], contracting_dims = [3] x [3] : (tensor<8x8x4x64xf32>, tensor<8x256x8x64xf32>) -> tensor<8x8x4x256xf32>
    %876 = stablehlo.reshape %875 : (tensor<8x8x4x256xf32>) -> tensor<8x32x256xf32>
    %877 = stablehlo.broadcast_in_dim %8, dims = [] : (tensor<f32>) -> tensor<8x32x256xf32>
    %878 = stablehlo.multiply %876, %877 : tensor<8x32x256xf32>
    %879 = stablehlo.broadcast_in_dim %45, dims = [0, 2] : (tensor<8x256xf32>) -> tensor<8x32x256xf32>
    %880 = stablehlo.add %878, %879 : tensor<8x32x256xf32>
    %881 = stablehlo.reduce(%880 init: %4) applies stablehlo.maximum across dimensions = [2] : (tensor<8x32x256xf32>, tensor<f32>) -> tensor<8x32xf32>
    %882 = stablehlo.broadcast_in_dim %881, dims = [0, 1] : (tensor<8x32xf32>) -> tensor<8x32x256xf32>
    %883 = stablehlo.subtract %880, %882 : tensor<8x32x256xf32>
    %884 = stablehlo.exponential %883 : tensor<8x32x256xf32>
    %885 = stablehlo.reduce(%884 init: %2) applies stablehlo.add across dimensions = [2] : (tensor<8x32x256xf32>, tensor<f32>) -> tensor<8x32xf32>
    %886 = stablehlo.broadcast_in_dim %885, dims = [0, 1] : (tensor<8x32xf32>) -> tensor<8x32x256xf32>
    %887 = stablehlo.divide %884, %886 : tensor<8x32x256xf32>
    %888 = stablehlo.reshape %887 : (tensor<8x32x256xf32>) -> tensor<8x8x4x256xf32>
    %889 = stablehlo.dot_general %888, %873, batching_dims = [0, 1] x [0, 2], contracting_dims = [3] x [1] : (tensor<8x8x4x256xf32>, tensor<8x256x8x64xf32>) -> tensor<8x8x4x64xf32>
    %890 = stablehlo.reshape %889 : (tensor<8x8x4x64xf32>) -> tensor<8x32x64xf32>
    %891 = stablehlo.reshape %890 : (tensor<8x32x64xf32>) -> tensor<8x2048xf32>
    %892 = stablehlo.dot_general %891, %arg53, contracting_dims = [1] x [1] : (tensor<8x2048xf32>, tensor<2048x2048xf32>) -> tensor<8x2048xf32>
    %893 = stablehlo.add %770, %892 : tensor<8x2048xf32>
    %894 = stablehlo.multiply %893, %893 : tensor<8x2048xf32>
    %895 = stablehlo.reduce(%894 init: %2) applies stablehlo.add across dimensions = [1] : (tensor<8x2048xf32>, tensor<f32>) -> tensor<8xf32>
    %896 = stablehlo.broadcast_in_dim %7, dims = [] : (tensor<f32>) -> tensor<8xf32>
    %897 = stablehlo.divide %895, %896 : tensor<8xf32>
    %898 = stablehlo.broadcast_in_dim %6, dims = [] : (tensor<f32>) -> tensor<8xf32>
    %899 = stablehlo.add %897, %898 : tensor<8xf32>
    %900 = stablehlo.rsqrt %899 : tensor<8xf32>
    %901 = stablehlo.broadcast_in_dim %900, dims = [0] : (tensor<8xf32>) -> tensor<8x2048xf32>
    %902 = stablehlo.multiply %893, %901 : tensor<8x2048xf32>
    %903 = stablehlo.broadcast_in_dim %arg50, dims = [1] : (tensor<2048xf32>) -> tensor<8x2048xf32>
    %904 = stablehlo.multiply %902, %903 : tensor<8x2048xf32>
    %905 = stablehlo.dot_general %904, %arg48, contracting_dims = [1] x [1] : (tensor<8x2048xf32>, tensor<8192x2048xf32>) -> tensor<8x8192xf32>
    %906 = stablehlo.dot_general %904, %arg51, contracting_dims = [1] x [1] : (tensor<8x2048xf32>, tensor<8192x2048xf32>) -> tensor<8x8192xf32>
    %907 = stablehlo.negate %905 : tensor<8x8192xf32>
    %908 = stablehlo.exponential %907 : tensor<8x8192xf32>
    %909 = stablehlo.broadcast_in_dim %3, dims = [] : (tensor<f32>) -> tensor<8x8192xf32>
    %910 = stablehlo.add %909, %908 : tensor<8x8192xf32>
    %911 = stablehlo.divide %909, %910 : tensor<8x8192xf32>
    %912 = stablehlo.multiply %905, %911 : tensor<8x8192xf32>
    %913 = stablehlo.multiply %912, %906 : tensor<8x8192xf32>
    %914 = stablehlo.dot_general %913, %arg47, contracting_dims = [1] x [1] : (tensor<8x8192xf32>, tensor<2048x8192xf32>) -> tensor<8x2048xf32>
    %915 = stablehlo.add %893, %914 : tensor<8x2048xf32>
    %916 = stablehlo.multiply %915, %915 : tensor<8x2048xf32>
    %917 = stablehlo.reduce(%916 init: %2) applies stablehlo.add across dimensions = [1] : (tensor<8x2048xf32>, tensor<f32>) -> tensor<8xf32>
    %918 = stablehlo.broadcast_in_dim %7, dims = [] : (tensor<f32>) -> tensor<8xf32>
    %919 = stablehlo.divide %917, %918 : tensor<8xf32>
    %920 = stablehlo.broadcast_in_dim %6, dims = [] : (tensor<f32>) -> tensor<8xf32>
    %921 = stablehlo.add %919, %920 : tensor<8xf32>
    %922 = stablehlo.rsqrt %921 : tensor<8xf32>
    %923 = stablehlo.broadcast_in_dim %922, dims = [0] : (tensor<8xf32>) -> tensor<8x2048xf32>
    %924 = stablehlo.multiply %915, %923 : tensor<8x2048xf32>
    %925 = stablehlo.broadcast_in_dim %arg58, dims = [1] : (tensor<2048xf32>) -> tensor<8x2048xf32>
    %926 = stablehlo.multiply %924, %925 : tensor<8x2048xf32>
    %927 = stablehlo.dot_general %926, %arg63, contracting_dims = [1] x [1] : (tensor<8x2048xf32>, tensor<2048x2048xf32>) -> tensor<8x2048xf32>
    %928 = stablehlo.reshape %927 : (tensor<8x2048xf32>) -> tensor<8x32x64xf32>
    %929 = stablehlo.dot_general %926, %arg61, contracting_dims = [1] x [1] : (tensor<8x2048xf32>, tensor<512x2048xf32>) -> tensor<8x512xf32>
    %930 = stablehlo.reshape %929 : (tensor<8x512xf32>) -> tensor<8x8x64xf32>
    %931 = stablehlo.dot_general %926, %arg64, contracting_dims = [1] x [1] : (tensor<8x2048xf32>, tensor<512x2048xf32>) -> tensor<8x512xf32>
    %932 = stablehlo.reshape %931 : (tensor<8x512xf32>) -> tensor<8x8x64xf32>
    %933 = stablehlo.broadcast_in_dim %37, dims = [0, 2] : (tensor<8x64xf32>) -> tensor<8x32x64xf32>
    %934 = stablehlo.broadcast_in_dim %38, dims = [0, 2] : (tensor<8x64xf32>) -> tensor<8x32x64xf32>
    %935 = stablehlo.multiply %928, %933 : tensor<8x32x64xf32>
    %936 = stablehlo.slice %928 [0:8, 0:32, 0:32] : (tensor<8x32x64xf32>) -> tensor<8x32x32xf32>
    %937 = stablehlo.slice %928 [0:8, 0:32, 32:64] : (tensor<8x32x64xf32>) -> tensor<8x32x32xf32>
    %938 = stablehlo.negate %937 : tensor<8x32x32xf32>
    %939 = stablehlo.concatenate %938, %936, dim = 2 : (tensor<8x32x32xf32>, tensor<8x32x32xf32>) -> tensor<8x32x64xf32>
    %940 = stablehlo.multiply %939, %934 : tensor<8x32x64xf32>
    %941 = stablehlo.add %935, %940 : tensor<8x32x64xf32>
    %942 = stablehlo.broadcast_in_dim %37, dims = [0, 2] : (tensor<8x64xf32>) -> tensor<8x8x64xf32>
    %943 = stablehlo.broadcast_in_dim %38, dims = [0, 2] : (tensor<8x64xf32>) -> tensor<8x8x64xf32>
    %944 = stablehlo.multiply %930, %942 : tensor<8x8x64xf32>
    %945 = stablehlo.slice %930 [0:8, 0:8, 0:32] : (tensor<8x8x64xf32>) -> tensor<8x8x32xf32>
    %946 = stablehlo.slice %930 [0:8, 0:8, 32:64] : (tensor<8x8x64xf32>) -> tensor<8x8x32xf32>
    %947 = stablehlo.negate %946 : tensor<8x8x32xf32>
    %948 = stablehlo.concatenate %947, %945, dim = 2 : (tensor<8x8x32xf32>, tensor<8x8x32xf32>) -> tensor<8x8x64xf32>
    %949 = stablehlo.multiply %948, %943 : tensor<8x8x64xf32>
    %950 = stablehlo.add %944, %949 : tensor<8x8x64xf32>
    %951 = stablehlo.slice %arg147 [0:1] : (tensor<8xi32>) -> tensor<1xi32>
    %952 = stablehlo.reshape %951 : (tensor<1xi32>) -> tensor<i32>
    %953 = stablehlo.slice %950 [0:1, 0:8, 0:64] : (tensor<8x8x64xf32>) -> tensor<1x8x64xf32>
    %954 = stablehlo.reshape %953 : (tensor<1x8x64xf32>) -> tensor<1x1x1x8x64xf32>
    %955 = stablehlo.dynamic_update_slice %866, %954, %26, %16, %952, %9, %9 : (tensor<8x16x256x8x64xf32>, tensor<1x1x1x8x64xf32>, tensor<i32>, tensor<i32>, tensor<i32>, tensor<i32>, tensor<i32>) -> tensor<8x16x256x8x64xf32>
    %956 = stablehlo.slice %932 [0:1, 0:8, 0:64] : (tensor<8x8x64xf32>) -> tensor<1x8x64xf32>
    %957 = stablehlo.reshape %956 : (tensor<1x8x64xf32>) -> tensor<1x1x1x8x64xf32>
    %958 = stablehlo.dynamic_update_slice %869, %957, %26, %16, %952, %9, %9 : (tensor<8x16x256x8x64xf32>, tensor<1x1x1x8x64xf32>, tensor<i32>, tensor<i32>, tensor<i32>, tensor<i32>, tensor<i32>) -> tensor<8x16x256x8x64xf32>
    %959 = stablehlo.slice %arg147 [1:2] : (tensor<8xi32>) -> tensor<1xi32>
    %960 = stablehlo.reshape %959 : (tensor<1xi32>) -> tensor<i32>
    %961 = stablehlo.slice %950 [1:2, 0:8, 0:64] : (tensor<8x8x64xf32>) -> tensor<1x8x64xf32>
    %962 = stablehlo.reshape %961 : (tensor<1x8x64xf32>) -> tensor<1x1x1x8x64xf32>
    %963 = stablehlo.dynamic_update_slice %955, %962, %27, %16, %960, %9, %9 : (tensor<8x16x256x8x64xf32>, tensor<1x1x1x8x64xf32>, tensor<i32>, tensor<i32>, tensor<i32>, tensor<i32>, tensor<i32>) -> tensor<8x16x256x8x64xf32>
    %964 = stablehlo.slice %932 [1:2, 0:8, 0:64] : (tensor<8x8x64xf32>) -> tensor<1x8x64xf32>
    %965 = stablehlo.reshape %964 : (tensor<1x8x64xf32>) -> tensor<1x1x1x8x64xf32>
    %966 = stablehlo.dynamic_update_slice %958, %965, %27, %16, %960, %9, %9 : (tensor<8x16x256x8x64xf32>, tensor<1x1x1x8x64xf32>, tensor<i32>, tensor<i32>, tensor<i32>, tensor<i32>, tensor<i32>) -> tensor<8x16x256x8x64xf32>
    %967 = stablehlo.slice %arg147 [2:3] : (tensor<8xi32>) -> tensor<1xi32>
    %968 = stablehlo.reshape %967 : (tensor<1xi32>) -> tensor<i32>
    %969 = stablehlo.slice %950 [2:3, 0:8, 0:64] : (tensor<8x8x64xf32>) -> tensor<1x8x64xf32>
    %970 = stablehlo.reshape %969 : (tensor<1x8x64xf32>) -> tensor<1x1x1x8x64xf32>
    %971 = stablehlo.dynamic_update_slice %963, %970, %28, %16, %968, %9, %9 : (tensor<8x16x256x8x64xf32>, tensor<1x1x1x8x64xf32>, tensor<i32>, tensor<i32>, tensor<i32>, tensor<i32>, tensor<i32>) -> tensor<8x16x256x8x64xf32>
    %972 = stablehlo.slice %932 [2:3, 0:8, 0:64] : (tensor<8x8x64xf32>) -> tensor<1x8x64xf32>
    %973 = stablehlo.reshape %972 : (tensor<1x8x64xf32>) -> tensor<1x1x1x8x64xf32>
    %974 = stablehlo.dynamic_update_slice %966, %973, %28, %16, %968, %9, %9 : (tensor<8x16x256x8x64xf32>, tensor<1x1x1x8x64xf32>, tensor<i32>, tensor<i32>, tensor<i32>, tensor<i32>, tensor<i32>) -> tensor<8x16x256x8x64xf32>
    %975 = stablehlo.slice %arg147 [3:4] : (tensor<8xi32>) -> tensor<1xi32>
    %976 = stablehlo.reshape %975 : (tensor<1xi32>) -> tensor<i32>
    %977 = stablehlo.slice %950 [3:4, 0:8, 0:64] : (tensor<8x8x64xf32>) -> tensor<1x8x64xf32>
    %978 = stablehlo.reshape %977 : (tensor<1x8x64xf32>) -> tensor<1x1x1x8x64xf32>
    %979 = stablehlo.dynamic_update_slice %971, %978, %29, %16, %976, %9, %9 : (tensor<8x16x256x8x64xf32>, tensor<1x1x1x8x64xf32>, tensor<i32>, tensor<i32>, tensor<i32>, tensor<i32>, tensor<i32>) -> tensor<8x16x256x8x64xf32>
    %980 = stablehlo.slice %932 [3:4, 0:8, 0:64] : (tensor<8x8x64xf32>) -> tensor<1x8x64xf32>
    %981 = stablehlo.reshape %980 : (tensor<1x8x64xf32>) -> tensor<1x1x1x8x64xf32>
    %982 = stablehlo.dynamic_update_slice %974, %981, %29, %16, %976, %9, %9 : (tensor<8x16x256x8x64xf32>, tensor<1x1x1x8x64xf32>, tensor<i32>, tensor<i32>, tensor<i32>, tensor<i32>, tensor<i32>) -> tensor<8x16x256x8x64xf32>
    %983 = stablehlo.slice %arg147 [4:5] : (tensor<8xi32>) -> tensor<1xi32>
    %984 = stablehlo.reshape %983 : (tensor<1xi32>) -> tensor<i32>
    %985 = stablehlo.slice %950 [4:5, 0:8, 0:64] : (tensor<8x8x64xf32>) -> tensor<1x8x64xf32>
    %986 = stablehlo.reshape %985 : (tensor<1x8x64xf32>) -> tensor<1x1x1x8x64xf32>
    %987 = stablehlo.dynamic_update_slice %979, %986, %30, %16, %984, %9, %9 : (tensor<8x16x256x8x64xf32>, tensor<1x1x1x8x64xf32>, tensor<i32>, tensor<i32>, tensor<i32>, tensor<i32>, tensor<i32>) -> tensor<8x16x256x8x64xf32>
    %988 = stablehlo.slice %932 [4:5, 0:8, 0:64] : (tensor<8x8x64xf32>) -> tensor<1x8x64xf32>
    %989 = stablehlo.reshape %988 : (tensor<1x8x64xf32>) -> tensor<1x1x1x8x64xf32>
    %990 = stablehlo.dynamic_update_slice %982, %989, %30, %16, %984, %9, %9 : (tensor<8x16x256x8x64xf32>, tensor<1x1x1x8x64xf32>, tensor<i32>, tensor<i32>, tensor<i32>, tensor<i32>, tensor<i32>) -> tensor<8x16x256x8x64xf32>
    %991 = stablehlo.slice %arg147 [5:6] : (tensor<8xi32>) -> tensor<1xi32>
    %992 = stablehlo.reshape %991 : (tensor<1xi32>) -> tensor<i32>
    %993 = stablehlo.slice %950 [5:6, 0:8, 0:64] : (tensor<8x8x64xf32>) -> tensor<1x8x64xf32>
    %994 = stablehlo.reshape %993 : (tensor<1x8x64xf32>) -> tensor<1x1x1x8x64xf32>
    %995 = stablehlo.dynamic_update_slice %987, %994, %31, %16, %992, %9, %9 : (tensor<8x16x256x8x64xf32>, tensor<1x1x1x8x64xf32>, tensor<i32>, tensor<i32>, tensor<i32>, tensor<i32>, tensor<i32>) -> tensor<8x16x256x8x64xf32>
    %996 = stablehlo.slice %932 [5:6, 0:8, 0:64] : (tensor<8x8x64xf32>) -> tensor<1x8x64xf32>
    %997 = stablehlo.reshape %996 : (tensor<1x8x64xf32>) -> tensor<1x1x1x8x64xf32>
    %998 = stablehlo.dynamic_update_slice %990, %997, %31, %16, %992, %9, %9 : (tensor<8x16x256x8x64xf32>, tensor<1x1x1x8x64xf32>, tensor<i32>, tensor<i32>, tensor<i32>, tensor<i32>, tensor<i32>) -> tensor<8x16x256x8x64xf32>
    %999 = stablehlo.slice %arg147 [6:7] : (tensor<8xi32>) -> tensor<1xi32>
    %1000 = stablehlo.reshape %999 : (tensor<1xi32>) -> tensor<i32>
    %1001 = stablehlo.slice %950 [6:7, 0:8, 0:64] : (tensor<8x8x64xf32>) -> tensor<1x8x64xf32>
    %1002 = stablehlo.reshape %1001 : (tensor<1x8x64xf32>) -> tensor<1x1x1x8x64xf32>
    %1003 = stablehlo.dynamic_update_slice %995, %1002, %32, %16, %1000, %9, %9 : (tensor<8x16x256x8x64xf32>, tensor<1x1x1x8x64xf32>, tensor<i32>, tensor<i32>, tensor<i32>, tensor<i32>, tensor<i32>) -> tensor<8x16x256x8x64xf32>
    %1004 = stablehlo.slice %932 [6:7, 0:8, 0:64] : (tensor<8x8x64xf32>) -> tensor<1x8x64xf32>
    %1005 = stablehlo.reshape %1004 : (tensor<1x8x64xf32>) -> tensor<1x1x1x8x64xf32>
    %1006 = stablehlo.dynamic_update_slice %998, %1005, %32, %16, %1000, %9, %9 : (tensor<8x16x256x8x64xf32>, tensor<1x1x1x8x64xf32>, tensor<i32>, tensor<i32>, tensor<i32>, tensor<i32>, tensor<i32>) -> tensor<8x16x256x8x64xf32>
    %1007 = stablehlo.slice %arg147 [7:8] : (tensor<8xi32>) -> tensor<1xi32>
    %1008 = stablehlo.reshape %1007 : (tensor<1xi32>) -> tensor<i32>
    %1009 = stablehlo.slice %950 [7:8, 0:8, 0:64] : (tensor<8x8x64xf32>) -> tensor<1x8x64xf32>
    %1010 = stablehlo.reshape %1009 : (tensor<1x8x64xf32>) -> tensor<1x1x1x8x64xf32>
    %1011 = stablehlo.dynamic_update_slice %1003, %1010, %33, %16, %1008, %9, %9 : (tensor<8x16x256x8x64xf32>, tensor<1x1x1x8x64xf32>, tensor<i32>, tensor<i32>, tensor<i32>, tensor<i32>, tensor<i32>) -> tensor<8x16x256x8x64xf32>
    %1012 = stablehlo.slice %932 [7:8, 0:8, 0:64] : (tensor<8x8x64xf32>) -> tensor<1x8x64xf32>
    %1013 = stablehlo.reshape %1012 : (tensor<1x8x64xf32>) -> tensor<1x1x1x8x64xf32>
    %1014 = stablehlo.dynamic_update_slice %1006, %1013, %33, %16, %1008, %9, %9 : (tensor<8x16x256x8x64xf32>, tensor<1x1x1x8x64xf32>, tensor<i32>, tensor<i32>, tensor<i32>, tensor<i32>, tensor<i32>) -> tensor<8x16x256x8x64xf32>
    %1015 = stablehlo.slice %1011 [0:8, 6:7, 0:256, 0:8, 0:64] : (tensor<8x16x256x8x64xf32>) -> tensor<8x1x256x8x64xf32>
    %1016 = stablehlo.reshape %1015 : (tensor<8x1x256x8x64xf32>) -> tensor<8x256x8x64xf32>
    %1017 = stablehlo.slice %1014 [0:8, 6:7, 0:256, 0:8, 0:64] : (tensor<8x16x256x8x64xf32>) -> tensor<8x1x256x8x64xf32>
    %1018 = stablehlo.reshape %1017 : (tensor<8x1x256x8x64xf32>) -> tensor<8x256x8x64xf32>
    %1019 = stablehlo.reshape %941 : (tensor<8x32x64xf32>) -> tensor<8x8x4x64xf32>
    %1020 = stablehlo.dot_general %1019, %1016, batching_dims = [0, 1] x [0, 2], contracting_dims = [3] x [3] : (tensor<8x8x4x64xf32>, tensor<8x256x8x64xf32>) -> tensor<8x8x4x256xf32>
    %1021 = stablehlo.reshape %1020 : (tensor<8x8x4x256xf32>) -> tensor<8x32x256xf32>
    %1022 = stablehlo.broadcast_in_dim %8, dims = [] : (tensor<f32>) -> tensor<8x32x256xf32>
    %1023 = stablehlo.multiply %1021, %1022 : tensor<8x32x256xf32>
    %1024 = stablehlo.broadcast_in_dim %45, dims = [0, 2] : (tensor<8x256xf32>) -> tensor<8x32x256xf32>
    %1025 = stablehlo.add %1023, %1024 : tensor<8x32x256xf32>
    %1026 = stablehlo.reduce(%1025 init: %4) applies stablehlo.maximum across dimensions = [2] : (tensor<8x32x256xf32>, tensor<f32>) -> tensor<8x32xf32>
    %1027 = stablehlo.broadcast_in_dim %1026, dims = [0, 1] : (tensor<8x32xf32>) -> tensor<8x32x256xf32>
    %1028 = stablehlo.subtract %1025, %1027 : tensor<8x32x256xf32>
    %1029 = stablehlo.exponential %1028 : tensor<8x32x256xf32>
    %1030 = stablehlo.reduce(%1029 init: %2) applies stablehlo.add across dimensions = [2] : (tensor<8x32x256xf32>, tensor<f32>) -> tensor<8x32xf32>
    %1031 = stablehlo.broadcast_in_dim %1030, dims = [0, 1] : (tensor<8x32xf32>) -> tensor<8x32x256xf32>
    %1032 = stablehlo.divide %1029, %1031 : tensor<8x32x256xf32>
    %1033 = stablehlo.reshape %1032 : (tensor<8x32x256xf32>) -> tensor<8x8x4x256xf32>
    %1034 = stablehlo.dot_general %1033, %1018, batching_dims = [0, 1] x [0, 2], contracting_dims = [3] x [1] : (tensor<8x8x4x256xf32>, tensor<8x256x8x64xf32>) -> tensor<8x8x4x64xf32>
    %1035 = stablehlo.reshape %1034 : (tensor<8x8x4x64xf32>) -> tensor<8x32x64xf32>
    %1036 = stablehlo.reshape %1035 : (tensor<8x32x64xf32>) -> tensor<8x2048xf32>
    %1037 = stablehlo.dot_general %1036, %arg62, contracting_dims = [1] x [1] : (tensor<8x2048xf32>, tensor<2048x2048xf32>) -> tensor<8x2048xf32>
    %1038 = stablehlo.add %915, %1037 : tensor<8x2048xf32>
    %1039 = stablehlo.multiply %1038, %1038 : tensor<8x2048xf32>
    %1040 = stablehlo.reduce(%1039 init: %2) applies stablehlo.add across dimensions = [1] : (tensor<8x2048xf32>, tensor<f32>) -> tensor<8xf32>
    %1041 = stablehlo.broadcast_in_dim %7, dims = [] : (tensor<f32>) -> tensor<8xf32>
    %1042 = stablehlo.divide %1040, %1041 : tensor<8xf32>
    %1043 = stablehlo.broadcast_in_dim %6, dims = [] : (tensor<f32>) -> tensor<8xf32>
    %1044 = stablehlo.add %1042, %1043 : tensor<8xf32>
    %1045 = stablehlo.rsqrt %1044 : tensor<8xf32>
    %1046 = stablehlo.broadcast_in_dim %1045, dims = [0] : (tensor<8xf32>) -> tensor<8x2048xf32>
    %1047 = stablehlo.multiply %1038, %1046 : tensor<8x2048xf32>
    %1048 = stablehlo.broadcast_in_dim %arg59, dims = [1] : (tensor<2048xf32>) -> tensor<8x2048xf32>
    %1049 = stablehlo.multiply %1047, %1048 : tensor<8x2048xf32>
    %1050 = stablehlo.dot_general %1049, %arg57, contracting_dims = [1] x [1] : (tensor<8x2048xf32>, tensor<8192x2048xf32>) -> tensor<8x8192xf32>
    %1051 = stablehlo.dot_general %1049, %arg60, contracting_dims = [1] x [1] : (tensor<8x2048xf32>, tensor<8192x2048xf32>) -> tensor<8x8192xf32>
    %1052 = stablehlo.negate %1050 : tensor<8x8192xf32>
    %1053 = stablehlo.exponential %1052 : tensor<8x8192xf32>
    %1054 = stablehlo.broadcast_in_dim %3, dims = [] : (tensor<f32>) -> tensor<8x8192xf32>
    %1055 = stablehlo.add %1054, %1053 : tensor<8x8192xf32>
    %1056 = stablehlo.divide %1054, %1055 : tensor<8x8192xf32>
    %1057 = stablehlo.multiply %1050, %1056 : tensor<8x8192xf32>
    %1058 = stablehlo.multiply %1057, %1051 : tensor<8x8192xf32>
    %1059 = stablehlo.dot_general %1058, %arg56, contracting_dims = [1] x [1] : (tensor<8x8192xf32>, tensor<2048x8192xf32>) -> tensor<8x2048xf32>
    %1060 = stablehlo.add %1038, %1059 : tensor<8x2048xf32>
    %1061 = stablehlo.multiply %1060, %1060 : tensor<8x2048xf32>
    %1062 = stablehlo.reduce(%1061 init: %2) applies stablehlo.add across dimensions = [1] : (tensor<8x2048xf32>, tensor<f32>) -> tensor<8xf32>
    %1063 = stablehlo.broadcast_in_dim %7, dims = [] : (tensor<f32>) -> tensor<8xf32>
    %1064 = stablehlo.divide %1062, %1063 : tensor<8xf32>
    %1065 = stablehlo.broadcast_in_dim %6, dims = [] : (tensor<f32>) -> tensor<8xf32>
    %1066 = stablehlo.add %1064, %1065 : tensor<8xf32>
    %1067 = stablehlo.rsqrt %1066 : tensor<8xf32>
    %1068 = stablehlo.broadcast_in_dim %1067, dims = [0] : (tensor<8xf32>) -> tensor<8x2048xf32>
    %1069 = stablehlo.multiply %1060, %1068 : tensor<8x2048xf32>
    %1070 = stablehlo.broadcast_in_dim %arg67, dims = [1] : (tensor<2048xf32>) -> tensor<8x2048xf32>
    %1071 = stablehlo.multiply %1069, %1070 : tensor<8x2048xf32>
    %1072 = stablehlo.dot_general %1071, %arg72, contracting_dims = [1] x [1] : (tensor<8x2048xf32>, tensor<2048x2048xf32>) -> tensor<8x2048xf32>
    %1073 = stablehlo.reshape %1072 : (tensor<8x2048xf32>) -> tensor<8x32x64xf32>
    %1074 = stablehlo.dot_general %1071, %arg70, contracting_dims = [1] x [1] : (tensor<8x2048xf32>, tensor<512x2048xf32>) -> tensor<8x512xf32>
    %1075 = stablehlo.reshape %1074 : (tensor<8x512xf32>) -> tensor<8x8x64xf32>
    %1076 = stablehlo.dot_general %1071, %arg73, contracting_dims = [1] x [1] : (tensor<8x2048xf32>, tensor<512x2048xf32>) -> tensor<8x512xf32>
    %1077 = stablehlo.reshape %1076 : (tensor<8x512xf32>) -> tensor<8x8x64xf32>
    %1078 = stablehlo.broadcast_in_dim %37, dims = [0, 2] : (tensor<8x64xf32>) -> tensor<8x32x64xf32>
    %1079 = stablehlo.broadcast_in_dim %38, dims = [0, 2] : (tensor<8x64xf32>) -> tensor<8x32x64xf32>
    %1080 = stablehlo.multiply %1073, %1078 : tensor<8x32x64xf32>
    %1081 = stablehlo.slice %1073 [0:8, 0:32, 0:32] : (tensor<8x32x64xf32>) -> tensor<8x32x32xf32>
    %1082 = stablehlo.slice %1073 [0:8, 0:32, 32:64] : (tensor<8x32x64xf32>) -> tensor<8x32x32xf32>
    %1083 = stablehlo.negate %1082 : tensor<8x32x32xf32>
    %1084 = stablehlo.concatenate %1083, %1081, dim = 2 : (tensor<8x32x32xf32>, tensor<8x32x32xf32>) -> tensor<8x32x64xf32>
    %1085 = stablehlo.multiply %1084, %1079 : tensor<8x32x64xf32>
    %1086 = stablehlo.add %1080, %1085 : tensor<8x32x64xf32>
    %1087 = stablehlo.broadcast_in_dim %37, dims = [0, 2] : (tensor<8x64xf32>) -> tensor<8x8x64xf32>
    %1088 = stablehlo.broadcast_in_dim %38, dims = [0, 2] : (tensor<8x64xf32>) -> tensor<8x8x64xf32>
    %1089 = stablehlo.multiply %1075, %1087 : tensor<8x8x64xf32>
    %1090 = stablehlo.slice %1075 [0:8, 0:8, 0:32] : (tensor<8x8x64xf32>) -> tensor<8x8x32xf32>
    %1091 = stablehlo.slice %1075 [0:8, 0:8, 32:64] : (tensor<8x8x64xf32>) -> tensor<8x8x32xf32>
    %1092 = stablehlo.negate %1091 : tensor<8x8x32xf32>
    %1093 = stablehlo.concatenate %1092, %1090, dim = 2 : (tensor<8x8x32xf32>, tensor<8x8x32xf32>) -> tensor<8x8x64xf32>
    %1094 = stablehlo.multiply %1093, %1088 : tensor<8x8x64xf32>
    %1095 = stablehlo.add %1089, %1094 : tensor<8x8x64xf32>
    %1096 = stablehlo.slice %arg147 [0:1] : (tensor<8xi32>) -> tensor<1xi32>
    %1097 = stablehlo.reshape %1096 : (tensor<1xi32>) -> tensor<i32>
    %1098 = stablehlo.slice %1095 [0:1, 0:8, 0:64] : (tensor<8x8x64xf32>) -> tensor<1x8x64xf32>
    %1099 = stablehlo.reshape %1098 : (tensor<1x8x64xf32>) -> tensor<1x1x1x8x64xf32>
    %1100 = stablehlo.dynamic_update_slice %1011, %1099, %26, %17, %1097, %9, %9 : (tensor<8x16x256x8x64xf32>, tensor<1x1x1x8x64xf32>, tensor<i32>, tensor<i32>, tensor<i32>, tensor<i32>, tensor<i32>) -> tensor<8x16x256x8x64xf32>
    %1101 = stablehlo.slice %1077 [0:1, 0:8, 0:64] : (tensor<8x8x64xf32>) -> tensor<1x8x64xf32>
    %1102 = stablehlo.reshape %1101 : (tensor<1x8x64xf32>) -> tensor<1x1x1x8x64xf32>
    %1103 = stablehlo.dynamic_update_slice %1014, %1102, %26, %17, %1097, %9, %9 : (tensor<8x16x256x8x64xf32>, tensor<1x1x1x8x64xf32>, tensor<i32>, tensor<i32>, tensor<i32>, tensor<i32>, tensor<i32>) -> tensor<8x16x256x8x64xf32>
    %1104 = stablehlo.slice %arg147 [1:2] : (tensor<8xi32>) -> tensor<1xi32>
    %1105 = stablehlo.reshape %1104 : (tensor<1xi32>) -> tensor<i32>
    %1106 = stablehlo.slice %1095 [1:2, 0:8, 0:64] : (tensor<8x8x64xf32>) -> tensor<1x8x64xf32>
    %1107 = stablehlo.reshape %1106 : (tensor<1x8x64xf32>) -> tensor<1x1x1x8x64xf32>
    %1108 = stablehlo.dynamic_update_slice %1100, %1107, %27, %17, %1105, %9, %9 : (tensor<8x16x256x8x64xf32>, tensor<1x1x1x8x64xf32>, tensor<i32>, tensor<i32>, tensor<i32>, tensor<i32>, tensor<i32>) -> tensor<8x16x256x8x64xf32>
    %1109 = stablehlo.slice %1077 [1:2, 0:8, 0:64] : (tensor<8x8x64xf32>) -> tensor<1x8x64xf32>
    %1110 = stablehlo.reshape %1109 : (tensor<1x8x64xf32>) -> tensor<1x1x1x8x64xf32>
    %1111 = stablehlo.dynamic_update_slice %1103, %1110, %27, %17, %1105, %9, %9 : (tensor<8x16x256x8x64xf32>, tensor<1x1x1x8x64xf32>, tensor<i32>, tensor<i32>, tensor<i32>, tensor<i32>, tensor<i32>) -> tensor<8x16x256x8x64xf32>
    %1112 = stablehlo.slice %arg147 [2:3] : (tensor<8xi32>) -> tensor<1xi32>
    %1113 = stablehlo.reshape %1112 : (tensor<1xi32>) -> tensor<i32>
    %1114 = stablehlo.slice %1095 [2:3, 0:8, 0:64] : (tensor<8x8x64xf32>) -> tensor<1x8x64xf32>
    %1115 = stablehlo.reshape %1114 : (tensor<1x8x64xf32>) -> tensor<1x1x1x8x64xf32>
    %1116 = stablehlo.dynamic_update_slice %1108, %1115, %28, %17, %1113, %9, %9 : (tensor<8x16x256x8x64xf32>, tensor<1x1x1x8x64xf32>, tensor<i32>, tensor<i32>, tensor<i32>, tensor<i32>, tensor<i32>) -> tensor<8x16x256x8x64xf32>
    %1117 = stablehlo.slice %1077 [2:3, 0:8, 0:64] : (tensor<8x8x64xf32>) -> tensor<1x8x64xf32>
    %1118 = stablehlo.reshape %1117 : (tensor<1x8x64xf32>) -> tensor<1x1x1x8x64xf32>
    %1119 = stablehlo.dynamic_update_slice %1111, %1118, %28, %17, %1113, %9, %9 : (tensor<8x16x256x8x64xf32>, tensor<1x1x1x8x64xf32>, tensor<i32>, tensor<i32>, tensor<i32>, tensor<i32>, tensor<i32>) -> tensor<8x16x256x8x64xf32>
    %1120 = stablehlo.slice %arg147 [3:4] : (tensor<8xi32>) -> tensor<1xi32>
    %1121 = stablehlo.reshape %1120 : (tensor<1xi32>) -> tensor<i32>
    %1122 = stablehlo.slice %1095 [3:4, 0:8, 0:64] : (tensor<8x8x64xf32>) -> tensor<1x8x64xf32>
    %1123 = stablehlo.reshape %1122 : (tensor<1x8x64xf32>) -> tensor<1x1x1x8x64xf32>
    %1124 = stablehlo.dynamic_update_slice %1116, %1123, %29, %17, %1121, %9, %9 : (tensor<8x16x256x8x64xf32>, tensor<1x1x1x8x64xf32>, tensor<i32>, tensor<i32>, tensor<i32>, tensor<i32>, tensor<i32>) -> tensor<8x16x256x8x64xf32>
    %1125 = stablehlo.slice %1077 [3:4, 0:8, 0:64] : (tensor<8x8x64xf32>) -> tensor<1x8x64xf32>
    %1126 = stablehlo.reshape %1125 : (tensor<1x8x64xf32>) -> tensor<1x1x1x8x64xf32>
    %1127 = stablehlo.dynamic_update_slice %1119, %1126, %29, %17, %1121, %9, %9 : (tensor<8x16x256x8x64xf32>, tensor<1x1x1x8x64xf32>, tensor<i32>, tensor<i32>, tensor<i32>, tensor<i32>, tensor<i32>) -> tensor<8x16x256x8x64xf32>
    %1128 = stablehlo.slice %arg147 [4:5] : (tensor<8xi32>) -> tensor<1xi32>
    %1129 = stablehlo.reshape %1128 : (tensor<1xi32>) -> tensor<i32>
    %1130 = stablehlo.slice %1095 [4:5, 0:8, 0:64] : (tensor<8x8x64xf32>) -> tensor<1x8x64xf32>
    %1131 = stablehlo.reshape %1130 : (tensor<1x8x64xf32>) -> tensor<1x1x1x8x64xf32>
    %1132 = stablehlo.dynamic_update_slice %1124, %1131, %30, %17, %1129, %9, %9 : (tensor<8x16x256x8x64xf32>, tensor<1x1x1x8x64xf32>, tensor<i32>, tensor<i32>, tensor<i32>, tensor<i32>, tensor<i32>) -> tensor<8x16x256x8x64xf32>
    %1133 = stablehlo.slice %1077 [4:5, 0:8, 0:64] : (tensor<8x8x64xf32>) -> tensor<1x8x64xf32>
    %1134 = stablehlo.reshape %1133 : (tensor<1x8x64xf32>) -> tensor<1x1x1x8x64xf32>
    %1135 = stablehlo.dynamic_update_slice %1127, %1134, %30, %17, %1129, %9, %9 : (tensor<8x16x256x8x64xf32>, tensor<1x1x1x8x64xf32>, tensor<i32>, tensor<i32>, tensor<i32>, tensor<i32>, tensor<i32>) -> tensor<8x16x256x8x64xf32>
    %1136 = stablehlo.slice %arg147 [5:6] : (tensor<8xi32>) -> tensor<1xi32>
    %1137 = stablehlo.reshape %1136 : (tensor<1xi32>) -> tensor<i32>
    %1138 = stablehlo.slice %1095 [5:6, 0:8, 0:64] : (tensor<8x8x64xf32>) -> tensor<1x8x64xf32>
    %1139 = stablehlo.reshape %1138 : (tensor<1x8x64xf32>) -> tensor<1x1x1x8x64xf32>
    %1140 = stablehlo.dynamic_update_slice %1132, %1139, %31, %17, %1137, %9, %9 : (tensor<8x16x256x8x64xf32>, tensor<1x1x1x8x64xf32>, tensor<i32>, tensor<i32>, tensor<i32>, tensor<i32>, tensor<i32>) -> tensor<8x16x256x8x64xf32>
    %1141 = stablehlo.slice %1077 [5:6, 0:8, 0:64] : (tensor<8x8x64xf32>) -> tensor<1x8x64xf32>
    %1142 = stablehlo.reshape %1141 : (tensor<1x8x64xf32>) -> tensor<1x1x1x8x64xf32>
    %1143 = stablehlo.dynamic_update_slice %1135, %1142, %31, %17, %1137, %9, %9 : (tensor<8x16x256x8x64xf32>, tensor<1x1x1x8x64xf32>, tensor<i32>, tensor<i32>, tensor<i32>, tensor<i32>, tensor<i32>) -> tensor<8x16x256x8x64xf32>
    %1144 = stablehlo.slice %arg147 [6:7] : (tensor<8xi32>) -> tensor<1xi32>
    %1145 = stablehlo.reshape %1144 : (tensor<1xi32>) -> tensor<i32>
    %1146 = stablehlo.slice %1095 [6:7, 0:8, 0:64] : (tensor<8x8x64xf32>) -> tensor<1x8x64xf32>
    %1147 = stablehlo.reshape %1146 : (tensor<1x8x64xf32>) -> tensor<1x1x1x8x64xf32>
    %1148 = stablehlo.dynamic_update_slice %1140, %1147, %32, %17, %1145, %9, %9 : (tensor<8x16x256x8x64xf32>, tensor<1x1x1x8x64xf32>, tensor<i32>, tensor<i32>, tensor<i32>, tensor<i32>, tensor<i32>) -> tensor<8x16x256x8x64xf32>
    %1149 = stablehlo.slice %1077 [6:7, 0:8, 0:64] : (tensor<8x8x64xf32>) -> tensor<1x8x64xf32>
    %1150 = stablehlo.reshape %1149 : (tensor<1x8x64xf32>) -> tensor<1x1x1x8x64xf32>
    %1151 = stablehlo.dynamic_update_slice %1143, %1150, %32, %17, %1145, %9, %9 : (tensor<8x16x256x8x64xf32>, tensor<1x1x1x8x64xf32>, tensor<i32>, tensor<i32>, tensor<i32>, tensor<i32>, tensor<i32>) -> tensor<8x16x256x8x64xf32>
    %1152 = stablehlo.slice %arg147 [7:8] : (tensor<8xi32>) -> tensor<1xi32>
    %1153 = stablehlo.reshape %1152 : (tensor<1xi32>) -> tensor<i32>
    %1154 = stablehlo.slice %1095 [7:8, 0:8, 0:64] : (tensor<8x8x64xf32>) -> tensor<1x8x64xf32>
    %1155 = stablehlo.reshape %1154 : (tensor<1x8x64xf32>) -> tensor<1x1x1x8x64xf32>
    %1156 = stablehlo.dynamic_update_slice %1148, %1155, %33, %17, %1153, %9, %9 : (tensor<8x16x256x8x64xf32>, tensor<1x1x1x8x64xf32>, tensor<i32>, tensor<i32>, tensor<i32>, tensor<i32>, tensor<i32>) -> tensor<8x16x256x8x64xf32>
    %1157 = stablehlo.slice %1077 [7:8, 0:8, 0:64] : (tensor<8x8x64xf32>) -> tensor<1x8x64xf32>
    %1158 = stablehlo.reshape %1157 : (tensor<1x8x64xf32>) -> tensor<1x1x1x8x64xf32>
    %1159 = stablehlo.dynamic_update_slice %1151, %1158, %33, %17, %1153, %9, %9 : (tensor<8x16x256x8x64xf32>, tensor<1x1x1x8x64xf32>, tensor<i32>, tensor<i32>, tensor<i32>, tensor<i32>, tensor<i32>) -> tensor<8x16x256x8x64xf32>
    %1160 = stablehlo.slice %1156 [0:8, 7:8, 0:256, 0:8, 0:64] : (tensor<8x16x256x8x64xf32>) -> tensor<8x1x256x8x64xf32>
    %1161 = stablehlo.reshape %1160 : (tensor<8x1x256x8x64xf32>) -> tensor<8x256x8x64xf32>
    %1162 = stablehlo.slice %1159 [0:8, 7:8, 0:256, 0:8, 0:64] : (tensor<8x16x256x8x64xf32>) -> tensor<8x1x256x8x64xf32>
    %1163 = stablehlo.reshape %1162 : (tensor<8x1x256x8x64xf32>) -> tensor<8x256x8x64xf32>
    %1164 = stablehlo.reshape %1086 : (tensor<8x32x64xf32>) -> tensor<8x8x4x64xf32>
    %1165 = stablehlo.dot_general %1164, %1161, batching_dims = [0, 1] x [0, 2], contracting_dims = [3] x [3] : (tensor<8x8x4x64xf32>, tensor<8x256x8x64xf32>) -> tensor<8x8x4x256xf32>
    %1166 = stablehlo.reshape %1165 : (tensor<8x8x4x256xf32>) -> tensor<8x32x256xf32>
    %1167 = stablehlo.broadcast_in_dim %8, dims = [] : (tensor<f32>) -> tensor<8x32x256xf32>
    %1168 = stablehlo.multiply %1166, %1167 : tensor<8x32x256xf32>
    %1169 = stablehlo.broadcast_in_dim %45, dims = [0, 2] : (tensor<8x256xf32>) -> tensor<8x32x256xf32>
    %1170 = stablehlo.add %1168, %1169 : tensor<8x32x256xf32>
    %1171 = stablehlo.reduce(%1170 init: %4) applies stablehlo.maximum across dimensions = [2] : (tensor<8x32x256xf32>, tensor<f32>) -> tensor<8x32xf32>
    %1172 = stablehlo.broadcast_in_dim %1171, dims = [0, 1] : (tensor<8x32xf32>) -> tensor<8x32x256xf32>
    %1173 = stablehlo.subtract %1170, %1172 : tensor<8x32x256xf32>
    %1174 = stablehlo.exponential %1173 : tensor<8x32x256xf32>
    %1175 = stablehlo.reduce(%1174 init: %2) applies stablehlo.add across dimensions = [2] : (tensor<8x32x256xf32>, tensor<f32>) -> tensor<8x32xf32>
    %1176 = stablehlo.broadcast_in_dim %1175, dims = [0, 1] : (tensor<8x32xf32>) -> tensor<8x32x256xf32>
    %1177 = stablehlo.divide %1174, %1176 : tensor<8x32x256xf32>
    %1178 = stablehlo.reshape %1177 : (tensor<8x32x256xf32>) -> tensor<8x8x4x256xf32>
    %1179 = stablehlo.dot_general %1178, %1163, batching_dims = [0, 1] x [0, 2], contracting_dims = [3] x [1] : (tensor<8x8x4x256xf32>, tensor<8x256x8x64xf32>) -> tensor<8x8x4x64xf32>
    %1180 = stablehlo.reshape %1179 : (tensor<8x8x4x64xf32>) -> tensor<8x32x64xf32>
    %1181 = stablehlo.reshape %1180 : (tensor<8x32x64xf32>) -> tensor<8x2048xf32>
    %1182 = stablehlo.dot_general %1181, %arg71, contracting_dims = [1] x [1] : (tensor<8x2048xf32>, tensor<2048x2048xf32>) -> tensor<8x2048xf32>
    %1183 = stablehlo.add %1060, %1182 : tensor<8x2048xf32>
    %1184 = stablehlo.multiply %1183, %1183 : tensor<8x2048xf32>
    %1185 = stablehlo.reduce(%1184 init: %2) applies stablehlo.add across dimensions = [1] : (tensor<8x2048xf32>, tensor<f32>) -> tensor<8xf32>
    %1186 = stablehlo.broadcast_in_dim %7, dims = [] : (tensor<f32>) -> tensor<8xf32>
    %1187 = stablehlo.divide %1185, %1186 : tensor<8xf32>
    %1188 = stablehlo.broadcast_in_dim %6, dims = [] : (tensor<f32>) -> tensor<8xf32>
    %1189 = stablehlo.add %1187, %1188 : tensor<8xf32>
    %1190 = stablehlo.rsqrt %1189 : tensor<8xf32>
    %1191 = stablehlo.broadcast_in_dim %1190, dims = [0] : (tensor<8xf32>) -> tensor<8x2048xf32>
    %1192 = stablehlo.multiply %1183, %1191 : tensor<8x2048xf32>
    %1193 = stablehlo.broadcast_in_dim %arg68, dims = [1] : (tensor<2048xf32>) -> tensor<8x2048xf32>
    %1194 = stablehlo.multiply %1192, %1193 : tensor<8x2048xf32>
    %1195 = stablehlo.dot_general %1194, %arg66, contracting_dims = [1] x [1] : (tensor<8x2048xf32>, tensor<8192x2048xf32>) -> tensor<8x8192xf32>
    %1196 = stablehlo.dot_general %1194, %arg69, contracting_dims = [1] x [1] : (tensor<8x2048xf32>, tensor<8192x2048xf32>) -> tensor<8x8192xf32>
    %1197 = stablehlo.negate %1195 : tensor<8x8192xf32>
    %1198 = stablehlo.exponential %1197 : tensor<8x8192xf32>
    %1199 = stablehlo.broadcast_in_dim %3, dims = [] : (tensor<f32>) -> tensor<8x8192xf32>
    %1200 = stablehlo.add %1199, %1198 : tensor<8x8192xf32>
    %1201 = stablehlo.divide %1199, %1200 : tensor<8x8192xf32>
    %1202 = stablehlo.multiply %1195, %1201 : tensor<8x8192xf32>
    %1203 = stablehlo.multiply %1202, %1196 : tensor<8x8192xf32>
    %1204 = stablehlo.dot_general %1203, %arg65, contracting_dims = [1] x [1] : (tensor<8x8192xf32>, tensor<2048x8192xf32>) -> tensor<8x2048xf32>
    %1205 = stablehlo.add %1183, %1204 : tensor<8x2048xf32>
    %1206 = stablehlo.multiply %1205, %1205 : tensor<8x2048xf32>
    %1207 = stablehlo.reduce(%1206 init: %2) applies stablehlo.add across dimensions = [1] : (tensor<8x2048xf32>, tensor<f32>) -> tensor<8xf32>
    %1208 = stablehlo.broadcast_in_dim %7, dims = [] : (tensor<f32>) -> tensor<8xf32>
    %1209 = stablehlo.divide %1207, %1208 : tensor<8xf32>
    %1210 = stablehlo.broadcast_in_dim %6, dims = [] : (tensor<f32>) -> tensor<8xf32>
    %1211 = stablehlo.add %1209, %1210 : tensor<8xf32>
    %1212 = stablehlo.rsqrt %1211 : tensor<8xf32>
    %1213 = stablehlo.broadcast_in_dim %1212, dims = [0] : (tensor<8xf32>) -> tensor<8x2048xf32>
    %1214 = stablehlo.multiply %1205, %1213 : tensor<8x2048xf32>
    %1215 = stablehlo.broadcast_in_dim %arg76, dims = [1] : (tensor<2048xf32>) -> tensor<8x2048xf32>
    %1216 = stablehlo.multiply %1214, %1215 : tensor<8x2048xf32>
    %1217 = stablehlo.dot_general %1216, %arg81, contracting_dims = [1] x [1] : (tensor<8x2048xf32>, tensor<2048x2048xf32>) -> tensor<8x2048xf32>
    %1218 = stablehlo.reshape %1217 : (tensor<8x2048xf32>) -> tensor<8x32x64xf32>
    %1219 = stablehlo.dot_general %1216, %arg79, contracting_dims = [1] x [1] : (tensor<8x2048xf32>, tensor<512x2048xf32>) -> tensor<8x512xf32>
    %1220 = stablehlo.reshape %1219 : (tensor<8x512xf32>) -> tensor<8x8x64xf32>
    %1221 = stablehlo.dot_general %1216, %arg82, contracting_dims = [1] x [1] : (tensor<8x2048xf32>, tensor<512x2048xf32>) -> tensor<8x512xf32>
    %1222 = stablehlo.reshape %1221 : (tensor<8x512xf32>) -> tensor<8x8x64xf32>
    %1223 = stablehlo.broadcast_in_dim %37, dims = [0, 2] : (tensor<8x64xf32>) -> tensor<8x32x64xf32>
    %1224 = stablehlo.broadcast_in_dim %38, dims = [0, 2] : (tensor<8x64xf32>) -> tensor<8x32x64xf32>
    %1225 = stablehlo.multiply %1218, %1223 : tensor<8x32x64xf32>
    %1226 = stablehlo.slice %1218 [0:8, 0:32, 0:32] : (tensor<8x32x64xf32>) -> tensor<8x32x32xf32>
    %1227 = stablehlo.slice %1218 [0:8, 0:32, 32:64] : (tensor<8x32x64xf32>) -> tensor<8x32x32xf32>
    %1228 = stablehlo.negate %1227 : tensor<8x32x32xf32>
    %1229 = stablehlo.concatenate %1228, %1226, dim = 2 : (tensor<8x32x32xf32>, tensor<8x32x32xf32>) -> tensor<8x32x64xf32>
    %1230 = stablehlo.multiply %1229, %1224 : tensor<8x32x64xf32>
    %1231 = stablehlo.add %1225, %1230 : tensor<8x32x64xf32>
    %1232 = stablehlo.broadcast_in_dim %37, dims = [0, 2] : (tensor<8x64xf32>) -> tensor<8x8x64xf32>
    %1233 = stablehlo.broadcast_in_dim %38, dims = [0, 2] : (tensor<8x64xf32>) -> tensor<8x8x64xf32>
    %1234 = stablehlo.multiply %1220, %1232 : tensor<8x8x64xf32>
    %1235 = stablehlo.slice %1220 [0:8, 0:8, 0:32] : (tensor<8x8x64xf32>) -> tensor<8x8x32xf32>
    %1236 = stablehlo.slice %1220 [0:8, 0:8, 32:64] : (tensor<8x8x64xf32>) -> tensor<8x8x32xf32>
    %1237 = stablehlo.negate %1236 : tensor<8x8x32xf32>
    %1238 = stablehlo.concatenate %1237, %1235, dim = 2 : (tensor<8x8x32xf32>, tensor<8x8x32xf32>) -> tensor<8x8x64xf32>
    %1239 = stablehlo.multiply %1238, %1233 : tensor<8x8x64xf32>
    %1240 = stablehlo.add %1234, %1239 : tensor<8x8x64xf32>
    %1241 = stablehlo.slice %arg147 [0:1] : (tensor<8xi32>) -> tensor<1xi32>
    %1242 = stablehlo.reshape %1241 : (tensor<1xi32>) -> tensor<i32>
    %1243 = stablehlo.slice %1240 [0:1, 0:8, 0:64] : (tensor<8x8x64xf32>) -> tensor<1x8x64xf32>
    %1244 = stablehlo.reshape %1243 : (tensor<1x8x64xf32>) -> tensor<1x1x1x8x64xf32>
    %1245 = stablehlo.dynamic_update_slice %1156, %1244, %26, %18, %1242, %9, %9 : (tensor<8x16x256x8x64xf32>, tensor<1x1x1x8x64xf32>, tensor<i32>, tensor<i32>, tensor<i32>, tensor<i32>, tensor<i32>) -> tensor<8x16x256x8x64xf32>
    %1246 = stablehlo.slice %1222 [0:1, 0:8, 0:64] : (tensor<8x8x64xf32>) -> tensor<1x8x64xf32>
    %1247 = stablehlo.reshape %1246 : (tensor<1x8x64xf32>) -> tensor<1x1x1x8x64xf32>
    %1248 = stablehlo.dynamic_update_slice %1159, %1247, %26, %18, %1242, %9, %9 : (tensor<8x16x256x8x64xf32>, tensor<1x1x1x8x64xf32>, tensor<i32>, tensor<i32>, tensor<i32>, tensor<i32>, tensor<i32>) -> tensor<8x16x256x8x64xf32>
    %1249 = stablehlo.slice %arg147 [1:2] : (tensor<8xi32>) -> tensor<1xi32>
    %1250 = stablehlo.reshape %1249 : (tensor<1xi32>) -> tensor<i32>
    %1251 = stablehlo.slice %1240 [1:2, 0:8, 0:64] : (tensor<8x8x64xf32>) -> tensor<1x8x64xf32>
    %1252 = stablehlo.reshape %1251 : (tensor<1x8x64xf32>) -> tensor<1x1x1x8x64xf32>
    %1253 = stablehlo.dynamic_update_slice %1245, %1252, %27, %18, %1250, %9, %9 : (tensor<8x16x256x8x64xf32>, tensor<1x1x1x8x64xf32>, tensor<i32>, tensor<i32>, tensor<i32>, tensor<i32>, tensor<i32>) -> tensor<8x16x256x8x64xf32>
    %1254 = stablehlo.slice %1222 [1:2, 0:8, 0:64] : (tensor<8x8x64xf32>) -> tensor<1x8x64xf32>
    %1255 = stablehlo.reshape %1254 : (tensor<1x8x64xf32>) -> tensor<1x1x1x8x64xf32>
    %1256 = stablehlo.dynamic_update_slice %1248, %1255, %27, %18, %1250, %9, %9 : (tensor<8x16x256x8x64xf32>, tensor<1x1x1x8x64xf32>, tensor<i32>, tensor<i32>, tensor<i32>, tensor<i32>, tensor<i32>) -> tensor<8x16x256x8x64xf32>
    %1257 = stablehlo.slice %arg147 [2:3] : (tensor<8xi32>) -> tensor<1xi32>
    %1258 = stablehlo.reshape %1257 : (tensor<1xi32>) -> tensor<i32>
    %1259 = stablehlo.slice %1240 [2:3, 0:8, 0:64] : (tensor<8x8x64xf32>) -> tensor<1x8x64xf32>
    %1260 = stablehlo.reshape %1259 : (tensor<1x8x64xf32>) -> tensor<1x1x1x8x64xf32>
    %1261 = stablehlo.dynamic_update_slice %1253, %1260, %28, %18, %1258, %9, %9 : (tensor<8x16x256x8x64xf32>, tensor<1x1x1x8x64xf32>, tensor<i32>, tensor<i32>, tensor<i32>, tensor<i32>, tensor<i32>) -> tensor<8x16x256x8x64xf32>
    %1262 = stablehlo.slice %1222 [2:3, 0:8, 0:64] : (tensor<8x8x64xf32>) -> tensor<1x8x64xf32>
    %1263 = stablehlo.reshape %1262 : (tensor<1x8x64xf32>) -> tensor<1x1x1x8x64xf32>
    %1264 = stablehlo.dynamic_update_slice %1256, %1263, %28, %18, %1258, %9, %9 : (tensor<8x16x256x8x64xf32>, tensor<1x1x1x8x64xf32>, tensor<i32>, tensor<i32>, tensor<i32>, tensor<i32>, tensor<i32>) -> tensor<8x16x256x8x64xf32>
    %1265 = stablehlo.slice %arg147 [3:4] : (tensor<8xi32>) -> tensor<1xi32>
    %1266 = stablehlo.reshape %1265 : (tensor<1xi32>) -> tensor<i32>
    %1267 = stablehlo.slice %1240 [3:4, 0:8, 0:64] : (tensor<8x8x64xf32>) -> tensor<1x8x64xf32>
    %1268 = stablehlo.reshape %1267 : (tensor<1x8x64xf32>) -> tensor<1x1x1x8x64xf32>
    %1269 = stablehlo.dynamic_update_slice %1261, %1268, %29, %18, %1266, %9, %9 : (tensor<8x16x256x8x64xf32>, tensor<1x1x1x8x64xf32>, tensor<i32>, tensor<i32>, tensor<i32>, tensor<i32>, tensor<i32>) -> tensor<8x16x256x8x64xf32>
    %1270 = stablehlo.slice %1222 [3:4, 0:8, 0:64] : (tensor<8x8x64xf32>) -> tensor<1x8x64xf32>
    %1271 = stablehlo.reshape %1270 : (tensor<1x8x64xf32>) -> tensor<1x1x1x8x64xf32>
    %1272 = stablehlo.dynamic_update_slice %1264, %1271, %29, %18, %1266, %9, %9 : (tensor<8x16x256x8x64xf32>, tensor<1x1x1x8x64xf32>, tensor<i32>, tensor<i32>, tensor<i32>, tensor<i32>, tensor<i32>) -> tensor<8x16x256x8x64xf32>
    %1273 = stablehlo.slice %arg147 [4:5] : (tensor<8xi32>) -> tensor<1xi32>
    %1274 = stablehlo.reshape %1273 : (tensor<1xi32>) -> tensor<i32>
    %1275 = stablehlo.slice %1240 [4:5, 0:8, 0:64] : (tensor<8x8x64xf32>) -> tensor<1x8x64xf32>
    %1276 = stablehlo.reshape %1275 : (tensor<1x8x64xf32>) -> tensor<1x1x1x8x64xf32>
    %1277 = stablehlo.dynamic_update_slice %1269, %1276, %30, %18, %1274, %9, %9 : (tensor<8x16x256x8x64xf32>, tensor<1x1x1x8x64xf32>, tensor<i32>, tensor<i32>, tensor<i32>, tensor<i32>, tensor<i32>) -> tensor<8x16x256x8x64xf32>
    %1278 = stablehlo.slice %1222 [4:5, 0:8, 0:64] : (tensor<8x8x64xf32>) -> tensor<1x8x64xf32>
    %1279 = stablehlo.reshape %1278 : (tensor<1x8x64xf32>) -> tensor<1x1x1x8x64xf32>
    %1280 = stablehlo.dynamic_update_slice %1272, %1279, %30, %18, %1274, %9, %9 : (tensor<8x16x256x8x64xf32>, tensor<1x1x1x8x64xf32>, tensor<i32>, tensor<i32>, tensor<i32>, tensor<i32>, tensor<i32>) -> tensor<8x16x256x8x64xf32>
    %1281 = stablehlo.slice %arg147 [5:6] : (tensor<8xi32>) -> tensor<1xi32>
    %1282 = stablehlo.reshape %1281 : (tensor<1xi32>) -> tensor<i32>
    %1283 = stablehlo.slice %1240 [5:6, 0:8, 0:64] : (tensor<8x8x64xf32>) -> tensor<1x8x64xf32>
    %1284 = stablehlo.reshape %1283 : (tensor<1x8x64xf32>) -> tensor<1x1x1x8x64xf32>
    %1285 = stablehlo.dynamic_update_slice %1277, %1284, %31, %18, %1282, %9, %9 : (tensor<8x16x256x8x64xf32>, tensor<1x1x1x8x64xf32>, tensor<i32>, tensor<i32>, tensor<i32>, tensor<i32>, tensor<i32>) -> tensor<8x16x256x8x64xf32>
    %1286 = stablehlo.slice %1222 [5:6, 0:8, 0:64] : (tensor<8x8x64xf32>) -> tensor<1x8x64xf32>
    %1287 = stablehlo.reshape %1286 : (tensor<1x8x64xf32>) -> tensor<1x1x1x8x64xf32>
    %1288 = stablehlo.dynamic_update_slice %1280, %1287, %31, %18, %1282, %9, %9 : (tensor<8x16x256x8x64xf32>, tensor<1x1x1x8x64xf32>, tensor<i32>, tensor<i32>, tensor<i32>, tensor<i32>, tensor<i32>) -> tensor<8x16x256x8x64xf32>
    %1289 = stablehlo.slice %arg147 [6:7] : (tensor<8xi32>) -> tensor<1xi32>
    %1290 = stablehlo.reshape %1289 : (tensor<1xi32>) -> tensor<i32>
    %1291 = stablehlo.slice %1240 [6:7, 0:8, 0:64] : (tensor<8x8x64xf32>) -> tensor<1x8x64xf32>
    %1292 = stablehlo.reshape %1291 : (tensor<1x8x64xf32>) -> tensor<1x1x1x8x64xf32>
    %1293 = stablehlo.dynamic_update_slice %1285, %1292, %32, %18, %1290, %9, %9 : (tensor<8x16x256x8x64xf32>, tensor<1x1x1x8x64xf32>, tensor<i32>, tensor<i32>, tensor<i32>, tensor<i32>, tensor<i32>) -> tensor<8x16x256x8x64xf32>
    %1294 = stablehlo.slice %1222 [6:7, 0:8, 0:64] : (tensor<8x8x64xf32>) -> tensor<1x8x64xf32>
    %1295 = stablehlo.reshape %1294 : (tensor<1x8x64xf32>) -> tensor<1x1x1x8x64xf32>
    %1296 = stablehlo.dynamic_update_slice %1288, %1295, %32, %18, %1290, %9, %9 : (tensor<8x16x256x8x64xf32>, tensor<1x1x1x8x64xf32>, tensor<i32>, tensor<i32>, tensor<i32>, tensor<i32>, tensor<i32>) -> tensor<8x16x256x8x64xf32>
    %1297 = stablehlo.slice %arg147 [7:8] : (tensor<8xi32>) -> tensor<1xi32>
    %1298 = stablehlo.reshape %1297 : (tensor<1xi32>) -> tensor<i32>
    %1299 = stablehlo.slice %1240 [7:8, 0:8, 0:64] : (tensor<8x8x64xf32>) -> tensor<1x8x64xf32>
    %1300 = stablehlo.reshape %1299 : (tensor<1x8x64xf32>) -> tensor<1x1x1x8x64xf32>
    %1301 = stablehlo.dynamic_update_slice %1293, %1300, %33, %18, %1298, %9, %9 : (tensor<8x16x256x8x64xf32>, tensor<1x1x1x8x64xf32>, tensor<i32>, tensor<i32>, tensor<i32>, tensor<i32>, tensor<i32>) -> tensor<8x16x256x8x64xf32>
    %1302 = stablehlo.slice %1222 [7:8, 0:8, 0:64] : (tensor<8x8x64xf32>) -> tensor<1x8x64xf32>
    %1303 = stablehlo.reshape %1302 : (tensor<1x8x64xf32>) -> tensor<1x1x1x8x64xf32>
    %1304 = stablehlo.dynamic_update_slice %1296, %1303, %33, %18, %1298, %9, %9 : (tensor<8x16x256x8x64xf32>, tensor<1x1x1x8x64xf32>, tensor<i32>, tensor<i32>, tensor<i32>, tensor<i32>, tensor<i32>) -> tensor<8x16x256x8x64xf32>
    %1305 = stablehlo.slice %1301 [0:8, 8:9, 0:256, 0:8, 0:64] : (tensor<8x16x256x8x64xf32>) -> tensor<8x1x256x8x64xf32>
    %1306 = stablehlo.reshape %1305 : (tensor<8x1x256x8x64xf32>) -> tensor<8x256x8x64xf32>
    %1307 = stablehlo.slice %1304 [0:8, 8:9, 0:256, 0:8, 0:64] : (tensor<8x16x256x8x64xf32>) -> tensor<8x1x256x8x64xf32>
    %1308 = stablehlo.reshape %1307 : (tensor<8x1x256x8x64xf32>) -> tensor<8x256x8x64xf32>
    %1309 = stablehlo.reshape %1231 : (tensor<8x32x64xf32>) -> tensor<8x8x4x64xf32>
    %1310 = stablehlo.dot_general %1309, %1306, batching_dims = [0, 1] x [0, 2], contracting_dims = [3] x [3] : (tensor<8x8x4x64xf32>, tensor<8x256x8x64xf32>) -> tensor<8x8x4x256xf32>
    %1311 = stablehlo.reshape %1310 : (tensor<8x8x4x256xf32>) -> tensor<8x32x256xf32>
    %1312 = stablehlo.broadcast_in_dim %8, dims = [] : (tensor<f32>) -> tensor<8x32x256xf32>
    %1313 = stablehlo.multiply %1311, %1312 : tensor<8x32x256xf32>
    %1314 = stablehlo.broadcast_in_dim %45, dims = [0, 2] : (tensor<8x256xf32>) -> tensor<8x32x256xf32>
    %1315 = stablehlo.add %1313, %1314 : tensor<8x32x256xf32>
    %1316 = stablehlo.reduce(%1315 init: %4) applies stablehlo.maximum across dimensions = [2] : (tensor<8x32x256xf32>, tensor<f32>) -> tensor<8x32xf32>
    %1317 = stablehlo.broadcast_in_dim %1316, dims = [0, 1] : (tensor<8x32xf32>) -> tensor<8x32x256xf32>
    %1318 = stablehlo.subtract %1315, %1317 : tensor<8x32x256xf32>
    %1319 = stablehlo.exponential %1318 : tensor<8x32x256xf32>
    %1320 = stablehlo.reduce(%1319 init: %2) applies stablehlo.add across dimensions = [2] : (tensor<8x32x256xf32>, tensor<f32>) -> tensor<8x32xf32>
    %1321 = stablehlo.broadcast_in_dim %1320, dims = [0, 1] : (tensor<8x32xf32>) -> tensor<8x32x256xf32>
    %1322 = stablehlo.divide %1319, %1321 : tensor<8x32x256xf32>
    %1323 = stablehlo.reshape %1322 : (tensor<8x32x256xf32>) -> tensor<8x8x4x256xf32>
    %1324 = stablehlo.dot_general %1323, %1308, batching_dims = [0, 1] x [0, 2], contracting_dims = [3] x [1] : (tensor<8x8x4x256xf32>, tensor<8x256x8x64xf32>) -> tensor<8x8x4x64xf32>
    %1325 = stablehlo.reshape %1324 : (tensor<8x8x4x64xf32>) -> tensor<8x32x64xf32>
    %1326 = stablehlo.reshape %1325 : (tensor<8x32x64xf32>) -> tensor<8x2048xf32>
    %1327 = stablehlo.dot_general %1326, %arg80, contracting_dims = [1] x [1] : (tensor<8x2048xf32>, tensor<2048x2048xf32>) -> tensor<8x2048xf32>
    %1328 = stablehlo.add %1205, %1327 : tensor<8x2048xf32>
    %1329 = stablehlo.multiply %1328, %1328 : tensor<8x2048xf32>
    %1330 = stablehlo.reduce(%1329 init: %2) applies stablehlo.add across dimensions = [1] : (tensor<8x2048xf32>, tensor<f32>) -> tensor<8xf32>
    %1331 = stablehlo.broadcast_in_dim %7, dims = [] : (tensor<f32>) -> tensor<8xf32>
    %1332 = stablehlo.divide %1330, %1331 : tensor<8xf32>
    %1333 = stablehlo.broadcast_in_dim %6, dims = [] : (tensor<f32>) -> tensor<8xf32>
    %1334 = stablehlo.add %1332, %1333 : tensor<8xf32>
    %1335 = stablehlo.rsqrt %1334 : tensor<8xf32>
    %1336 = stablehlo.broadcast_in_dim %1335, dims = [0] : (tensor<8xf32>) -> tensor<8x2048xf32>
    %1337 = stablehlo.multiply %1328, %1336 : tensor<8x2048xf32>
    %1338 = stablehlo.broadcast_in_dim %arg77, dims = [1] : (tensor<2048xf32>) -> tensor<8x2048xf32>
    %1339 = stablehlo.multiply %1337, %1338 : tensor<8x2048xf32>
    %1340 = stablehlo.dot_general %1339, %arg75, contracting_dims = [1] x [1] : (tensor<8x2048xf32>, tensor<8192x2048xf32>) -> tensor<8x8192xf32>
    %1341 = stablehlo.dot_general %1339, %arg78, contracting_dims = [1] x [1] : (tensor<8x2048xf32>, tensor<8192x2048xf32>) -> tensor<8x8192xf32>
    %1342 = stablehlo.negate %1340 : tensor<8x8192xf32>
    %1343 = stablehlo.exponential %1342 : tensor<8x8192xf32>
    %1344 = stablehlo.broadcast_in_dim %3, dims = [] : (tensor<f32>) -> tensor<8x8192xf32>
    %1345 = stablehlo.add %1344, %1343 : tensor<8x8192xf32>
    %1346 = stablehlo.divide %1344, %1345 : tensor<8x8192xf32>
    %1347 = stablehlo.multiply %1340, %1346 : tensor<8x8192xf32>
    %1348 = stablehlo.multiply %1347, %1341 : tensor<8x8192xf32>
    %1349 = stablehlo.dot_general %1348, %arg74, contracting_dims = [1] x [1] : (tensor<8x8192xf32>, tensor<2048x8192xf32>) -> tensor<8x2048xf32>
    %1350 = stablehlo.add %1328, %1349 : tensor<8x2048xf32>
    %1351 = stablehlo.multiply %1350, %1350 : tensor<8x2048xf32>
    %1352 = stablehlo.reduce(%1351 init: %2) applies stablehlo.add across dimensions = [1] : (tensor<8x2048xf32>, tensor<f32>) -> tensor<8xf32>
    %1353 = stablehlo.broadcast_in_dim %7, dims = [] : (tensor<f32>) -> tensor<8xf32>
    %1354 = stablehlo.divide %1352, %1353 : tensor<8xf32>
    %1355 = stablehlo.broadcast_in_dim %6, dims = [] : (tensor<f32>) -> tensor<8xf32>
    %1356 = stablehlo.add %1354, %1355 : tensor<8xf32>
    %1357 = stablehlo.rsqrt %1356 : tensor<8xf32>
    %1358 = stablehlo.broadcast_in_dim %1357, dims = [0] : (tensor<8xf32>) -> tensor<8x2048xf32>
    %1359 = stablehlo.multiply %1350, %1358 : tensor<8x2048xf32>
    %1360 = stablehlo.broadcast_in_dim %arg85, dims = [1] : (tensor<2048xf32>) -> tensor<8x2048xf32>
    %1361 = stablehlo.multiply %1359, %1360 : tensor<8x2048xf32>
    %1362 = stablehlo.dot_general %1361, %arg90, contracting_dims = [1] x [1] : (tensor<8x2048xf32>, tensor<2048x2048xf32>) -> tensor<8x2048xf32>
    %1363 = stablehlo.reshape %1362 : (tensor<8x2048xf32>) -> tensor<8x32x64xf32>
    %1364 = stablehlo.dot_general %1361, %arg88, contracting_dims = [1] x [1] : (tensor<8x2048xf32>, tensor<512x2048xf32>) -> tensor<8x512xf32>
    %1365 = stablehlo.reshape %1364 : (tensor<8x512xf32>) -> tensor<8x8x64xf32>
    %1366 = stablehlo.dot_general %1361, %arg91, contracting_dims = [1] x [1] : (tensor<8x2048xf32>, tensor<512x2048xf32>) -> tensor<8x512xf32>
    %1367 = stablehlo.reshape %1366 : (tensor<8x512xf32>) -> tensor<8x8x64xf32>
    %1368 = stablehlo.broadcast_in_dim %37, dims = [0, 2] : (tensor<8x64xf32>) -> tensor<8x32x64xf32>
    %1369 = stablehlo.broadcast_in_dim %38, dims = [0, 2] : (tensor<8x64xf32>) -> tensor<8x32x64xf32>
    %1370 = stablehlo.multiply %1363, %1368 : tensor<8x32x64xf32>
    %1371 = stablehlo.slice %1363 [0:8, 0:32, 0:32] : (tensor<8x32x64xf32>) -> tensor<8x32x32xf32>
    %1372 = stablehlo.slice %1363 [0:8, 0:32, 32:64] : (tensor<8x32x64xf32>) -> tensor<8x32x32xf32>
    %1373 = stablehlo.negate %1372 : tensor<8x32x32xf32>
    %1374 = stablehlo.concatenate %1373, %1371, dim = 2 : (tensor<8x32x32xf32>, tensor<8x32x32xf32>) -> tensor<8x32x64xf32>
    %1375 = stablehlo.multiply %1374, %1369 : tensor<8x32x64xf32>
    %1376 = stablehlo.add %1370, %1375 : tensor<8x32x64xf32>
    %1377 = stablehlo.broadcast_in_dim %37, dims = [0, 2] : (tensor<8x64xf32>) -> tensor<8x8x64xf32>
    %1378 = stablehlo.broadcast_in_dim %38, dims = [0, 2] : (tensor<8x64xf32>) -> tensor<8x8x64xf32>
    %1379 = stablehlo.multiply %1365, %1377 : tensor<8x8x64xf32>
    %1380 = stablehlo.slice %1365 [0:8, 0:8, 0:32] : (tensor<8x8x64xf32>) -> tensor<8x8x32xf32>
    %1381 = stablehlo.slice %1365 [0:8, 0:8, 32:64] : (tensor<8x8x64xf32>) -> tensor<8x8x32xf32>
    %1382 = stablehlo.negate %1381 : tensor<8x8x32xf32>
    %1383 = stablehlo.concatenate %1382, %1380, dim = 2 : (tensor<8x8x32xf32>, tensor<8x8x32xf32>) -> tensor<8x8x64xf32>
    %1384 = stablehlo.multiply %1383, %1378 : tensor<8x8x64xf32>
    %1385 = stablehlo.add %1379, %1384 : tensor<8x8x64xf32>
    %1386 = stablehlo.slice %arg147 [0:1] : (tensor<8xi32>) -> tensor<1xi32>
    %1387 = stablehlo.reshape %1386 : (tensor<1xi32>) -> tensor<i32>
…
    %1891 = stablehlo.reshape %1890 : (tensor<8x8x4x256xf32>) -> tensor<8x32x256xf32>
    %1892 = stablehlo.broadcast_in_dim %8, dims = [] : (tensor<f32>) -> tensor<8x32x256xf32>
    %1893 = stablehlo.multiply %1891, %1892 : tensor<8x32x256xf32>
    %1894 = stablehlo.broadcast_in_dim %45, dims = [0, 2] : (tensor<8x256xf32>) -> tensor<8x32x256xf32>
    %1895 = stablehlo.add %1893, %1894 : tensor<8x32x256xf32>
    %1896 = stablehlo.reduce(%1895 init: %4) applies stablehlo.maximum across dimensions = [2] : (tensor<8x32x256xf32>, tensor<f32>) -> tensor<8x32xf32>
    %1897 = stablehlo.broadcast_in_dim %1896, dims = [0, 1] : (tensor<8x32xf32>) -> tensor<8x32x256xf32>
    %1898 = stablehlo.subtract %1895, %1897 : tensor<8x32x256xf32>
    %1899 = stablehlo.exponential %1898 : tensor<8x32x256xf32>
    %1900 = stablehlo.reduce(%1899 init: %2) applies stablehlo.add across dimensions = [2] : (tensor<8x32x256xf32>, tensor<f32>) -> tensor<8x32xf32>
    %1901 = stablehlo.broadcast_in_dim %1900, dims = [0, 1] : (tensor<8x32xf32>) -> tensor<8x32x256xf32>
    %1902 = stablehlo.divide %1899, %1901 : tensor<8x32x256xf32>
    %1903 = stablehlo.reshape %1902 : (tensor<8x32x256xf32>) -> tensor<8x8x4x256xf32>
    %1904 = stablehlo.dot_general %1903, %1888, batching_dims = [0, 1] x [0, 2], contracting_dims = [3] x [1] : (tensor<8x8x4x256xf32>, tensor<8x256x8x64xf32>) -> tensor<8x8x4x64xf32>
    %1905 = stablehlo.reshape %1904 : (tensor<8x8x4x64xf32>) -> tensor<8x32x64xf32>
    %1906 = stablehlo.reshape %1905 : (tensor<8x32x64xf32>) -> tensor<8x2048xf32>
    %1907 = stablehlo.dot_general %1906, %arg116, contracting_dims = [1] x [1] : (tensor<8x2048xf32>, tensor<2048x2048xf32>) -> tensor<8x2048xf32>
    %1908 = stablehlo.add %1785, %1907 : tensor<8x2048xf32>
    %1909 = stablehlo.multiply %1908, %1908 : tensor<8x2048xf32>
    %1910 = stablehlo.reduce(%1909 init: %2) applies stablehlo.add across dimensions = [1] : (tensor<8x2048xf32>, tensor<f32>) -> tensor<8xf32>
    %1911 = stablehlo.broadcast_in_dim %7, dims = [] : (tensor<f32>) -> tensor<8xf32>
    %1912 = stablehlo.divide %1910, %1911 : tensor<8xf32>
    %1913 = stablehlo.broadcast_in_dim %6, dims = [] : (tensor<f32>) -> tensor<8xf32>
    %1914 = stablehlo.add %1912, %1913 : tensor<8xf32>
    %1915 = stablehlo.rsqrt %1914 : tensor<8xf32>
    %1916 = stablehlo.broadcast_in_dim %1915, dims = [0] : (tensor<8xf32>) -> tensor<8x2048xf32>
    %1917 = stablehlo.multiply %1908, %1916 : tensor<8x2048xf32>
    %1918 = stablehlo.broadcast_in_dim %arg113, dims = [1] : (tensor<2048xf32>) -> tensor<8x2048xf32>
    %1919 = stablehlo.multiply %1917, %1918 : tensor<8x2048xf32>
    %1920 = stablehlo.dot_general %1919, %arg111, contracting_dims = [1] x [1] : (tensor<8x2048xf32>, tensor<8192x2048xf32>) -> tensor<8x8192xf32>
    %1921 = stablehlo.dot_general %1919, %arg114, contracting_dims = [1] x [1] : (tensor<8x2048xf32>, tensor<8192x2048xf32>) -> tensor<8x8192xf32>
    %1922 = stablehlo.negate %1920 : tensor<8x8192xf32>
    %1923 = stablehlo.exponential %1922 : tensor<8x8192xf32>
    %1924 = stablehlo.broadcast_in_dim %3, dims = [] : (tensor<f32>) -> tensor<8x8192xf32>
    %1925 = stablehlo.add %1924, %1923 : tensor<8x8192xf32>
    %1926 = stablehlo.divide %1924, %1925 : tensor<8x8192xf32>
    %1927 = stablehlo.multiply %1920, %1926 : tensor<8x8192xf32>
    %1928 = stablehlo.multiply %1927, %1921 : tensor<8x8192xf32>
    %1929 = stablehlo.dot_general %1928, %arg110, contracting_dims = [1] x [1] : (tensor<8x8192xf32>, tensor<2048x8192xf32>) -> tensor<8x2048xf32>
    %1930 = stablehlo.add %1908, %1929 : tensor<8x2048xf32>
    %1931 = stablehlo.multiply %1930, %1930 : tensor<8x2048xf32>
    %1932 = stablehlo.reduce(%1931 init: %2) applies stablehlo.add across dimensions = [1] : (tensor<8x2048xf32>, tensor<f32>) -> tensor<8xf32>
    %1933 = stablehlo.broadcast_in_dim %7, dims = [] : (tensor<f32>) -> tensor<8xf32>
    %1934 = stablehlo.divide %1932, %1933 : tensor<8xf32>
    %1935 = stablehlo.broadcast_in_dim %6, dims = [] : (tensor<f32>) -> tensor<8xf32>
    %1936 = stablehlo.add %1934, %1935 : tensor<8xf32>
    %1937 = stablehlo.rsqrt %1936 : tensor<8xf32>
    %1938 = stablehlo.broadcast_in_dim %1937, dims = [0] : (tensor<8xf32>) -> tensor<8x2048xf32>
    %1939 = stablehlo.multiply %1930, %1938 : tensor<8x2048xf32>
    %1940 = stablehlo.broadcast_in_dim %arg121, dims = [1] : (tensor<2048xf32>) -> tensor<8x2048xf32>
    %1941 = stablehlo.multiply %1939, %1940 : tensor<8x2048xf32>
    %1942 = stablehlo.dot_general %1941, %arg126, contracting_dims = [1] x [1] : (tensor<8x2048xf32>, tensor<2048x2048xf32>) -> tensor<8x2048xf32>
    %1943 = stablehlo.reshape %1942 : (tensor<8x2048xf32>) -> tensor<8x32x64xf32>
    %1944 = stablehlo.dot_general %1941, %arg124, contracting_dims = [1] x [1] : (tensor<8x2048xf32>, tensor<512x2048xf32>) -> tensor<8x512xf32>
    %1945 = stablehlo.reshape %1944 : (tensor<8x512xf32>) -> tensor<8x8x64xf32>
    %1946 = stablehlo.dot_general %1941, %arg127, contracting_dims = [1] x [1] : (tensor<8x2048xf32>, tensor<512x2048xf32>) -> tensor<8x512xf32>
    %1947 = stablehlo.reshape %1946 : (tensor<8x512xf32>) -> tensor<8x8x64xf32>
    %1948 = stablehlo.broadcast_in_dim %37, dims = [0, 2] : (tensor<8x64xf32>) -> tensor<8x32x64xf32>
    %1949 = stablehlo.broadcast_in_dim %38, dims = [0, 2] : (tensor<8x64xf32>) -> tensor<8x32x64xf32>
    %1950 = stablehlo.multiply %1943, %1948 : tensor<8x32x64xf32>
    %1951 = stablehlo.slice %1943 [0:8, 0:32, 0:32] : (tensor<8x32x64xf32>) -> tensor<8x32x32xf32>
    %1952 = stablehlo.slice %1943 [0:8, 0:32, 32:64] : (tensor<8x32x64xf32>) -> tensor<8x32x32xf32>
    %1953 = stablehlo.negate %1952 : tensor<8x32x32xf32>
    %1954 = stablehlo.concatenate %1953, %1951, dim = 2 : (tensor<8x32x32xf32>, tensor<8x32x32xf32>) -> tensor<8x32x64xf32>
    %1955 = stablehlo.multiply %1954, %1949 : tensor<8x32x64xf32>
    %1956 = stablehlo.add %1950, %1955 : tensor<8x32x64xf32>
    %1957 = stablehlo.broadcast_in_dim %37, dims = [0, 2] : (tensor<8x64xf32>) -> tensor<8x8x64xf32>
    %1958 = stablehlo.broadcast_in_dim %38, dims = [0, 2] : (tensor<8x64xf32>) -> tensor<8x8x64xf32>
    %1959 = stablehlo.multiply %1945, %1957 : tensor<8x8x64xf32>
    %1960 = stablehlo.slice %1945 [0:8, 0:8, 0:32] : (tensor<8x8x64xf32>) -> tensor<8x8x32xf32>
    %1961 = stablehlo.slice %1945 [0:8, 0:8, 32:64] : (tensor<8x8x64xf32>) -> tensor<8x8x32xf32>
    %1962 = stablehlo.negate %1961 : tensor<8x8x32xf32>
    %1963 = stablehlo.concatenate %1962, %1960, dim = 2 : (tensor<8x8x32xf32>, tensor<8x8x32xf32>) -> tensor<8x8x64xf32>
    %1964 = stablehlo.multiply %1963, %1958 : tensor<8x8x64xf32>
    %1965 = stablehlo.add %1959, %1964 : tensor<8x8x64xf32>
    %1966 = stablehlo.slice %arg147 [0:1] : (tensor<8xi32>) -> tensor<1xi32>
    %1967 = stablehlo.reshape %1966 : (tensor<1xi32>) -> tensor<i32>
    %1968 = stablehlo.slice %1965 [0:1, 0:8, 0:64] : (tensor<8x8x64xf32>) -> tensor<1x8x64xf32>
    %1969 = stablehlo.reshape %1968 : (tensor<1x8x64xf32>) -> tensor<1x1x1x8x64xf32>
    %1970 = stablehlo.dynamic_update_slice %1881, %1969, %26, %23, %1967, %9, %9 : (tensor<8x16x256x8x64xf32>, tensor<1x1x1x8x64xf32>, tensor<i32>, tensor<i32>, tensor<i32>, tensor<i32>, tensor<i32>) -> tensor<8x16x256x8x64xf32>
    %1971 = stablehlo.slice %1947 [0:1, 0:8, 0:64] : (tensor<8x8x64xf32>) -> tensor<1x8x64xf32>
    %1972 = stablehlo.reshape %1971 : (tensor<1x8x64xf32>) -> tensor<1x1x1x8x64xf32>
    %1973 = stablehlo.dynamic_update_slice %1884, %1972, %26, %23, %1967, %9, %9 : (tensor<8x16x256x8x64xf32>, tensor<1x1x1x8x64xf32>, tensor<i32>, tensor<i32>, tensor<i32>, tensor<i32>, tensor<i32>) -> tensor<8x16x256x8x64xf32>
    %1974 = stablehlo.slice %arg147 [1:2] : (tensor<8xi32>) -> tensor<1xi32>
    %1975 = stablehlo.reshape %1974 : (tensor<1xi32>) -> tensor<i32>
    %1976 = stablehlo.slice %1965 [1:2, 0:8, 0:64] : (tensor<8x8x64xf32>) -> tensor<1x8x64xf32>
    %1977 = stablehlo.reshape %1976 : (tensor<1x8x64xf32>) -> tensor<1x1x1x8x64xf32>
    %1978 = stablehlo.dynamic_update_slice %1970, %1977, %27, %23, %1975, %9, %9 : (tensor<8x16x256x8x64xf32>, tensor<1x1x1x8x64xf32>, tensor<i32>, tensor<i32>, tensor<i32>, tensor<i32>, tensor<i32>) -> tensor<8x16x256x8x64xf32>
    %1979 = stablehlo.slice %1947 [1:2, 0:8, 0:64] : (tensor<8x8x64xf32>) -> tensor<1x8x64xf32>
    %1980 = stablehlo.reshape %1979 : (tensor<1x8x64xf32>) -> tensor<1x1x1x8x64xf32>
    %1981 = stablehlo.dynamic_update_slice %1973, %1980, %27, %23, %1975, %9, %9 : (tensor<8x16x256x8x64xf32>, tensor<1x1x1x8x64xf32>, tensor<i32>, tensor<i32>, tensor<i32>, tensor<i32>, tensor<i32>) -> tensor<8x16x256x8x64xf32>
    %1982 = stablehlo.slice %arg147 [2:3] : (tensor<8xi32>) -> tensor<1xi32>
    %1983 = stablehlo.reshape %1982 : (tensor<1xi32>) -> tensor<i32>
    %1984 = stablehlo.slice %1965 [2:3, 0:8, 0:64] : (tensor<8x8x64xf32>) -> tensor<1x8x64xf32>
    %1985 = stablehlo.reshape %1984 : (tensor<1x8x64xf32>) -> tensor<1x1x1x8x64xf32>
    %1986 = stablehlo.dynamic_update_slice %1978, %1985, %28, %23, %1983, %9, %9 : (tensor<8x16x256x8x64xf32>, tensor<1x1x1x8x64xf32>, tensor<i32>, tensor<i32>, tensor<i32>, tensor<i32>, tensor<i32>) -> tensor<8x16x256x8x64xf32>
    %1987 = stablehlo.slice %1947 [2:3, 0:8, 0:64] : (tensor<8x8x64xf32>) -> tensor<1x8x64xf32>
    %1988 = stablehlo.reshape %1987 : (tensor<1x8x64xf32>) -> tensor<1x1x1x8x64xf32>
    %1989 = stablehlo.dynamic_update_slice %1981, %1988, %28, %23, %1983, %9, %9 : (tensor<8x16x256x8x64xf32>, tensor<1x1x1x8x64xf32>, tensor<i32>, tensor<i32>, tensor<i32>, tensor<i32>, tensor<i32>) -> tensor<8x16x256x8x64xf32>
    %1990 = stablehlo.slice %arg147 [3:4] : (tensor<8xi32>) -> tensor<1xi32>
    %1991 = stablehlo.reshape %1990 : (tensor<1xi32>) -> tensor<i32>
    %1992 = stablehlo.slice %1965 [3:4, 0:8, 0:64] : (tensor<8x8x64xf32>) -> tensor<1x8x64xf32>
    %1993 = stablehlo.reshape %1992 : (tensor<1x8x64xf32>) -> tensor<1x1x1x8x64xf32>
    %1994 = stablehlo.dynamic_update_slice %1986, %1993, %29, %23, %1991, %9, %9 : (tensor<8x16x256x8x64xf32>, tensor<1x1x1x8x64xf32>, tensor<i32>, tensor<i32>, tensor<i32>, tensor<i32>, tensor<i32>) -> tensor<8x16x256x8x64xf32>
    %1995 = stablehlo.slice %1947 [3:4, 0:8, 0:64] : (tensor<8x8x64xf32>) -> tensor<1x8x64xf32>
    %1996 = stablehlo.reshape %1995 : (tensor<1x8x64xf32>) -> tensor<1x1x1x8x64xf32>
    %1997 = stablehlo.dynamic_update_slice %1989, %1996, %29, %23, %1991, %9, %9 : (tensor<8x16x256x8x64xf32>, tensor<1x1x1x8x64xf32>, tensor<i32>, tensor<i32>, tensor<i32>, tensor<i32>, tensor<i32>) -> tensor<8x16x256x8x64xf32>
    %1998 = stablehlo.slice %arg147 [4:5] : (tensor<8xi32>) -> tensor<1xi32>
    %1999 = stablehlo.reshape %1998 : (tensor<1xi32>) -> tensor<i32>
    %2000 = stablehlo.slice %1965 [4:5, 0:8, 0:64] : (tensor<8x8x64xf32>) -> tensor<1x8x64xf32>
    %2001 = stablehlo.reshape %2000 : (tensor<1x8x64xf32>) -> tensor<1x1x1x8x64xf32>
    %2002 = stablehlo.dynamic_update_slice %1994, %2001, %30, %23, %1999, %9, %9 : (tensor<8x16x256x8x64xf32>, tensor<1x1x1x8x64xf32>, tensor<i32>, tensor<i32>, tensor<i32>, tensor<i32>, tensor<i32>) -> tensor<8x16x256x8x64xf32>
    %2003 = stablehlo.slice %1947 [4:5, 0:8, 0:64] : (tensor<8x8x64xf32>) -> tensor<1x8x64xf32>
    %2004 = stablehlo.reshape %2003 : (tensor<1x8x64xf32>) -> tensor<1x1x1x8x64xf32>
    %2005 = stablehlo.dynamic_update_slice %1997, %2004, %30, %23, %1999, %9, %9 : (tensor<8x16x256x8x64xf32>, tensor<1x1x1x8x64xf32>, tensor<i32>, tensor<i32>, tensor<i32>, tensor<i32>, tensor<i32>) -> tensor<8x16x256x8x64xf32>
    %2006 = stablehlo.slice %arg147 [5:6] : (tensor<8xi32>) -> tensor<1xi32>
    %2007 = stablehlo.reshape %2006 : (tensor<1xi32>) -> tensor<i32>
    %2008 = stablehlo.slice %1965 [5:6, 0:8, 0:64] : (tensor<8x8x64xf32>) -> tensor<1x8x64xf32>
    %2009 = stablehlo.reshape %2008 : (tensor<1x8x64xf32>) -> tensor<1x1x1x8x64xf32>
    %2010 = stablehlo.dynamic_update_slice %2002, %2009, %31, %23, %2007, %9, %9 : (tensor<8x16x256x8x64xf32>, tensor<1x1x1x8x64xf32>, tensor<i32>, tensor<i32>, tensor<i32>, tensor<i32>, tensor<i32>) -> tensor<8x16x256x8x64xf32>
    %2011 = stablehlo.slice %1947 [5:6, 0:8, 0:64] : (tensor<8x8x64xf32>) -> tensor<1x8x64xf32>
    %2012 = stablehlo.reshape %2011 : (tensor<1x8x64xf32>) -> tensor<1x1x1x8x64xf32>
    %2013 = stablehlo.dynamic_update_slice %2005, %2012, %31, %23, %2007, %9, %9 : (tensor<8x16x256x8x64xf32>, tensor<1x1x1x8x64xf32>, tensor<i32>, tensor<i32>, tensor<i32>, tensor<i32>, tensor<i32>) -> tensor<8x16x256x8x64xf32>
    %2014 = stablehlo.slice %arg147 [6:7] : (tensor<8xi32>) -> tensor<1xi32>
    %2015 = stablehlo.reshape %2014 : (tensor<1xi32>) -> tensor<i32>
    %2016 = stablehlo.slice %1965 [6:7, 0:8, 0:64] : (tensor<8x8x64xf32>) -> tensor<1x8x64xf32>
    %2017 = stablehlo.reshape %2016 : (tensor<1x8x64xf32>) -> tensor<1x1x1x8x64xf32>
    %2018 = stablehlo.dynamic_update_slice %2010, %2017, %32, %23, %2015, %9, %9 : (tensor<8x16x256x8x64xf32>, tensor<1x1x1x8x64xf32>, tensor<i32>, tensor<i32>, tensor<i32>, tensor<i32>, tensor<i32>) -> tensor<8x16x256x8x64xf32>
    %2019 = stablehlo.slice %1947 [6:7, 0:8, 0:64] : (tensor<8x8x64xf32>) -> tensor<1x8x64xf32>
    %2020 = stablehlo.reshape %2019 : (tensor<1x8x64xf32>) -> tensor<1x1x1x8x64xf32>
    %2021 = stablehlo.dynamic_update_slice %2013, %2020, %32, %23, %2015, %9, %9 : (tensor<8x16x256x8x64xf32>, tensor<1x1x1x8x64xf32>, tensor<i32>, tensor<i32>, tensor<i32>, tensor<i32>, tensor<i32>) -> tensor<8x16x256x8x64xf32>
    %2022 = stablehlo.slice %arg147 [7:8] : (tensor<8xi32>) -> tensor<1xi32>
    %2023 = stablehlo.reshape %2022 : (tensor<1xi32>) -> tensor<i32>
    %2024 = stablehlo.slice %1965 [7:8, 0:8, 0:64] : (tensor<8x8x64xf32>) -> tensor<1x8x64xf32>
    %2025 = stablehlo.reshape %2024 : (tensor<1x8x64xf32>) -> tensor<1x1x1x8x64xf32>
    %2026 = stablehlo.dynamic_update_slice %2018, %2025, %33, %23, %2023, %9, %9 : (tensor<8x16x256x8x64xf32>, tensor<1x1x1x8x64xf32>, tensor<i32>, tensor<i32>, tensor<i32>, tensor<i32>, tensor<i32>) -> tensor<8x16x256x8x64xf32>
    %2027 = stablehlo.slice %1947 [7:8, 0:8, 0:64] : (tensor<8x8x64xf32>) -> tensor<1x8x64xf32>
    %2028 = stablehlo.reshape %2027 : (tensor<1x8x64xf32>) -> tensor<1x1x1x8x64xf32>
    %2029 = stablehlo.dynamic_update_slice %2021, %2028, %33, %23, %2023, %9, %9 : (tensor<8x16x256x8x64xf32>, tensor<1x1x1x8x64xf32>, tensor<i32>, tensor<i32>, tensor<i32>, tensor<i32>, tensor<i32>) -> tensor<8x16x256x8x64xf32>
    %2030 = stablehlo.slice %2026 [0:8, 13:14, 0:256, 0:8, 0:64] : (tensor<8x16x256x8x64xf32>) -> tensor<8x1x256x8x64xf32>
    %2031 = stablehlo.reshape %2030 : (tensor<8x1x256x8x64xf32>) -> tensor<8x256x8x64xf32>
    %2032 = stablehlo.slice %2029 [0:8, 13:14, 0:256, 0:8, 0:64] : (tensor<8x16x256x8x64xf32>) -> tensor<8x1x256x8x64xf32>
    %2033 = stablehlo.reshape %2032 : (tensor<8x1x256x8x64xf32>) -> tensor<8x256x8x64xf32>
    %2034 = stablehlo.reshape %1956 : (tensor<8x32x64xf32>) -> tensor<8x8x4x64xf32>
    %2035 = stablehlo.dot_general %2034, %2031, batching_dims = [0, 1] x [0, 2], contracting_dims = [3] x [3] : (tensor<8x8x4x64xf32>, tensor<8x256x8x64xf32>) -> tensor<8x8x4x256xf32>
    %2036 = stablehlo.reshape %2035 : (tensor<8x8x4x256xf32>) -> tensor<8x32x256xf32>
    %2037 = stablehlo.broadcast_in_dim %8, dims = [] : (tensor<f32>) -> tensor<8x32x256xf32>
    %2038 = stablehlo.multiply %2036, %2037 : tensor<8x32x256xf32>
    %2039 = stablehlo.broadcast_in_dim %45, dims = [0, 2] : (tensor<8x256xf32>) -> tensor<8x32x256xf32>
    %2040 = stablehlo.add %2038, %2039 : tensor<8x32x256xf32>
    %2041 = stablehlo.reduce(%2040 init: %4) applies stablehlo.maximum across dimensions = [2] : (tensor<8x32x256xf32>, tensor<f32>) -> tensor<8x32xf32>
    %2042 = stablehlo.broadcast_in_dim %2041, dims = [0, 1] : (tensor<8x32xf32>) -> tensor<8x32x256xf32>
    %2043 = stablehlo.subtract %2040, %2042 : tensor<8x32x256xf32>
    %2044 = stablehlo.exponential %2043 : tensor<8x32x256xf32>
    %2045 = stablehlo.reduce(%2044 init: %2) applies stablehlo.add across dimensions = [2] : (tensor<8x32x256xf32>, tensor<f32>) -> tensor<8x32xf32>
    %2046 = stablehlo.broadcast_in_dim %2045, dims = [0, 1] : (tensor<8x32xf32>) -> tensor<8x32x256xf32>
    %2047 = stablehlo.divide %2044, %2046 : tensor<8x32x256xf32>
    %2048 = stablehlo.reshape %2047 : (tensor<8x32x256xf32>) -> tensor<8x8x4x256xf32>
    %2049 = stablehlo.dot_general %2048, %2033, batching_dims = [0, 1] x [0, 2], contracting_dims = [3] x [1] : (tensor<8x8x4x256xf32>, tensor<8x256x8x64xf32>) -> tensor<8x8x4x64xf32>
    %2050 = stablehlo.reshape %2049 : (tensor<8x8x4x64xf32>) -> tensor<8x32x64xf32>
    %2051 = stablehlo.reshape %2050 : (tensor<8x32x64xf32>) -> tensor<8x2048xf32>
    %2052 = stablehlo.dot_general %2051, %arg125, contracting_dims = [1] x [1] : (tensor<8x2048xf32>, tensor<2048x2048xf32>) -> tensor<8x2048xf32>
    %2053 = stablehlo.add %1930, %2052 : tensor<8x2048xf32>
    %2054 = stablehlo.multiply %2053, %2053 : tensor<8x2048xf32>
    %2055 = stablehlo.reduce(%2054 init: %2) applies stablehlo.add across dimensions = [1] : (tensor<8x2048xf32>, tensor<f32>) -> tensor<8xf32>
    %2056 = stablehlo.broadcast_in_dim %7, dims = [] : (tensor<f32>) -> tensor<8xf32>
    %2057 = stablehlo.divide %2055, %2056 : tensor<8xf32>
    %2058 = stablehlo.broadcast_in_dim %6, dims = [] : (tensor<f32>) -> tensor<8xf32>
    %2059 = stablehlo.add %2057, %2058 : tensor<8xf32>
    %2060 = stablehlo.rsqrt %2059 : tensor<8xf32>
    %2061 = stablehlo.broadcast_in_dim %2060, dims = [0] : (tensor<8xf32>) -> tensor<8x2048xf32>
    %2062 = stablehlo.multiply %2053, %2061 : tensor<8x2048xf32>
    %2063 = stablehlo.broadcast_in_dim %arg122, dims = [1] : (tensor<2048xf32>) -> tensor<8x2048xf32>
    %2064 = stablehlo.multiply %2062, %2063 : tensor<8x2048xf32>
    %2065 = stablehlo.dot_general %2064, %arg120, contracting_dims = [1] x [1] : (tensor<8x2048xf32>, tensor<8192x2048xf32>) -> tensor<8x8192xf32>
    %2066 = stablehlo.dot_general %2064, %arg123, contracting_dims = [1] x [1] : (tensor<8x2048xf32>, tensor<8192x2048xf32>) -> tensor<8x8192xf32>
    %2067 = stablehlo.negate %2065 : tensor<8x8192xf32>
    %2068 = stablehlo.exponential %2067 : tensor<8x8192xf32>
    %2069 = stablehlo.broadcast_in_dim %3, dims = [] : (tensor<f32>) -> tensor<8x8192xf32>
    %2070 = stablehlo.add %2069, %2068 : tensor<8x8192xf32>
    %2071 = stablehlo.divide %2069, %2070 : tensor<8x8192xf32>
    %2072 = stablehlo.multiply %2065, %2071 : tensor<8x8192xf32>
    %2073 = stablehlo.multiply %2072, %2066 : tensor<8x8192xf32>
    %2074 = stablehlo.dot_general %2073, %arg119, contracting_dims = [1] x [1] : (tensor<8x8192xf32>, tensor<2048x8192xf32>) -> tensor<8x2048xf32>
    %2075 = stablehlo.add %2053, %2074 : tensor<8x2048xf32>
    %2076 = stablehlo.multiply %2075, %2075 : tensor<8x2048xf32>
    %2077 = stablehlo.reduce(%2076 init: %2) applies stablehlo.add across dimensions = [1] : (tensor<8x2048xf32>, tensor<f32>) -> tensor<8xf32>
    %2078 = stablehlo.broadcast_in_dim %7, dims = [] : (tensor<f32>) -> tensor<8xf32>
    %2079 = stablehlo.divide %2077, %2078 : tensor<8xf32>
    %2080 = stablehlo.broadcast_in_dim %6, dims = [] : (tensor<f32>) -> tensor<8xf32>
    %2081 = stablehlo.add %2079, %2080 : tensor<8xf32>
    %2082 = stablehlo.rsqrt %2081 : tensor<8xf32>
    %2083 = stablehlo.broadcast_in_dim %2082, dims = [0] : (tensor<8xf32>) -> tensor<8x2048xf32>
    %2084 = stablehlo.multiply %2075, %2083 : tensor<8x2048xf32>
    %2085 = stablehlo.broadcast_in_dim %arg130, dims = [1] : (tensor<2048xf32>) -> tensor<8x2048xf32>
    %2086 = stablehlo.multiply %2084, %2085 : tensor<8x2048xf32>
    %2087 = stablehlo.dot_general %2086, %arg135, contracting_dims = [1] x [1] : (tensor<8x2048xf32>, tensor<2048x2048xf32>) -> tensor<8x2048xf32>
    %2088 = stablehlo.reshape %2087 : (tensor<8x2048xf32>) -> tensor<8x32x64xf32>
    %2089 = stablehlo.dot_general %2086, %arg133, contracting_dims = [1] x [1] : (tensor<8x2048xf32>, tensor<512x2048xf32>) -> tensor<8x512xf32>
    %2090 = stablehlo.reshape %2089 : (tensor<8x512xf32>) -> tensor<8x8x64xf32>
    %2091 = stablehlo.dot_general %2086, %arg136, contracting_dims = [1] x [1] : (tensor<8x2048xf32>, tensor<512x2048xf32>) -> tensor<8x512xf32>
    %2092 = stablehlo.reshape %2091 : (tensor<8x512xf32>) -> tensor<8x8x64xf32>
    %2093 = stablehlo.broadcast_in_dim %37, dims = [0, 2] : (tensor<8x64xf32>) -> tensor<8x32x64xf32>
    %2094 = stablehlo.broadcast_in_dim %38, dims = [0, 2] : (tensor<8x64xf32>) -> tensor<8x32x64xf32>
    %2095 = stablehlo.multiply %2088, %2093 : tensor<8x32x64xf32>
    %2096 = stablehlo.slice %2088 [0:8, 0:32, 0:32] : (tensor<8x32x64xf32>) -> tensor<8x32x32xf32>
    %2097 = stablehlo.slice %2088 [0:8, 0:32, 32:64] : (tensor<8x32x64xf32>) -> tensor<8x32x32xf32>
    %2098 = stablehlo.negate %2097 : tensor<8x32x32xf32>
    %2099 = stablehlo.concatenate %2098, %2096, dim = 2 : (tensor<8x32x32xf32>, tensor<8x32x32xf32>) -> tensor<8x32x64xf32>
    %2100 = stablehlo.multiply %2099, %2094 : tensor<8x32x64xf32>
    %2101 = stablehlo.add %2095, %2100 : tensor<8x32x64xf32>
    %2102 = stablehlo.broadcast_in_dim %37, dims = [0, 2] : (tensor<8x64xf32>) -> tensor<8x8x64xf32>
    %2103 = stablehlo.broadcast_in_dim %38, dims = [0, 2] : (tensor<8x64xf32>) -> tensor<8x8x64xf32>
    %2104 = stablehlo.multiply %2090, %2102 : tensor<8x8x64xf32>
    %2105 = stablehlo.slice %2090 [0:8, 0:8, 0:32] : (tensor<8x8x64xf32>) -> tensor<8x8x32xf32>
    %2106 = stablehlo.slice %2090 [0:8, 0:8, 32:64] : (tensor<8x8x64xf32>) -> tensor<8x8x32xf32>
    %2107 = stablehlo.negate %2106 : tensor<8x8x32xf32>
    %2108 = stablehlo.concatenate %2107, %2105, dim = 2 : (tensor<8x8x32xf32>, tensor<8x8x32xf32>) -> tensor<8x8x64xf32>
    %2109 = stablehlo.multiply %2108, %2103 : tensor<8x8x64xf32>
    %2110 = stablehlo.add %2104, %2109 : tensor<8x8x64xf32>
    %2111 = stablehlo.slice %arg147 [0:1] : (tensor<8xi32>) -> tensor<1xi32>
    %2112 = stablehlo.reshape %2111 : (tensor<1xi32>) -> tensor<i32>
    %2113 = stablehlo.slice %2110 [0:1, 0:8, 0:64] : (tensor<8x8x64xf32>) -> tensor<1x8x64xf32>
    %2114 = stablehlo.reshape %2113 : (tensor<1x8x64xf32>) -> tensor<1x1x1x8x64xf32>
    %2115 = stablehlo.dynamic_update_slice %2026, %2114, %26, %24, %2112, %9, %9 : (tensor<8x16x256x8x64xf32>, tensor<1x1x1x8x64xf32>, tensor<i32>, tensor<i32>, tensor<i32>, tensor<i32>, tensor<i32>) -> tensor<8x16x256x8x64xf32>
    %2116 = stablehlo.slice %2092 [0:1, 0:8, 0:64] : (tensor<8x8x64xf32>) -> tensor<1x8x64xf32>
    %2117 = stablehlo.reshape %2116 : (tensor<1x8x64xf32>) -> tensor<1x1x1x8x64xf32>
    %2118 = stablehlo.dynamic_update_slice %2029, %2117, %26, %24, %2112, %9, %9 : (tensor<8x16x256x8x64xf32>, tensor<1x1x1x8x64xf32>, tensor<i32>, tensor<i32>, tensor<i32>, tensor<i32>, tensor<i32>) -> tensor<8x16x256x8x64xf32>
    %2119 = stablehlo.slice %arg147 [1:2] : (tensor<8xi32>) -> tensor<1xi32>
    %2120 = stablehlo.reshape %2119 : (tensor<1xi32>) -> tensor<i32>
    %2121 = stablehlo.slice %2110 [1:2, 0:8, 0:64] : (tensor<8x8x64xf32>) -> tensor<1x8x64xf32>
    %2122 = stablehlo.reshape %2121 : (tensor<1x8x64xf32>) -> tensor<1x1x1x8x64xf32>
    %2123 = stablehlo.dynamic_update_slice %2115, %2122, %27, %24, %2120, %9, %9 : (tensor<8x16x256x8x64xf32>, tensor<1x1x1x8x64xf32>, tensor<i32>, tensor<i32>, tensor<i32>, tensor<i32>, tensor<i32>) -> tensor<8x16x256x8x64xf32>
    %2124 = stablehlo.slice %2092 [1:2, 0:8, 0:64] : (tensor<8x8x64xf32>) -> tensor<1x8x64xf32>
    %2125 = stablehlo.reshape %2124 : (tensor<1x8x64xf32>) -> tensor<1x1x1x8x64xf32>
    %2126 = stablehlo.dynamic_update_slice %2118, %2125, %27, %24, %2120, %9, %9 : (tensor<8x16x256x8x64xf32>, tensor<1x1x1x8x64xf32>, tensor<i32>, tensor<i32>, tensor<i32>, tensor<i32>, tensor<i32>) -> tensor<8x16x256x8x64xf32>
    %2127 = stablehlo.slice %arg147 [2:3] : (tensor<8xi32>) -> tensor<1xi32>
    %2128 = stablehlo.reshape %2127 : (tensor<1xi32>) -> tensor<i32>
    %2129 = stablehlo.slice %2110 [2:3, 0:8, 0:64] : (tensor<8x8x64xf32>) -> tensor<1x8x64xf32>
    %2130 = stablehlo.reshape %2129 : (tensor<1x8x64xf32>) -> tensor<1x1x1x8x64xf32>
    %2131 = stablehlo.dynamic_update_slice %2123, %2130, %28, %24, %2128, %9, %9 : (tensor<8x16x256x8x64xf32>, tensor<1x1x1x8x64xf32>, tensor<i32>, tensor<i32>, tensor<i32>, tensor<i32>, tensor<i32>) -> tensor<8x16x256x8x64xf32>
    %2132 = stablehlo.slice %2092 [2:3, 0:8, 0:64] : (tensor<8x8x64xf32>) -> tensor<1x8x64xf32>
    %2133 = stablehlo.reshape %2132 : (tensor<1x8x64xf32>) -> tensor<1x1x1x8x64xf32>
    %2134 = stablehlo.dynamic_update_slice %2126, %2133, %28, %24, %2128, %9, %9 : (tensor<8x16x256x8x64xf32>, tensor<1x1x1x8x64xf32>, tensor<i32>, tensor<i32>, tensor<i32>, tensor<i32>, tensor<i32>) -> tensor<8x16x256x8x64xf32>
    %2135 = stablehlo.slice %arg147 [3:4] : (tensor<8xi32>) -> tensor<1xi32>
    %2136 = stablehlo.reshape %2135 : (tensor<1xi32>) -> tensor<i32>
    %2137 = stablehlo.slice %2110 [3:4, 0:8, 0:64] : (tensor<8x8x64xf32>) -> tensor<1x8x64xf32>
    %2138 = stablehlo.reshape %2137 : (tensor<1x8x64xf32>) -> tensor<1x1x1x8x64xf32>
    %2139 = stablehlo.dynamic_update_slice %2131, %2138, %29, %24, %2136, %9, %9 : (tensor<8x16x256x8x64xf32>, tensor<1x1x1x8x64xf32>, tensor<i32>, tensor<i32>, tensor<i32>, tensor<i32>, tensor<i32>) -> tensor<8x16x256x8x64xf32>
    %2140 = stablehlo.slice %2092 [3:4, 0:8, 0:64] : (tensor<8x8x64xf32>) -> tensor<1x8x64xf32>
    %2141 = stablehlo.reshape %2140 : (tensor<1x8x64xf32>) -> tensor<1x1x1x8x64xf32>
    %2142 = stablehlo.dynamic_update_slice %2134, %2141, %29, %24, %2136, %9, %9 : (tensor<8x16x256x8x64xf32>, tensor<1x1x1x8x64xf32>, tensor<i32>, tensor<i32>, tensor<i32>, tensor<i32>, tensor<i32>) -> tensor<8x16x256x8x64xf32>
    %2143 = stablehlo.slice %arg147 [4:5] : (tensor<8xi32>) -> tensor<1xi32>
    %2144 = stablehlo.reshape %2143 : (tensor<1xi32>) -> tensor<i32>
    %2145 = stablehlo.slice %2110 [4:5, 0:8, 0:64] : (tensor<8x8x64xf32>) -> tensor<1x8x64xf32>
    %2146 = stablehlo.reshape %2145 : (tensor<1x8x64xf32>) -> tensor<1x1x1x8x64xf32>
    %2147 = stablehlo.dynamic_update_slice %2139, %2146, %30, %24, %2144, %9, %9 : (tensor<8x16x256x8x64xf32>, tensor<1x1x1x8x64xf32>, tensor<i32>, tensor<i32>, tensor<i32>, tensor<i32>, tensor<i32>) -> tensor<8x16x256x8x64xf32>
    %2148 = stablehlo.slice %2092 [4:5, 0:8, 0:64] : (tensor<8x8x64xf32>) -> tensor<1x8x64xf32>
    %2149 = stablehlo.reshape %2148 : (tensor<1x8x64xf32>) -> tensor<1x1x1x8x64xf32>
    %2150 = stablehlo.dynamic_update_slice %2142, %2149, %30, %24, %2144, %9, %9 : (tensor<8x16x256x8x64xf32>, tensor<1x1x1x8x64xf32>, tensor<i32>, tensor<i32>, tensor<i32>, tensor<i32>, tensor<i32>) -> tensor<8x16x256x8x64xf32>
    %2151 = stablehlo.slice %arg147 [5:6] : (tensor<8xi32>) -> tensor<1xi32>
    %2152 = stablehlo.reshape %2151 : (tensor<1xi32>) -> tensor<i32>
    %2153 = stablehlo.slice %2110 [5:6, 0:8, 0:64] : (tensor<8x8x64xf32>) -> tensor<1x8x64xf32>
    %2154 = stablehlo.reshape %2153 : (tensor<1x8x64xf32>) -> tensor<1x1x1x8x64xf32>
    %2155 = stablehlo.dynamic_update_slice %2147, %2154, %31, %24, %2152, %9, %9 : (tensor<8x16x256x8x64xf32>, tensor<1x1x1x8x64xf32>, tensor<i32>, tensor<i32>, tensor<i32>, tensor<i32>, tensor<i32>) -> tensor<8x16x256x8x64xf32>
    %2156 = stablehlo.slice %2092 [5:6, 0:8, 0:64] : (tensor<8x8x64xf32>) -> tensor<1x8x64xf32>
    %2157 = stablehlo.reshape %2156 : (tensor<1x8x64xf32>) -> tensor<1x1x1x8x64xf32>
    %2158 = stablehlo.dynamic_update_slice %2150, %2157, %31, %24, %2152, %9, %9 : (tensor<8x16x256x8x64xf32>, tensor<1x1x1x8x64xf32>, tensor<i32>, tensor<i32>, tensor<i32>, tensor<i32>, tensor<i32>) -> tensor<8x16x256x8x64xf32>
    %2159 = stablehlo.slice %arg147 [6:7] : (tensor<8xi32>) -> tensor<1xi32>
    %2160 = stablehlo.reshape %2159 : (tensor<1xi32>) -> tensor<i32>
    %2161 = stablehlo.slice %2110 [6:7, 0:8, 0:64] : (tensor<8x8x64xf32>) -> tensor<1x8x64xf32>
    %2162 = stablehlo.reshape %2161 : (tensor<1x8x64xf32>) -> tensor<1x1x1x8x64xf32>
    %2163 = stablehlo.dynamic_update_slice %2155, %2162, %32, %24, %2160, %9, %9 : (tensor<8x16x256x8x64xf32>, tensor<1x1x1x8x64xf32>, tensor<i32>, tensor<i32>, tensor<i32>, tensor<i32>, tensor<i32>) -> tensor<8x16x256x8x64xf32>
    %2164 = stablehlo.slice %2092 [6:7, 0:8, 0:64] : (tensor<8x8x64xf32>) -> tensor<1x8x64xf32>
    %2165 = stablehlo.reshape %2164 : (tensor<1x8x64xf32>) -> tensor<1x1x1x8x64xf32>
    %2166 = stablehlo.dynamic_update_slice %2158, %2165, %32, %24, %2160, %9, %9 : (tensor<8x16x256x8x64xf32>, tensor<1x1x1x8x64xf32>, tensor<i32>, tensor<i32>, tensor<i32>, tensor<i32>, tensor<i32>) -> tensor<8x16x256x8x64xf32>
    %2167 = stablehlo.slice %arg147 [7:8] : (tensor<8xi32>) -> tensor<1xi32>
    %2168 = stablehlo.reshape %2167 : (tensor<1xi32>) -> tensor<i32>
    %2169 = stablehlo.slice %2110 [7:8, 0:8, 0:64] : (tensor<8x8x64xf32>) -> tensor<1x8x64xf32>
    %2170 = stablehlo.reshape %2169 : (tensor<1x8x64xf32>) -> tensor<1x1x1x8x64xf32>
    %2171 = stablehlo.dynamic_update_slice %2163, %2170, %33, %24, %2168, %9, %9 : (tensor<8x16x256x8x64xf32>, tensor<1x1x1x8x64xf32>, tensor<i32>, tensor<i32>, tensor<i32>, tensor<i32>, tensor<i32>) -> tensor<8x16x256x8x64xf32>
    %2172 = stablehlo.slice %2092 [7:8, 0:8, 0:64] : (tensor<8x8x64xf32>) -> tensor<1x8x64xf32>
    %2173 = stablehlo.reshape %2172 : (tensor<1x8x64xf32>) -> tensor<1x1x1x8x64xf32>
    %2174 = stablehlo.dynamic_update_slice %2166, %2173, %33, %24, %2168, %9, %9 : (tensor<8x16x256x8x64xf32>, tensor<1x1x1x8x64xf32>, tensor<i32>, tensor<i32>, tensor<i32>, tensor<i32>, tensor<i32>) -> tensor<8x16x256x8x64xf32>
    %2175 = stablehlo.slice %2171 [0:8, 14:15, 0:256, 0:8, 0:64] : (tensor<8x16x256x8x64xf32>) -> tensor<8x1x256x8x64xf32>
    %2176 = stablehlo.reshape %2175 : (tensor<8x1x256x8x64xf32>) -> tensor<8x256x8x64xf32>
    %2177 = stablehlo.slice %2174 [0:8, 14:15, 0:256, 0:8, 0:64] : (tensor<8x16x256x8x64xf32>) -> tensor<8x1x256x8x64xf32>
    %2178 = stablehlo.reshape %2177 : (tensor<8x1x256x8x64xf32>) -> tensor<8x256x8x64xf32>
    %2179 = stablehlo.reshape %2101 : (tensor<8x32x64xf32>) -> tensor<8x8x4x64xf32>
    %2180 = stablehlo.dot_general %2179, %2176, batching_dims = [0, 1] x [0, 2], contracting_dims = [3] x [3] : (tensor<8x8x4x64xf32>, tensor<8x256x8x64xf32>) -> tensor<8x8x4x256xf32>
    %2181 = stablehlo.reshape %2180 : (tensor<8x8x4x256xf32>) -> tensor<8x32x256xf32>
    %2182 = stablehlo.broadcast_in_dim %8, dims = [] : (tensor<f32>) -> tensor<8x32x256xf32>
    %2183 = stablehlo.multiply %2181, %2182 : tensor<8x32x256xf32>
    %2184 = stablehlo.broadcast_in_dim %45, dims = [0, 2] : (tensor<8x256xf32>) -> tensor<8x32x256xf32>
    %2185 = stablehlo.add %2183, %2184 : tensor<8x32x256xf32>
    %2186 = stablehlo.reduce(%2185 init: %4) applies stablehlo.maximum across dimensions = [2] : (tensor<8x32x256xf32>, tensor<f32>) -> tensor<8x32xf32>
    %2187 = stablehlo.broadcast_in_dim %2186, dims = [0, 1] : (tensor<8x32xf32>) -> tensor<8x32x256xf32>
    %2188 = stablehlo.subtract %2185, %2187 : tensor<8x32x256xf32>
    %2189 = stablehlo.exponential %2188 : tensor<8x32x256xf32>
    %2190 = stablehlo.reduce(%2189 init: %2) applies stablehlo.add across dimensions = [2] : (tensor<8x32x256xf32>, tensor<f32>) -> tensor<8x32xf32>
    %2191 = stablehlo.broadcast_in_dim %2190, dims = [0, 1] : (tensor<8x32xf32>) -> tensor<8x32x256xf32>
    %2192 = stablehlo.divide %2189, %2191 : tensor<8x32x256xf32>
    %2193 = stablehlo.reshape %2192 : (tensor<8x32x256xf32>) -> tensor<8x8x4x256xf32>
    %2194 = stablehlo.dot_general %2193, %2178, batching_dims = [0, 1] x [0, 2], contracting_dims = [3] x [1] : (tensor<8x8x4x256xf32>, tensor<8x256x8x64xf32>) -> tensor<8x8x4x64xf32>
    %2195 = stablehlo.reshape %2194 : (tensor<8x8x4x64xf32>) -> tensor<8x32x64xf32>
    %2196 = stablehlo.reshape %2195 : (tensor<8x32x64xf32>) -> tensor<8x2048xf32>
    %2197 = stablehlo.dot_general %2196, %arg134, contracting_dims = [1] x [1] : (tensor<8x2048xf32>, tensor<2048x2048xf32>) -> tensor<8x2048xf32>
    %2198 = stablehlo.add %2075, %2197 : tensor<8x2048xf32>
    %2199 = stablehlo.multiply %2198, %2198 : tensor<8x2048xf32>
    %2200 = stablehlo.reduce(%2199 init: %2) applies stablehlo.add across dimensions = [1] : (tensor<8x2048xf32>, tensor<f32>) -> tensor<8xf32>
    %2201 = stablehlo.broadcast_in_dim %7, dims = [] : (tensor<f32>) -> tensor<8xf32>
    %2202 = stablehlo.divide %2200, %2201 : tensor<8xf32>
    %2203 = stablehlo.broadcast_in_dim %6, dims = [] : (tensor<f32>) -> tensor<8xf32>
    %2204 = stablehlo.add %2202, %2203 : tensor<8xf32>
    %2205 = stablehlo.rsqrt %2204 : tensor<8xf32>
    %2206 = stablehlo.broadcast_in_dim %2205, dims = [0] : (tensor<8xf32>) -> tensor<8x2048xf32>
    %2207 = stablehlo.multiply %2198, %2206 : tensor<8x2048xf32>
    %2208 = stablehlo.broadcast_in_dim %arg131, dims = [1] : (tensor<2048xf32>) -> tensor<8x2048xf32>
    %2209 = stablehlo.multiply %2207, %2208 : tensor<8x2048xf32>
    %2210 = stablehlo.dot_general %2209, %arg129, contracting_dims = [1] x [1] : (tensor<8x2048xf32>, tensor<8192x2048xf32>) -> tensor<8x8192xf32>
    %2211 = stablehlo.dot_general %2209, %arg132, contracting_dims = [1] x [1] : (tensor<8x2048xf32>, tensor<8192x2048xf32>) -> tensor<8x8192xf32>
    %2212 = stablehlo.negate %2210 : tensor<8x8192xf32>
    %2213 = stablehlo.exponential %2212 : tensor<8x8192xf32>
    %2214 = stablehlo.broadcast_in_dim %3, dims = [] : (tensor<f32>) -> tensor<8x8192xf32>
    %2215 = stablehlo.add %2214, %2213 : tensor<8x8192xf32>
    %2216 = stablehlo.divide %2214, %2215 : tensor<8x8192xf32>
    %2217 = stablehlo.multiply %2210, %2216 : tensor<8x8192xf32>
    %2218 = stablehlo.multiply %2217, %2211 : tensor<8x8192xf32>
    %2219 = stablehlo.dot_general %2218, %arg128, contracting_dims = [1] x [1] : (tensor<8x8192xf32>, tensor<2048x8192xf32>) -> tensor<8x2048xf32>
    %2220 = stablehlo.add %2198, %2219 : tensor<8x2048xf32>
    %2221 = stablehlo.multiply %2220, %2220 : tensor<8x2048xf32>
    %2222 = stablehlo.reduce(%2221 init: %2) applies stablehlo.add across dimensions = [1] : (tensor<8x2048xf32>, tensor<f32>) -> tensor<8xf32>
    %2223 = stablehlo.broadcast_in_dim %7, dims = [] : (tensor<f32>) -> tensor<8xf32>
    %2224 = stablehlo.divide %2222, %2223 : tensor<8xf32>
    %2225 = stablehlo.broadcast_in_dim %6, dims = [] : (tensor<f32>) -> tensor<8xf32>
    %2226 = stablehlo.add %2224, %2225 : tensor<8xf32>
    %2227 = stablehlo.rsqrt %2226 : tensor<8xf32>
    %2228 = stablehlo.broadcast_in_dim %2227, dims = [0] : (tensor<8xf32>) -> tensor<8x2048xf32>
    %2229 = stablehlo.multiply %2220, %2228 : tensor<8x2048xf32>
    %2230 = stablehlo.broadcast_in_dim %arg139, dims = [1] : (tensor<2048xf32>) -> tensor<8x2048xf32>
    %2231 = stablehlo.multiply %2229, %2230 : tensor<8x2048xf32>
    %2232 = stablehlo.dot_general %2231, %arg144, contracting_dims = [1] x [1] : (tensor<8x2048xf32>, tensor<2048x2048xf32>) -> tensor<8x2048xf32>
    %2233 = stablehlo.reshape %2232 : (tensor<8x2048xf32>) -> tensor<8x32x64xf32>
    %2234 = stablehlo.dot_general %2231, %arg142, contracting_dims = [1] x [1] : (tensor<8x2048xf32>, tensor<512x2048xf32>) -> tensor<8x512xf32>
    %2235 = stablehlo.reshape %2234 : (tensor<8x512xf32>) -> tensor<8x8x64xf32>
    %2236 = stablehlo.dot_general %2231, %arg145, contracting_dims = [1] x [1] : (tensor<8x2048xf32>, tensor<512x2048xf32>) -> tensor<8x512xf32>
    %2237 = stablehlo.reshape %2236 : (tensor<8x512xf32>) -> tensor<8x8x64xf32>
    %2238 = stablehlo.broadcast_in_dim %37, dims = [0, 2] : (tensor<8x64xf32>) -> tensor<8x32x64xf32>
    %2239 = stablehlo.broadcast_in_dim %38, dims = [0, 2] : (tensor<8x64xf32>) -> tensor<8x32x64xf32>
    %2240 = stablehlo.multiply %2233, %2238 : tensor<8x32x64xf32>
    %2241 = stablehlo.slice %2233 [0:8, 0:32, 0:32] : (tensor<8x32x64xf32>) -> tensor<8x32x32xf32>
    %2242 = stablehlo.slice %2233 [0:8, 0:32, 32:64] : (tensor<8x32x64xf32>) -> tensor<8x32x32xf32>
    %2243 = stablehlo.negate %2242 : tensor<8x32x32xf32>
    %2244 = stablehlo.concatenate %2243, %2241, dim = 2 : (tensor<8x32x32xf32>, tensor<8x32x32xf32>) -> tensor<8x32x64xf32>
    %2245 = stablehlo.multiply %2244, %2239 : tensor<8x32x64xf32>
    %2246 = stablehlo.add %2240, %2245 : tensor<8x32x64xf32>
    %2247 = stablehlo.broadcast_in_dim %37, dims = [0, 2] : (tensor<8x64xf32>) -> tensor<8x8x64xf32>
    %2248 = stablehlo.broadcast_in_dim %38, dims = [0, 2] : (tensor<8x64xf32>) -> tensor<8x8x64xf32>
    %2249 = stablehlo.multiply %2235, %2247 : tensor<8x8x64xf32>
    %2250 = stablehlo.slice %2235 [0:8, 0:8, 0:32] : (tensor<8x8x64xf32>) -> tensor<8x8x32xf32>
    %2251 = stablehlo.slice %2235 [0:8, 0:8, 32:64] : (tensor<8x8x64xf32>) -> tensor<8x8x32xf32>
    %2252 = stablehlo.negate %2251 : tensor<8x8x32xf32>
    %2253 = stablehlo.concatenate %2252, %2250, dim = 2 : (tensor<8x8x32xf32>, tensor<8x8x32xf32>) -> tensor<8x8x64xf32>
    %2254 = stablehlo.multiply %2253, %2248 : tensor<8x8x64xf32>
    %2255 = stablehlo.add %2249, %2254 : tensor<8x8x64xf32>
    %2256 = stablehlo.slice %arg147 [0:1] : (tensor<8xi32>) -> tensor<1xi32>
    %2257 = stablehlo.reshape %2256 : (tensor<1xi32>) -> tensor<i32>
    %2258 = stablehlo.slice %2255 [0:1, 0:8, 0:64] : (tensor<8x8x64xf32>) -> tensor<1x8x64xf32>
    %2259 = stablehlo.reshape %2258 : (tensor<1x8x64xf32>) -> tensor<1x1x1x8x64xf32>
    %2260 = stablehlo.dynamic_update_slice %2171, %2259, %26, %25, %2257, %9, %9 : (tensor<8x16x256x8x64xf32>, tensor<1x1x1x8x64xf32>, tensor<i32>, tensor<i32>, tensor<i32>, tensor<i32>, tensor<i32>) -> tensor<8x16x256x8x64xf32>
    %2261 = stablehlo.slice %2237 [0:1, 0:8, 0:64] : (tensor<8x8x64xf32>) -> tensor<1x8x64xf32>
    %2262 = stablehlo.reshape %2261 : (tensor<1x8x64xf32>) -> tensor<1x1x1x8x64xf32>
    %2263 = stablehlo.dynamic_update_slice %2174, %2262, %26, %25, %2257, %9, %9 : (tensor<8x16x256x8x64xf32>, tensor<1x1x1x8x64xf32>, tensor<i32>, tensor<i32>, tensor<i32>, tensor<i32>, tensor<i32>) -> tensor<8x16x256x8x64xf32>
    %2264 = stablehlo.slice %arg147 [1:2] : (tensor<8xi32>) -> tensor<1xi32>
    %2265 = stablehlo.reshape %2264 : (tensor<1xi32>) -> tensor<i32>
    %2266 = stablehlo.slice %2255 [1:2, 0:8, 0:64] : (tensor<8x8x64xf32>) -> tensor<1x8x64xf32>
    %2267 = stablehlo.reshape %2266 : (tensor<1x8x64xf32>) -> tensor<1x1x1x8x64xf32>
    %2268 = stablehlo.dynamic_update_slice %2260, %2267, %27, %25, %2265, %9, %9 : (tensor<8x16x256x8x64xf32>, tensor<1x1x1x8x64xf32>, tensor<i32>, tensor<i32>, tensor<i32>, tensor<i32>, tensor<i32>) -> tensor<8x16x256x8x64xf32>
    %2269 = stablehlo.slice %2237 [1:2, 0:8, 0:64] : (tensor<8x8x64xf32>) -> tensor<1x8x64xf32>
    %2270 = stablehlo.reshape %2269 : (tensor<1x8x64xf32>) -> tensor<1x1x1x8x64xf32>
    %2271 = stablehlo.dynamic_update_slice %2263, %2270, %27, %25, %2265, %9, %9 : (tensor<8x16x256x8x64xf32>, tensor<1x1x1x8x64xf32>, tensor<i32>, tensor<i32>, tensor<i32>, tensor<i32>, tensor<i32>) -> tensor<8x16x256x8x64xf32>
    %2272 = stablehlo.slice %arg147 [2:3] : (tensor<8xi32>) -> tensor<1xi32>
    %2273 = stablehlo.reshape %2272 : (tensor<1xi32>) -> tensor<i32>
    %2274 = stablehlo.slice %2255 [2:3, 0:8, 0:64] : (tensor<8x8x64xf32>) -> tensor<1x8x64xf32>
    %2275 = stablehlo.reshape %2274 : (tensor<1x8x64xf32>) -> tensor<1x1x1x8x64xf32>
    %2276 = stablehlo.dynamic_update_slice %2268, %2275, %28, %25, %2273, %9, %9 : (tensor<8x16x256x8x64xf32>, tensor<1x1x1x8x64xf32>, tensor<i32>, tensor<i32>, tensor<i32>, tensor<i32>, tensor<i32>) -> tensor<8x16x256x8x64xf32>
    %2277 = stablehlo.slice %2237 [2:3, 0:8, 0:64] : (tensor<8x8x64xf32>) -> tensor<1x8x64xf32>
    %2278 = stablehlo.reshape %2277 : (tensor<1x8x64xf32>) -> tensor<1x1x1x8x64xf32>
    %2279 = stablehlo.dynamic_update_slice %2271, %2278, %28, %25, %2273, %9, %9 : (tensor<8x16x256x8x64xf32>, tensor<1x1x1x8x64xf32>, tensor<i32>, tensor<i32>, tensor<i32>, tensor<i32>, tensor<i32>) -> tensor<8x16x256x8x64xf32>
    %2280 = stablehlo.slice %arg147 [3:4] : (tensor<8xi32>) -> tensor<1xi32>
    %2281 = stablehlo.reshape %2280 : (tensor<1xi32>) -> tensor<i32>
    %2282 = stablehlo.slice %2255 [3:4, 0:8, 0:64] : (tensor<8x8x64xf32>) -> tensor<1x8x64xf32>
    %2283 = stablehlo.reshape %2282 : (tensor<1x8x64xf32>) -> tensor<1x1x1x8x64xf32>
    %2284 = stablehlo.dynamic_update_slice %2276, %2283, %29, %25, %2281, %9, %9 : (tensor<8x16x256x8x64xf32>, tensor<1x1x1x8x64xf32>, tensor<i32>, tensor<i32>, tensor<i32>, tensor<i32>, tensor<i32>) -> tensor<8x16x256x8x64xf32>
    %2285 = stablehlo.slice %2237 [3:4, 0:8, 0:64] : (tensor<8x8x64xf32>) -> tensor<1x8x64xf32>
    %2286 = stablehlo.reshape %2285 : (tensor<1x8x64xf32>) -> tensor<1x1x1x8x64xf32>
    %2287 = stablehlo.dynamic_update_slice %2279, %2286, %29, %25, %2281, %9, %9 : (tensor<8x16x256x8x64xf32>, tensor<1x1x1x8x64xf32>, tensor<i32>, tensor<i32>, tensor<i32>, tensor<i32>, tensor<i32>) -> tensor<8x16x256x8x64xf32>
    %2288 = stablehlo.slice %arg147 [4:5] : (tensor<8xi32>) -> tensor<1xi32>
    %2289 = stablehlo.reshape %2288 : (tensor<1xi32>) -> tensor<i32>
    %2290 = stablehlo.slice %2255 [4:5, 0:8, 0:64] : (tensor<8x8x64xf32>) -> tensor<1x8x64xf32>
    %2291 = stablehlo.reshape %2290 : (tensor<1x8x64xf32>) -> tensor<1x1x1x8x64xf32>
    %2292 = stablehlo.dynamic_update_slice %2284, %2291, %30, %25, %2289, %9, %9 : (tensor<8x16x256x8x64xf32>, tensor<1x1x1x8x64xf32>, tensor<i32>, tensor<i32>, tensor<i32>, tensor<i32>, tensor<i32>) -> tensor<8x16x256x8x64xf32>
    %2293 = stablehlo.slice %2237 [4:5, 0:8, 0:64] : (tensor<8x8x64xf32>) -> tensor<1x8x64xf32>
    %2294 = stablehlo.reshape %2293 : (tensor<1x8x64xf32>) -> tensor<1x1x1x8x64xf32>
    %2295 = stablehlo.dynamic_update_slice %2287, %2294, %30, %25, %2289, %9, %9 : (tensor<8x16x256x8x64xf32>, tensor<1x1x1x8x64xf32>, tensor<i32>, tensor<i32>, tensor<i32>, tensor<i32>, tensor<i32>) -> tensor<8x16x256x8x64xf32>
    %2296 = stablehlo.slice %arg147 [5:6] : (tensor<8xi32>) -> tensor<1xi32>
    %2297 = stablehlo.reshape %2296 : (tensor<1xi32>) -> tensor<i32>
    %2298 = stablehlo.slice %2255 [5:6, 0:8, 0:64] : (tensor<8x8x64xf32>) -> tensor<1x8x64xf32>
    %2299 = stablehlo.reshape %2298 : (tensor<1x8x64xf32>) -> tensor<1x1x1x8x64xf32>
    %2300 = stablehlo.dynamic_update_slice %2292, %2299, %31, %25, %2297, %9, %9 : (tensor<8x16x256x8x64xf32>, tensor<1x1x1x8x64xf32>, tensor<i32>, tensor<i32>, tensor<i32>, tensor<i32>, tensor<i32>) -> tensor<8x16x256x8x64xf32>
    %2301 = stablehlo.slice %2237 [5:6, 0:8, 0:64] : (tensor<8x8x64xf32>) -> tensor<1x8x64xf32>
    %2302 = stablehlo.reshape %2301 : (tensor<1x8x64xf32>) -> tensor<1x1x1x8x64xf32>
    %2303 = stablehlo.dynamic_update_slice %2295, %2302, %31, %25, %2297, %9, %9 : (tensor<8x16x256x8x64xf32>, tensor<1x1x1x8x64xf32>, tensor<i32>, tensor<i32>, tensor<i32>, tensor<i32>, tensor<i32>) -> tensor<8x16x256x8x64xf32>
    %2304 = stablehlo.slice %arg147 [6:7] : (tensor<8xi32>) -> tensor<1xi32>
    %2305 = stablehlo.reshape %2304 : (tensor<1xi32>) -> tensor<i32>
    %2306 = stablehlo.slice %2255 [6:7, 0:8, 0:64] : (tensor<8x8x64xf32>) -> tensor<1x8x64xf32>
    %2307 = stablehlo.reshape %2306 : (tensor<1x8x64xf32>) -> tensor<1x1x1x8x64xf32>
    %2308 = stablehlo.dynamic_update_slice %2300, %2307, %32, %25, %2305, %9, %9 : (tensor<8x16x256x8x64xf32>, tensor<1x1x1x8x64xf32>, tensor<i32>, tensor<i32>, tensor<i32>, tensor<i32>, tensor<i32>) -> tensor<8x16x256x8x64xf32>
    %2309 = stablehlo.slice %2237 [6:7, 0:8, 0:64] : (tensor<8x8x64xf32>) -> tensor<1x8x64xf32>
    %2310 = stablehlo.reshape %2309 : (tensor<1x8x64xf32>) -> tensor<1x1x1x8x64xf32>
    %2311 = stablehlo.dynamic_update_slice %2303, %2310, %32, %25, %2305, %9, %9 : (tensor<8x16x256x8x64xf32>, tensor<1x1x1x8x64xf32>, tensor<i32>, tensor<i32>, tensor<i32>, tensor<i32>, tensor<i32>) -> tensor<8x16x256x8x64xf32>
    %2312 = stablehlo.slice %arg147 [7:8] : (tensor<8xi32>) -> tensor<1xi32>
    %2313 = stablehlo.reshape %2312 : (tensor<1xi32>) -> tensor<i32>
    %2314 = stablehlo.slice %2255 [7:8, 0:8, 0:64] : (tensor<8x8x64xf32>) -> tensor<1x8x64xf32>
    %2315 = stablehlo.reshape %2314 : (tensor<1x8x64xf32>) -> tensor<1x1x1x8x64xf32>
    %2316 = stablehlo.dynamic_update_slice %2308, %2315, %33, %25, %2313, %9, %9 : (tensor<8x16x256x8x64xf32>, tensor<1x1x1x8x64xf32>, tensor<i32>, tensor<i32>, tensor<i32>, tensor<i32>, tensor<i32>) -> tensor<8x16x256x8x64xf32>
    %2317 = stablehlo.slice %2237 [7:8, 0:8, 0:64] : (tensor<8x8x64xf32>) -> tensor<1x8x64xf32>
    %2318 = stablehlo.reshape %2317 : (tensor<1x8x64xf32>) -> tensor<1x1x1x8x64xf32>
    %2319 = stablehlo.dynamic_update_slice %2311, %2318, %33, %25, %2313, %9, %9 : (tensor<8x16x256x8x64xf32>, tensor<1x1x1x8x64xf32>, tensor<i32>, tensor<i32>, tensor<i32>, tensor<i32>, tensor<i32>) -> tensor<8x16x256x8x64xf32>
    %2320 = stablehlo.slice %2316 [0:8, 15:16, 0:256, 0:8, 0:64] : (tensor<8x16x256x8x64xf32>) -> tensor<8x1x256x8x64xf32>
    %2321 = stablehlo.reshape %2320 : (tensor<8x1x256x8x64xf32>) -> tensor<8x256x8x64xf32>
    %2322 = stablehlo.slice %2319 [0:8, 15:16, 0:256, 0:8, 0:64] : (tensor<8x16x256x8x64xf32>) -> tensor<8x1x256x8x64xf32>
    %2323 = stablehlo.reshape %2322 : (tensor<8x1x256x8x64xf32>) -> tensor<8x256x8x64xf32>
    %2324 = stablehlo.reshape %2246 : (tensor<8x32x64xf32>) -> tensor<8x8x4x64xf32>
    %2325 = stablehlo.dot_general %2324, %2321, batching_dims = [0, 1] x [0, 2], contracting_dims = [3] x [3] : (tensor<8x8x4x64xf32>, tensor<8x256x8x64xf32>) -> tensor<8x8x4x256xf32>
    %2326 = stablehlo.reshape %2325 : (tensor<8x8x4x256xf32>) -> tensor<8x32x256xf32>
    %2327 = stablehlo.broadcast_in_dim %8, dims = [] : (tensor<f32>) -> tensor<8x32x256xf32>
    %2328 = stablehlo.multiply %2326, %2327 : tensor<8x32x256xf32>
    %2329 = stablehlo.broadcast_in_dim %45, dims = [0, 2] : (tensor<8x256xf32>) -> tensor<8x32x256xf32>
    %2330 = stablehlo.add %2328, %2329 : tensor<8x32x256xf32>
    %2331 = stablehlo.reduce(%2330 init: %4) applies stablehlo.maximum across dimensions = [2] : (tensor<8x32x256xf32>, tensor<f32>) -> tensor<8x32xf32>
    %2332 = stablehlo.broadcast_in_dim %2331, dims = [0, 1] : (tensor<8x32xf32>) -> tensor<8x32x256xf32>
    %2333 = stablehlo.subtract %2330, %2332 : tensor<8x32x256xf32>
    %2334 = stablehlo.exponential %2333 : tensor<8x32x256xf32>
    %2335 = stablehlo.reduce(%2334 init: %2) applies stablehlo.add across dimensions = [2] : (tensor<8x32x256xf32>, tensor<f32>) -> tensor<8x32xf32>
    %2336 = stablehlo.broadcast_in_dim %2335, dims = [0, 1] : (tensor<8x32xf32>) -> tensor<8x32x256xf32>
    %2337 = stablehlo.divide %2334, %2336 : tensor<8x32x256xf32>
    %2338 = stablehlo.reshape %2337 : (tensor<8x32x256xf32>) -> tensor<8x8x4x256xf32>
    %2339 = stablehlo.dot_general %2338, %2323, batching_dims = [0, 1] x [0, 2], contracting_dims = [3] x [1] : (tensor<8x8x4x256xf32>, tensor<8x256x8x64xf32>) -> tensor<8x8x4x64xf32>
    %2340 = stablehlo.reshape %2339 : (tensor<8x8x4x64xf32>) -> tensor<8x32x64xf32>
    %2341 = stablehlo.reshape %2340 : (tensor<8x32x64xf32>) -> tensor<8x2048xf32>
    %2342 = stablehlo.dot_general %2341, %arg143, contracting_dims = [1] x [1] : (tensor<8x2048xf32>, tensor<2048x2048xf32>) -> tensor<8x2048xf32>
    %2343 = stablehlo.add %2220, %2342 : tensor<8x2048xf32>
    %2344 = stablehlo.multiply %2343, %2343 : tensor<8x2048xf32>
    %2345 = stablehlo.reduce(%2344 init: %2) applies stablehlo.add across dimensions = [1] : (tensor<8x2048xf32>, tensor<f32>) -> tensor<8xf32>
    %2346 = stablehlo.broadcast_in_dim %7, dims = [] : (tensor<f32>) -> tensor<8xf32>
    %2347 = stablehlo.divide %2345, %2346 : tensor<8xf32>
    %2348 = stablehlo.broadcast_in_dim %6, dims = [] : (tensor<f32>) -> tensor<8xf32>
    %2349 = stablehlo.add %2347, %2348 : tensor<8xf32>
    %2350 = stablehlo.rsqrt %2349 : tensor<8xf32>
    %2351 = stablehlo.broadcast_in_dim %2350, dims = [0] : (tensor<8xf32>) -> tensor<8x2048xf32>
    %2352 = stablehlo.multiply %2343, %2351 : tensor<8x2048xf32>
    %2353 = stablehlo.broadcast_in_dim %arg140, dims = [1] : (tensor<2048xf32>) -> tensor<8x2048xf32>
    %2354 = stablehlo.multiply %2352, %2353 : tensor<8x2048xf32>
    %2355 = stablehlo.dot_general %2354, %arg138, contracting_dims = [1] x [1] : (tensor<8x2048xf32>, tensor<8192x2048xf32>) -> tensor<8x8192xf32>
    %2356 = stablehlo.dot_general %2354, %arg141, contracting_dims = [1] x [1] : (tensor<8x2048xf32>, tensor<8192x2048xf32>) -> tensor<8x8192xf32>
    %2357 = stablehlo.negate %2355 : tensor<8x8192xf32>
    %2358 = stablehlo.exponential %2357 : tensor<8x8192xf32>
    %2359 = stablehlo.broadcast_in_dim %3, dims = [] : (tensor<f32>) -> tensor<8x8192xf32>
    %2360 = stablehlo.add %2359, %2358 : tensor<8x8192xf32>
    %2361 = stablehlo.divide %2359, %2360 : tensor<8x8192xf32>
    %2362 = stablehlo.multiply %2355, %2361 : tensor<8x8192xf32>
    %2363 = stablehlo.multiply %2362, %2356 : tensor<8x8192xf32>
    %2364 = stablehlo.dot_general %2363, %arg137, contracting_dims = [1] x [1] : (tensor<8x8192xf32>, tensor<2048x8192xf32>) -> tensor<8x2048xf32>
    %2365 = stablehlo.add %2343, %2364 : tensor<8x2048xf32>
    %2366 = stablehlo.multiply %2365, %2365 : tensor<8x2048xf32>
    %2367 = stablehlo.reduce(%2366 init: %2) applies stablehlo.add across dimensions = [1] : (tensor<8x2048xf32>, tensor<f32>) -> tensor<8xf32>
    %2368 = stablehlo.broadcast_in_dim %7, dims = [] : (tensor<f32>) -> tensor<8xf32>
    %2369 = stablehlo.divide %2367, %2368 : tensor<8xf32>
    %2370 = stablehlo.broadcast_in_dim %6, dims = [] : (tensor<f32>) -> tensor<8xf32>
    %2371 = stablehlo.add %2369, %2370 : tensor<8xf32>
    %2372 = stablehlo.rsqrt %2371 : tensor<8xf32>
    %2373 = stablehlo.broadcast_in_dim %2372, dims = [0] : (tensor<8xf32>) -> tensor<8x2048xf32>
    %2374 = stablehlo.multiply %2365, %2373 : tensor<8x2048xf32>
    %2375 = stablehlo.broadcast_in_dim %arg1, dims = [1] : (tensor<2048xf32>) -> tensor<8x2048xf32>
    %2376 = stablehlo.multiply %2374, %2375 : tensor<8x2048xf32>
    %2377 = stablehlo.dot_general %2376, %arg0, contracting_dims = [1] x [1] : (tensor<8x2048xf32>, tensor<128256x2048xf32>) -> tensor<8x128256xf32>
    return %2377, %2316, %2319 : tensor<8x128256xf32>, tensor<8x16x256x8x64xf32>, tensor<8x16x256x8x64xf32>
  }
}
