module @decode_step {
  func.func public @main(%arg0: tensor<128256x2048xf32> loc("params['embed']"), %arg1: tensor<2048xf32> loc("params['final_norm']"), %arg2: tensor<2048x8192xf32> loc("params['layers'][0]['down']"), %arg3: tensor<8192x2048xf32> loc("params['layers'][0]['gate']"), %arg4: tensor<2048xf32> loc("params['layers'][0]['in_ln']"), %arg5: tensor<2048xf32> loc("params['layers'][0]['post_ln']"), %arg6: tensor<8192x2048xf32> loc("params['layers'][0]['up']"), %arg7: tensor<512x2048xf32> loc("params['layers'][0]['wk']"), %arg8: tensor<2048x2048xf32> loc("params['layers'][0]['wo']"), %arg9: tensor<2048x2048xf32> loc("params['layers'][0]['wq']"), %arg10: tensor<512x2048xf32> loc("params['layers'][0]['wv']"), %arg11: tensor<2048x8192xf32> loc("params['layers'][1]['down']"), %arg12: tensor<8192x2048xf32> loc("params['layers'][1]['gate']"), %arg13: tensor<2048xf32> loc("params['layers'][1]['in_ln']"), %arg14: tensor<2048xf32> loc("params['layers'][1]['post_ln']"), %arg15: tensor<8192x2048xf32> loc("params['layers'][1]['up']"), %arg16: tensor<512x2048xf32> loc("params['layers'][1]['wk']"), %arg17: tensor<2048x2048xf32> loc("params['layers'][1]['wo']"), %arg18: tensor<2048x2048xf32> loc("params['layers'][1]['wq']"), %arg19: tensor<512x2048xf32> loc("params['layers'][1]['wv']"), %arg20: tensor<2048x8192xf32> loc("params['layers'][2]['down']"), %arg21: tensor<8192x2048xf32> loc("params['layers'][2]['gate']"), %arg22: tensor<2048xf32> loc("params['layers'][2]['in_ln']"), %arg23: tensor<2048xf32> loc("params['layers'][2]['post_ln']"), %arg24: tensor<8192x2048xf32> loc("params['layers'][2]['up']"), %arg25: tensor<512x2048xf32> loc("params['layers'][2]['wk']"), %arg26: tensor<2048x2048xf32> loc("params['layers'][2]['wo']"), %arg27: tensor<2048x2048xf32> loc("params['layers'][2]['wq']"), %arg28: tensor<512x2048xf32> loc("params['layers'][2]['wv']"), %arg29: tensor<2048x8192xf32> loc("params['layers'][3]['down']"), %arg30: tensor<8192x2048xf32> loc("params['layers'][3]['gate']"), %arg31: tensor<2048xf32> loc("params['layers'][3]['in_ln']"), %arg32: tensor<2048xf32> loc("params['layers'][3]['post_ln']"), %arg33: tensor<8192x2048xf32> loc("params['layers'][3]['up']"), %arg34: tensor<512x2048xf32> loc("params['layers'][3]['wk']"), %arg35: tensor<2048x2048xf32> loc("params['layers'][3]['wo']"), %arg36: tensor<2048x2048xf32> loc("params['layers'][3]['wq']"), %arg37: tensor<512x2048xf32> loc("params['layers'][3]['wv']"), %arg38: tensor<2048x8192xf32> loc("params['layers'][4]['down']"), %arg39: tensor<8192x2048xf32> loc("params['layers'][4]['gate']"), %arg40: tensor<2048xf32> loc("params['layers'][4]['in_ln']"), %arg41: tensor<2048xf32> loc("params['layers'][4]['post_ln']"), %arg42: tensor<8192x2048xf32> loc("params['layers'][4]['up']"), %arg43: tensor<512x2048xf32> loc("params['layers'][4]['wk']"), %arg44: tensor<2048x2048xf32> loc("params['layers'][4]['wo']"), %arg45: tensor<2048x2048xf32> loc("params['layers'][4]['wq']"), %arg46: tensor<512x2048xf32> loc("params['layers'][4]['wv']"), %arg47: tensor<2048x8192xf32> loc("params['layers'][5]['down']"), %arg48: tensor<8192x2048xf32> loc("params['layers'][5]['gate']"), %arg49: tensor<2048xf32> loc("params['layers'][5]['in_ln']"), %arg50: tensor<2048xf32> loc("params['layers'][5]['post_ln']"), %arg51: tensor<8192x2048xf32> loc("params['layers'][5]['up']"), %arg52: tensor<512x2048xf32> loc("params['layers'][5]['wk']"), %arg53: tensor<2048x2048xf32> loc("params['layers'][5]['wo']"), %arg54: tensor<2048x2048xf32> loc("params['layers'][5]['wq']"), %arg55: tensor<512x2048xf32> loc("params['layers'][5]['wv']"), %arg56: tensor<2048x8192xf32> loc("params['layers'][6]['down']"), %arg57: tensor<8192x2048xf32> loc("params['layers'][6]['gate']"), %arg58: tensor<2048xf32> loc("params['layers'][6]['in_ln']"), %arg59: tensor<2048xf32> loc("params['layers'][6]['post_ln']"), %arg60: tensor<8192x2048xf32> loc("params['layers'][6]['up']"), %arg61: tensor<512x2048xf32> loc("params['layers'][6]['wk']"), %arg62: tensor<2048x2048xf32> loc("params['layers'][6]['wo']"), %arg63: tensor<2048x2048xf32> loc("params['layers'][6]['wq']"), %arg64: tensor<512x2048xf32> loc("params['layers'][6]['wv']"), %arg65: tensor<2048x8192xf32> loc("params['layers'][7]['down']"), %arg66: tensor<8192x2048xf32> loc("params['layers'][7]['gate']"), %arg67: tensor<2048xf32> loc("params['layers'][7]['in_ln']"), %arg68: tensor<2048xf32> loc("params['layers'][7]['post_ln']"), %arg69: tensor<8192x2048xf32> loc("params['layers'][7]['up']"), %arg70: tensor<512x2048xf32> loc("params['layers'][7]['wk']"), %arg71: tensor<2048x2048xf32> loc("params['layers'][7]['wo']"), %arg72: tensor<2048x2048xf32> loc("params['layers'][7]['wq']"), %arg73: tensor<512x2048xf32> loc("params['layers'][7]['wv']"), %arg74: tensor<2048x8192xf32> loc("params['layers'][8]['down']"), %arg75: tensor<8192x2048xf32> loc("params['layers'][8]['gate']"), %arg76: tensor<2048xf32> loc("params['layers'][8]['in_ln']"), %arg77: tensor<2048xf32> loc("params['layers'][8]['post_ln']"), %arg78: tensor<8192x2048xf32> loc("params['layers'][8]['up']"), %arg79: tensor<512x2048xf32> loc("params['layers'][8]['wk']"), %arg80: tensor<2048x2048xf32> loc("params['layers'][8]['wo']"), %arg81: tensor<2048x2048xf32> loc("params['layers'][8]['wq']"), %arg82: tensor<512x2048xf32> loc("params['layers'][8]['wv']"), %arg83: tensor<2048x8192xf32> loc("params['layers'][9]['down']"), %arg84: tensor<8192x2048xf32> loc("params['layers'][9]['gate']"), %arg85: tensor<2048xf32> loc("params['layers'][9]['in_ln']"), %arg86: tensor<2048xf32> loc("params['layers'][9]['post_ln']"), %arg87: tensor<8192x2048xf32> loc("params['layers'][9]['up']"), %arg88: tensor<512x2048xf32> loc("params['layers'][9]['wk']"), %arg89: tensor<2048x2048xf32> loc("params['layers'][9]['wo']"), %arg90: tensor<2048x2048xf32> loc("params['layers'][9]['wq']"), %arg91: tensor<512x2048xf32> loc("params['layers'][9]['wv']"), %arg92: tensor<2048x8192xf32> loc("params['layers'][10]['down']"), %arg93: tensor<8192x2048xf32> loc("params['layers'][10]['gate']"), %arg94: tensor<2048xf32> loc("params['layers'][10]['in_ln']"), %arg95: tensor<2048xf32> loc("params['layers'][10]['post_ln']"), %arg96: tensor<8192x2048xf32> loc("params['layers'][10]['up']"), %arg97: tensor<512x2048xf32> loc("params['layers'][10]['wk']"), %arg98: tensor<2048x2048xf32> loc("params['layers'][10]['wo']"), %arg99: tensor<2048x2048xf32> loc("params['layers'][10]['wq']"), %arg100: tensor<512x2048xf32> loc("params['layers'][10]['wv']"), %arg101: tensor<2048x8192xf32> loc("params['layers'][11]['down']"), %arg102: tensor<8192x2048xf32> loc("params['layers'][11]['gate']"), %arg103: tensor<2048xf32> loc("params['layers'][11]['in_ln']"), %arg104: tensor<2048xf32> loc("params['layers'][11]['post_ln']"), %arg105: tensor<8192x2048xf32> loc("params['layers'][11]['up']"), %arg106: tensor<512x2048xf32> loc("params['layers'][11]['wk']"), %arg107: tensor<2048x2048xf32> loc("params['layers'][11]['wo']"), %arg108: tensor<2048x2048xf32> loc("params['layers'][11]['wq']"), %arg109: tensor<512x2048xf32> loc("params['layers'][11]['wv']"), %arg110: tensor<2048x8192xf32> loc("params['layers'][12]['down']"), %arg111: tensor<8192x2048xf32> loc("params['layers'][12]['gate']"), %arg112: tensor<2048xf32> loc("params['layers'][12]['in_ln']"), %arg113: tensor<2048xf32> loc("params['layers'][12]['post_ln']"), %arg114: tensor<8192x2048xf32> loc("params['layers'][12]['up']"), %arg115: tensor<512x2048xf32> loc("params['layers'][12]['wk']"), %arg116: tensor<2048x2048xf32> loc("params['layers'][12]['wo']"), %arg117: tensor<2048x2048xf32> loc("params['layers'][12]['wq']"), %arg118: tensor<512x2048xf32> loc("params['layers'][12]['wv']"), %arg119: tensor<2048x8192xf32> loc("params['layers'][13]['down']"), %arg120: tensor<8192x2048xf32> loc("params['layers'][13]['gate']"), %arg121: tensor<2048xf32> loc("params['layers'][13]['in_ln']"), %arg122: tensor<2048xf32> loc("params['layers'][13]['post_ln']"), %arg123: tensor<8192x2048xf32> loc("params['layers'][13]['up']"), %arg124: tensor<512x2048xf32> loc("params['layers'][13]['wk']"), %arg125: tensor<2048x2048xf32> loc("params['layers'][13]['wo']"), %arg126: tensor<2048x2048xf32> loc("params['layers'][13]['wq']"), %arg127: tensor<512x2048xf32> loc("params['layers'][13]['wv']"), %arg128: tensor<2048x8192xf32> loc("params['layers'][14]['down']"), %arg129: tensor<8192x2048xf32> loc("params['layers'][14]['gate']"), %arg130: tensor<2048xf32> loc("params['layers'][14]['in_ln']"), %arg131: tensor<2048xf32> loc("params['layers'][14]['post_ln']"), %arg132: tensor<8192x2048xf32> loc("params['layers'][14]['up']"), %arg133: tensor<512x2048xf32> loc("params['layers'][14]['wk']"), %arg134: tensor<2048x2048xf32> loc("params['layers'][14]['wo']"), %arg135: tensor<2048x2048xf32> loc("params['layers'][14]['wq']"), %arg136: tensor<512x2048xf32> loc("params['layers'][14]['wv']"), %arg137: tensor<2048x8192xf32> loc("params['layers'][15]['down']"), %arg138: tensor<8192x2048xf32> loc("params['layers'][15]['gate']"), %arg139: tensor<2048xf32> loc("params['layers'][15]['in_ln']"), %arg140: tensor<2048xf32> loc("params['layers'][15]['post_ln']"), %arg141: tensor<8192x2048xf32> loc("params['layers'][15]['up']"), %arg142: tensor<512x2048xf32> loc("params['layers'][15]['wk']"), %arg143: tensor<2048x2048xf32> loc("params['layers'][15]['wo']"), %arg144: tensor<2048x2048xf32> loc("params['layers'][15]['wq']"), %arg145: tensor<512x2048xf32> loc("params['layers'][15]['wv']"), %arg146: tensor<4xi32> loc("token"), %arg147: tensor<4xi32> loc("pos"), %arg148: tensor<4xi32> loc("cache_len"), %arg149: tensor<4x16x256x8x64xf32> loc("kcache"), %arg150: tensor<4x16x256x8x64xf32> loc("vcache")) -> (tensor<4xi32>, tensor<4x16x256x8x64xf32>, tensor<4x16x256x8x64xf32>) {
    %0 = stablehlo.constant dense<"…"> : tensor<256x64xf32>
    %1 = stablehlo.constant dense<"…"> : tensor<256x64xf32>
    %2 = stablehlo.constant dense<0x00000000> : tensor<f32>
    %3 = stablehlo.constant dense<0x3F800000> : tensor<f32>
    %4 = stablehlo.constant dense<0xFF800000> : tensor<f32>
    %5 = stablehlo.constant dense<0xF149F2CA> : tensor<f32>
    %6 = stablehlo.constant dense<0x3727C5AC> : tensor<f32>
    %7 = stablehlo.constant dense<0x45000000> : tensor<f32>
    %8 = stablehlo.constant dense<0x3E000000> : tensor<f32>
    %9 = stablehlo.constant dense<0> : tensor<i32>
    %10 = stablehlo.constant dense<0> : tensor<i32>
    %11 = stablehlo.constant dense<1> : tensor<i32>
    %12 = stablehlo.constant dense<2> : tensor<i32>
    %13 = stablehlo.constant dense<3> : tensor<i32>
    %14 = stablehlo.constant dense<4> : tensor<i32>
    %15 = stablehlo.constant dense<5> : tensor<i32>
    %16 = stablehlo.constant dense<6> : tensor<i32>
    %17 = stablehlo.constant dense<7> : tensor<i32>
    %18 = stablehlo.constant dense<8> : tensor<i32>
    %19 = stablehlo.constant dense<9> : tensor<i32>
    %20 = stablehlo.constant dense<10> : tensor<i32>
    %21 = stablehlo.constant dense<11> : tensor<i32>
    %22 = stablehlo.constant dense<12> : tensor<i32>
    %23 = stablehlo.constant dense<13> : tensor<i32>
    %24 = stablehlo.constant dense<14> : tensor<i32>
    %25 = stablehlo.constant dense<15> : tensor<i32>
    %26 = stablehlo.constant dense<0> : tensor<i32>
    %27 = stablehlo.constant dense<1> : tensor<i32>
    %28 = stablehlo.constant dense<2> : tensor<i32>
    %29 = stablehlo.constant dense<3> : tensor<i32>
    %30 = stablehlo.reshape %arg146 : (tensor<4xi32>) -> tensor<4x1xi32>
    %31 = "stablehlo.gather"(%arg0, %30) <{dimension_numbers = #stablehlo.gather<offset_dims = [1], collapsed_slice_dims = [0], start_index_map = [0], index_vector_dim = 1>, slice_sizes = array<i64: 1, 2048>}> : (tensor<128256x2048xf32>, tensor<4x1xi32>) -> tensor<4x2048xf32>
    %32 = stablehlo.reshape %arg147 : (tensor<4xi32>) -> tensor<4x1xi32>
    %33 = "stablehlo.gather"(%0, %32) <{dimension_numbers = #stablehlo.gather<offset_dims = [1], collapsed_slice_dims = [0], start_index_map = [0], index_vector_dim = 1>, slice_sizes = array<i64: 1, 64>}> : (tensor<256x64xf32>, tensor<4x1xi32>) -> tensor<4x64xf32>
    %34 = "stablehlo.gather"(%1, %32) <{dimension_numbers = #stablehlo.gather<offset_dims = [1], collapsed_slice_dims = [0], start_index_map = [0], index_vector_dim = 1>, slice_sizes = array<i64: 1, 64>}> : (tensor<256x64xf32>, tensor<4x1xi32>) -> tensor<4x64xf32>
    %35 = stablehlo.iota dim = 0 : tensor<256xi32>
    %36 = stablehlo.broadcast_in_dim %35, dims = [1] : (tensor<256xi32>) -> tensor<4x256xi32>
    %37 = stablehlo.broadcast_in_dim %arg148, dims = [0] : (tensor<4xi32>) -> tensor<4x256xi32>
    %38 = stablehlo.compare LE, %36, %37, SIGNED : (tensor<4x256xi32>, tensor<4x256xi32>) -> tensor<4x256xi1>
    %39 = stablehlo.broadcast_in_dim %2, dims = [] : (tensor<f32>) -> tensor<4x256xf32>
    %40 = stablehlo.broadcast_in_dim %5, dims = [] : (tensor<f32>) -> tensor<4x256xf32>
    %41 = stablehlo.select %38, %39, %40 : tensor<4x256xi1>, tensor<4x256xf32>
    %42 = stablehlo.multiply %31, %31 : tensor<4x2048xf32>
    %43 = stablehlo.reduce(%42 init: %2) applies stablehlo.add across dimensions = [1] : (tensor<4x2048xf32>, tensor<f32>) -> tensor<4xf32>
    %44 = stablehlo.broadcast_in_dim %7, dims = [] : (tensor<f32>) -> tensor<4xf32>
    %45 = stablehlo.divide %43, %44 : tensor<4xf32>
    %46 = stablehlo.broadcast_in_dim %6, dims = [] : (tensor<f32>) -> tensor<4xf32>
    %47 = stablehlo.add %45, %46 : tensor<4xf32>
    %48 = stablehlo.rsqrt %47 : tensor<4xf32>
    %49 = stablehlo.broadcast_in_dim %48, dims = [0] : (tensor<4xf32>) -> tensor<4x2048xf32>
    %50 = stablehlo.multiply %31, %49 : tensor<4x2048xf32>
    %51 = stablehlo.broadcast_in_dim %arg4, dims = [1] : (tensor<2048xf32>) -> tensor<4x2048xf32>
    %52 = stablehlo.multiply %50, %51 : tensor<4x2048xf32>
    %53 = stablehlo.dot_general %52, %arg9, contracting_dims = [1] x [1] : (tensor<4x2048xf32>, tensor<2048x2048xf32>) -> tensor<4x2048xf32>
    %54 = stablehlo.reshape %53 : (tensor<4x2048xf32>) -> tensor<4x32x64xf32>
    %55 = stablehlo.dot_general %52, %arg7, contracting_dims = [1] x [1] : (tensor<4x2048xf32>, tensor<512x2048xf32>) -> tensor<4x512xf32>
    %56 = stablehlo.reshape %55 : (tensor<4x512xf32>) -> tensor<4x8x64xf32>
    %57 = stablehlo.dot_general %52, %arg10, contracting_dims = [1] x [1] : (tensor<4x2048xf32>, tensor<512x2048xf32>) -> tensor<4x512xf32>
    %58 = stablehlo.reshape %57 : (tensor<4x512xf32>) -> tensor<4x8x64xf32>
    %59 = stablehlo.broadcast_in_dim %33, dims = [0, 2] : (tensor<4x64xf32>) -> tensor<4x32x64xf32>
    %60 = stablehlo.broadcast_in_dim %34, dims = [0, 2] : (tensor<4x64xf32>) -> tensor<4x32x64xf32>
    %61 = stablehlo.multiply %54, %59 : tensor<4x32x64xf32>
    %62 = stablehlo.slice %54 [0:4, 0:32, 0:32] : (tensor<4x32x64xf32>) -> tensor<4x32x32xf32>
    %63 = stablehlo.slice %54 [0:4, 0:32, 32:64] : (tensor<4x32x64xf32>) -> tensor<4x32x32xf32>
    %64 = stablehlo.negate %63 : tensor<4x32x32xf32>
    %65 = stablehlo.concatenate %64, %62, dim = 2 : (tensor<4x32x32xf32>, tensor<4x32x32xf32>) -> tensor<4x32x64xf32>
    %66 = stablehlo.multiply %65, %60 : tensor<4x32x64xf32>
    %67 = stablehlo.add %61, %66 : tensor<4x32x64xf32>
    %68 = stablehlo.broadcast_in_dim %33, dims = [0, 2] : (tensor<4x64xf32>) -> tensor<4x8x64xf32>
    %69 = stablehlo.broadcast_in_dim %34, dims = [0, 2] : (tensor<4x64xf32>) -> tensor<4x8x64xf32>
    %70 = stablehlo.multiply %56, %68 : tensor<4x8x64xf32>
    %71 = stablehlo.slice %56 [0:4, 0:8, 0:32] : (tensor<4x8x64xf32>) -> tensor<4x8x32xf32>
    %72 = stablehlo.slice %56 [0:4, 0:8, 32:64] : (tensor<4x8x64xf32>) -> tensor<4x8x32xf32>
    %73 = stablehlo.negate %72 : tensor<4x8x32xf32>
    %74 = stablehlo.concatenate %73, %71, dim = 2 : (tensor<4x8x32xf32>, tensor<4x8x32xf32>) -> tensor<4x8x64xf32>
    %75 = stablehlo.multiply %74, %69 : tensor<4x8x64xf32>
    %76 = stablehlo.add %70, %75 : tensor<4x8x64xf32>
    %77 = stablehlo.slice %arg147 [0:1] : (tensor<4xi32>) -> tensor<1xi32>
    %78 = stablehlo.reshape %77 : (tensor<1xi32>) -> tensor<i32>
    %79 = stablehlo.slice %76 [0:1, 0:8, 0:64] : (tensor<4x8x64xf32>) -> tensor<1x8x64xf32>
    %80 = stablehlo.reshape %79 : (tensor<1x8x64xf32>) -> tensor<1x1x1x8x64xf32>
    %81 = stablehlo.dynamic_update_slice %arg149, %80, %26, %10, %78, %9, %9 : (tensor<4x16x256x8x64xf32>, tensor<1x1x1x8x64xf32>, tensor<i32>, tensor<i32>, tensor<i32>, tensor<i32>, tensor<i32>) -> tensor<4x16x256x8x64xf32>
    %82 = stablehlo.slice %58 [0:1, 0:8, 0:64] : (tensor<4x8x64xf32>) -> tensor<1x8x64xf32>
    %83 = stablehlo.reshape %82 : (tensor<1x8x64xf32>) -> tensor<1x1x1x8x64xf32>
    %84 = stablehlo.dynamic_update_slice %arg150, %83, %26, %10, %78, %9, %9 : (tensor<4x16x256x8x64xf32>, tensor<1x1x1x8x64xf32>, tensor<i32>, tensor<i32>, tensor<i32>, tensor<i32>, tensor<i32>) -> tensor<4x16x256x8x64xf32>
    %85 = stablehlo.slice %arg147 [1:2] : (tensor<4xi32>) -> tensor<1xi32>
    %86 = stablehlo.reshape %85 : (tensor<1xi32>) -> tensor<i32>
    %87 = stablehlo.slice %76 [1:2, 0:8, 0:64] : (tensor<4x8x64xf32>) -> tensor<1x8x64xf32>
    %88 = stablehlo.reshape %87 : (tensor<1x8x64xf32>) -> tensor<1x1x1x8x64xf32>
    %89 = stablehlo.dynamic_update_slice %81, %88, %27, %10, %86, %9, %9 : (tensor<4x16x256x8x64xf32>, tensor<1x1x1x8x64xf32>, tensor<i32>, tensor<i32>, tensor<i32>, tensor<i32>, tensor<i32>) -> tensor<4x16x256x8x64xf32>
    %90 = stablehlo.slice %58 [1:2, 0:8, 0:64] : (tensor<4x8x64xf32>) -> tensor<1x8x64xf32>
    %91 = stablehlo.reshape %90 : (tensor<1x8x64xf32>) -> tensor<1x1x1x8x64xf32>
    %92 = stablehlo.dynamic_update_slice %84, %91, %27, %10, %86, %9, %9 : (tensor<4x16x256x8x64xf32>, tensor<1x1x1x8x64xf32>, tensor<i32>, tensor<i32>, tensor<i32>, tensor<i32>, tensor<i32>) -> tensor<4x16x256x8x64xf32>
    %93 = stablehlo.slice %arg147 [2:3] : (tensor<4xi32>) -> tensor<1xi32>
    %94 = stablehlo.reshape %93 : (tensor<1xi32>) -> tensor<i32>
    %95 = stablehlo.slice %76 [2:3, 0:8, 0:64] : (tensor<4x8x64xf32>) -> tensor<1x8x64xf32>
    %96 = stablehlo.reshape %95 : (tensor<1x8x64xf32>) -> tensor<1x1x1x8x64xf32>
    %97 = stablehlo.dynamic_update_slice %89, %96, %28, %10, %94, %9, %9 : (tensor<4x16x256x8x64xf32>, tensor<1x1x1x8x64xf32>, tensor<i32>, tensor<i32>, tensor<i32>, tensor<i32>, tensor<i32>) -> tensor<4x16x256x8x64xf32>
    %98 = stablehlo.slice %58 [2:3, 0:8, 0:64] : (tensor<4x8x64xf32>) -> tensor<1x8x64xf32>
    %99 = stablehlo.reshape %98 : (tensor<1x8x64xf32>) -> tensor<1x1x1x8x64xf32>
    %100 = stablehlo.dynamic_update_slice %92, %99, %28, %10, %94, %9, %9 : (tensor<4x16x256x8x64xf32>, tensor<1x1x1x8x64xf32>, tensor<i32>, tensor<i32>, tensor<i32>, tensor<i32>, tensor<i32>) -> tensor<4x16x256x8x64xf32>
    %101 = stablehlo.slice %arg147 [3:4] : (tensor<4xi32>) -> tensor<1xi32>
    %102 = stablehlo.reshape %101 : (tensor<1xi32>) -> tensor<i32>
    %103 = stablehlo.slice %76 [3:4, 0:8, 0:64] : (tensor<4x8x64xf32>) -> tensor<1x8x64xf32>
    %104 = stablehlo.reshape %103 : (tensor<1x8x64xf32>) -> tensor<1x1x1x8x64xf32>
    %105 = stablehlo.dynamic_update_slice %97, %104, %29, %10, %102, %9, %9 : (tensor<4x16x256x8x64xf32>, tensor<1x1x1x8x64xf32>, tensor<i32>, tensor<i32>, tensor<i32>, tensor<i32>, tensor<i32>) -> tensor<4x16x256x8x64xf32>
    %106 = stablehlo.slice %58 [3:4, 0:8, 0:64] : (tensor<4x8x64xf32>) -> tensor<1x8x64xf32>
    %107 = stablehlo.reshape %106 : (tensor<1x8x64xf32>) -> tensor<1x1x1x8x64xf32>
    %108 = stablehlo.dynamic_update_slice %100, %107, %29, %10, %102, %9, %9 : (tensor<4x16x256x8x64xf32>, tensor<1x1x1x8x64xf32>, tensor<i32>, tensor<i32>, tensor<i32>, tensor<i32>, tensor<i32>) -> tensor<4x16x256x8x64xf32>
    %109 = stablehlo.slice %105 [0:4, 0:1, 0:256, 0:8, 0:64] : (tensor<4x16x256x8x64xf32>) -> tensor<4x1x256x8x64xf32>
    %110 = stablehlo.reshape %109 : (tensor<4x1x256x8x64xf32>) -> tensor<4x256x8x64xf32>
    %111 = stablehlo.slice %108 [0:4, 0:1, 0:256, 0:8, 0:64] : (tensor<4x16x256x8x64xf32>) -> tensor<4x1x256x8x64xf32>
    %112 = stablehlo.reshape %111 : (tensor<4x1x256x8x64xf32>) -> tensor<4x256x8x64xf32>
    %113 = stablehlo.reshape %67 : (tensor<4x32x64xf32>) -> tensor<4x8x4x64xf32>
    %114 = stablehlo.dot_general %113, %110, batching_dims = [0, 1] x [0, 2], contracting_dims = [3] x [3] : (tensor<4x8x4x64xf32>, tensor<4x256x8x64xf32>) -> tensor<4x8x4x256xf32>
    %115 = stablehlo.reshape %114 : (tensor<4x8x4x256xf32>) -> tensor<4x32x256xf32>
    %116 = stablehlo.broadcast_in_dim %8, dims = [] : (tensor<f32>) -> tensor<4x32x256xf32>
    %117 = stablehlo.multiply %115, %116 : tensor<4x32x256xf32>
    %118 = stablehlo.broadcast_in_dim %41, dims = [0, 2] : (tensor<4x256xf32>) -> tensor<4x32x256xf32>
    %119 = stablehlo.add %117, %118 : tensor<4x32x256xf32>
    %120 = stablehlo.reduce(%119 init: %4) applies stablehlo.maximum across dimensions = [2] : (tensor<4x32x256xf32>, tensor<f32>) -> tensor<4x32xf32>
    %121 = stablehlo.broadcast_in_dim %120, dims = [0, 1] : (tensor<4x32xf32>) -> tensor<4x32x256xf32>
    %122 = stablehlo.subtract %119, %121 : tensor<4x32x256xf32>
    %123 = stablehlo.exponential %122 : tensor<4x32x256xf32>
    %124 = stablehlo.reduce(%123 init: %2) applies stablehlo.add across dimensions = [2] : (tensor<4x32x256xf32>, tensor<f32>) -> tensor<4x32xf32>
    %125 = stablehlo.broadcast_in_dim %124, dims = [0, 1] : (tensor<4x32xf32>) -> tensor<4x32x256xf32>
    %126 = stablehlo.divide %123, %125 : tensor<4x32x256xf32>
    %127 = stablehlo.reshape %126 : (tensor<4x32x256xf32>) -> tensor<4x8x4x256xf32>
    %128 = stablehlo.dot_general %127, %112, batching_dims = [0, 1] x [0, 2], contracting_dims = [3] x [1] : (tensor<4x8x4x256xf32>, tensor<4x256x8x64xf32>) -> tensor<4x8x4x64xf32>
    %129 = stablehlo.reshape %128 : (tensor<4x8x4x64xf32>) -> tensor<4x32x64xf32>
    %130 = stablehlo.reshape %129 : (tensor<4x32x64xf32>) -> tensor<4x2048xf32>
    %131 = stablehlo.dot_general %130, %arg8, contracting_dims = [1] x [1] : (tensor<4x2048xf32>, tensor<2048x2048xf32>) -> tensor<4x2048xf32>
    %132 = stablehlo.add %31, %131 : tensor<4x2048xf32>
    %133 = stablehlo.multiply %132, %132 : tensor<4x2048xf32>
    %134 = stablehlo.reduce(%133 init: %2) applies stablehlo.add across dimensions = [1] : (tensor<4x2048xf32>, tensor<f32>) -> tensor<4xf32>
    %135 = stablehlo.broadcast_in_dim %7, dims = [] : (tensor<f32>) -> tensor<4xf32>
    %136 = stablehlo.divide %134, %135 : tensor<4xf32>
    %137 = stablehlo.broadcast_in_dim %6, dims = [] : (tensor<f32>) -> tensor<4xf32>
    %138 = stablehlo.add %136, %137 : tensor<4xf32>
    %139 = stablehlo.rsqrt %138 : tensor<4xf32>
    %140 = stablehlo.broadcast_in_dim %139, dims = [0] : (tensor<4xf32>) -> tensor<4x2048xf32>
    %141 = stablehlo.multiply %132, %140 : tensor<4x2048xf32>
    %142 = stablehlo.broadcast_in_dim %arg5, dims = [1] : (tensor<2048xf32>) -> tensor<4x2048xf32>
    %143 = stablehlo.multiply %141, %142 : tensor<4x2048xf32>
    %144 = stablehlo.dot_general %143, %arg3, contracting_dims = [1] x [1] : (tensor<4x2048xf32>, tensor<8192x2048xf32>) -> tensor<4x8192xf32>
    %145 = stablehlo.dot_general %143, %arg6, contracting_dims = [1] x [1] : (tensor<4x2048xf32>, tensor<8192x2048xf32>) -> tensor<4x8192xf32>
    %146 = stablehlo.negate %144 : tensor<4x8192xf32>
    %147 = stablehlo.exponential %146 : tensor<4x8192xf32>
    %148 = stablehlo.broadcast_in_dim %3, dims = [] : (tensor<f32>) -> tensor<4x8192xf32>
    %149 = stablehlo.add %148, %147 : tensor<4x8192xf32>
    %150 = stablehlo.divide %148, %149 : tensor<4x8192xf32>
    %151 = stablehlo.multiply %144, %150 : tensor<4x8192xf32>
    %152 = stablehlo.multiply %151, %145 : tensor<4x8192xf32>
    %153 = stablehlo.dot_general %152, %arg2, contracting_dims = [1] x [1] : (tensor<4x8192xf32>, tensor<2048x8192xf32>) -> tensor<4x2048xf32>
    %154 = stablehlo.add %132, %153 : tensor<4x2048xf32>
    %155 = stablehlo.multiply %154, %154 : tensor<4x2048xf32>
    %156 = stablehlo.reduce(%155 init: %2) applies stablehlo.add across dimensions = [1] : (tensor<4x2048xf32>, tensor<f32>) -> tensor<4xf32>
    %157 = stablehlo.broadcast_in_dim %7, dims = [] : (tensor<f32>) -> tensor<4xf32>
    %158 = stablehlo.divide %156, %157 : tensor<4xf32>
    %159 = stablehlo.broadcast_in_dim %6, dims = [] : (tensor<f32>) -> tensor<4xf32>
    %160 = stablehlo.add %158, %159 : tensor<4xf32>
    %161 = stablehlo.rsqrt %160 : tensor<4xf32>
    %162 = stablehlo.broadcast_in_dim %161, dims = [0] : (tensor<4xf32>) -> tensor<4x2048xf32>
    %163 = stablehlo.multiply %154, %162 : tensor<4x2048xf32>
    %164 = stablehlo.broadcast_in_dim %arg13, dims = [1] : (tensor<2048xf32>) -> tensor<4x2048xf32>
    %165 = stablehlo.multiply %163, %164 : tensor<4x2048xf32>
    %166 = stablehlo.dot_general %165, %arg18, contracting_dims = [1] x [1] : (tensor<4x2048xf32>, tensor<2048x2048xf32>) -> tensor<4x2048xf32>
    %167 = stablehlo.reshape %166 : (tensor<4x2048xf32>) -> tensor<4x32x64xf32>
    %168 = stablehlo.dot_general %165, %arg16, contracting_dims = [1] x [1] : (tensor<4x2048xf32>, tensor<512x2048xf32>) -> tensor<4x512xf32>
    %169 = stablehlo.reshape %168 : (tensor<4x512xf32>) -> tensor<4x8x64xf32>
    %170 = stablehlo.dot_general %165, %arg19, contracting_dims = [1] x [1] : (tensor<4x2048xf32>, tensor<512x2048xf32>) -> tensor<4x512xf32>
    %171 = stablehlo.reshape %170 : (tensor<4x512xf32>) -> tensor<4x8x64xf32>
    %172 = stablehlo.broadcast_in_dim %33, dims = [0, 2] : (tensor<4x64xf32>) -> tensor<4x32x64xf32>
    %173 = stablehlo.broadcast_in_dim %34, dims = [0, 2] : (tensor<4x64xf32>) -> tensor<4x32x64xf32>
    %174 = stablehlo.multiply %167, %172 : tensor<4x32x64xf32>
    %175 = stablehlo.slice %167 [0:4, 0:32, 0:32] : (tensor<4x32x64xf32>) -> tensor<4x32x32xf32>
    %176 = stablehlo.slice %167 [0:4, 0:32, 32:64] : (tensor<4x32x64xf32>) -> tensor<4x32x32xf32>
    %177 = stablehlo.negate %176 : tensor<4x32x32xf32>
    %178 = stablehlo.concatenate %177, %175, dim = 2 : (tensor<4x32x32xf32>, tensor<4x32x32xf32>) -> tensor<4x32x64xf32>
    %179 = stablehlo.multiply %178, %173 : tensor<4x32x64xf32>
    %180 = stablehlo.add %174, %179 : tensor<4x32x64xf32>
    %181 = stablehlo.broadcast_in_dim %33, dims = [0, 2] : (tensor<4x64xf32>) -> tensor<4x8x64xf32>
    %182 = stablehlo.broadcast_in_dim %34, dims = [0, 2] : (tensor<4x64xf32>) -> tensor<4x8x64xf32>
    %183 = stablehlo.multiply %169, %181 : tensor<4x8x64xf32>
    %184 = stablehlo.slice %169 [0:4, 0:8, 0:32] : (tensor<4x8x64xf32>) -> tensor<4x8x32xf32>
    %185 = stablehlo.slice %169 [0:4, 0:8, 32:64] : (tensor<4x8x64xf32>) -> tensor<4x8x32xf32>
    %186 = stablehlo.negate %185 : tensor<4x8x32xf32>
    %187 = stablehlo.concatenate %186, %184, dim = 2 : (tensor<4x8x32xf32>, tensor<4x8x32xf32>) -> tensor<4x8x64xf32>
    %188 = stablehlo.multiply %187, %182 : tensor<4x8x64xf32>
    %189 = stablehlo.add %183, %188 : tensor<4x8x64xf32>
    %190 = stablehlo.slice %arg147 [0:1] : (tensor<4xi32>) -> tensor<1xi32>
    %191 = stablehlo.reshape %190 : (tensor<1xi32>) -> tensor<i32>
    %192 = stablehlo.slice %189 [0:1, 0:8, 0:64] : (tensor<4x8x64xf32>) -> tensor<1x8x64xf32>
    %193 = stablehlo.reshape %192 : (tensor<1x8x64xf32>) -> tensor<1x1x1x8x64xf32>
    %194 = stablehlo.dynamic_update_slice %105, %193, %26, %11, %191, %9, %9 : (tensor<4x16x256x8x64xf32>, tensor<1x1x1x8x64xf32>, tensor<i32>, tensor<i32>, tensor<i32>, tensor<i32>, tensor<i32>) -> tensor<4x16x256x8x64xf32>
    %195 = stablehlo.slice %171 [0:1, 0:8, 0:64] : (tensor<4x8x64xf32>) -> tensor<1x8x64xf32>
    %196 = stablehlo.reshape %195 : (tensor<1x8x64xf32>) -> tensor<1x1x1x8x64xf32>
    %197 = stablehlo.dynamic_update_slice %108, %196, %26, %11, %191, %9, %9 : (tensor<4x16x256x8x64xf32>, tensor<1x1x1x8x64xf32>, tensor<i32>, tensor<i32>, tensor<i32>, tensor<i32>, tensor<i32>) -> tensor<4x16x256x8x64xf32>
    %198 = stablehlo.slice %arg147 [1:2] : (tensor<4xi32>) -> tensor<1xi32>
    %199 = stablehlo.reshape %198 : (tensor<1xi32>) -> tensor<i32>
    %200 = stablehlo.slice %189 [1:2, 0:8, 0:64] : (tensor<4x8x64xf32>) -> tensor<1x8x64xf32>
    %201 = stablehlo.reshape %200 : (tensor<1x8x64xf32>) -> tensor<1x1x1x8x64xf32>
    %202 = stablehlo.dynamic_update_slice %194, %201, %27, %11, %199, %9, %9 : (tensor<4x16x256x8x64xf32>, tensor<1x1x1x8x64xf32>, tensor<i32>, tensor<i32>, tensor<i32>, tensor<i32>, tensor<i32>) -> tensor<4x16x256x8x64xf32>
    %203 = stablehlo.slice %171 [1:2, 0:8, 0:64] : (tensor<4x8x64xf32>) -> tensor<1x8x64xf32>
    %204 = stablehlo.reshape %203 : (tensor<1x8x64xf32>) -> tensor<1x1x1x8x64xf32>
    %205 = stablehlo.dynamic_update_slice %197, %204, %27, %11, %199, %9, %9 : (tensor<4x16x256x8x64xf32>, tensor<1x1x1x8x64xf32>, tensor<i32>, tensor<i32>, tensor<i32>, tensor<i32>, tensor<i32>) -> tensor<4x16x256x8x64xf32>
    %206 = stablehlo.slice %arg147 [2:3] : (tensor<4xi32>) -> tensor<1xi32>
    %207 = stablehlo.reshape %206 : (tensor<1xi32>) -> tensor<i32>
    %208 = stablehlo.slice %189 [2:3, 0:8, 0:64] : (tensor<4x8x64xf32>) -> tensor<1x8x64xf32>
    %209 = stablehlo.reshape %208 : (tensor<1x8x64xf32>) -> tensor<1x1x1x8x64xf32>
    %210 = stablehlo.dynamic_update_slice %202, %209, %28, %11, %207, %9, %9 : (tensor<4x16x256x8x64xf32>, tensor<1x1x1x8x64xf32>, tensor<i32>, tensor<i32>, tensor<i32>, tensor<i32>, tensor<i32>) -> tensor<4x16x256x8x64xf32>
    %211 = stablehlo.slice %171 [2:3, 0:8, 0:64] : (tensor<4x8x64xf32>) -> tensor<1x8x64xf32>
    %212 = stablehlo.reshape %211 : (tensor<1x8x64xf32>) -> tensor<1x1x1x8x64xf32>
    %213 = stablehlo.dynamic_update_slice %205, %212, %28, %11, %207, %9, %9 : (tensor<4x16x256x8x64xf32>, tensor<1x1x1x8x64xf32>, tensor<i32>, tensor<i32>, tensor<i32>, tensor<i32>, tensor<i32>) -> tensor<4x16x256x8x64xf32>
    %214 = stablehlo.slice %arg147 [3:4] : (tensor<4xi32>) -> tensor<1xi32>
    %215 = stablehlo.reshape %214 : (tensor<1xi32>) -> tensor<i32>
    %216 = stablehlo.slice %189 [3:4, 0:8, 0:64] : (tensor<4x8x64xf32>) -> tensor<1x8x64xf32>
    %217 = stablehlo.reshape %216 : (tensor<1x8x64xf32>) -> tensor<1x1x1x8x64xf32>
    %218 = stablehlo.dynamic_update_slice %210, %217, %29, %11, %215, %9, %9 : (tensor<4x16x256x8x64xf32>, tensor<1x1x1x8x64xf32>, tensor<i32>, tensor<i32>, tensor<i32>, tensor<i32>, tensor<i32>) -> tensor<4x16x256x8x64xf32>
    %219 = stablehlo.slice %171 [3:4, 0:8, 0:64] : (tensor<4x8x64xf32>) -> tensor<1x8x64xf32>
    %220 = stablehlo.reshape %219 : (tensor<1x8x64xf32>) -> tensor<1x1x1x8x64xf32>
    %221 = stablehlo.dynamic_update_slice %213, %220, %29, %11, %215, %9, %9 : (tensor<4x16x256x8x64xf32>, tensor<1x1x1x8x64xf32>, tensor<i32>, tensor<i32>, tensor<i32>, tensor<i32>, tensor<i32>) -> tensor<4x16x256x8x64xf32>
    %222 = stablehlo.slice %218 [0:4, 1:2, 0:256, 0:8, 0:64] : (tensor<4x16x256x8x64xf32>) -> tensor<4x1x256x8x64xf32>
    %223 = stablehlo.reshape %222 : (tensor<4x1x256x8x64xf32>) -> tensor<4x256x8x64xf32>
    %224 = stablehlo.slice %221 [0:4, 1:2, 0:256, 0:8, 0:64] : (tensor<4x16x256x8x64xf32>) -> tensor<4x1x256x8x64xf32>
    %225 = stablehlo.reshape %224 : (tensor<4x1x256x8x64xf32>) -> tensor<4x256x8x64xf32>
    %226 = stablehlo.reshape %180 : (tensor<4x32x64xf32>) -> tensor<4x8x4x64xf32>
    %227 = stablehlo.dot_general %226, %223, batching_dims = [0, 1] x [0, 2], contracting_dims = [3] x [3] : (tensor<4x8x4x64xf32>, tensor<4x256x8x64xf32>) -> tensor<4x8x4x256xf32>
    %228 = stablehlo.reshape %227 : (tensor<4x8x4x256xf32>) -> tensor<4x32x256xf32>
    %229 = stablehlo.broadcast_in_dim %8, dims = [] : (tensor<f32>) -> tensor<4x32x256xf32>
    %230 = stablehlo.multiply %228, %229 : tensor<4x32x256xf32>
    %231 = stablehlo.broadcast_in_dim %41, dims = [0, 2] : (tensor<4x256xf32>) -> tensor<4x32x256xf32>
    %232 = stablehlo.add %230, %231 : tensor<4x32x256xf32>
    %233 = stablehlo.reduce(%232 init: %4) applies stablehlo.maximum across dimensions = [2] : (tensor<4x32x256xf32>, tensor<f32>) -> tensor<4x32xf32>
    %234 = stablehlo.broadcast_in_dim %233, dims = [0, 1] : (tensor<4x32xf32>) -> tensor<4x32x256xf32>
    %235 = stablehlo.subtract %232, %234 : tensor<4x32x256xf32>
    %236 = stablehlo.exponential %235 : tensor<4x32x256xf32>
    %237 = stablehlo.reduce(%236 init: %2) applies stablehlo.add across dimensions = [2] : (tensor<4x32x256xf32>, tensor<f32>) -> tensor<4x32xf32>
    %238 = stablehlo.broadcast_in_dim %237, dims = [0, 1] : (tensor<4x32xf32>) -> tensor<4x32x256xf32>
    %239 = stablehlo.divide %236, %238 : tensor<4x32x256xf32>
    %240 = stablehlo.reshape %239 : (tensor<4x32x256xf32>) -> tensor<4x8x4x256xf32>
    %241 = stablehlo.dot_general %240, %225, batching_dims = [0, 1] x [0, 2], contracting_dims = [3] x [1] : (tensor<4x8x4x256xf32>, tensor<4x256x8x64xf32>) -> tensor<4x8x4x64xf32>
    %242 = stablehlo.reshape %241 : (tensor<4x8x4x64xf32>) -> tensor<4x32x64xf32>
    %243 = stablehlo.reshape %242 : (tensor<4x32x64xf32>) -> tensor<4x2048xf32>
    %244 = stablehlo.dot_general %243, %arg17, contracting_dims = [1] x [1] : (tensor<4x2048xf32>, tensor<2048x2048xf32>) -> tensor<4x2048xf32>
    %245 = stablehlo.add %154, %244 : tensor<4x2048xf32>
    %246 = stablehlo.multiply %245, %245 : tensor<4x2048xf32>
    %247 = stablehlo.reduce(%246 init: %2) applies stablehlo.add across dimensions = [1] : (tensor<4x2048xf32>, tensor<f32>) -> tensor<4xf32>
    %248 = stablehlo.broadcast_in_dim %7, dims = [] : (tensor<f32>) -> tensor<4xf32>
    %249 = stablehlo.divide %247, %248 : tensor<4xf32>
    %250 = stablehlo.broadcast_in_dim %6, dims = [] : (tensor<f32>) -> tensor<4xf32>
    %251 = stablehlo.add %249, %250 : tensor<4xf32>
    %252 = stablehlo.rsqrt %251 : tensor<4xf32>
    %253 = stablehlo.broadcast_in_dim %252, dims = [0] : (tensor<4xf32>) -> tensor<4x2048xf32>
    %254 = stablehlo.multiply %245, %253 : tensor<4x2048xf32>
    %255 = stablehlo.broadcast_in_dim %arg14, dims = [1] : (tensor<2048xf32>) -> tensor<4x2048xf32>
    %256 = stablehlo.multiply %254, %255 : tensor<4x2048xf32>
    %257 = stablehlo.dot_general %256, %arg12, contracting_dims = [1] x [1] : (tensor<4x2048xf32>, tensor<8192x2048xf32>) -> tensor<4x8192xf32>
    %258 = stablehlo.dot_general %256, %arg15, contracting_dims = [1] x [1] : (tensor<4x2048xf32>, tensor<8192x2048xf32>) -> tensor<4x8192xf32>
    %259 = stablehlo.negate %257 : tensor<4x8192xf32>
    %260 = stablehlo.exponential %259 : tensor<4x8192xf32>
    %261 = stablehlo.broadcast_in_dim %3, dims = [] : (tensor<f32>) -> tensor<4x8192xf32>
    %262 = stablehlo.add %261, %260 : tensor<4x8192xf32>
    %263 = stablehlo.divide %261, %262 : tensor<4x8192xf32>
    %264 = stablehlo.multiply %257, %263 : tensor<4x8192xf32>
    %265 = stablehlo.multiply %264, %258 : tensor<4x8192xf32>
    %266 = stablehlo.dot_general %265, %arg11, contracting_dims = [1] x [1] : (tensor<4x8192xf32>, tensor<2048x8192xf32>) -> tensor<4x2048xf32>
    %267 = stablehlo.add %245, %266 : tensor<4x2048xf32>
    %268 = stablehlo.multiply %267, %267 : tensor<4x2048xf32>
    %269 = stablehlo.reduce(%268 init: %2) applies stablehlo.add across dimensions = [1] : (tensor<4x2048xf32>, tensor<f32>) -> tensor<4xf32>
    %270 = stablehlo.broadcast_in_dim %7, dims = [] : (tensor<f32>) -> tensor<4xf32>
    %271 = stablehlo.divide %269, %270 : tensor<4xf32>
    %272 = stablehlo.broadcast_in_dim %6, dims = [] : (tensor<f32>) -> tensor<4xf32>
    %273 = stablehlo.add %271, %272 : tensor<4xf32>
    %274 = stablehlo.rsqrt %273 : tensor<4xf32>
    %275 = stablehlo.broadcast_in_dim %274, dims = [0] : (tensor<4xf32>) -> tensor<4x2048xf32>
    %276 = stablehlo.multiply %267, %275 : tensor<4x2048xf32>
    %277 = stablehlo.broadcast_in_dim %arg22, dims = [1] : (tensor<2048xf32>) -> tensor<4x2048xf32>
    %278 = stablehlo.multiply %276, %277 : tensor<4x2048xf32>
    %279 = stablehlo.dot_general %278, %arg27, contracting_dims = [1] x [1] : (tensor<4x2048xf32>, tensor<2048x2048xf32>) -> tensor<4x2048xf32>
    %280 = stablehlo.reshape %279 : (tensor<4x2048xf32>) -> tensor<4x32x64xf32>
    %281 = stablehlo.dot_general %278, %arg25, contracting_dims = [1] x [1] : (tensor<4x2048xf32>, tensor<512x2048xf32>) -> tensor<4x512xf32>
    %282 = stablehlo.reshape %281 : (tensor<4x512xf32>) -> tensor<4x8x64xf32>
    %283 = stablehlo.dot_general %278, %arg28, contracting_dims = [1] x [1] : (tensor<4x2048xf32>, tensor<512x2048xf32>) -> tensor<4x512xf32>
    %284 = stablehlo.reshape %283 : (tensor<4x512xf32>) -> tensor<4x8x64xf32>
    %285 = stablehlo.broadcast_in_dim %33, dims = [0, 2] : (tensor<4x64xf32>) -> tensor<4x32x64xf32>
    %286 = stablehlo.broadcast_in_dim %34, dims = [0, 2] : (tensor<4x64xf32>) -> tensor<4x32x64xf32>
    %287 = stablehlo.multiply %280, %285 : tensor<4x32x64xf32>
    %288 = stablehlo.slice %280 [0:4, 0:32, 0:32] : (tensor<4x32x64xf32>) -> tensor<4x32x32xf32>
    %289 = stablehlo.slice %280 [0:4, 0:32, 32:64] : (tensor<4x32x64xf32>) -> tensor<4x32x32xf32>
    %290 = stablehlo.negate %289 : tensor<4x32x32xf32>
    %291 = stablehlo.concatenate %290, %288, dim = 2 : (tensor<4x32x32xf32>, tensor<4x32x32xf32>) -> tensor<4x32x64xf32>
    %292 = stablehlo.multiply %291, %286 : tensor<4x32x64xf32>
    %293 = stablehlo.add %287, %292 : tensor<4x32x64xf32>
    %294 = stablehlo.broadcast_in_dim %33, dims = [0, 2] : (tensor<4x64xf32>) -> tensor<4x8x64xf32>
    %295 = stablehlo.broadcast_in_dim %34, dims = [0, 2] : (tensor<4x64xf32>) -> tensor<4x8x64xf32>
    %296 = stablehlo.multiply %282, %294 : tensor<4x8x64xf32>
    %297 = stablehlo.slice %282 [0:4, 0:8, 0:32] : (tensor<4x8x64xf32>) -> tensor<4x8x32xf32>
    %298 = stablehlo.slice %282 [0:4, 0:8, 32:64] : (tensor<4x8x64xf32>) -> tensor<4x8x32xf32>
    %299 = stablehlo.negate %298 : tensor<4x8x32xf32>
    %300 = stablehlo.concatenate %299, %297, dim = 2 : (tensor<4x8x32xf32>, tensor<4x8x32xf32>) -> tensor<4x8x64xf32>
    %301 = stablehlo.multiply %300, %295 : tensor<4x8x64xf32>
    %302 = stablehlo.add %296, %301 : tensor<4x8x64xf32>
    %303 = stablehlo.slice %arg147 [0:1] : (tensor<4xi32>) -> tensor<1xi32>
    %304 = stablehlo.reshape %303 : (tensor<1xi32>) -> tensor<i32>
    %305 = stablehlo.slice %302 [0:1, 0:8, 0:64] : (tensor<4x8x64xf32>) -> tensor<1x8x64xf32>
    %306 = stablehlo.reshape %305 : (tensor<1x8x64xf32>) -> tensor<1x1x1x8x64xf32>
    %307 = stablehlo.dynamic_update_slice %218, %306, %26, %12, %304, %9, %9 : (tensor<4x16x256x8x64xf32>, tensor<1x1x1x8x64xf32>, tensor<i32>, tensor<i32>, tensor<i32>, tensor<i32>, tensor<i32>) -> tensor<4x16x256x8x64xf32>
    %308 = stablehlo.slice %284 [0:1, 0:8, 0:64] : (tensor<4x8x64xf32>) -> tensor<1x8x64xf32>
    %309 = stablehlo.reshape %308 : (tensor<1x8x64xf32>) -> tensor<1x1x1x8x64xf32>
    %310 = stablehlo.dynamic_update_slice %221, %309, %26, %12, %304, %9, %9 : (tensor<4x16x256x8x64xf32>, tensor<1x1x1x8x64xf32>, tensor<i32>, tensor<i32>, tensor<i32>, tensor<i32>, tensor<i32>) -> tensor<4x16x256x8x64xf32>
    %311 = stablehlo.slice %arg147 [1:2] : (tensor<4xi32>) -> tensor<1xi32>
    %312 = stablehlo.reshape %311 : (tensor<1xi32>) -> tensor<i32>
    %313 = stablehlo.slice %302 [1:2, 0:8, 0:64] : (tensor<4x8x64xf32>) -> tensor<1x8x64xf32>
    %314 = stablehlo.reshape %313 : (tensor<1x8x64xf32>) -> tensor<1x1x1x8x64xf32>
    %315 = stablehlo.dynamic_update_slice %307, %314, %27, %12, %312, %9, %9 : (tensor<4x16x256x8x64xf32>, tensor<1x1x1x8x64xf32>, tensor<i32>, tensor<i32>, tensor<i32>, tensor<i32>, tensor<i32>) -> tensor<4x16x256x8x64xf32>
    %316 = stablehlo.slice %284 [1:2, 0:8, 0:64] : (tensor<4x8x64xf32>) -> tensor<1x8x64xf32>
    %317 = stablehlo.reshape %316 : (tensor<1x8x64xf32>) -> tensor<1x1x1x8x64xf32>
    %318 = stablehlo.dynamic_update_slice %310, %317, %27, %12, %312, %9, %9 : (tensor<4x16x256x8x64xf32>, tensor<1x1x1x8x64xf32>, tensor<i32>, tensor<i32>, tensor<i32>, tensor<i32>, tensor<i32>) -> tensor<4x16x256x8x64xf32>
    %319 = stablehlo.slice %arg147 [2:3] : (tensor<4xi32>) -> tensor<1xi32>
    %320 = stablehlo.reshape %319 : (tensor<1xi32>) -> tensor<i32>
    %321 = stablehlo.slice %302 [2:3, 0:8, 0:64] : (tensor<4x8x64xf32>) -> tensor<1x8x64xf32>
    %322 = stablehlo.reshape %321 : (tensor<1x8x64xf32>) -> tensor<1x1x1x8x64xf32>
    %323 = stablehlo.dynamic_update_slice %315, %322, %28, %12, %320, %9, %9 : (tensor<4x16x256x8x64xf32>, tensor<1x1x1x8x64xf32>, tensor<i32>, tensor<i32>, tensor<i32>, tensor<i32>, tensor<i32>) -> tensor<4x16x256x8x64xf32>
    %324 = stablehlo.slice %284 [2:3, 0:8, 0:64] : (tensor<4x8x64xf32>) -> tensor<1x8x64xf32>
    %325 = stablehlo.reshape %324 : (tensor<1x8x64xf32>) -> tensor<1x1x1x8x64xf32>
    %326 = stablehlo.dynamic_update_slice %318, %325, %28, %12, %320, %9, %9 : (tensor<4x16x256x8x64xf32>, tensor<1x1x1x8x64xf32>, tensor<i32>, tensor<i32>, tensor<i32>, tensor<i32>, tensor<i32>) -> tensor<4x16x256x8x64xf32>
    %327 = stablehlo.slice %arg147 [3:4] : (tensor<4xi32>) -> tensor<1xi32>
    %328 = stablehlo.reshape %327 : (tensor<1xi32>) -> tensor<i32>
    %329 = stablehlo.slice %302 [3:4, 0:8, 0:64] : (tensor<4x8x64xf32>) -> tensor<1x8x64xf32>
    %330 = stablehlo.reshape %329 : (tensor<1x8x64xf32>) -> tensor<1x1x1x8x64xf32>
    %331 = stablehlo.dynamic_update_slice %323, %330, %29, %12, %328, %9, %9 : (tensor<4x16x256x8x64xf32>, tensor<1x1x1x8x64xf32>, tensor<i32>, tensor<i32>, tensor<i32>, tensor<i32>, tensor<i32>) -> tensor<4x16x256x8x64xf32>
    %332 = stablehlo.slice %284 [3:4, 0:8, 0:64] : (tensor<4x8x64xf32>) -> tensor<1x8x64xf32>
    %333 = stablehlo.reshape %332 : (tensor<1x8x64xf32>) -> tensor<1x1x1x8x64xf32>
    %334 = stablehlo.dynamic_update_slice %326, %333, %29, %12, %328, %9, %9 : (tensor<4x16x256x8x64xf32>, tensor<1x1x1x8x64xf32>, tensor<i32>, tensor<i32>, tensor<i32>, tensor<i32>, tensor<i32>) -> tensor<4x16x256x8x64xf32>
    %335 = stablehlo.slice %331 [0:4, 2:3, 0:256, 0:8, 0:64] : (tensor<4x16x256x8x64xf32>) -> tensor<4x1x256x8x64xf32>
    %336 = stablehlo.reshape %335 : (tensor<4x1x256x8x64xf32>) -> tensor<4x256x8x64xf32>
    %337 = stablehlo.slice %334 [0:4, 2:3, 0:256, 0:8, 0:64] : (tensor<4x16x256x8x64xf32>) -> tensor<4x1x256x8x64xf32>
    %338 = stablehlo.reshape %337 : (tensor<4x1x256x8x64xf32>) -> tensor<4x256x8x64xf32>
    %339 = stablehlo.reshape %293 : (tensor<4x32x64xf32>) -> tensor<4x8x4x64xf32>
    %340 = stablehlo.dot_general %339, %336, batching_dims = [0, 1] x [0, 2], contracting_dims = [3] x [3] : (tensor<4x8x4x64xf32>, tensor<4x256x8x64xf32>) -> tensor<4x8x4x256xf32>
    %341 = stablehlo.reshape %340 : (tensor<4x8x4x256xf32>) -> tensor<4x32x256xf32>
    %342 = stablehlo.broadcast_in_dim %8, dims = [] : (tensor<f32>) -> tensor<4x32x256xf32>
    %343 = stablehlo.multiply %341, %342 : tensor<4x32x256xf32>
    %344 = stablehlo.broadcast_in_dim %41, dims = [0, 2] : (tensor<4x256xf32>) -> tensor<4x32x256xf32>
    %345 = stablehlo.add %343, %344 : tensor<4x32x256xf32>
    %346 = stablehlo.reduce(%345 init: %4) applies stablehlo.maximum across dimensions = [2] : (tensor<4x32x256xf32>, tensor<f32>) -> tensor<4x32xf32>
    %347 = stablehlo.broadcast_in_dim %346, dims = [0, 1] : (tensor<4x32xf32>) -> tensor<4x32x256xf32>
    %348 = stablehlo.subtract %345, %347 : tensor<4x32x256xf32>
    %349 = stablehlo.exponential %348 : tensor<4x32x256xf32>
    %350 = stablehlo.reduce(%349 init: %2) applies stablehlo.add across dimensions = [2] : (tensor<4x32x256xf32>, tensor<f32>) -> tensor<4x32xf32>
    %351 = stablehlo.broadcast_in_dim %350, dims = [0, 1] : (tensor<4x32xf32>) -> tensor<4x32x256xf32>
    %352 = stablehlo.divide %349, %351 : tensor<4x32x256xf32>
    %353 = stablehlo.reshape %352 : (tensor<4x32x256xf32>) -> tensor<4x8x4x256xf32>
    %354 = stablehlo.dot_general %353, %338, batching_dims = [0, 1] x [0, 2], contracting_dims = [3] x [1] : (tensor<4x8x4x256xf32>, tensor<4x256x8x64xf32>) -> tensor<4x8x4x64xf32>
    %355 = stablehlo.reshape %354 : (tensor<4x8x4x64xf32>) -> tensor<4x32x64xf32>
    %356 = stablehlo.reshape %355 : (tensor<4x32x64xf32>) -> tensor<4x2048xf32>
    %357 = stablehlo.dot_general %356, %arg26, contracting_dims = [1] x [1] : (tensor<4x2048xf32>, tensor<2048x2048xf32>) -> tensor<4x2048xf32>
    %358 = stablehlo.add %267, %357 : tensor<4x2048xf32>
    %359 = stablehlo.multiply %358, %358 : tensor<4x2048xf32>
    %360 = stablehlo.reduce(%359 init: %2) applies stablehlo.add across dimensions = [1] : (tensor<4x2048xf32>, tensor<f32>) -> tensor<4xf32>
    %361 = stablehlo.broadcast_in_dim %7, dims = [] : (tensor<f32>) -> tensor<4xf32>
    %362 = stablehlo.divide %360, %361 : tensor<4xf32>
    %363 = stablehlo.broadcast_in_dim %6, dims = [] : (tensor<f32>) -> tensor<4xf32>
    %364 = stablehlo.add %362, %363 : tensor<4xf32>
    %365 = stablehlo.rsqrt %364 : tensor<4xf32>
    %366 = stablehlo.broadcast_in_dim %365, dims = [0] : (tensor<4xf32>) -> tensor<4x2048xf32>
    %367 = stablehlo.multiply %358, %366 : tensor<4x2048xf32>
    %368 = stablehlo.broadcast_in_dim %arg23, dims = [1] : (tensor<2048xf32>) -> tensor<4x2048xf32>
    %369 = stablehlo.multiply %367, %368 : tensor<4x2048xf32>
    %370 = stablehlo.dot_general %369, %arg21, contracting_dims = [1] x [1] : (tensor<4x2048xf32>, tensor<8192x2048xf32>) -> tensor<4x8192xf32>
    %371 = stablehlo.dot_general %369, %arg24, contracting_dims = [1] x [1] : (tensor<4x2048xf32>, tensor<8192x2048xf32>) -> tensor<4x8192xf32>
    %372 = stablehlo.negate %370 : tensor<4x8192xf32>
    %373 = stablehlo.exponential %372 : tensor<4x8192xf32>
    %374 = stablehlo.broadcast_in_dim %3, dims = [] : (tensor<f32>) -> tensor<4x8192xf32>
    %375 = stablehlo.add %374, %373 : tensor<4x8192xf32>
    %376 = stablehlo.divide %374, %375 : tensor<4x8192xf32>
    %377 = stablehlo.multiply %370, %376 : tensor<4x8192xf32>
    %378 = stablehlo.multiply %377, %371 : tensor<4x8192xf32>
    %379 = stablehlo.dot_general %378, %arg20, contracting_dims = [1] x [1] : (tensor<4x8192xf32>, tensor<2048x8192xf32>) -> tensor<4x2048xf32>
    %380 = stablehlo.add %358, %379 : tensor<4x2048xf32>
    %381 = stablehlo.multiply %380, %380 : tensor<4x2048xf32>
    %382 = stablehlo.reduce(%381 init: %2) applies stablehlo.add across dimensions = [1] : (tensor<4x2048xf32>, tensor<f32>) -> tensor<4xf32>
    %383 = stablehlo.broadcast_in_dim %7, dims = [] : (tensor<f32>) -> tensor<4xf32>
    %384 = stablehlo.divide %382, %383 : tensor<4xf32>
    %385 = stablehlo.broadcast_in_dim %6, dims = [] : (tensor<f32>) -> tensor<4xf32>
    %386 = stablehlo.add %384, %385 : tensor<4xf32>
    %387 = stablehlo.rsqrt %386 : tensor<4xf32>
    %388 = stablehlo.broadcast_in_dim %387, dims = [0] : (tensor<4xf32>) -> tensor<4x2048xf32>
    %389 = stablehlo.multiply %380, %388 : tensor<4x2048xf32>
    %390 = stablehlo.broadcast_in_dim %arg31, dims = [1] : (tensor<2048xf32>) -> tensor<4x2048xf32>
    %391 = stablehlo.multiply %389, %390 : tensor<4x2048xf32>
    %392 = stablehlo.dot_general %391, %arg36, contracting_dims = [1] x [1] : (tensor<4x2048xf32>, tensor<2048x2048xf32>) -> tensor<4x2048xf32>
    %393 = stablehlo.reshape %392 : (tensor<4x2048xf32>) -> tensor<4x32x64xf32>
    %394 = stablehlo.dot_general %391, %arg34, contracting_dims = [1] x [1] : (tensor<4x2048xf32>, tensor<512x2048xf32>) -> tensor<4x512xf32>
    %395 = stablehlo.reshape %394 : (tensor<4x512xf32>) -> tensor<4x8x64xf32>
    %396 = stablehlo.dot_general %391, %arg37, contracting_dims = [1] x [1] : (tensor<4x2048xf32>, tensor<512x2048xf32>) -> tensor<4x512xf32>
    %397 = stablehlo.reshape %396 : (tensor<4x512xf32>) -> tensor<4x8x64xf32>
    %398 = stablehlo.broadcast_in_dim %33, dims = [0, 2] : (tensor<4x64xf32>) -> tensor<4x32x64xf32>
    %399 = stablehlo.broadcast_in_dim %34, dims = [0, 2] : (tensor<4x64xf32>) -> tensor<4x32x64xf32>
    %400 = stablehlo.multiply %393, %398 : tensor<4x32x64xf32>
    %401 = stablehlo.slice %393 [0:4, 0:32, 0:32] : (tensor<4x32x64xf32>) -> tensor<4x32x32xf32>
    %402 = stablehlo.slice %393 [0:4, 0:32, 32:64] : (tensor<4x32x64xf32>) -> tensor<4x32x32xf32>
    %403 = stablehlo.negate %402 : tensor<4x32x32xf32>
    %404 = stablehlo.concatenate %403, %401, dim = 2 : (tensor<4x32x32xf32>, tensor<4x32x32xf32>) -> tensor<4x32x64xf32>
    %405 = stablehlo.multiply %404, %399 : tensor<4x32x64xf32>
    %406 = stablehlo.add %400, %405 : tensor<4x32x64xf32>
    %407 = stablehlo.broadcast_in_dim %33, dims = [0, 2] : (tensor<4x64xf32>) -> tensor<4x8x64xf32>
    %408 = stablehlo.broadcast_in_dim %34, dims = [0, 2] : (tensor<4x64xf32>) -> tensor<4x8x64xf32>
    %409 = stablehlo.multiply %395, %407 : tensor<4x8x64xf32>
    %410 = stablehlo.slice %395 [0:4, 0:8, 0:32] : (tensor<4x8x64xf32>) -> tensor<4x8x32xf32>
    %411 = stablehlo.slice %395 [0:4, 0:8, 32:64] : (tensor<4x8x64xf32>) -> tensor<4x8x32xf32>
    %412 = stablehlo.negate %411 : tensor<4x8x32xf32>
    %413 = stablehlo.concatenate %412, %410, dim = 2 : (tensor<4x8x32xf32>, tensor<4x8x32xf32>) -> tensor<4x8x64xf32>
    %414 = stablehlo.multiply %413, %408 : tensor<4x8x64xf32>
    %415 = stablehlo.add %409, %414 : tensor<4x8x64xf32>
    %416 = stablehlo.slice %arg147 [0:1] : (tensor<4xi32>) -> tensor<1xi32>
    %417 = stablehlo.reshape %416 : (tensor<1xi32>) -> tensor<i32>
    %418 = stablehlo.slice %415 [0:1, 0:8, 0:64] : (tensor<4x8x64xf32>) -> tensor<1x8x64xf32>
    %419 = stablehlo.reshape %418 : (tensor<1x8x64xf32>) -> tensor<1x1x1x8x64xf32>
    %420 = stablehlo.dynamic_update_slice %331, %419, %26, %13, %417, %9, %9 : (tensor<4x16x256x8x64xf32>, tensor<1x1x1x8x64xf32>, tensor<i32>, tensor<i32>, tensor<i32>, tensor<i32>, tensor<i32>) -> tensor<4x16x256x8x64xf32>
    %421 = stablehlo.slice %397 [0:1, 0:8, 0:64] : (tensor<4x8x64xf32>) -> tensor<1x8x64xf32>
    %422 = stablehlo.reshape %421 : (tensor<1x8x64xf32>) -> tensor<1x1x1x8x64xf32>
    %423 = stablehlo.dynamic_update_slice %334, %422, %26, %13, %417, %9, %9 : (tensor<4x16x256x8x64xf32>, tensor<1x1x1x8x64xf32>, tensor<i32>, tensor<i32>, tensor<i32>, tensor<i32>, tensor<i32>) -> tensor<4x16x256x8x64xf32>
    %424 = stablehlo.slice %arg147 [1:2] : (tensor<4xi32>) -> tensor<1xi32>
    %425 = stablehlo.reshape %424 : (tensor<1xi32>) -> tensor<i32>
    %426 = stablehlo.slice %415 [1:2, 0:8, 0:64] : (tensor<4x8x64xf32>) -> tensor<1x8x64xf32>
    %427 = stablehlo.reshape %426 : (tensor<1x8x64xf32>) -> tensor<1x1x1x8x64xf32>
    %428 = stablehlo.dynamic_update_slice %420, %427, %27, %13, %425, %9, %9 : (tensor<4x16x256x8x64xf32>, tensor<1x1x1x8x64xf32>, tensor<i32>, tensor<i32>, tensor<i32>, tensor<i32>, tensor<i32>) -> tensor<4x16x256x8x64xf32>
    %429 = stablehlo.slice %397 [1:2, 0:8, 0:64] : (tensor<4x8x64xf32>) -> tensor<1x8x64xf32>
    %430 = stablehlo.reshape %429 : (tensor<1x8x64xf32>) -> tensor<1x1x1x8x64xf32>
    %431 = stablehlo.dynamic_update_slice %423, %430, %27, %13, %425, %9, %9 : (tensor<4x16x256x8x64xf32>, tensor<1x1x1x8x64xf32>, tensor<i32>, tensor<i32>, tensor<i32>, tensor<i32>, tensor<i32>) -> tensor<4x16x256x8x64xf32>
    %432 = stablehlo.slice %arg147 [2:3] : (tensor<4xi32>) -> tensor<1xi32>
    %433 = stablehlo.reshape %432 : (tensor<1xi32>) -> tensor<i32>
    %434 = stablehlo.slice %415 [2:3, 0:8, 0:64] : (tensor<4x8x64xf32>) -> tensor<1x8x64xf32>
    %435 = stablehlo.reshape %434 : (tensor<1x8x64xf32>) -> tensor<1x1x1x8x64xf32>
    %436 = stablehlo.dynamic_update_slice %428, %435, %28, %13, %433, %9, %9 : (tensor<4x16x256x8x64xf32>, tensor<1x1x1x8x64xf32>, tensor<i32>, tensor<i32>, tensor<i32>, tensor<i32>, tensor<i32>) -> tensor<4x16x256x8x64xf32>
    %437 = stablehlo.slice %397 [2:3, 0:8, 0:64] : (tensor<4x8x64xf32>) -> tensor<1x8x64xf32>
    %438 = stablehlo.reshape %437 : (tensor<1x8x64xf32>) -> tensor<1x1x1x8x64xf32>
    %439 = stablehlo.dynamic_update_slice %431, %438, %28, %13, %433, %9, %9 : (tensor<4x16x256x8x64xf32>, tensor<1x1x1x8x64xf32>, tensor<i32>, tensor<i32>, tensor<i32>, tensor<i32>, tensor<i32>) -> tensor<4x16x256x8x64xf32>
    %440 = stablehlo.slice %arg147 [3:4] : (tensor<4xi32>) -> tensor<1xi32>
    %441 = stablehlo.reshape %440 : (tensor<1xi32>) -> tensor<i32>
    %442 = stablehlo.slice %415 [3:4, 0:8, 0:64] : (tensor<4x8x64xf32>) -> tensor<1x8x64xf32>
    %443 = stablehlo.reshape %442 : (tensor<1x8x64xf32>) -> tensor<1x1x1x8x64xf32>
    %444 = stablehlo.dynamic_update_slice %436, %443, %29, %13, %441, %9, %9 : (tensor<4x16x256x8x64xf32>, tensor<1x1x1x8x64xf32>, tensor<i32>, tensor<i32>, tensor<i32>, tensor<i32>, tensor<i32>) -> tensor<4x16x256x8x64xf32>
    %445 = stablehlo.slice %397 [3:4, 0:8, 0:64] : (tensor<4x8x64xf32>) -> tensor<1x8x64xf32>
    %446 = stablehlo.reshape %445 : (tensor<1x8x64xf32>) -> tensor<1x1x1x8x64xf32>
    %447 = stablehlo.dynamic_update_slice %439, %446, %29, %13, %441, %9, %9 : (tensor<4x16x256x8x64xf32>, tensor<1x1x1x8x64xf32>, tensor<i32>, tensor<i32>, tensor<i32>, tensor<i32>, tensor<i32>) -> tensor<4x16x256x8x64xf32>
    %448 = stablehlo.slice %444 [0:4, 3:4, 0:256, 0:8, 0:64] : (tensor<4x16x256x8x64xf32>) -> tensor<4x1x256x8x64xf32>
    %449 = stablehlo.reshape %448 : (tensor<4x1x256x8x64xf32>) -> tensor<4x256x8x64xf32>
    %450 = stablehlo.slice %447 [0:4, 3:4, 0:256, 0:8, 0:64] : (tensor<4x16x256x8x64xf32>) -> tensor<4x1x256x8x64xf32>
    %451 = stablehlo.reshape %450 : (tensor<4x1x256x8x64xf32>) -> tensor<4x256x8x64xf32>
    %452 = stablehlo.reshape %406 : (tensor<4x32x64xf32>) -> tensor<4x8x4x64xf32>
    %453 = stablehlo.dot_general %452, %449, batching_dims = [0, 1] x [0, 2], contracting_dims = [3] x [3] : (tensor<4x8x4x64xf32>, tensor<4x256x8x64xf32>) -> tensor<4x8x4x256xf32>
    %454 = stablehlo.reshape %453 : (tensor<4x8x4x256xf32>) -> tensor<4x32x256xf32>
    %455 = stablehlo.broadcast_in_dim %8, dims = [] : (tensor<f32>) -> tensor<4x32x256xf32>
    %456 = stablehlo.multiply %454, %455 : tensor<4x32x256xf32>
    %457 = stablehlo.broadcast_in_dim %41, dims = [0, 2] : (tensor<4x256xf32>) -> tensor<4x32x256xf32>
    %458 = stablehlo.add %456, %457 : tensor<4x32x256xf32>
    %459 = stablehlo.reduce(%458 init: %4) applies stablehlo.maximum across dimensions = [2] : (tensor<4x32x256xf32>, tensor<f32>) -> tensor<4x32xf32>
    %460 = stablehlo.broadcast_in_dim %459, dims = [0, 1] : (tensor<4x32xf32>) -> tensor<4x32x256xf32>
    %461 = stablehlo.subtract %458, %460 : tensor<4x32x256xf32>
    %462 = stablehlo.exponential %461 : tensor<4x32x256xf32>
    %463 = stablehlo.reduce(%462 init: %2) applies stablehlo.add across dimensions = [2] : (tensor<4x32x256xf32>, tensor<f32>) -> tensor<4x32xf32>
    %464 = stablehlo.broadcast_in_dim %463, dims = [0, 1] : (tensor<4x32xf32>) -> tensor<4x32x256xf32>
    %465 = stablehlo.divide %462, %464 : tensor<4x32x256xf32>
    %466 = stablehlo.reshape %465 : (tensor<4x32x256xf32>) -> tensor<4x8x4x256xf32>
    %467 = stablehlo.dot_general %466, %451, batching_dims = [0, 1] x [0, 2], contracting_dims = [3] x [1] : (tensor<4x8x4x256xf32>, tensor<4x256x8x64xf32>) -> tensor<4x8x4x64xf32>
    %468 = stablehlo.reshape %467 : (tensor<4x8x4x64xf32>) -> tensor<4x32x64xf32>
    %469 = stablehlo.reshape %468 : (tensor<4x32x64xf32>) -> tensor<4x2048xf32>
    %470 = stablehlo.dot_general %469, %arg35, contracting_dims = [1] x [1] : (tensor<4x2048xf32>, tensor<2048x2048xf32>) -> tensor<4x2048xf32>
    %471 = stablehlo.add %380, %470 : tensor<4x2048xf32>
    %472 = stablehlo.multiply %471, %471 : tensor<4x2048xf32>
    %473 = stablehlo.reduce(%472 init: %2) applies stablehlo.add across dimensions = [1] : (tensor<4x2048xf32>, tensor<f32>) -> tensor<4xf32>
    %474 = stablehlo.broadcast_in_dim %7, dims = [] : (tensor<f32>) -> tensor<4xf32>
    %475 = stablehlo.divide %473, %474 : tensor<4xf32>
    %476 = stablehlo.broadcast_in_dim %6, dims = [] : (tensor<f32>) -> tensor<4xf32>
    %477 = stablehlo.add %475, %476 : tensor<4xf32>
    %478 = stablehlo.rsqrt %477 : tensor<4xf32>
    %479 = stablehlo.broadcast_in_dim %478, dims = [0] : (tensor<4xf32>) -> tensor<4x2048xf32>
    %480 = stablehlo.multiply %471, %479 : tensor<4x2048xf32>
    %481 = stablehlo.broadcast_in_dim %arg32, dims = [1] : (tensor<2048xf32>) -> tensor<4x2048xf32>
    %482 = stablehlo.multiply %480, %481 : tensor<4x2048xf32>
    %483 = stablehlo.dot_general %482, %arg30, contracting_dims = [1] x [1] : (tensor<4x2048xf32>, tensor<8192x2048xf32>) -> tensor<4x8192xf32>
    %484 = stablehlo.dot_general %482, %arg33, contracting_dims = [1] x [1] : (tensor<4x2048xf32>, tensor<8192x2048xf32>) -> tensor<4x8192xf32>
    %485 = stablehlo.negate %483 : tensor<4x8192xf32>
    %486 = stablehlo.exponential %485 : tensor<4x8192xf32>
    %487 = stablehlo.broadcast_in_dim %3, dims = [] : (tensor<f32>) -> tensor<4x8192xf32>
    %488 = stablehlo.add %487, %486 : tensor<4x8192xf32>
    %489 = stablehlo.divide %487, %488 : tensor<4x8192xf32>
    %490 = stablehlo.multiply %483, %489 : tensor<4x8192xf32>
    %491 = stablehlo.multiply %490, %484 : tensor<4x8192xf32>
    %492 = stablehlo.dot_general %491, %arg29, contracting_dims = [1] x [1] : (tensor<4x8192xf32>, tensor<2048x8192xf32>) -> tensor<4x2048xf32>
    %493 = stablehlo.add %471, %492 : tensor<4x2048xf32>
    %494 = stablehlo.multiply %493, %493 : tensor<4x2048xf32>
    %495 = stablehlo.reduce(%494 init: %2) applies stablehlo.add across dimensions = [1] : (tensor<4x2048xf32>, tensor<f32>) -> tensor<4xf32>
    %496 = stablehlo.broadcast_in_dim %7, dims = [] : (tensor<f32>) -> tensor<4xf32>
    %497 = stablehlo.divide %495, %496 : tensor<4xf32>
    %498 = stablehlo.broadcast_in_dim %6, dims = [] : (tensor<f32>) -> tensor<4xf32>
    %499 = stablehlo.add %497, %498 : tensor<4xf32>
    %500 = stablehlo.rsqrt %499 : tensor<4xf32>
    %501 = stablehlo.broadcast_in_dim %500, dims = [0] : (tensor<4xf32>) -> tensor<4x2048xf32>
    %502 = stablehlo.multiply %493, %501 : tensor<4x2048xf32>
    %503 = stablehlo.broadcast_in_dim %arg40, dims = [1] : (tensor<2048xf32>) -> tensor<4x2048xf32>
    %504 = stablehlo.multiply %502, %503 : tensor<4x2048xf32>
    %505 = stablehlo.dot_general %504, %arg45, contracting_dims = [1] x [1] : (tensor<4x2048xf32>, tensor<2048x2048xf32>) -> tensor<4x2048xf32>
    %506 = stablehlo.reshape %505 : (tensor<4x2048xf32>) -> tensor<4x32x64xf32>
    %507 = stablehlo.dot_general %504, %arg43, contracting_dims = [1] x [1] : (tensor<4x2048xf32>, tensor<512x2048xf32>) -> tensor<4x512xf32>
    %508 = stablehlo.reshape %507 : (tensor<4x512xf32>) -> tensor<4x8x64xf32>
    %509 = stablehlo.dot_general %504, %arg46, contracting_dims = [1] x [1] : (tensor<4x2048xf32>, tensor<512x2048xf32>) -> tensor<4x512xf32>
    %510 = stablehlo.reshape %509 : (tensor<4x512xf32>) -> tensor<4x8x64xf32>
    %511 = stablehlo.broadcast_in_dim %33, dims = [0, 2] : (tensor<4x64xf32>) -> tensor<4x32x64xf32>
    %512 = stablehlo.broadcast_in_dim %34, dims = [0, 2] : (tensor<4x64xf32>) -> tensor<4x32x64xf32>
    %513 = stablehlo.multiply %506, %511 : tensor<4x32x64xf32>
    %514 = stablehlo.slice %506 [0:4, 0:32, 0:32] : (tensor<4x32x64xf32>) -> tensor<4x32x32xf32>
    %515 = stablehlo.slice %506 [0:4, 0:32, 32:64] : (tensor<4x32x64xf32>) -> tensor<4x32x32xf32>
    %516 = stablehlo.negate %515 : tensor<4x32x32xf32>
    %517 = stablehlo.concatenate %516, %514, dim = 2 : (tensor<4x32x32xf32>, tensor<4x32x32xf32>) -> tensor<4x32x64xf32>
    %518 = stablehlo.multiply %517, %512 : tensor<4x32x64xf32>
    %519 = stablehlo.add %513, %518 : tensor<4x32x64xf32>
    %520 = stablehlo.broadcast_in_dim %33, dims = [0, 2] : (tensor<4x64xf32>) -> tensor<4x8x64xf32>
    %521 = stablehlo.broadcast_in_dim %34, dims = [0, 2] : (tensor<4x64xf32>) -> tensor<4x8x64xf32>
    %522 = stablehlo.multiply %508, %520 : tensor<4x8x64xf32>
    %523 = stablehlo.slice %508 [0:4, 0:8, 0:32] : (tensor<4x8x64xf32>) -> tensor<4x8x32xf32>
    %524 = stablehlo.slice %508 [0:4, 0:8, 32:64] : (tensor<4x8x64xf32>) -> tensor<4x8x32xf32>
    %525 = stablehlo.negate %524 : tensor<4x8x32xf32>
    %526 = stablehlo.concatenate %525, %523, dim = 2 : (tensor<4x8x32xf32>, tensor<4x8x32xf32>) -> tensor<4x8x64xf32>
    %527 = stablehlo.multiply %526, %521 : tensor<4x8x64xf32>
    %528 = stablehlo.add %522, %527 : tensor<4x8x64xf32>
    %529 = stablehlo.slice %arg147 [0:1] : (tensor<4xi32>) -> tensor<1xi32>
    %530 = stablehlo.reshape %529 : (tensor<1xi32>) -> tensor<i32>
    %531 = stablehlo.slice %528 [0:1, 0:8, 0:64] : (tensor<4x8x64xf32>) -> tensor<1x8x64xf32>
    %532 = stablehlo.reshape %531 : (tensor<1x8x64xf32>) -> tensor<1x1x1x8x64xf32>
    %533 = stablehlo.dynamic_update_slice %444, %532, %26, %14, %530, %9, %9 : (tensor<4x16x256x8x64xf32>, tensor<1x1x1x8x64xf32>, tensor<i32>, tensor<i32>, tensor<i32>, tensor<i32>, tensor<i32>) -> tensor<4x16x256x8x64xf32>
    %534 = stablehlo.slice %510 [0:1, 0:8, 0:64] : (tensor<4x8x64xf32>) -> tensor<1x8x64xf32>
    %535 = stablehlo.reshape %534 : (tensor<1x8x64xf32>) -> tensor<1x1x1x8x64xf32>
    %536 = stablehlo.dynamic_update_slice %447, %535, %26, %14, %530, %9, %9 : (tensor<4x16x256x8x64xf32>, tensor<1x1x1x8x64xf32>, tensor<i32>, tensor<i32>, tensor<i32>, tensor<i32>, tensor<i32>) -> tensor<4x16x256x8x64xf32>
    %537 = stablehlo.slice %arg147 [1:2] : (tensor<4xi32>) -> tensor<1xi32>
    %538 = stablehlo.reshape %537 : (tensor<1xi32>) -> tensor<i32>
    %539 = stablehlo.slice %528 [1:2, 0:8, 0:64] : (tensor<4x8x64xf32>) -> tensor<1x8x64xf32>
    %540 = stablehlo.reshape %539 : (tensor<1x8x64xf32>) -> tensor<1x1x1x8x64xf32>
    %541 = stablehlo.dynamic_update_slice %533, %540, %27, %14, %538, %9, %9 : (tensor<4x16x256x8x64xf32>, tensor<1x1x1x8x64xf32>, tensor<i32>, tensor<i32>, tensor<i32>, tensor<i32>, tensor<i32>) -> tensor<4x16x256x8x64xf32>
    %542 = stablehlo.slice %510 [1:2, 0:8, 0:64] : (tensor<4x8x64xf32>) -> tensor<1x8x64xf32>
    %543 = stablehlo.reshape %542 : (tensor<1x8x64xf32>) -> tensor<1x1x1x8x64xf32>
    %544 = stablehlo.dynamic_update_slice %536, %543, %27, %14, %538, %9, %9 : (tensor<4x16x256x8x64xf32>, tensor<1x1x1x8x64xf32>, tensor<i32>, tensor<i32>, tensor<i32>, tensor<i32>, tensor<i32>) -> tensor<4x16x256x8x64xf32>
    %545 = stablehlo.slice %arg147 [2:3] : (tensor<4xi32>) -> tensor<1xi32>
    %546 = stablehlo.reshape %545 : (tensor<1xi32>) -> tensor<i32>
    %547 = stablehlo.slice %528 [2:3, 0:8, 0:64] : (tensor<4x8x64xf32>) -> tensor<1x8x64xf32>
    %548 = stablehlo.reshape %547 : (tensor<1x8x64xf32>) -> tensor<1x1x1x8x64xf32>
    %549 = stablehlo.dynamic_update_slice %541, %548, %28, %14, %546, %9, %9 : (tensor<4x16x256x8x64xf32>, tensor<1x1x1x8x64xf32>, tensor<i32>, tensor<i32>, tensor<i32>, tensor<i32>, tensor<i32>) -> tensor<4x16x256x8x64xf32>
    %550 = stablehlo.slice %510 [2:3, 0:8, 0:64] : (tensor<4x8x64xf32>) -> tensor<1x8x64xf32>
    %551 = stablehlo.reshape %550 : (tensor<1x8x64xf32>) -> tensor<1x1x1x8x64xf32>
    %552 = stablehlo.dynamic_update_slice %544, %551, %28, %14, %546, %9, %9 : (tensor<4x16x256x8x64xf32>, tensor<1x1x1x8x64xf32>, tensor<i32>, tensor<i32>, tensor<i32>, tensor<i32>, tensor<i32>) -> tensor<4x16x256x8x64xf32>
    %553 = stablehlo.slice %arg147 [3:4] : (tensor<4xi32>) -> tensor<1xi32>
    %554 = stablehlo.reshape %553 : (tensor<1xi32>) -> tensor<i32>
    %555 = stablehlo.slice %528 [3:4, 0:8, 0:64] : (tensor<4x8x64xf32>) -> tensor<1x8x64xf32>
    %556 = stablehlo.reshape %555 : (tensor<1x8x64xf32>) -> tensor<1x1x1x8x64xf32>
    %557 = stablehlo.dynamic_update_slice %549, %556, %29, %14, %554, %9, %9 : (tensor<4x16x256x8x64xf32>, tensor<1x1x1x8x64xf32>, tensor<i32>, tensor<i32>, tensor<i32>, tensor<i32>, tensor<i32>) -> tensor<4x16x256x8x64xf32>
    %558 = stablehlo.slice %510 [3:4, 0:8, 0:64] : (tensor<4x8x64xf32>) -> tensor<1x8x64xf32>
    %559 = stablehlo.reshape %558 : (tensor<1x8x64xf32>) -> tensor<1x1x1x8x64xf32>
    %560 = stablehlo.dynamic_update_slice %552, %559, %29, %14, %554, %9, %9 : (tensor<4x16x256x8x64xf32>, tensor<1x1x1x8x64xf32>, tensor<i32>, tensor<i32>, tensor<i32>, tensor<i32>, tensor<i32>) -> tensor<4x16x256x8x64xf32>
    %561 = stablehlo.slice %557 [0:4, 4:5, 0:256, 0:8, 0:64] : (tensor<4x16x256x8x64xf32>) -> tensor<4x1x256x8x64xf32>
    %562 = stablehlo.reshape %561 : (tensor<4x1x256x8x64xf32>) -> tensor<4x256x8x64xf32>
    %563 = stablehlo.slice %560 [0:4, 4:5, 0:256, 0:8, 0:64] : (tensor<4x16x256x8x64xf32>) -> tensor<4x1x256x8x64xf32>
    %564 = stablehlo.reshape %563 : (tensor<4x1x256x8x64xf32>) -> tensor<4x256x8x64xf32>
    %565 = stablehlo.reshape %519 : (tensor<4x32x64xf32>) -> tensor<4x8x4x64xf32>
    %566 = stablehlo.dot_general %565, %562, batching_dims = [0, 1] x [0, 2], contracting_dims = [3] x [3] : (tensor<4x8x4x64xf32>, tensor<4x256x8x64xf32>) -> tensor<4x8x4x256xf32>
    %567 = stablehlo.reshape %566 : (tensor<4x8x4x256xf32>) -> tensor<4x32x256xf32>
    %568 = stablehlo.broadcast_in_dim %8, dims = [] : (tensor<f32>) -> tensor<4x32x256xf32>
    %569 = stablehlo.multiply %567, %568 : tensor<4x32x256xf32>
    %570 = stablehlo.broadcast_in_dim %41, dims = [0, 2] : (tensor<4x256xf32>) -> tensor<4x32x256xf32>
    %571 = stablehlo.add %569, %570 : tensor<4x32x256xf32>
    %572 = stablehlo.reduce(%571 init: %4) applies stablehlo.maximum across dimensions = [2] : (tensor<4x32x256xf32>, tensor<f32>) -> tensor<4x32xf32>
    %573 = stablehlo.broadcast_in_dim %572, dims = [0, 1] : (tensor<4x32xf32>) -> tensor<4x32x256xf32>
    %574 = stablehlo.subtract %571, %573 : tensor<4x32x256xf32>
    %575 = stablehlo.exponential %574 : tensor<4x32x256xf32>
    %576 = stablehlo.reduce(%575 init: %2) applies stablehlo.add across dimensions = [2] : (tensor<4x32x256xf32>, tensor<f32>) -> tensor<4x32xf32>
    %577 = stablehlo.broadcast_in_dim %576, dims = [0, 1] : (tensor<4x32xf32>) -> tensor<4x32x256xf32>
    %578 = stablehlo.divide %575, %577 : tensor<4x32x256xf32>
    %579 = stablehlo.reshape %578 : (tensor<4x32x256xf32>) -> tensor<4x8x4x256xf32>
    %580 = stablehlo.dot_general %579, %564, batching_dims = [0, 1] x [0, 2], contracting_dims = [3] x [1] : (tensor<4x8x4x256xf32>, tensor<4x256x8x64xf32>) -> tensor<4x8x4x64xf32>
    %581 = stablehlo.reshape %580 : (tensor<4x8x4x64xf32>) -> tensor<4x32x64xf32>
    %582 = stablehlo.reshape %581 : (tensor<4x32x64xf32>) -> tensor<4x2048xf32>
    %583 = stablehlo.dot_general %582, %arg44, contracting_dims = [1] x [1] : (tensor<4x2048xf32>, tensor<2048x2048xf32>) -> tensor<4x2048xf32>
    %584 = stablehlo.add %493, %583 : tensor<4x2048xf32>
    %585 = stablehlo.multiply %584, %584 : tensor<4x2048xf32>
    %586 = stablehlo.reduce(%585 init: %2) applies stablehlo.add across dimensions = [1] : (tensor<4x2048xf32>, tensor<f32>) -> tensor<4xf32>
    %587 = stablehlo.broadcast_in_dim %7, dims = [] : (tensor<f32>) -> tensor<4xf32>
    %588 = stablehlo.divide %586, %587 : tensor<4xf32>
    %589 = stablehlo.broadcast_in_dim %6, dims = [] : (tensor<f32>) -> tensor<4xf32>
    %590 = stablehlo.add %588, %589 : tensor<4xf32>
    %591 = stablehlo.rsqrt %590 : tensor<4xf32>
    %592 = stablehlo.broadcast_in_dim %591, dims = [0] : (tensor<4xf32>) -> tensor<4x2048xf32>
    %593 = stablehlo.multiply %584, %592 : tensor<4x2048xf32>
    %594 = stablehlo.broadcast_in_dim %arg41, dims = [1] : (tensor<2048xf32>) -> tensor<4x2048xf32>
    %595 = stablehlo.multiply %593, %594 : tensor<4x2048xf32>
    %596 = stablehlo.dot_general %595, %arg39, contracting_dims = [1] x [1] : (tensor<4x2048xf32>, tensor<8192x2048xf32>) -> tensor<4x8192xf32>
    %597 = stablehlo.dot_general %595, %arg42, contracting_dims = [1] x [1] : (tensor<4x2048xf32>, tensor<8192x2048xf32>) -> tensor<4x8192xf32>
    %598 = stablehlo.negate %596 : tensor<4x8192xf32>
    %599 = stablehlo.exponential %598 : tensor<4x8192xf32>
    %600 = stablehlo.broadcast_in_dim %3, dims = [] : (tensor<f32>) -> tensor<4x8192xf32>
    %601 = stablehlo.add %600, %599 : tensor<4x8192xf32>
    %602 = stablehlo.divide %600, %601 : tensor<4x8192xf32>
    %603 = stablehlo.multiply %596, %602 : tensor<4x8192xf32>
    %604 = stablehlo.multiply %603, %597 : tensor<4x8192xf32>
    %605 = stablehlo.dot_general %604, %arg38, contracting_dims = [1] x [1] : (tensor<4x8192xf32>, tensor<2048x8192xf32>) -> tensor<4x2048xf32>
    %606 = stablehlo.add %584, %605 : tensor<4x2048xf32>
    %607 = stablehlo.multiply %606, %606 : tensor<4x2048xf32>
    %608 = stablehlo.reduce(%607 init: %2) applies stablehlo.add across dimensions = [1] : (tensor<4x2048xf32>, tensor<f32>) -> tensor<4xf32>
    %609 = stablehlo.broadcast_in_dim %7, dims = [] : (tensor<f32>) -> tensor<4xf32>
    %610 = stablehlo.divide %608, %609 : tensor<4xf32>
    %611 = stablehlo.broadcast_in_dim %6, dims = [] : (tensor<f32>) -> tensor<4xf32>
    %612 = stablehlo.add %610, %611 : tensor<4xf32>
    %613 = stablehlo.rsqrt %612 : tensor<4xf32>
    %614 = stablehlo.broadcast_in_dim %613, dims = [0] : (tensor<4xf32>) -> tensor<4x2048xf32>
    %615 = stablehlo.multiply %606, %614 : tensor<4x2048xf32>
    %616 = stablehlo.broadcast_in_dim %arg49, dims = [1] : (tensor<2048xf32>) -> tensor<4x2048xf32>
    %617 = stablehlo.multiply %615, %616 : tensor<4x2048xf32>
    %618 = stablehlo.dot_general %617, %arg54, contracting_dims = [1] x [1] : (tensor<4x2048xf32>, tensor<2048x2048xf32>) -> tensor<4x2048xf32>
    %619 = stablehlo.reshape %618 : (tensor<4x2048xf32>) -> tensor<4x32x64xf32>
    %620 = stablehlo.dot_general %617, %arg52, contracting_dims = [1] x [1] : (tensor<4x2048xf32>, tensor<512x2048xf32>) -> tensor<4x512xf32>
    %621 = stablehlo.reshape %620 : (tensor<4x512xf32>) -> tensor<4x8x64xf32>
    %622 = stablehlo.dot_general %617, %arg55, contracting_dims = [1] x [1] : (tensor<4x2048xf32>, tensor<512x2048xf32>) -> tensor<4x512xf32>
    %623 = stablehlo.reshape %622 : (tensor<4x512xf32>) -> tensor<4x8x64xf32>
    %624 = stablehlo.broadcast_in_dim %33, dims = [0, 2] : (tensor<4x64xf32>) -> tensor<4x32x64xf32>
    %625 = stablehlo.broadcast_in_dim %34, dims = [0, 2] : (tensor<4x64xf32>) -> tensor<4x32x64xf32>
    %626 = stablehlo.multiply %619, %624 : tensor<4x32x64xf32>
    %627 = stablehlo.slice %619 [0:4, 0:32, 0:32] : (tensor<4x32x64xf32>) -> tensor<4x32x32xf32>
    %628 = stablehlo.slice %619 [0:4, 0:32, 32:64] : (tensor<4x32x64xf32>) -> tensor<4x32x32xf32>
    %629 = stablehlo.negate %628 : tensor<4x32x32xf32>
    %630 = stablehlo.concatenate %629, %627, dim = 2 : (tensor<4x32x32xf32>, tensor<4x32x32xf32>) -> tensor<4x32x64xf32>
    %631 = stablehlo.multiply %630, %625 : tensor<4x32x64xf32>
    %632 = stablehlo.add %626, %631 : tensor<4x32x64xf32>
    %633 = stablehlo.broadcast_in_dim %33, dims = [0, 2] : (tensor<4x64xf32>) -> tensor<4x8x64xf32>
    %634 = stablehlo.broadcast_in_dim %34, dims = [0, 2] : (tensor<4x64xf32>) -> tensor<4x8x64xf32>
    %635 = stablehlo.multiply %621, %633 : tensor<4x8x64xf32>
    %636 = stablehlo.slice %621 [0:4, 0:8, 0:32] : (tensor<4x8x64xf32>) -> tensor<4x8x32xf32>
    %637 = stablehlo.slice %621 [0:4, 0:8, 32:64] : (tensor<4x8x64xf32>) -> tensor<4x8x32xf32>
    %638 = stablehlo.negate %637 : tensor<4x8x32xf32>
    %639 = stablehlo.concatenate %638, %636, dim = 2 : (tensor<4x8x32xf32>, tensor<4x8x32xf32>) -> tensor<4x8x64xf32>
    %640 = stablehlo.multiply %639, %634 : tensor<4x8x64xf32>
    %641 = stablehlo.add %635, %640 : tensor<4x8x64xf32>
    %642 = stablehlo.slice %arg147 [0:1] : (tensor<4xi32>) -> tensor<1xi32>
    %643 = stablehlo.reshape %642 : (tensor<1xi32>) -> tensor<i32>
    %644 = stablehlo.slice %641 [0:1, 0:8, 0:64] : (tensor<4x8x64xf32>) -> tensor<1x8x64xf32>
    %645 = stablehlo.reshape %644 : (tensor<1x8x64xf32>) -> tensor<1x1x1x8x64xf32>
    %646 = stablehlo.dynamic_update_slice %557, %645, %26, %15, %643, %9, %9 : (tensor<4x16x256x8x64xf32>, tensor<1x1x1x8x64xf32>, tensor<i32>, tensor<i32>, tensor<i32>, tensor<i32>, tensor<i32>) -> tensor<4x16x256x8x64xf32>
    %647 = stablehlo.slice %623 [0:1, 0:8, 0:64] : (tensor<4x8x64xf32>) -> tensor<1x8x64xf32>
    %648 = stablehlo.reshape %647 : (tensor<1x8x64xf32>) -> tensor<1x1x1x8x64xf32>
    %649 = stablehlo.dynamic_update_slice %560, %648, %26, %15, %643, %9, %9 : (tensor<4x16x256x8x64xf32>, tensor<1x1x1x8x64xf32>, tensor<i32>, tensor<i32>, tensor<i32>, tensor<i32>, tensor<i32>) -> tensor<4x16x256x8x64xf32>
    %650 = stablehlo.slice %arg147 [1:2] : (tensor<4xi32>) -> tensor<1xi32>
    %651 = stablehlo.reshape %650 : (tensor<1xi32>) -> tensor<i32>
    %652 = stablehlo.slice %641 [1:2, 0:8, 0:64] : (tensor<4x8x64xf32>) -> tensor<1x8x64xf32>
    %653 = stablehlo.reshape %652 : (tensor<1x8x64xf32>) -> tensor<1x1x1x8x64xf32>
    %654 = stablehlo.dynamic_update_slice %646, %653, %27, %15, %651, %9, %9 : (tensor<4x16x256x8x64xf32>, tensor<1x1x1x8x64xf32>, tensor<i32>, tensor<i32>, tensor<i32>, tensor<i32>, tensor<i32>) -> tensor<4x16x256x8x64xf32>
    %655 = stablehlo.slice %623 [1:2, 0:8, 0:64] : (tensor<4x8x64xf32>) -> tensor<1x8x64xf32>
    %656 = stablehlo.reshape %655 : (tensor<1x8x64xf32>) -> tensor<1x1x1x8x64xf32>
    %657 = stablehlo.dynamic_update_slice %649, %656, %27, %15, %651, %9, %9 : (tensor<4x16x256x8x64xf32>, tensor<1x1x1x8x64xf32>, tensor<i32>, tensor<i32>, tensor<i32>, tensor<i32>, tensor<i32>) -> tensor<4x16x256x8x64xf32>
    %658 = stablehlo.slice %arg147 [2:3] : (tensor<4xi32>) -> tensor<1xi32>
    %659 = stablehlo.reshape %658 : (tensor<1xi32>) -> tensor<i32>
    %660 = stablehlo.slice %641 [2:3, 0:8, 0:64] : (tensor<4x8x64xf32>) -> tensor<1x8x64xf32>
    %661 = stablehlo.reshape %660 : (tensor<1x8x64xf32>) -> tensor<1x1x1x8x64xf32>
    %662 = stablehlo.dynamic_update_slice %654, %661, %28, %15, %659, %9, %9 : (tensor<4x16x256x8x64xf32>, tensor<1x1x1x8x64xf32>, tensor<i32>, tensor<i32>, tensor<i32>, tensor<i32>, tensor<i32>) -> tensor<4x16x256x8x64xf32>
    %663 = stablehlo.slice %623 [2:3, 0:8, 0:64] : (tensor<4x8x64xf32>) -> tensor<1x8x64xf32>
    %664 = stablehlo.reshape %663 : (tensor<1x8x64xf32>) -> tensor<1x1x1x8x64xf32>
    %665 = stablehlo.dynamic_update_slice %657, %664, %28, %15, %659, %9, %9 : (tensor<4x16x256x8x64xf32>, tensor<1x1x1x8x64xf32>, tensor<i32>, tensor<i32>, tensor<i32>, tensor<i32>, tensor<i32>) -> tensor<4x16x256x8x64xf32>
    %666 = stablehlo.slice %arg147 [3:4] : (tensor<4xi32>) -> tensor<1xi32>
    %667 = stablehlo.reshape %666 : (tensor<1xi32>) -> tensor<i32>
    %668 = stablehlo.slice %641 [3:4, 0:8, 0:64] : (tensor<4x8x64xf32>) -> tensor<1x8x64xf32>
    %669 = stablehlo.reshape %668 : (tensor<1x8x64xf32>) -> tensor<1x1x1x8x64xf32>
    %670 = stablehlo.dynamic_update_slice %662, %669, %29, %15, %667, %9, %9 : (tensor<4x16x256x8x64xf32>, tensor<1x1x1x8x64xf32>, tensor<i32>, tensor<i32>, tensor<i32>, tensor<i32>, tensor<i32>) -> tensor<4x16x256x8x64xf32>
    %671 = stablehlo.slice %623 [3:4, 0:8, 0:64] : (tensor<4x8x64xf32>) -> tensor<1x8x64xf32>
    %672 = stablehlo.reshape %671 : (tensor<1x8x64xf32>) -> tensor<1x1x1x8x64xf32>
    %673 = stablehlo.dynamic_update_slice %665, %672, %29, %15, %667, %9, %9 : (tensor<4x16x256x8x64xf32>, tensor<1x1x1x8x64xf32>, tensor<i32>, tensor<i32>, tensor<i32>, tensor<i32>, tensor<i32>) -> tensor<4x16x256x8x64xf32>
    %674 = stablehlo.slice %670 [0:4, 5:6, 0:256, 0:8, 0:64] : (tensor<4x16x256x8x64xf32>) -> tensor<4x1x256x8x64xf32>
    %675 = stablehlo.reshape %674 : (tensor<4x1x256x8x64xf32>) -> tensor<4x256x8x64xf32>
    %676 = stablehlo.slice %673 [0:4, 5:6, 0:256, 0:8, 0:64] : (tensor<4x16x256x8x64xf32>) -> tensor<4x1x256x8x64xf32>
    %677 = stablehlo.reshape %676 : (tensor<4x1x256x8x64xf32>) -> tensor<4x256x8x64xf32>
    %678 = stablehlo.reshape %632 : (tensor<4x32x64xf32>) -> tensor<4x8x4x64xf32>
    %679 = stablehlo.dot_general %678, %675, batching_dims = [0, 1] x [0, 2], contracting_dims = [3] x [3] : (tensor<4x8x4x64xf32>, tensor<4x256x8x64xf32>) -> tensor<4x8x4x256xf32>
    %680 = stablehlo.reshape %679 : (tensor<4x8x4x256xf32>) -> tensor<4x32x256xf32>
    %681 = stablehlo.broadcast_in_dim %8, dims = [] : (tensor<f32>) -> tensor<4x32x256xf32>
    %682 = stablehlo.multiply %680, %681 : tensor<4x32x256xf32>
    %683 = stablehlo.broadcast_in_dim %41, dims = [0, 2] : (tensor<4x256xf32>) -> tensor<4x32x256xf32>
    %684 = stablehlo.add %682, %683 : tensor<4x32x256xf32>
    %685 = stablehlo.reduce(%684 init: %4) applies stablehlo.maximum across dimensions = [2] : (tensor<4x32x256xf32>, tensor<f32>) -> tensor<4x32xf32>
    %686 = stablehlo.broadcast_in_dim %685, dims = [0, 1] : (tensor<4x32xf32>) -> tensor<4x32x256xf32>
    %687 = stablehlo.subtract %684, %686 : tensor<4x32x256xf32>
    %688 = stablehlo.exponential %687 : tensor<4x32x256xf32>
    %689 = stablehlo.reduce(%688 init: %2) applies stablehlo.add across dimensions = [2] : (tensor<4x32x256xf32>, tensor<f32>) -> tensor<4x32xf32>
    %690 = stablehlo.broadcast_in_dim %689, dims = [0, 1] : (tensor<4x32xf32>) -> tensor<4x32x256xf32>
    %691 = stablehlo.divide %688, %690 : tensor<4x32x256xf32>
    %692 = stablehlo.reshape %691 : (tensor<4x32x256xf32>) -> tensor<4x8x4x256xf32>
    %693 = stablehlo.dot_general %692, %677, batching_dims = [0, 1] x [0, 2], contracting_dims = [3] x [1] : (tensor<4x8x4x256xf32>, tensor<4x256x8x64xf32>) -> tensor<4x8x4x64xf32>
    %694 = stablehlo.reshape %693 : (tensor<4x8x4x64xf32>) -> tensor<4x32x64xf32>
    %695 = stablehlo.reshape %694 : (tensor<4x32x64xf32>) -> tensor<4x2048xf32>
    %696 = stablehlo.dot_general %695, %arg53, contracting_dims = [1] x [1] : (tensor<4x2048xf32>, tensor<2048x2048xf32>) -> tensor<4x2048xf32>
    %697 = stablehlo.add %606, %696 : tensor<4x2048xf32>
    %698 = stablehlo.multiply %697, %697 : tensor<4x2048xf32>
    %699 = stablehlo.reduce(%698 init: %2) applies stablehlo.add across dimensions = [1] : (tensor<4x2048xf32>, tensor<f32>) -> tensor<4xf32>
    %700 = stablehlo.broadcast_in_dim %7, dims = [] : (tensor<f32>) -> tensor<4xf32>
    %701 = stablehlo.divide %699, %700 : tensor<4xf32>
    %702 = stablehlo.broadcast_in_dim %6, dims = [] : (tensor<f32>) -> tensor<4xf32>
    %703 = stablehlo.add %701, %702 : tensor<4xf32>
    %704 = stablehlo.rsqrt %703 : tensor<4xf32>
    %705 = stablehlo.broadcast_in_dim %704, dims = [0] : (tensor<4xf32>) -> tensor<4x2048xf32>
    %706 = stablehlo.multiply %697, %705 : tensor<4x2048xf32>
    %707 = stablehlo.broadcast_in_dim %arg50, dims = [1] : (tensor<2048xf32>) -> tensor<4x2048xf32>
    %708 = stablehlo.multiply %706, %707 : tensor<4x2048xf32>
    %709 = stablehlo.dot_general %708, %arg48, contracting_dims = [1] x [1] : (tensor<4x2048xf32>, tensor<8192x2048xf32>) -> tensor<4x8192xf32>
    %710 = stablehlo.dot_general %708, %arg51, contracting_dims = [1] x [1] : (tensor<4x2048xf32>, tensor<8192x2048xf32>) -> tensor<4x8192xf32>
    %711 = stablehlo.negate %709 : tensor<4x8192xf32>
    %712 = stablehlo.exponential %711 : tensor<4x8192xf32>
    %713 = stablehlo.broadcast_in_dim %3, dims = [] : (tensor<f32>) -> tensor<4x8192xf32>
    %714 = stablehlo.add %713, %712 : tensor<4x8192xf32>
    %715 = stablehlo.divide %713, %714 : tensor<4x8192xf32>
    %716 = stablehlo.multiply %709, %715 : tensor<4x8192xf32>
    %717 = stablehlo.multiply %716, %710 : tensor<4x8192xf32>
    %718 = stablehlo.dot_general %717, %arg47, contracting_dims = [1] x [1] : (tensor<4x8192xf32>, tensor<2048x8192xf32>) -> tensor<4x2048xf32>
    %719 = stablehlo.add %697, %718 : tensor<4x2048xf32>
    %720 = stablehlo.multiply %719, %719 : tensor<4x2048xf32>
    %721 = stablehlo.reduce(%720 init: %2) applies stablehlo.add across dimensions = [1] : (tensor<4x2048xf32>, tensor<f32>) -> tensor<4xf32>
    %722 = stablehlo.broadcast_in_dim %7, dims = [] : (tensor<f32>) -> tensor<4xf32>
    %723 = stablehlo.divide %721, %722 : tensor<4xf32>
    %724 = stablehlo.broadcast_in_dim %6, dims = [] : (tensor<f32>) -> tensor<4xf32>
    %725 = stablehlo.add %723, %724 : tensor<4xf32>
    %726 = stablehlo.rsqrt %725 : tensor<4xf32>
    %727 = stablehlo.broadcast_in_dim %726, dims = [0] : (tensor<4xf32>) -> tensor<4x2048xf32>
    %728 = stablehlo.multiply %719, %727 : tensor<4x2048xf32>
    %729 = stablehlo.broadcast_in_dim %arg58, dims = [1] : (tensor<2048xf32>) -> tensor<4x2048xf32>
    %730 = stablehlo.multiply %728, %729 : tensor<4x2048xf32>
    %731 = stablehlo.dot_general %730, %arg63, contracting_dims = [1] x [1] : (tensor<4x2048xf32>, tensor<2048x2048xf32>) -> tensor<4x2048xf32>
    %732 = stablehlo.reshape %731 : (tensor<4x2048xf32>) -> tensor<4x32x64xf32>
    %733 = stablehlo.dot_general %730, %arg61, contracting_dims = [1] x [1] : (tensor<4x2048xf32>, tensor<512x2048xf32>) -> tensor<4x512xf32>
    %734 = stablehlo.reshape %733 : (tensor<4x512xf32>) -> tensor<4x8x64xf32>
    %735 = stablehlo.dot_general %730, %arg64, contracting_dims = [1] x [1] : (tensor<4x2048xf32>, tensor<512x2048xf32>) -> tensor<4x512xf32>
    %736 = stablehlo.reshape %735 : (tensor<4x512xf32>) -> tensor<4x8x64xf32>
    %737 = stablehlo.broadcast_in_dim %33, dims = [0, 2] : (tensor<4x64xf32>) -> tensor<4x32x64xf32>
    %738 = stablehlo.broadcast_in_dim %34, dims = [0, 2] : (tensor<4x64xf32>) -> tensor<4x32x64xf32>
    %739 = stablehlo.multiply %732, %737 : tensor<4x32x64xf32>
    %740 = stablehlo.slice %732 [0:4, 0:32, 0:32] : (tensor<4x32x64xf32>) -> tensor<4x32x32xf32>
    %741 = stablehlo.slice %732 [0:4, 0:32, 32:64] : (tensor<4x32x64xf32>) -> tensor<4x32x32xf32>
    %742 = stablehlo.negate %741 : tensor<4x32x32xf32>
    %743 = stablehlo.concatenate %742, %740, dim = 2 : (tensor<4x32x32xf32>, tensor<4x32x32xf32>) -> tensor<4x32x64xf32>
    %744 = stablehlo.multiply %743, %738 : tensor<4x32x64xf32>
    %745 = stablehlo.add %739, %744 : tensor<4x32x64xf32>
    %746 = stablehlo.broadcast_in_dim %33, dims = [0, 2] : (tensor<4x64xf32>) -> tensor<4x8x64xf32>
    %747 = stablehlo.broadcast_in_dim %34, dims = [0, 2] : (tensor<4x64xf32>) -> tensor<4x8x64xf32>
    %748 = stablehlo.multiply %734, %746 : tensor<4x8x64xf32>
    %749 = stablehlo.slice %734 [0:4, 0:8, 0:32] : (tensor<4x8x64xf32>) -> tensor<4x8x32xf32>
    %750 = stablehlo.slice %734 [0:4, 0:8, 32:64] : (tensor<4x8x64xf32>) -> tensor<4x8x32xf32>
    %751 = stablehlo.negate %750 : tensor<4x8x32xf32>
    %752 = stablehlo.concatenate %751, %749, dim = 2 : (tensor<4x8x32xf32>, tensor<4x8x32xf32>) -> tensor<4x8x64xf32>
    %753 = stablehlo.multiply %752, %747 : tensor<4x8x64xf32>
    %754 = stablehlo.add %748, %753 : tensor<4x8x64xf32>
    %755 = stablehlo.slice %arg147 [0:1] : (tensor<4xi32>) -> tensor<1xi32>
    %756 = stablehlo.reshape %755 : (tensor<1xi32>) -> tensor<i32>
    %757 = stablehlo.slice %754 [0:1, 0:8, 0:64] : (tensor<4x8x64xf32>) -> tensor<1x8x64xf32>
    %758 = stablehlo.reshape %757 : (tensor<1x8x64xf32>) -> tensor<1x1x1x8x64xf32>
    %759 = stablehlo.dynamic_update_slice %670, %758, %26, %16, %756, %9, %9 : (tensor<4x16x256x8x64xf32>, tensor<1x1x1x8x64xf32>, tensor<i32>, tensor<i32>, tensor<i32>, tensor<i32>, tensor<i32>) -> tensor<4x16x256x8x64xf32>
    %760 = stablehlo.slice %736 [0:1, 0:8, 0:64] : (tensor<4x8x64xf32>) -> tensor<1x8x64xf32>
    %761 = stablehlo.reshape %760 : (tensor<1x8x64xf32>) -> tensor<1x1x1x8x64xf32>
    %762 = stablehlo.dynamic_update_slice %673, %761, %26, %16, %756, %9, %9 : (tensor<4x16x256x8x64xf32>, tensor<1x1x1x8x64xf32>, tensor<i32>, tensor<i32>, tensor<i32>, tensor<i32>, tensor<i32>) -> tensor<4x16x256x8x64xf32>
    %763 = stablehlo.slice %arg147 [1:2] : (tensor<4xi32>) -> tensor<1xi32>
    %764 = stablehlo.reshape %763 : (tensor<1xi32>) -> tensor<i32>
    %765 = stablehlo.slice %754 [1:2, 0:8, 0:64] : (tensor<4x8x64xf32>) -> tensor<1x8x64xf32>
    %766 = stablehlo.reshape %765 : (tensor<1x8x64xf32>) -> tensor<1x1x1x8x64xf32>
    %767 = stablehlo.dynamic_update_slice %759, %766, %27, %16, %764, %9, %9 : (tensor<4x16x256x8x64xf32>, tensor<1x1x1x8x64xf32>, tensor<i32>, tensor<i32>, tensor<i32>, tensor<i32>, tensor<i32>) -> tensor<4x16x256x8x64xf32>
    %768 = stablehlo.slice %736 [1:2, 0:8, 0:64] : (tensor<4x8x64xf32>) -> tensor<1x8x64xf32>
    %769 = stablehlo.reshape %768 : (tensor<1x8x64xf32>) -> tensor<1x1x1x8x64xf32>
    %770 = stablehlo.dynamic_update_slice %762, %769, %27, %16, %764, %9, %9 : (tensor<4x16x256x8x64xf32>, tensor<1x1x1x8x64xf32>, tensor<i32>, tensor<i32>, tensor<i32>, tensor<i32>, tensor<i32>) -> tensor<4x16x256x8x64xf32>
    %771 = stablehlo.slice %arg147 [2:3] : (tensor<4xi32>) -> tensor<1xi32>
    %772 = stablehlo.reshape %771 : (tensor<1xi32>) -> tensor<i32>
    %773 = stablehlo.slice %754 [2:3, 0:8, 0:64] : (tensor<4x8x64xf32>) -> tensor<1x8x64xf32>
    %774 = stablehlo.reshape %773 : (tensor<1x8x64xf32>) -> tensor<1x1x1x8x64xf32>
    %775 = stablehlo.dynamic_update_slice %767, %774, %28, %16, %772, %9, %9 : (tensor<4x16x256x8x64xf32>, tensor<1x1x1x8x64xf32>, tensor<i32>, tensor<i32>, tensor<i32>, tensor<i32>, tensor<i32>) -> tensor<4x16x256x8x64xf32>
    %776 = stablehlo.slice %736 [2:3, 0:8, 0:64] : (tensor<4x8x64xf32>) -> tensor<1x8x64xf32>
    %777 = stablehlo.reshape %776 : (tensor<1x8x64xf32>) -> tensor<1x1x1x8x64xf32>
    %778 = stablehlo.dynamic_update_slice %770, %777, %28, %16, %772, %9, %9 : (tensor<4x16x256x8x64xf32>, tensor<1x1x1x8x64xf32>, tensor<i32>, tensor<i32>, tensor<i32>, tensor<i32>, tensor<i32>) -> tensor<4x16x256x8x64xf32>
    %779 = stablehlo.slice %arg147 [3:4] : (tensor<4xi32>) -> tensor<1xi32>
    %780 = stablehlo.reshape %779 : (tensor<1xi32>) -> tensor<i32>
    %781 = stablehlo.slice %754 [3:4, 0:8, 0:64] : (tensor<4x8x64xf32>) -> tensor<1x8x64xf32>
    %782 = stablehlo.reshape %781 : (tensor<1x8x64xf32>) -> tensor<1x1x1x8x64xf32>
    %783 = stablehlo.dynamic_update_slice %775, %782, %29, %16, %780, %9, %9 : (tensor<4x16x256x8x64xf32>, tensor<1x1x1x8x64xf32>, tensor<i32>, tensor<i32>, tensor<i32>, tensor<i32>, tensor<i32>) -> tensor<4x16x256x8x64xf32>
    %784 = stablehlo.slice %736 [3:4, 0:8, 0:64] : (tensor<4x8x64xf32>) -> tensor<1x8x64xf32>
    %785 = stablehlo.reshape %784 : (tensor<1x8x64xf32>) -> tensor<1x1x1x8x64xf32>
    %786 = stablehlo.dynamic_update_slice %778, %785, %29, %16, %780, %9, %9 : (tensor<4x16x256x8x64xf32>, tensor<1x1x1x8x64xf32>, tensor<i32>, tensor<i32>, tensor<i32>, tensor<i32>, tensor<i32>) -> tensor<4x16x256x8x64xf32>
    %787 = stablehlo.slice %783 [0:4, 6:7, 0:256, 0:8, 0:64] : (tensor<4x16x256x8x64xf32>) -> tensor<4x1x256x8x64xf32>
    %788 = stablehlo.reshape %787 : (tensor<4x1x256x8x64xf32>) -> tensor<4x256x8x64xf32>
    %789 = stablehlo.slice %786 [0:4, 6:7, 0:256, 0:8, 0:64] : (tensor<4x16x256x8x64xf32>) -> tensor<4x1x256x8x64xf32>
    %790 = stablehlo.reshape %789 : (tensor<4x1x256x8x64xf32>) -> tensor<4x256x8x64xf32>
    %791 = stablehlo.reshape %745 : (tensor<4x32x64xf32>) -> tensor<4x8x4x64xf32>
    %792 = stablehlo.dot_general %791, %788, batching_dims = [0, 1] x [0, 2], contracting_dims = [3] x [3] : (tensor<4x8x4x64xf32>, tensor<4x256x8x64xf32>) -> tensor<4x8x4x256xf32>
    %793 = stablehlo.reshape %792 : (tensor<4x8x4x256xf32>) -> tensor<4x32x256xf32>
    %794 = stablehlo.broadcast_in_dim %8, dims = [] : (tensor<f32>) -> tensor<4x32x256xf32>
    %795 = stablehlo.multiply %793, %794 : tensor<4x32x256xf32>
    %796 = stablehlo.broadcast_in_dim %41, dims = [0, 2] : (tensor<4x256xf32>) -> tensor<4x32x256xf32>
    %797 = stablehlo.add %795, %796 : tensor<4x32x256xf32>
    %798 = stablehlo.reduce(%797 init: %4) applies stablehlo.maximum across dimensions = [2] : (tensor<4x32x256xf32>, tensor<f32>) -> tensor<4x32xf32>
    %799 = stablehlo.broadcast_in_dim %798, dims = [0, 1] : (tensor<4x32xf32>) -> tensor<4x32x256xf32>
    %800 = stablehlo.subtract %797, %799 : tensor<4x32x256xf32>
    %801 = stablehlo.exponential %800 : tensor<4x32x256xf32>
    %802 = stablehlo.reduce(%801 init: %2) applies stablehlo.add across dimensions = [2] : (tensor<4x32x256xf32>, tensor<f32>) -> tensor<4x32xf32>
    %803 = stablehlo.broadcast_in_dim %802, dims = [0, 1] : (tensor<4x32xf32>) -> tensor<4x32x256xf32>
    %804 = stablehlo.divide %801, %803 : tensor<4x32x256xf32>
    %805 = stablehlo.reshape %804 : (tensor<4x32x256xf32>) -> tensor<4x8x4x256xf32>
    %806 = stablehlo.dot_general %805, %790, batching_dims = [0, 1] x [0, 2], contracting_dims = [3] x [1] : (tensor<4x8x4x256xf32>, tensor<4x256x8x64xf32>) -> tensor<4x8x4x64xf32>
    %807 = stablehlo.reshape %806 : (tensor<4x8x4x64xf32>) -> tensor<4x32x64xf32>
    %808 = stablehlo.reshape %807 : (tensor<4x32x64xf32>) -> tensor<4x2048xf32>
    %809 = stablehlo.dot_general %808, %arg62, contracting_dims = [1] x [1] : (tensor<4x2048xf32>, tensor<2048x2048xf32>) -> tensor<4x2048xf32>
    %810 = stablehlo.add %719, %809 : tensor<4x2048xf32>
    %811 = stablehlo.multiply %810, %810 : tensor<4x2048xf32>
    %812 = stablehlo.reduce(%811 init: %2) applies stablehlo.add across dimensions = [1] : (tensor<4x2048xf32>, tensor<f32>) -> tensor<4xf32>
    %813 = stablehlo.broadcast_in_dim %7, dims = [] : (tensor<f32>) -> tensor<4xf32>
    %814 = stablehlo.divide %812, %813 : tensor<4xf32>
    %815 = stablehlo.broadcast_in_dim %6, dims = [] : (tensor<f32>) -> tensor<4xf32>
    %816 = stablehlo.add %814, %815 : tensor<4xf32>
    %817 = stablehlo.rsqrt %816 : tensor<4xf32>
    %818 = stablehlo.broadcast_in_dim %817, dims = [0] : (tensor<4xf32>) -> tensor<4x2048xf32>
    %819 = stablehlo.multiply %810, %818 : tensor<4x2048xf32>
    %820 = stablehlo.broadcast_in_dim %arg59, dims = [1] : (tensor<2048xf32>) -> tensor<4x2048xf32>
    %821 = stablehlo.multiply %819, %820 : tensor<4x2048xf32>
    %822 = stablehlo.dot_general %821, %arg57, contracting_dims = [1] x [1] : (tensor<4x2048xf32>, tensor<8192x2048xf32>) -> tensor<4x8192xf32>
    %823 = stablehlo.dot_general %821, %arg60, contracting_dims = [1] x [1] : (tensor<4x2048xf32>, tensor<8192x2048xf32>) -> tensor<4x8192xf32>
    %824 = stablehlo.negate %822 : tensor<4x8192xf32>
    %825 = stablehlo.exponential %824 : tensor<4x8192xf32>
    %826 = stablehlo.broadcast_in_dim %3, dims = [] : (tensor<f32>) -> tensor<4x8192xf32>
    %827 = stablehlo.add %826, %825 : tensor<4x8192xf32>
    %828 = stablehlo.divide %826, %827 : tensor<4x8192xf32>
    %829 = stablehlo.multiply %822, %828 : tensor<4x8192xf32>
    %830 = stablehlo.multiply %829, %823 : tensor<4x8192xf32>
    %831 = stablehlo.dot_general %830, %arg56, contracting_dims = [1] x [1] : (tensor<4x8192xf32>, tensor<2048x8192xf32>) -> tensor<4x2048xf32>
    %832 = stablehlo.add %810, %831 : tensor<4x2048xf32>
    %833 = stablehlo.multiply %832, %832 : tensor<4x2048xf32>
    %834 = stablehlo.reduce(%833 init: %2) applies stablehlo.add across dimensions = [1] : (tensor<4x2048xf32>, tensor<f32>) -> tensor<4xf32>
    %835 = stablehlo.broadcast_in_dim %7, dims = [] : (tensor<f32>) -> tensor<4xf32>
    %836 = stablehlo.divide %834, %835 : tensor<4xf32>
    %837 = stablehlo.broadcast_in_dim %6, dims = [] : (tensor<f32>) -> tensor<4xf32>
    %838 = stablehlo.add %836, %837 : tensor<4xf32>
    %839 = stablehlo.rsqrt %838 : tensor<4xf32>
    %840 = stablehlo.broadcast_in_dim %839, dims = [0] : (tensor<4xf32>) -> tensor<4x2048xf32>
    %841 = stablehlo.multiply %832, %840 : tensor<4x2048xf32>
    %842 = stablehlo.broadcast_in_dim %arg67, dims = [1] : (tensor<2048xf32>) -> tensor<4x2048xf32>
    %843 = stablehlo.multiply %841, %842 : tensor<4x2048xf32>
    %844 = stablehlo.dot_general %843, %arg72, contracting_dims = [1] x [1] : (tensor<4x2048xf32>, tensor<2048x2048xf32>) -> tensor<4x2048xf32>
    %845 = stablehlo.reshape %844 : (tensor<4x2048xf32>) -> tensor<4x32x64xf32>
    %846 = stablehlo.dot_general %843, %arg70, contracting_dims = [1] x [1] : (tensor<4x2048xf32>, tensor<512x2048xf32>) -> tensor<4x512xf32>
    %847 = stablehlo.reshape %846 : (tensor<4x512xf32>) -> tensor<4x8x64xf32>
    %848 = stablehlo.dot_general %843, %arg73, contracting_dims = [1] x [1] : (tensor<4x2048xf32>, tensor<512x2048xf32>) -> tensor<4x512xf32>
    %849 = stablehlo.reshape %848 : (tensor<4x512xf32>) -> tensor<4x8x64xf32>
    %850 = stablehlo.broadcast_in_dim %33, dims = [0, 2] : (tensor<4x64xf32>) -> tensor<4x32x64xf32>
    %851 = stablehlo.broadcast_in_dim %34, dims = [0, 2] : (tensor<4x64xf32>) -> tensor<4x32x64xf32>
    %852 = stablehlo.multiply %845, %850 : tensor<4x32x64xf32>
    %853 = stablehlo.slice %845 [0:4, 0:32, 0:32] : (tensor<4x32x64xf32>) -> tensor<4x32x32xf32>
    %854 = stablehlo.slice %845 [0:4, 0:32, 32:64] : (tensor<4x32x64xf32>) -> tensor<4x32x32xf32>
    %855 = stablehlo.negate %854 : tensor<4x32x32xf32>
    %856 = stablehlo.concatenate %855, %853, dim = 2 : (tensor<4x32x32xf32>, tensor<4x32x32xf32>) -> tensor<4x32x64xf32>
    %857 = stablehlo.multiply %856, %851 : tensor<4x32x64xf32>
    %858 = stablehlo.add %852, %857 : tensor<4x32x64xf32>
    %859 = stablehlo.broadcast_in_dim %33, dims = [0, 2] : (tensor<4x64xf32>) -> tensor<4x8x64xf32>
    %860 = stablehlo.broadcast_in_dim %34, dims = [0, 2] : (tensor<4x64xf32>) -> tensor<4x8x64xf32>
    %861 = stablehlo.multiply %847, %859 : tensor<4x8x64xf32>
    %862 = stablehlo.slice %847 [0:4, 0:8, 0:32] : (tensor<4x8x64xf32>) -> tensor<4x8x32xf32>
    %863 = stablehlo.slice %847 [0:4, 0:8, 32:64] : (tensor<4x8x64xf32>) -> tensor<4x8x32xf32>
    %864 = stablehlo.negate %863 : tensor<4x8x32xf32>
    %865 = stablehlo.concatenate %864, %862, dim = 2 : (tensor<4x8x32xf32>, tensor<4x8x32xf32>) -> tensor<4x8x64xf32>
    %866 = stablehlo.multiply %865, %860 : tensor<4x8x64xf32>
    %867 = stablehlo.add %861, %866 : tensor<4x8x64xf32>
    %868 = stablehlo.slice %arg147 [0:1] : (tensor<4xi32>) -> tensor<1xi32>
    %869 = stablehlo.reshape %868 : (tensor<1xi32>) -> tensor<i32>
    %870 = stablehlo.slice %867 [0:1, 0:8, 0:64] : (tensor<4x8x64xf32>) -> tensor<1x8x64xf32>
    %871 = stablehlo.reshape %870 : (tensor<1x8x64xf32>) -> tensor<1x1x1x8x64xf32>
    %872 = stablehlo.dynamic_update_slice %783, %871, %26, %17, %869, %9, %9 : (tensor<4x16x256x8x64xf32>, tensor<1x1x1x8x64xf32>, tensor<i32>, tensor<i32>, tensor<i32>, tensor<i32>, tensor<i32>) -> tensor<4x16x256x8x64xf32>
    %873 = stablehlo.slice %849 [0:1, 0:8, 0:64] : (tensor<4x8x64xf32>) -> tensor<1x8x64xf32>
    %874 = stablehlo.reshape %873 : (tensor<1x8x64xf32>) -> tensor<1x1x1x8x64xf32>
    %875 = stablehlo.dynamic_update_slice %786, %874, %26, %17, %869, %9, %9 : (tensor<4x16x256x8x64xf32>, tensor<1x1x1x8x64xf32>, tensor<i32>, tensor<i32>, tensor<i32>, tensor<i32>, tensor<i32>) -> tensor<4x16x256x8x64xf32>
    %876 = stablehlo.slice %arg147 [1:2] : (tensor<4xi32>) -> tensor<1xi32>
    %877 = stablehlo.reshape %876 : (tensor<1xi32>) -> tensor<i32>
    %878 = stablehlo.slice %867 [1:2, 0:8, 0:64] : (tensor<4x8x64xf32>) -> tensor<1x8x64xf32>
    %879 = stablehlo.reshape %878 : (tensor<1x8x64xf32>) -> tensor<1x1x1x8x64xf32>
    %880 = stablehlo.dynamic_update_slice %872, %879, %27, %17, %877, %9, %9 : (tensor<4x16x256x8x64xf32>, tensor<1x1x1x8x64xf32>, tensor<i32>, tensor<i32>, tensor<i32>, tensor<i32>, tensor<i32>) -> tensor<4x16x256x8x64xf32>
    %881 = stablehlo.slice %849 [1:2, 0:8, 0:64] : (tensor<4x8x64xf32>) -> tensor<1x8x64xf32>
    %882 = stablehlo.reshape %881 : (tensor<1x8x64xf32>) -> tensor<1x1x1x8x64xf32>
    %883 = stablehlo.dynamic_update_slice %875, %882, %27, %17, %877, %9, %9 : (tensor<4x16x256x8x64xf32>, tensor<1x1x1x8x64xf32>, tensor<i32>, tensor<i32>, tensor<i32>, tensor<i32>, tensor<i32>) -> tensor<4x16x256x8x64xf32>
    %884 = stablehlo.slice %arg147 [2:3] : (tensor<4xi32>) -> tensor<1xi32>
    %885 = stablehlo.reshape %884 : (tensor<1xi32>) -> tensor<i32>
    %886 = stablehlo.slice %867 [2:3, 0:8, 0:64] : (tensor<4x8x64xf32>) -> tensor<1x8x64xf32>
    %887 = stablehlo.reshape %886 : (tensor<1x8x64xf32>) -> tensor<1x1x1x8x64xf32>
    %888 = stablehlo.dynamic_update_slice %880, %887, %28, %17, %885, %9, %9 : (tensor<4x16x256x8x64xf32>, tensor<1x1x1x8x64xf32>, tensor<i32>, tensor<i32>, tensor<i32>, tensor<i32>, tensor<i32>) -> tensor<4x16x256x8x64xf32>
    %889 = stablehlo.slice %849 [2:3, 0:8, 0:64] : (tensor<4x8x64xf32>) -> tensor<1x8x64xf32>
    %890 = stablehlo.reshape %889 : (tensor<1x8x64xf32>) -> tensor<1x1x1x8x64xf32>
    %891 = stablehlo.dynamic_update_slice %883, %890, %28, %17, %885, %9, %9 : (tensor<4x16x256x8x64xf32>, tensor<1x1x1x8x64xf32>, tensor<i32>, tensor<i32>, tensor<i32>, tensor<i32>, tensor<i32>) -> tensor<4x16x256x8x64xf32>
    %892 = stablehlo.slice %arg147 [3:4] : (tensor<4xi32>) -> tensor<1xi32>
    %893 = stablehlo.reshape %892 : (tensor<1xi32>) -> tensor<i32>
    %894 = stablehlo.slice %867 [3:4, 0:8, 0:64] : (tensor<4x8x64xf32>) -> tensor<1x8x64xf32>
    %895 = stablehlo.reshape %894 : (tensor<1x8x64xf32>) -> tensor<1x1x1x8x64xf32>
    %896 = stablehlo.dynamic_update_slice %888, %895, %29, %17, %893, %9, %9 : (tensor<4x16x256x8x64xf32>, tensor<1x1x1x8x64xf32>, tensor<i32>, tensor<i32>, tensor<i32>, tensor<i32>, tensor<i32>) -> tensor<4x16x256x8x64xf32>
    %897 = stablehlo.slice %849 [3:4, 0:8, 0:64] : (tensor<4x8x64xf32>) -> tensor<1x8x64xf32>
    %898 = stablehlo.reshape %897 : (tensor<1x8x64xf32>) -> tensor<1x1x1x8x64xf32>
    %899 = stablehlo.dynamic_update_slice %891, %898, %29, %17, %893, %9, %9 : (tensor<4x16x256x8x64xf32>, tensor<1x1x1x8x64xf32>, tensor<i32>, tensor<i32>, tensor<i32>, tensor<i32>, tensor<i32>) -> tensor<4x16x256x8x64xf32>
    %900 = stablehlo.slice %896 [0:4, 7:8, 0:256, 0:8, 0:64] : (tensor<4x16x256x8x64xf32>) -> tensor<4x1x256x8x64xf32>
    %901 = stablehlo.reshape %900 : (tensor<4x1x256x8x64xf32>) -> tensor<4x256x8x64xf32>
    %902 = stablehlo.slice %899 [0:4, 7:8, 0:256, 0:8, 0:64] : (tensor<4x16x256x8x64xf32>) -> tensor<4x1x256x8x64xf32>
    %903 = stablehlo.reshape %902 : (tensor<4x1x256x8x64xf32>) -> tensor<4x256x8x64xf32>
    %904 = stablehlo.reshape %858 : (tensor<4x32x64xf32>) -> tensor<4x8x4x64xf32>
    %905 = stablehlo.dot_general %904, %901, batching_dims = [0, 1] x [0, 2], contracting_dims = [3] x [3] : (tensor<4x8x4x64xf32>, tensor<4x256x8x64xf32>) -> tensor<4x8x4x256xf32>
    %906 = stablehlo.reshape %905 : (tensor<4x8x4x256xf32>) -> tensor<4x32x256xf32>
    %907 = stablehlo.broadcast_in_dim %8, dims = [] : (tensor<f32>) -> tensor<4x32x256xf32>
    %908 = stablehlo.multiply %906, %907 : tensor<4x32x256xf32>
    %909 = stablehlo.broadcast_in_dim %41, dims = [0, 2] : (tensor<4x256xf32>) -> tensor<4x32x256xf32>
    %910 = stablehlo.add %908, %909 : tensor<4x32x256xf32>
    %911 = stablehlo.reduce(%910 init: %4) applies stablehlo.maximum across dimensions = [2] : (tensor<4x32x256xf32>, tensor<f32>) -> tensor<4x32xf32>
    %912 = stablehlo.broadcast_in_dim %911, dims = [0, 1] : (tensor<4x32xf32>) -> tensor<4x32x256xf32>
    %913 = stablehlo.subtract %910, %912 : tensor<4x32x256xf32>
    %914 = stablehlo.exponential %913 : tensor<4x32x256xf32>
    %915 = stablehlo.reduce(%914 init: %2) applies stablehlo.add across dimensions = [2] : (tensor<4x32x256xf32>, tensor<f32>) -> tensor<4x32xf32>
    %916 = stablehlo.broadcast_in_dim %915, dims = [0, 1] : (tensor<4x32xf32>) -> tensor<4x32x256xf32>
    %917 = stablehlo.divide %914, %916 : tensor<4x32x256xf32>
    %918 = stablehlo.reshape %917 : (tensor<4x32x256xf32>) -> tensor<4x8x4x256xf32>
    %919 = stablehlo.dot_general %918, %903, batching_dims = [0, 1] x [0, 2], contracting_dims = [3] x [1] : (tensor<4x8x4x256xf32>, tensor<4x256x8x64xf32>) -> tensor<4x8x4x64xf32>
    %920 = stablehlo.reshape %919 : (tensor<4x8x4x64xf32>) -> tensor<4x32x64xf32>
    %921 = stablehlo.reshape %920 : (tensor<4x32x64xf32>) -> tensor<4x2048xf32>
    %922 = stablehlo.dot_general %921, %arg71, contracting_dims = [1] x [1] : (tensor<4x2048xf32>, tensor<2048x2048xf32>) -> tensor<4x2048xf32>
    %923 = stablehlo.add %832, %922 : tensor<4x2048xf32>
    %924 = stablehlo.multiply %923, %923 : tensor<4x2048xf32>
    %925 = stablehlo.reduce(%924 init: %2) applies stablehlo.add across dimensions = [1] : (tensor<4x2048xf32>, tensor<f32>) -> tensor<4xf32>
    %926 = stablehlo.broadcast_in_dim %7, dims = [] : (tensor<f32>) -> tensor<4xf32>
    %927 = stablehlo.divide %925, %926 : tensor<4xf32>
    %928 = stablehlo.broadcast_in_dim %6, dims = [] : (tensor<f32>) -> tensor<4xf32>
    %929 = stablehlo.add %927, %928 : tensor<4xf32>
    %930 = stablehlo.rsqrt %929 : tensor<4xf32>
    %931 = stablehlo.broadcast_in_dim %930, dims = [0] : (tensor<4xf32>) -> tensor<4x2048xf32>
    %932 = stablehlo.multiply %923, %931 : tensor<4x2048xf32>
    %933 = stablehlo.broadcast_in_dim %arg68, dims = [1] : (tensor<2048xf32>) -> tensor<4x2048xf32>
    %934 = stablehlo.multiply %932, %933 : tensor<4x2048xf32>
    %935 = stablehlo.dot_general %934, %arg66, contracting_dims = [1] x [1] : (tensor<4x2048xf32>, tensor<8192x2048xf32>) -> tensor<4x8192xf32>
    %936 = stablehlo.dot_general %934, %arg69, contracting_dims = [1] x [1] : (tensor<4x2048xf32>, tensor<8192x2048xf32>) -> tensor<4x8192xf32>
    %937 = stablehlo.negate %935 : tensor<4x8192xf32>
    %938 = stablehlo.exponential %937 : tensor<4x8192xf32>
    %939 = stablehlo.broadcast_in_dim %3, dims = [] : (tensor<f32>) -> tensor<4x8192xf32>
    %940 = stablehlo.add %939, %938 : tensor<4x8192xf32>
    %941 = stablehlo.divide %939, %940 : tensor<4x8192xf32>
    %942 = stablehlo.multiply %935, %941 : tensor<4x8192xf32>
    %943 = stablehlo.multiply %942, %936 : tensor<4x8192xf32>
    %944 = stablehlo.dot_general %943, %arg65, contracting_dims = [1] x [1] : (tensor<4x8192xf32>, tensor<2048x8192xf32>) -> tensor<4x2048xf32>
    %945 = stablehlo.add %923, %944 : tensor<4x2048xf32>
    %946 = stablehlo.multiply %945, %945 : tensor<4x2048xf32>
    %947 = stablehlo.reduce(%946 init: %2) applies stablehlo.add across dimensions = [1] : (tensor<4x2048xf32>, tensor<f32>) -> tensor<4xf32>
    %948 = stablehlo.broadcast_in_dim %7, dims = [] : (tensor<f32>) -> tensor<4xf32>
    %949 = stablehlo.divide %947, %948 : tensor<4xf32>
    %950 = stablehlo.broadcast_in_dim %6, dims = [] : (tensor<f32>) -> tensor<4xf32>
    %951 = stablehlo.add %949, %950 : tensor<4xf32>
    %952 = stablehlo.rsqrt %951 : tensor<4xf32>
    %953 = stablehlo.broadcast_in_dim %952, dims = [0] : (tensor<4xf32>) -> tensor<4x2048xf32>
    %954 = stablehlo.multiply %945, %953 : tensor<4x2048xf32>
    %955 = stablehlo.broadcast_in_dim %arg76, dims = [1] : (tensor<2048xf32>) -> tensor<4x2048xf32>
    %956 = stablehlo.multiply %954, %955 : tensor<4x2048xf32>
    %957 = stablehlo.dot_general %956, %arg81, contracting_dims = [1] x [1] : (tensor<4x2048xf32>, tensor<2048x2048xf32>) -> tensor<4x2048xf32>
    %958 = stablehlo.reshape %957 : (tensor<4x2048xf32>) -> tensor<4x32x64xf32>
    %959 = stablehlo.dot_general %956, %arg79, contracting_dims = [1] x [1] : (tensor<4x2048xf32>, tensor<512x2048xf32>) -> tensor<4x512xf32>
    %960 = stablehlo.reshape %959 : (tensor<4x512xf32>) -> tensor<4x8x64xf32>
    %961 = stablehlo.dot_general %956, %arg82, contracting_dims = [1] x [1] : (tensor<4x2048xf32>, tensor<512x2048xf32>) -> tensor<4x512xf32>
    %962 = stablehlo.reshape %961 : (tensor<4x512xf32>) -> tensor<4x8x64xf32>
    %963 = stablehlo.broadcast_in_dim %33, dims = [0, 2] : (tensor<4x64xf32>) -> tensor<4x32x64xf32>
    %964 = stablehlo.broadcast_in_dim %34, dims = [0, 2] : (tensor<4x64xf32>) -> tensor<4x32x64xf32>
    %965 = stablehlo.multiply %958, %963 : tensor<4x32x64xf32>
    %966 = stablehlo.slice %958 [0:4, 0:32, 0:32] : (tensor<4x32x64xf32>) -> tensor<4x32x32xf32>
    %967 = stablehlo.slice %958 [0:4, 0:32, 32:64] : (tensor<4x32x64xf32>) -> tensor<4x32x32xf32>
    %968 = stablehlo.negate %967 : tensor<4x32x32xf32>
    %969 = stablehlo.concatenate %968, %966, dim = 2 : (tensor<4x32x32xf32>, tensor<4x32x32xf32>) -> tensor<4x32x64xf32>
    %970 = stablehlo.multiply %969, %964 : tensor<4x32x64xf32>
    %971 = stablehlo.add %965, %970 : tensor<4x32x64xf32>
    %972 = stablehlo.broadcast_in_dim %33, dims = [0, 2] : (tensor<4x64xf32>) -> tensor<4x8x64xf32>
    %973 = stablehlo.broadcast_in_dim %34, dims = [0, 2] : (tensor<4x64xf32>) -> tensor<4x8x64xf32>
    %974 = stablehlo.multiply %960, %972 : tensor<4x8x64xf32>
    %975 = stablehlo.slice %960 [0:4, 0:8, 0:32] : (tensor<4x8x64xf32>) -> tensor<4x8x32xf32>
    %976 = stablehlo.slice %960 [0:4, 0:8, 32:64] : (tensor<4x8x64xf32>) -> tensor<4x8x32xf32>
    %977 = stablehlo.negate %976 : tensor<4x8x32xf32>
    %978 = stablehlo.concatenate %977, %975, dim = 2 : (tensor<4x8x32xf32>, tensor<4x8x32xf32>) -> tensor<4x8x64xf32>
    %979 = stablehlo.multiply %978, %973 : tensor<4x8x64xf32>
    %980 = stablehlo.add %974, %979 : tensor<4x8x64xf32>
    %981 = stablehlo.slice %arg147 [0:1] : (tensor<4xi32>) -> tensor<1xi32>
    %982 = stablehlo.reshape %981 : (tensor<1xi32>) -> tensor<i32>
    %983 = stablehlo.slice %980 [0:1, 0:8, 0:64] : (tensor<4x8x64xf32>) -> tensor<1x8x64xf32>
    %984 = stablehlo.reshape %983 : (tensor<1x8x64xf32>) -> tensor<1x1x1x8x64xf32>
    %985 = stablehlo.dynamic_update_slice %896, %984, %26, %18, %982, %9, %9 : (tensor<4x16x256x8x64xf32>, tensor<1x1x1x8x64xf32>, tensor<i32>, tensor<i32>, tensor<i32>, tensor<i32>, tensor<i32>) -> tensor<4x16x256x8x64xf32>
    %986 = stablehlo.slice %962 [0:1, 0:8, 0:64] : (tensor<4x8x64xf32>) -> tensor<1x8x64xf32>
    %987 = stablehlo.reshape %986 : (tensor<1x8x64xf32>) -> tensor<1x1x1x8x64xf32>
    %988 = stablehlo.dynamic_update_slice %899, %987, %26, %18, %982, %9, %9 : (tensor<4x16x256x8x64xf32>, tensor<1x1x1x8x64xf32>, tensor<i32>, tensor<i32>, tensor<i32>, tensor<i32>, tensor<i32>) -> tensor<4x16x256x8x64xf32>
    %989 = stablehlo.slice %arg147 [1:2] : (tensor<4xi32>) -> tensor<1xi32>
    %990 = stablehlo.reshape %989 : (tensor<1xi32>) -> tensor<i32>
    %991 = stablehlo.slice %980 [1:2, 0:8, 0:64] : (tensor<4x8x64xf32>) -> tensor<1x8x64xf32>
    %992 = stablehlo.reshape %991 : (tensor<1x8x64xf32>) -> tensor<1x1x1x8x64xf32>
    %993 = stablehlo.dynamic_update_slice %985, %992, %27, %18, %990, %9, %9 : (tensor<4x16x256x8x64xf32>, tensor<1x1x1x8x64xf32>, tensor<i32>, tensor<i32>, tensor<i32>, tensor<i32>, tensor<i32>) -> tensor<4x16x256x8x64xf32>
    %994 = stablehlo.slice %962 [1:2, 0:8, 0:64] : (tensor<4x8x64xf32>) -> tensor<1x8x64xf32>
    %995 = stablehlo.reshape %994 : (tensor<1x8x64xf32>) -> tensor<1x1x1x8x64xf32>
    %996 = stablehlo.dynamic_update_slice %988, %995, %27, %18, %990, %9, %9 : (tensor<4x16x256x8x64xf32>, tensor<1x1x1x8x64xf32>, tensor<i32>, tensor<i32>, tensor<i32>, tensor<i32>, tensor<i32>) -> tensor<4x16x256x8x64xf32>
    %997 = stablehlo.slice %arg147 [2:3] : (tensor<4xi32>) -> tensor<1xi32>
    %998 = stablehlo.reshape %997 : (tensor<1xi32>) -> tensor<i32>
    %999 = stablehlo.slice %980 [2:3, 0:8, 0:64] : (tensor<4x8x64xf32>) -> tensor<1x8x64xf32>
    %1000 = stablehlo.reshape %999 : (tensor<1x8x64xf32>) -> tensor<1x1x1x8x64xf32>
    %1001 = stablehlo.dynamic_update_slice %993, %1000, %28, %18, %998, %9, %9 : (tensor<4x16x256x8x64xf32>, tensor<1x1x1x8x64xf32>, tensor<i32>, tensor<i32>, tensor<i32>, tensor<i32>, tensor<i32>) -> tensor<4x16x256x8x64xf32>
    %1002 = stablehlo.slice %962 [2:3, 0:8, 0:64] : (tensor<4x8x64xf32>) -> tensor<1x8x64xf32>
    %1003 = stablehlo.reshape %1002 : (tensor<1x8x64xf32>) -> tensor<1x1x1x8x64xf32>
    %1004 = stablehlo.dynamic_update_slice %996, %1003, %28, %18, %998, %9, %9 : (tensor<4x16x256x8x64xf32>, tensor<1x1x1x8x64xf32>, tensor<i32>, tensor<i32>, tensor<i32>, tensor<i32>, tensor<i32>) -> tensor<4x16x256x8x64xf32>
    %1005 = stablehlo.slice %arg147 [3:4] : (tensor<4xi32>) -> tensor<1xi32>
    %1006 = stablehlo.reshape %1005 : (tensor<1xi32>) -> tensor<i32>
    %1007 = stablehlo.slice %980 [3:4, 0:8, 0:64] : (tensor<4x8x64xf32>) -> tensor<1x8x64xf32>
    %1008 = stablehlo.reshape %1007 : (tensor<1x8x64xf32>) -> tensor<1x1x1x8x64xf32>
    %1009 = stablehlo.dynamic_update_slice %1001, %1008, %29, %18, %1006, %9, %9 : (tensor<4x16x256x8x64xf32>, tensor<1x1x1x8x64xf32>, tensor<i32>, tensor<i32>, tensor<i32>, tensor<i32>, tensor<i32>) -> tensor<4x16x256x8x64xf32>
    %1010 = stablehlo.slice %962 [3:4, 0:8, 0:64] : (tensor<4x8x64xf32>) -> tensor<1x8x64xf32>
    %1011 = stablehlo.reshape %1010 : (tensor<1x8x64xf32>) -> tensor<1x1x1x8x64xf32>
    %1012 = stablehlo.dynamic_update_slice %1004, %1011, %29, %18, %1006, %9, %9 : (tensor<4x16x256x8x64xf32>, tensor<1x1x1x8x64xf32>, tensor<i32>, tensor<i32>, tensor<i32>, tensor<i32>, tensor<i32>) -> tensor<4x16x256x8x64xf32>
    %1013 = stablehlo.slice %1009 [0:4, 8:9, 0:256, 0:8, 0:64] : (tensor<4x16x256x8x64xf32>) -> tensor<4x1x256x8x64xf32>
    %1014 = stablehlo.reshape %1013 : (tensor<4x1x256x8x64xf32>) -> tensor<4x256x8x64xf32>
    %1015 = stablehlo.slice %1012 [0:4, 8:9, 0:256, 0:8, 0:64] : (tensor<4x16x256x8x64xf32>) -> tensor<4x1x256x8x64xf32>
    %1016 = stablehlo.reshape %1015 : (tensor<4x1x256x8x64xf32>) -> tensor<4x256x8x64xf32>
    %1017 = stablehlo.reshape %971 : (tensor<4x32x64xf32>) -> tensor<4x8x4x64xf32>
    %1018 = stablehlo.dot_general %1017, %1014, batching_dims = [0, 1] x [0, 2], contracting_dims = [3] x [3] : (tensor<4x8x4x64xf32>, tensor<4x256x8x64xf32>) -> tensor<4x8x4x256xf32>
    %1019 = stablehlo.reshape %1018 : (tensor<4x8x4x256xf32>) -> tensor<4x32x256xf32>
    %1020 = stablehlo.broadcast_in_dim %8, dims = [] : (tensor<f32>) -> tensor<4x32x256xf32>
    %1021 = stablehlo.multiply %1019, %1020 : tensor<4x32x256xf32>
    %1022 = stablehlo.broadcast_in_dim %41, dims = [0, 2] : (tensor<4x256xf32>) -> tensor<4x32x256xf32>
    %1023 = stablehlo.add %1021, %1022 : tensor<4x32x256xf32>
    %1024 = stablehlo.reduce(%1023 init: %4) applies stablehlo.maximum across dimensions = [2] : (tensor<4x32x256xf32>, tensor<f32>) -> tensor<4x32xf32>
    %1025 = stablehlo.broadcast_in_dim %1024, dims = [0, 1] : (tensor<4x32xf32>) -> tensor<4x32x256xf32>
    %1026 = stablehlo.subtract %1023, %1025 : tensor<4x32x256xf32>
    %1027 = stablehlo.exponential %1026 : tensor<4x32x256xf32>
    %1028 = stablehlo.reduce(%1027 init: %2) applies stablehlo.add across dimensions = [2] : (tensor<4x32x256xf32>, tensor<f32>) -> tensor<4x32xf32>
    %1029 = stablehlo.broadcast_in_dim %1028, dims = [0, 1] : (tensor<4x32xf32>) -> tensor<4x32x256xf32>
    %1030 = stablehlo.divide %1027, %1029 : tensor<4x32x256xf32>
    %1031 = stablehlo.reshape %1030 : (tensor<4x32x256xf32>) -> tensor<4x8x4x256xf32>
    %1032 = stablehlo.dot_general %1031, %1016, batching_dims = [0, 1] x [0, 2], contracting_dims = [3] x [1] : (tensor<4x8x4x256xf32>, tensor<4x256x8x64xf32>) -> tensor<4x8x4x64xf32>
    %1033 = stablehlo.reshape %1032 : (tensor<4x8x4x64xf32>) -> tensor<4x32x64xf32>
    %1034 = stablehlo.reshape %1033 : (tensor<4x32x64xf32>) -> tensor<4x2048xf32>
    %1035 = stablehlo.dot_general %1034, %arg80, contracting_dims = [1] x [1] : (tensor<4x2048xf32>, tensor<2048x2048xf32>) -> tensor<4x2048xf32>
    %1036 = stablehlo.add %945, %1035 : tensor<4x2048xf32>
    %1037 = stablehlo.multiply %1036, %1036 : tensor<4x2048xf32>
    %1038 = stablehlo.reduce(%1037 init: %2) applies stablehlo.add across dimensions = [1] : (tensor<4x2048xf32>, tensor<f32>) -> tensor<4xf32>
    %1039 = stablehlo.broadcast_in_dim %7, dims = [] : (tensor<f32>) -> tensor<4xf32>
    %1040 = stablehlo.divide %1038, %1039 : tensor<4xf32>
    %1041 = stablehlo.broadcast_in_dim %6, dims = [] : (tensor<f32>) -> tensor<4xf32>
    %1042 = stablehlo.add %1040, %1041 : tensor<4xf32>
    %1043 = stablehlo.rsqrt %1042 : tensor<4xf32>
    %1044 = stablehlo.broadcast_in_dim %1043, dims = [0] : (tensor<4xf32>) -> tensor<4x2048xf32>
    %1045 = stablehlo.multiply %1036, %1044 : tensor<4x2048xf32>
    %1046 = stablehlo.broadcast_in_dim %arg77, dims = [1] : (tensor<2048xf32>) -> tensor<4x2048xf32>
    %1047 = stablehlo.multiply %1045, %1046 : tensor<4x2048xf32>
    %1048 = stablehlo.dot_general %1047, %arg75, contracting_dims = [1] x [1] : (tensor<4x2048xf32>, tensor<8192x2048xf32>) -> tensor<4x8192xf32>
    %1049 = stablehlo.dot_general %1047, %arg78, contracting_dims = [1] x [1] : (tensor<4x2048xf32>, tensor<8192x2048xf32>) -> tensor<4x8192xf32>
    %1050 = stablehlo.negate %1048 : tensor<4x8192xf32>
    %1051 = stablehlo.exponential %1050 : tensor<4x8192xf32>
    %1052 = stablehlo.broadcast_in_dim %3, dims = [] : (tensor<f32>) -> tensor<4x8192xf32>
    %1053 = stablehlo.add %1052, %1051 : tensor<4x8192xf32>
    %1054 = stablehlo.divide %1052, %1053 : tensor<4x8192xf32>
    %1055 = stablehlo.multiply %1048, %1054 : tensor<4x8192xf32>
    %1056 = stablehlo.multiply %1055, %1049 : tensor<4x8192xf32>
    %1057 = stablehlo.dot_general %1056, %arg74, contracting_dims = [1] x [1] : (tensor<4x8192xf32>, tensor<2048x8192xf32>) -> tensor<4x2048xf32>
    %1058 = stablehlo.add %1036, %1057 : tensor<4x2048xf32>
    %1059 = stablehlo.multiply %1058, %1058 : tensor<4x2048xf32>
    %1060 = stablehlo.reduce(%1059 init: %2) applies stablehlo.add across dimensions = [1] : (tensor<4x2048xf32>, tensor<f32>) -> tensor<4xf32>
    %1061 = stablehlo.broadcast_in_dim %7, dims = [] : (tensor<f32>) -> tensor<4xf32>
    %1062 = stablehlo.divide %1060, %1061 : tensor<4xf32>
    %1063 = stablehlo.broadcast_in_dim %6, dims = [] : (tensor<f32>) -> tensor<4xf32>
    %1064 = stablehlo.add %1062, %1063 : tensor<4xf32>
    %1065 = stablehlo.rsqrt %1064 : tensor<4xf32>
    %1066 = stablehlo.broadcast_in_dim %1065, dims = [0] : (tensor<4xf32>) -> tensor<4x2048xf32>
    %1067 = stablehlo.multiply %1058, %1066 : tensor<4x2048xf32>
    %1068 = stablehlo.broadcast_in_dim %arg85, dims = [1] : (tensor<2048xf32>) -> tensor<4x2048xf32>
    %1069 = stablehlo.multiply %1067, %1068 : tensor<4x2048xf32>
    %1070 = stablehlo.dot_general %1069, %arg90, contracting_dims = [1] x [1] : (tensor<4x2048xf32>, tensor<2048x2048xf32>) -> tensor<4x2048xf32>
    %1071 = stablehlo.reshape %1070 : (tensor<4x2048xf32>) -> tensor<4x32x64xf32>
    %1072 = stablehlo.dot_general %1069, %arg88, contracting_dims = [1] x [1] : (tensor<4x2048xf32>, tensor<512x2048xf32>) -> tensor<4x512xf32>
    %1073 = stablehlo.reshape %1072 : (tensor<4x512xf32>) -> tensor<4x8x64xf32>
    %1074 = stablehlo.dot_general %1069, %arg91, contracting_dims = [1] x [1] : (tensor<4x2048xf32>, tensor<512x2048xf32>) -> tensor<4x512xf32>
    %1075 = stablehlo.reshape %1074 : (tensor<4x512xf32>) -> tensor<4x8x64xf32>
    %1076 = stablehlo.broadcast_in_dim %33, dims = [0, 2] : (tensor<4x64xf32>) -> tensor<4x32x64xf32>
    %1077 = stablehlo.broadcast_in_dim %34, dims = [0, 2] : (tensor<4x64xf32>) -> tensor<4x32x64xf32>
    %1078 = stablehlo.multiply %1071, %1076 : tensor<4x32x64xf32>
    %1079 = stablehlo.slice %1071 [0:4, 0:32, 0:32] : (tensor<4x32x64xf32>) -> tensor<4x32x32xf32>
    %1080 = stablehlo.slice %1071 [0:4, 0:32, 32:64] : (tensor<4x32x64xf32>) -> tensor<4x32x32xf32>
    %1081 = stablehlo.negate %1080 : tensor<4x32x32xf32>
    %1082 = stablehlo.concatenate %1081, %1079, dim = 2 : (tensor<4x32x32xf32>, tensor<4x32x32xf32>) -> tensor<4x32x64xf32>
    %1083 = stablehlo.multiply %1082, %1077 : tensor<4x32x64xf32>
    %1084 = stablehlo.add %1078, %1083 : tensor<4x32x64xf32>
    %1085 = stablehlo.broadcast_in_dim %33, dims = [0, 2] : (tensor<4x64xf32>) -> tensor<4x8x64xf32>
    %1086 = stablehlo.broadcast_in_dim %34, dims = [0, 2] : (tensor<4x64xf32>) -> tensor<4x8x64xf32>
    %1087 = stablehlo.multiply %1073, %1085 : tensor<4x8x64xf32>
    %1088 = stablehlo.slice %1073 [0:4, 0:8, 0:32] : (tensor<4x8x64xf32>) -> tensor<4x8x32xf32>
    %1089 = stablehlo.slice %1073 [0:4, 0:8, 32:64] : (tensor<4x8x64xf32>) -> tensor<4x8x32xf32>
    %1090 = stablehlo.negate %1089 : tensor<4x8x32xf32>
    %1091 = stablehlo.concatenate %1090, %1088, dim = 2 : (tensor<4x8x32xf32>, tensor<4x8x32xf32>) -> tensor<4x8x64xf32>
    %1092 = stablehlo.multiply %1091, %1086 : tensor<4x8x64xf32>
    %1093 = stablehlo.add %1087, %1092 : tensor<4x8x64xf32>
    %1094 = stablehlo.slice %arg147 [0:1] : (tensor<4xi32>) -> tensor<1xi32>
    %1095 = stablehlo.reshape %1094 : (tensor<1xi32>) -> tensor<i32>
    %1096 = stablehlo.slice %1093 [0:1, 0:8, 0:64] : (tensor<4x8x64xf32>) -> tensor<1x8x64xf32>
    %1097 = stablehlo.reshape %1096 : (tensor<1x8x64xf32>) -> tensor<1x1x1x8x64xf32>
    %1098 = stablehlo.dynamic_update_slice %1009, %1097, %26, %19, %1095, %9, %9 : (tensor<4x16x256x8x64xf32>, tensor<1x1x1x8x64xf32>, tensor<i32>, tensor<i32>, tensor<i32>, tensor<i32>, tensor<i32>) -> tensor<4x16x256x8x64xf32>
    %1099 = stablehlo.slice %1075 [0:1, 0:8, 0:64] : (tensor<4x8x64xf32>) -> tensor<1x8x64xf32>
    %1100 = stablehlo.reshape %1099 : (tensor<1x8x64xf32>) -> tensor<1x1x1x8x64xf32>
    %1101 = stablehlo.dynamic_update_slice %1012, %1100, %26, %19, %1095, %9, %9 : (tensor<4x16x256x8x64xf32>, tensor<1x1x1x8x64xf32>, tensor<i32>, tensor<i32>, tensor<i32>, tensor<i32>, tensor<i32>) -> tensor<4x16x256x8x64xf32>
    %1102 = stablehlo.slice %arg147 [1:2] : (tensor<4xi32>) -> tensor<1xi32>
    %1103 = stablehlo.reshape %1102 : (tensor<1xi32>) -> tensor<i32>
    %1104 = stablehlo.slice %1093 [1:2, 0:8, 0:64] : (tensor<4x8x64xf32>) -> tensor<1x8x64xf32>
    %1105 = stablehlo.reshape %1104 : (tensor<1x8x64xf32>) -> tensor<1x1x1x8x64xf32>
    %1106 = stablehlo.dynamic_update_slice %1098, %1105, %27, %19, %1103, %9, %9 : (tensor<4x16x256x8x64xf32>, tensor<1x1x1x8x64xf32>, tensor<i32>, tensor<i32>, tensor<i32>, tensor<i32>, tensor<i32>) -> tensor<4x16x256x8x64xf32>
    %1107 = stablehlo.slice %1075 [1:2, 0:8, 0:64] : (tensor<4x8x64xf32>) -> tensor<1x8x64xf32>
    %1108 = stablehlo.reshape %1107 : (tensor<1x8x64xf32>) -> tensor<1x1x1x8x64xf32>
    %1109 = stablehlo.dynamic_update_slice %1101, %1108, %27, %19, %1103, %9, %9 : (tensor<4x16x256x8x64xf32>, tensor<1x1x1x8x64xf32>, tensor<i32>, tensor<i32>, tensor<i32>, tensor<i32>, tensor<i32>) -> tensor<4x16x256x8x64xf32>
    %1110 = stablehlo.slice %arg147 [2:3] : (tensor<4xi32>) -> tensor<1xi32>
    %1111 = stablehlo.reshape %1110 : (tensor<1xi32>) -> tensor<i32>
    %1112 = stablehlo.slice %1093 [2:3, 0:8, 0:64] : (tensor<4x8x64xf32>) -> tensor<1x8x64xf32>
    %1113 = stablehlo.reshape %1112 : (tensor<1x8x64xf32>) -> tensor<1x1x1x8x64xf32>
    %1114 = stablehlo.dynamic_update_slice %1106, %1113, %28, %19, %1111, %9, %9 : (tensor<4x16x256x8x64xf32>, tensor<1x1x1x8x64xf32>, tensor<i32>, tensor<i32>, tensor<i32>, tensor<i32>, tensor<i32>) -> tensor<4x16x256x8x64xf32>
    %1115 = stablehlo.slice %1075 [2:3, 0:8, 0:64] : (tensor<4x8x64xf32>) -> tensor<1x8x64xf32>
    %1116 = stablehlo.reshape %1115 : (tensor<1x8x64xf32>) -> tensor<1x1x1x8x64xf32>
    %1117 = stablehlo.dynamic_update_slice %1109, %1116, %28, %19, %1111, %9, %9 : (tensor<4x16x256x8x64xf32>, tensor<1x1x1x8x64xf32>, tensor<i32>, tensor<i32>, tensor<i32>, tensor<i32>, tensor<i32>) -> tensor<4x16x256x8x64xf32>
    %1118 = stablehlo.slice %arg147 [3:4] : (tensor<4xi32>) -> tensor<1xi32>
    %1119 = stablehlo.reshape %1118 : (tensor<1xi32>) -> tensor<i32>
    %1120 = stablehlo.slice %1093 [3:4, 0:8, 0:64] : (tensor<4x8x64xf32>) -> tensor<1x8x64xf32>
    %1121 = stablehlo.reshape %1120 : (tensor<1x8x64xf32>) -> tensor<1x1x1x8x64xf32>
    %1122 = stablehlo.dynamic_update_slice %1114, %1121, %29, %19, %1119, %9, %9 : (tensor<4x16x256x8x64xf32>, tensor<1x1x1x8x64xf32>, tensor<i32>, tensor<i32>, tensor<i32>, tensor<i32>, tensor<i32>) -> tensor<4x16x256x8x64xf32>
    %1123 = stablehlo.slice %1075 [3:4, 0:8, 0:64] : (tensor<4x8x64xf32>) -> tensor<1x8x64xf32>
    %1124 = stablehlo.reshape %1123 : (tensor<1x8x64xf32>) -> tensor<1x1x1x8x64xf32>
    %1125 = stablehlo.dynamic_update_slice %1117, %1124, %29, %19, %1119, %9, %9 : (tensor<4x16x256x8x64xf32>, tensor<1x1x1x8x64xf32>, tensor<i32>, tensor<i32>, tensor<i32>, tensor<i32>, tensor<i32>) -> tensor<4x16x256x8x64xf32>
    %1126 = stablehlo.slice %1122 [0:4, 9:10, 0:256, 0:8, 0:64] : (tensor<4x16x256x8x64xf32>) -> tensor<4x1x256x8x64xf32>
    %1127 = stablehlo.reshape %1126 : (tensor<4x1x256x8x64xf32>) -> tensor<4x256x8x64xf32>
    %1128 = stablehlo.slice %1125 [0:4, 9:10, 0:256, 0:8, 0:64] : (tensor<4x16x256x8x64xf32>) -> tensor<4x1x256x8x64xf32>
    %1129 = stablehlo.reshape %1128 : (tensor<4x1x256x8x64xf32>) -> tensor<4x256x8x64xf32>
    %1130 = stablehlo.reshape %1084 : (tensor<4x32x64xf32>) -> tensor<4x8x4x64xf32>
    %1131 = stablehlo.dot_general %1130, %1127, batching_dims = [0, 1] x [0, 2], contracting_dims = [3] x [3] : (tensor<4x8x4x64xf32>, tensor<4x256x8x64xf32>) -> tensor<4x8x4x256xf32>
    %1132 = stablehlo.reshape %1131 : (tensor<4x8x4x256xf32>) -> tensor<4x32x256xf32>
    %1133 = stablehlo.broadcast_in_dim %8, dims = [] : (tensor<f32>) -> tensor<4x32x256xf32>
    %1134 = stablehlo.multiply %1132, %1133 : tensor<4x32x256xf32>
    %1135 = stablehlo.broadcast_in_dim %41, dims = [0, 2] : (tensor<4x256xf32>) -> tensor<4x32x256xf32>
    %1136 = stablehlo.add %1134, %1135 : tensor<4x32x256xf32>
    %1137 = stablehlo.reduce(%1136 init: %4) applies stablehlo.maximum across dimensions = [2] : (tensor<4x32x256xf32>, tensor<f32>) -> tensor<4x32xf32>
    %1138 = stablehlo.broadcast_in_dim %1137, dims = [0, 1] : (tensor<4x32xf32>) -> tensor<4x32x256xf32>
    %1139 = stablehlo.subtract %1136, %1138 : tensor<4x32x256xf32>
    %1140 = stablehlo.exponential %1139 : tensor<4x32x256xf32>
    %1141 = stablehlo.reduce(%1140 init: %2) applies stablehlo.add across dimensions = [2] : (tensor<4x32x256xf32>, tensor<f32>) -> tensor<4x32xf32>
    %1142 = stablehlo.broadcast_in_dim %1141, dims = [0, 1] : (tensor<4x32xf32>) -> tensor<4x32x256xf32>
    %1143 = stablehlo.divide %1140, %1142 : tensor<4x32x256xf32>
    %1144 = stablehlo.reshape %1143 : (tensor<4x32x256xf32>) -> tensor<4x8x4x256xf32>
    %1145 = stablehlo.dot_general %1144, %1129, batching_dims = [0, 1] x [0, 2], contracting_dims = [3] x [1] : (tensor<4x8x4x256xf32>, tensor<4x256x8x64xf32>) -> tensor<4x8x4x64xf32>
    %1146 = stablehlo.reshape %1145 : (tensor<4x8x4x64xf32>) -> tensor<4x32x64xf32>
    %1147 = stablehlo.reshape %1146 : (tensor<4x32x64xf32>) -> tensor<4x2048xf32>
    %1148 = stablehlo.dot_general %1147, %arg89, contracting_dims = [1] x [1] : (tensor<4x2048xf32>, tensor<2048x2048xf32>) -> tensor<4x2048xf32>
    %1149 = stablehlo.add %1058, %1148 : tensor<4x2048xf32>
    %1150 = stablehlo.multiply %1149, %1149 : tensor<4x2048xf32>
    %1151 = stablehlo.reduce(%1150 init: %2) applies stablehlo.add across dimensions = [1] : (tensor<4x2048xf32>, tensor<f32>) -> tensor<4xf32>
    %1152 = stablehlo.broadcast_in_dim %7, dims = [] : (tensor<f32>) -> tensor<4xf32>
    %1153 = stablehlo.divide %1151, %1152 : tensor<4xf32>
    %1154 = stablehlo.broadcast_in_dim %6, dims = [] : (tensor<f32>) -> tensor<4xf32>
    %1155 = stablehlo.add %1153, %1154 : tensor<4xf32>
    %1156 = stablehlo.rsqrt %1155 : tensor<4xf32>
    %1157 = stablehlo.broadcast_in_dim %1156, dims = [0] : (tensor<4xf32>) -> tensor<4x2048xf32>
    %1158 = stablehlo.multiply %1149, %1157 : tensor<4x2048xf32>
    %1159 = stablehlo.broadcast_in_dim %arg86, dims = [1] : (tensor<2048xf32>) -> tensor<4x2048xf32>
    %1160 = stablehlo.multiply %1158, %1159 : tensor<4x2048xf32>
    %1161 = stablehlo.dot_general %1160, %arg84, contracting_dims = [1] x [1] : (tensor<4x2048xf32>, tensor<8192x2048xf32>) -> tensor<4x8192xf32>
    %1162 = stablehlo.dot_general %1160, %arg87, contracting_dims = [1] x [1] : (tensor<4x2048xf32>, tensor<8192x2048xf32>) -> tensor<4x8192xf32>
    %1163 = stablehlo.negate %1161 : tensor<4x8192xf32>
    %1164 = stablehlo.exponential %1163 : tensor<4x8192xf32>
    %1165 = stablehlo.broadcast_in_dim %3, dims = [] : (tensor<f32>) -> tensor<4x8192xf32>
    %1166 = stablehlo.add %1165, %1164 : tensor<4x8192xf32>
    %1167 = stablehlo.divide %1165, %1166 : tensor<4x8192xf32>
    %1168 = stablehlo.multiply %1161, %1167 : tensor<4x8192xf32>
    %1169 = stablehlo.multiply %1168, %1162 : tensor<4x8192xf32>
    %1170 = stablehlo.dot_general %1169, %arg83, contracting_dims = [1] x [1] : (tensor<4x8192xf32>, tensor<2048x8192xf32>) -> tensor<4x2048xf32>
    %1171 = stablehlo.add %1149, %1170 : tensor<4x2048xf32>
    %1172 = stablehlo.multiply %1171, %1171 : tensor<4x2048xf32>
    %1173 = stablehlo.reduce(%1172 init: %2) applies stablehlo.add across dimensions = [1] : (tensor<4x2048xf32>, tensor<f32>) -> tensor<4xf32>
    %1174 = stablehlo.broadcast_in_dim %7, dims = [] : (tensor<f32>) -> tensor<4xf32>
    %1175 = stablehlo.divide %1173, %1174 : tensor<4xf32>
    %1176 = stablehlo.broadcast_in_dim %6, dims = [] : (tensor<f32>) -> tensor<4xf32>
    %1177 = stablehlo.add %1175, %1176 : tensor<4xf32>
    %1178 = stablehlo.rsqrt %1177 : tensor<4xf32>
    %1179 = stablehlo.broadcast_in_dim %1178, dims = [0] : (tensor<4xf32>) -> tensor<4x2048xf32>
    %1180 = stablehlo.multiply %1171, %1179 : tensor<4x2048xf32>
    %1181 = stablehlo.broadcast_in_dim %arg94, dims = [1] : (tensor<2048xf32>) -> tensor<4x2048xf32>
    %1182 = stablehlo.multiply %1180, %1181 : tensor<4x2048xf32>
    %1183 = stablehlo.dot_general %1182, %arg99, contracting_dims = [1] x [1] : (tensor<4x2048xf32>, tensor<2048x2048xf32>) -> tensor<4x2048xf32>
    %1184 = stablehlo.reshape %1183 : (tensor<4x2048xf32>) -> tensor<4x32x64xf32>
    %1185 = stablehlo.dot_general %1182, %arg97, contracting_dims = [1] x [1] : (tensor<4x2048xf32>, tensor<512x2048xf32>) -> tensor<4x512xf32>
    %1186 = stablehlo.reshape %1185 : (tensor<4x512xf32>) -> tensor<4x8x64xf32>
    %1187 = stablehlo.dot_general %1182, %arg100, contracting_dims = [1] x [1] : (tensor<4x2048xf32>, tensor<512x2048xf32>) -> tensor<4x512xf32>
    %1188 = stablehlo.reshape %1187 : (tensor<4x512xf32>) -> tensor<4x8x64xf32>
    %1189 = stablehlo.broadcast_in_dim %33, dims = [0, 2] : (tensor<4x64xf32>) -> tensor<4x32x64xf32>
    %1190 = stablehlo.broadcast_in_dim %34, dims = [0, 2] : (tensor<4x64xf32>) -> tensor<4x32x64xf32>
    %1191 = stablehlo.multiply %1184, %1189 : tensor<4x32x64xf32>
    %1192 = stablehlo.slice %1184 [0:4, 0:32, 0:32] : (tensor<4x32x64xf32>) -> tensor<4x32x32xf32>
    %1193 = stablehlo.slice %1184 [0:4, 0:32, 32:64] : (tensor<4x32x64xf32>) -> tensor<4x32x32xf32>
    %1194 = stablehlo.negate %1193 : tensor<4x32x32xf32>
    %1195 = stablehlo.concatenate %1194, %1192, dim = 2 : (tensor<4x32x32xf32>, tensor<4x32x32xf32>) -> tensor<4x32x64xf32>
    %1196 = stablehlo.multiply %1195, %1190 : tensor<4x32x64xf32>
    %1197 = stablehlo.add %1191, %1196 : tensor<4x32x64xf32>
    %1198 = stablehlo.broadcast_in_dim %33, dims = [0, 2] : (tensor<4x64xf32>) -> tensor<4x8x64xf32>
    %1199 = stablehlo.broadcast_in_dim %34, dims = [0, 2] : (tensor<4x64xf32>) -> tensor<4x8x64xf32>
    %1200 = stablehlo.multiply %1186, %1198 : tensor<4x8x64xf32>
    %1201 = stablehlo.slice %1186 [0:4, 0:8, 0:32] : (tensor<4x8x64xf32>) -> tensor<4x8x32xf32>
    %1202 = stablehlo.slice %1186 [0:4, 0:8, 32:64] : (tensor<4x8x64xf32>) -> tensor<4x8x32xf32>
    %1203 = stablehlo.negate %1202 : tensor<4x8x32xf32>
    %1204 = stablehlo.concatenate %1203, %1201, dim = 2 : (tensor<4x8x32xf32>, tensor<4x8x32xf32>) -> tensor<4x8x64xf32>
    %1205 = stablehlo.multiply %1204, %1199 : tensor<4x8x64xf32>
    %1206 = stablehlo.add %1200, %1205 : tensor<4x8x64xf32>
    %1207 = stablehlo.slice %arg147 [0:1] : (tensor<4xi32>) -> tensor<1xi32>
    %1208 = stablehlo.reshape %1207 : (tensor<1xi32>) -> tensor<i32>
    %1209 = stablehlo.slice %1206 [0:1, 0:8, 0:64] : (tensor<4x8x64xf32>) -> tensor<1x8x64xf32>
    %1210 = stablehlo.reshape %1209 : (tensor<1x8x64xf32>) -> tensor<1x1x1x8x64xf32>
    %1211 = stablehlo.dynamic_update_slice %1122, %1210, %26, %20, %1208, %9, %9 : (tensor<4x16x256x8x64xf32>, tensor<1x1x1x8x64xf32>, tensor<i32>, tensor<i32>, tensor<i32>, tensor<i32>, tensor<i32>) -> tensor<4x16x256x8x64xf32>
    %1212 = stablehlo.slice %1188 [0:1, 0:8, 0:64] : (tensor<4x8x64xf32>) -> tensor<1x8x64xf32>
    %1213 = stablehlo.reshape %1212 : (tensor<1x8x64xf32>) -> tensor<1x1x1x8x64xf32>
    %1214 = stablehlo.dynamic_update_slice %1125, %1213, %26, %20, %1208, %9, %9 : (tensor<4x16x256x8x64xf32>, tensor<1x1x1x8x64xf32>, tensor<i32>, tensor<i32>, tensor<i32>, tensor<i32>, tensor<i32>) -> tensor<4x16x256x8x64xf32>
    %1215 = stablehlo.slice %arg147 [1:2] : (tensor<4xi32>) -> tensor<1xi32>
    %1216 = stablehlo.reshape %1215 : (tensor<1xi32>) -> tensor<i32>
    %1217 = stablehlo.slice %1206 [1:2, 0:8, 0:64] : (tensor<4x8x64xf32>) -> tensor<1x8x64xf32>
    %1218 = stablehlo.reshape %1217 : (tensor<1x8x64xf32>) -> tensor<1x1x1x8x64xf32>
    %1219 = stablehlo.dynamic_update_slice %1211, %1218, %27, %20, %1216, %9, %9 : (tensor<4x16x256x8x64xf32>, tensor<1x1x1x8x64xf32>, tensor<i32>, tensor<i32>, tensor<i32>, tensor<i32>, tensor<i32>) -> tensor<4x16x256x8x64xf32>
    %1220 = stablehlo.slice %1188 [1:2, 0:8, 0:64] : (tensor<4x8x64xf32>) -> tensor<1x8x64xf32>
    %1221 = stablehlo.reshape %1220 : (tensor<1x8x64xf32>) -> tensor<1x1x1x8x64xf32>
    %1222 = stablehlo.dynamic_update_slice %1214, %1221, %27, %20, %1216, %9, %9 : (tensor<4x16x256x8x64xf32>, tensor<1x1x1x8x64xf32>, tensor<i32>, tensor<i32>, tensor<i32>, tensor<i32>, tensor<i32>) -> tensor<4x16x256x8x64xf32>
    %1223 = stablehlo.slice %arg147 [2:3] : (tensor<4xi32>) -> tensor<1xi32>
    %1224 = stablehlo.reshape %1223 : (tensor<1xi32>) -> tensor<i32>
    %1225 = stablehlo.slice %1206 [2:3, 0:8, 0:64] : (tensor<4x8x64xf32>) -> tensor<1x8x64xf32>
    %1226 = stablehlo.reshape %1225 : (tensor<1x8x64xf32>) -> tensor<1x1x1x8x64xf32>
    %1227 = stablehlo.dynamic_update_slice %1219, %1226, %28, %20, %1224, %9, %9 : (tensor<4x16x256x8x64xf32>, tensor<1x1x1x8x64xf32>, tensor<i32>, tensor<i32>, tensor<i32>, tensor<i32>, tensor<i32>) -> tensor<4x16x256x8x64xf32>
    %1228 = stablehlo.slice %1188 [2:3, 0:8, 0:64] : (tensor<4x8x64xf32>) -> tensor<1x8x64xf32>
    %1229 = stablehlo.reshape %1228 : (tensor<1x8x64xf32>) -> tensor<1x1x1x8x64xf32>
    %1230 = stablehlo.dynamic_update_slice %1222, %1229, %28, %20, %1224, %9, %9 : (tensor<4x16x256x8x64xf32>, tensor<1x1x1x8x64xf32>, tensor<i32>, tensor<i32>, tensor<i32>, tensor<i32>, tensor<i32>) -> tensor<4x16x256x8x64xf32>
    %1231 = stablehlo.slice %arg147 [3:4] : (tensor<4xi32>) -> tensor<1xi32>
    %1232 = stablehlo.reshape %1231 : (tensor<1xi32>) -> tensor<i32>
    %1233 = stablehlo.slice %1206 [3:4, 0:8, 0:64] : (tensor<4x8x64xf32>) -> tensor<1x8x64xf32>
    %1234 = stablehlo.reshape %1233 : (tensor<1x8x64xf32>) -> tensor<1x1x1x8x64xf32>
    %1235 = stablehlo.dynamic_update_slice %1227, %1234, %29, %20, %1232, %9, %9 : (tensor<4x16x256x8x64xf32>, tensor<1x1x1x8x64xf32>, tensor<i32>, tensor<i32>, tensor<i32>, tensor<i32>, tensor<i32>) -> tensor<4x16x256x8x64xf32>
    %1236 = stablehlo.slice %1188 [3:4, 0:8, 0:64] : (tensor<4x8x64xf32>) -> tensor<1x8x64xf32>
    %1237 = stablehlo.reshape %1236 : (tensor<1x8x64xf32>) -> tensor<1x1x1x8x64xf32>
    %1238 = stablehlo.dynamic_update_slice %1230, %1237, %29, %20, %1232, %9, %9 : (tensor<4x16x256x8x64xf32>, tensor<1x1x1x8x64xf32>, tensor<i32>, tensor<i32>, tensor<i32>, tensor<i32>, tensor<i32>) -> tensor<4x16x256x8x64xf32>
    %1239 = stablehlo.slice %1235 [0:4, 10:11, 0:256, 0:8, 0:64] : (tensor<4x16x256x8x64xf32>) -> tensor<4x1x256x8x64xf32>
    %1240 = stablehlo.reshape %1239 : (tensor<4x1x256x8x64xf32>) -> tensor<4x256x8x64xf32>
    %1241 = stablehlo.slice %1238 [0:4, 10:11, 0:256, 0:8, 0:64] : (tensor<4x16x256x8x64xf32>) -> tensor<4x1x256x8x64xf32>
    %1242 = stablehlo.reshape %1241 : (tensor<4x1x256x8x64xf32>) -> tensor<4x256x8x64xf32>
    %1243 = stablehlo.reshape %1197 : (tensor<4x32x64xf32>) -> tensor<4x8x4x64xf32>
    %1244 = stablehlo.dot_general %1243, %1240, batching_dims = [0, 1] x [0, 2], contracting_dims = [3] x [3] : (tensor<4x8x4x64xf32>, tensor<4x256x8x64xf32>) -> tensor<4x8x4x256xf32>
    %1245 = stablehlo.reshape %1244 : (tensor<4x8x4x256xf32>) -> tensor<4x32x256xf32>
    %1246 = stablehlo.broadcast_in_dim %8, dims = [] : (tensor<f32>) -> tensor<4x32x256xf32>
    %1247 = stablehlo.multiply %1245, %1246 : tensor<4x32x256xf32>
    %1248 = stablehlo.broadcast_in_dim %41, dims = [0, 2] : (tensor<4x256xf32>) -> tensor<4x32x256xf32>
    %1249 = stablehlo.add %1247, %1248 : tensor<4x32x256xf32>
    %1250 = stablehlo.reduce(%1249 init: %4) applies stablehlo.maximum across dimensions = [2] : (tensor<4x32x256xf32>, tensor<f32>) -> tensor<4x32xf32>
    %1251 = stablehlo.broadcast_in_dim %1250, dims = [0, 1] : (tensor<4x32xf32>) -> tensor<4x32x256xf32>
    %1252 = stablehlo.subtract %1249, %1251 : tensor<4x32x256xf32>
    %1253 = stablehlo.exponential %1252 : tensor<4x32x256xf32>
    %1254 = stablehlo.reduce(%1253 init: %2) applies stablehlo.add across dimensions = [2] : (tensor<4x32x256xf32>, tensor<f32>) -> tensor<4x32xf32>
    %1255 = stablehlo.broadcast_in_dim %1254, dims = [0, 1] : (tensor<4x32xf32>) -> tensor<4x32x256xf32>
    %1256 = stablehlo.divide %1253, %1255 : tensor<4x32x256xf32>
    %1257 = stablehlo.reshape %1256 : (tensor<4x32x256xf32>) -> tensor<4x8x4x256xf32>
    %1258 = stablehlo.dot_general %1257, %1242, batching_dims = [0, 1] x [0, 2], contracting_dims = [3] x [1] : (tensor<4x8x4x256xf32>, tensor<4x256x8x64xf32>) -> tensor<4x8x4x64xf32>
    %1259 = stablehlo.reshape %1258 : (tensor<4x8x4x64xf32>) -> tensor<4x32x64xf32>
    %1260 = stablehlo.reshape %1259 : (tensor<4x32x64xf32>) -> tensor<4x2048xf32>
    %1261 = stablehlo.dot_general %1260, %arg98, contracting_dims = [1] x [1] : (tensor<4x2048xf32>, tensor<2048x2048xf32>) -> tensor<4x2048xf32>
    %1262 = stablehlo.add %1171, %1261 : tensor<4x2048xf32>
    %1263 = stablehlo.multiply %1262, %1262 : tensor<4x2048xf32>
    %1264 = stablehlo.reduce(%1263 init: %2) applies stablehlo.add across dimensions = [1] : (tensor<4x2048xf32>, tensor<f32>) -> tensor<4xf32>
    %1265 = stablehlo.broadcast_in_dim %7, dims = [] : (tensor<f32>) -> tensor<4xf32>
    %1266 = stablehlo.divide %1264, %1265 : tensor<4xf32>
    %1267 = stablehlo.broadcast_in_dim %6, dims = [] : (tensor<f32>) -> tensor<4xf32>
    %1268 = stablehlo.add %1266, %1267 : tensor<4xf32>
    %1269 = stablehlo.rsqrt %1268 : tensor<4xf32>
    %1270 = stablehlo.broadcast_in_dim %1269, dims = [0] : (tensor<4xf32>) -> tensor<4x2048xf32>
    %1271 = stablehlo.multiply %1262, %1270 : tensor<4x2048xf32>
    %1272 = stablehlo.broadcast_in_dim %arg95, dims = [1] : (tensor<2048xf32>) -> tensor<4x2048xf32>
    %1273 = stablehlo.multiply %1271, %1272 : tensor<4x2048xf32>
    %1274 = stablehlo.dot_general %1273, %arg93, contracting_dims = [1] x [1] : (tensor<4x2048xf32>, tensor<8192x2048xf32>) -> tensor<4x8192xf32>
    %1275 = stablehlo.dot_general %1273, %arg96, contracting_dims = [1] x [1] : (tensor<4x2048xf32>, tensor<8192x2048xf32>) -> tensor<4x8192xf32>
    %1276 = stablehlo.negate %1274 : tensor<4x8192xf32>
    %1277 = stablehlo.exponential %1276 : tensor<4x8192xf32>
    %1278 = stablehlo.broadcast_in_dim %3, dims = [] : (tensor<f32>) -> tensor<4x8192xf32>
    %1279 = stablehlo.add %1278, %1277 : tensor<4x8192xf32>
    %1280 = stablehlo.divide %1278, %1279 : tensor<4x8192xf32>
    %1281 = stablehlo.multiply %1274, %1280 : tensor<4x8192xf32>
    %1282 = stablehlo.multiply %1281, %1275 : tensor<4x8192xf32>
    %1283 = stablehlo.dot_general %1282, %arg92, contracting_dims = [1] x [1] : (tensor<4x8192xf32>, tensor<2048x8192xf32>) -> tensor<4x2048xf32>
    %1284 = stablehlo.add %1262, %1283 : tensor<4x2048xf32>
    %1285 = stablehlo.multiply %1284, %1284 : tensor<4x2048xf32>
    %1286 = stablehlo.reduce(%1285 init: %2) applies stablehlo.add across dimensions = [1] : (tensor<4x2048xf32>, tensor<f32>) -> tensor<4xf32>
    %1287 = stablehlo.broadcast_in_dim %7, dims = [] : (tensor<f32>) -> tensor<4xf32>
    %1288 = stablehlo.divide %1286, %1287 : tensor<4xf32>
    %1289 = stablehlo.broadcast_in_dim %6, dims = [] : (tensor<f32>) -> tensor<4xf32>
    %1290 = stablehlo.add %1288, %1289 : tensor<4xf32>
    %1291 = stablehlo.rsqrt %1290 : tensor<4xf32>
    %1292 = stablehlo.broadcast_in_dim %1291, dims = [0] : (tensor<4xf32>) -> tensor<4x2048xf32>
    %1293 = stablehlo.multiply %1284, %1292 : tensor<4x2048xf32>
    %1294 = stablehlo.broadcast_in_dim %arg103, dims = [1] : (tensor<2048xf32>) -> tensor<4x2048xf32>
    %1295 = stablehlo.multiply %1293, %1294 : tensor<4x2048xf32>
    %1296 = stablehlo.dot_general %1295, %arg108, contracting_dims = [1] x [1] : (tensor<4x2048xf32>, tensor<2048x2048xf32>) -> tensor<4x2048xf32>
    %1297 = stablehlo.reshape %1296 : (tensor<4x2048xf32>) -> tensor<4x32x64xf32>
    %1298 = stablehlo.dot_general %1295, %arg106, contracting_dims = [1] x [1] : (tensor<4x2048xf32>, tensor<512x2048xf32>) -> tensor<4x512xf32>
    %1299 = stablehlo.reshape %1298 : (tensor<4x512xf32>) -> tensor<4x8x64xf32>
    %1300 = stablehlo.dot_general %1295, %arg109, contracting_dims = [1] x [1] : (tensor<4x2048xf32>, tensor<512x2048xf32>) -> tensor<4x512xf32>
    %1301 = stablehlo.reshape %1300 : (tensor<4x512xf32>) -> tensor<4x8x64xf32>
    %1302 = stablehlo.broadcast_in_dim %33, dims = [0, 2] : (tensor<4x64xf32>) -> tensor<4x32x64xf32>
    %1303 = stablehlo.broadcast_in_dim %34, dims = [0, 2] : (tensor<4x64xf32>) -> tensor<4x32x64xf32>
    %1304 = stablehlo.multiply %1297, %1302 : tensor<4x32x64xf32>
    %1305 = stablehlo.slice %1297 [0:4, 0:32, 0:32] : (tensor<4x32x64xf32>) -> tensor<4x32x32xf32>
    %1306 = stablehlo.slice %1297 [0:4, 0:32, 32:64] : (tensor<4x32x64xf32>) -> tensor<4x32x32xf32>
    %1307 = stablehlo.negate %1306 : tensor<4x32x32xf32>
    %1308 = stablehlo.concatenate %1307, %1305, dim = 2 : (tensor<4x32x32xf32>, tensor<4x32x32xf32>) -> tensor<4x32x64xf32>
    %1309 = stablehlo.multiply %1308, %1303 : tensor<4x32x64xf32>
    %1310 = stablehlo.add %1304, %1309 : tensor<4x32x64xf32>
    %1311 = stablehlo.broadcast_in_dim %33, dims = [0, 2] : (tensor<4x64xf32>) -> tensor<4x8x64xf32>
    %1312 = stablehlo.broadcast_in_dim %34, dims = [0, 2] : (tensor<4x64xf32>) -> tensor<4x8x64xf32>
    %1313 = stablehlo.multiply %1299, %1311 : tensor<4x8x64xf32>
    %1314 = stablehlo.slice %1299 [0:4, 0:8, 0:32] : (tensor<4x8x64xf32>) -> tensor<4x8x32xf32>
    %1315 = stablehlo.slice %1299 [0:4, 0:8, 32:64] : (tensor<4x8x64xf32>) -> tensor<4x8x32xf32>
    %1316 = stablehlo.negate %1315 : tensor<4x8x32xf32>
    %1317 = stablehlo.concatenate %1316, %1314, dim = 2 : (tensor<4x8x32xf32>, tensor<4x8x32xf32>) -> tensor<4x8x64xf32>
    %1318 = stablehlo.multiply %1317, %1312 : tensor<4x8x64xf32>
    %1319 = stablehlo.add %1313, %1318 : tensor<4x8x64xf32>
    %1320 = stablehlo.slice %arg147 [0:1] : (tensor<4xi32>) -> tensor<1xi32>
    %1321 = stablehlo.reshape %1320 : (tensor<1xi32>) -> tensor<i32>
    %1322 = stablehlo.slice %1319 [0:1, 0:8, 0:64] : (tensor<4x8x64xf32>) -> tensor<1x8x64xf32>
    %1323 = stablehlo.reshape %1322 : (tensor<1x8x64xf32>) -> tensor<1x1x1x8x64xf32>
    %1324 = stablehlo.dynamic_update_slice %1235, %1323, %26, %21, %1321, %9, %9 : (tensor<4x16x256x8x64xf32>, tensor<1x1x1x8x64xf32>, tensor<i32>, tensor<i32>, tensor<i32>, tensor<i32>, tensor<i32>) -> tensor<4x16x256x8x64xf32>
    %1325 = stablehlo.slice %1301 [0:1, 0:8, 0:64] : (tensor<4x8x64xf32>) -> tensor<1x8x64xf32>
    %1326 = stablehlo.reshape %1325 : (tensor<1x8x64xf32>) -> tensor<1x1x1x8x64xf32>
    %1327 = stablehlo.dynamic_update_slice %1238, %1326, %26, %21, %1321, %9, %9 : (tensor<4x16x256x8x64xf32>, tensor<1x1x1x8x64xf32>, tensor<i32>, tensor<i32>, tensor<i32>, tensor<i32>, tensor<i32>) -> tensor<4x16x256x8x64xf32>
    %1328 = stablehlo.slice %arg147 [1:2] : (tensor<4xi32>) -> tensor<1xi32>
    %1329 = stablehlo.reshape %1328 : (tensor<1xi32>) -> tensor<i32>
    %1330 = stablehlo.slice %1319 [1:2, 0:8, 0:64] : (tensor<4x8x64xf32>) -> tensor<1x8x64xf32>
    %1331 = stablehlo.reshape %1330 : (tensor<1x8x64xf32>) -> tensor<1x1x1x8x64xf32>
    %1332 = stablehlo.dynamic_update_slice %1324, %1331, %27, %21, %1329, %9, %9 : (tensor<4x16x256x8x64xf32>, tensor<1x1x1x8x64xf32>, tensor<i32>, tensor<i32>, tensor<i32>, tensor<i32>, tensor<i32>) -> tensor<4x16x256x8x64xf32>
    %1333 = stablehlo.slice %1301 [1:2, 0:8, 0:64] : (tensor<4x8x64xf32>) -> tensor<1x8x64xf32>
    %1334 = stablehlo.reshape %1333 : (tensor<1x8x64xf32>) -> tensor<1x1x1x8x64xf32>
    %1335 = stablehlo.dynamic_update_slice %1327, %1334, %27, %21, %1329, %9, %9 : (tensor<4x16x256x8x64xf32>, tensor<1x1x1x8x64xf32>, tensor<i32>, tensor<i32>, tensor<i32>, tensor<i32>, tensor<i32>) -> tensor<4x16x256x8x64xf32>
    %1336 = stablehlo.slice %arg147 [2:3] : (tensor<4xi32>) -> tensor<1xi32>
    %1337 = stablehlo.reshape %1336 : (tensor<1xi32>) -> tensor<i32>
    %1338 = stablehlo.slice %1319 [2:3, 0:8, 0:64] : (tensor<4x8x64xf32>) -> tensor<1x8x64xf32>
    %1339 = stablehlo.reshape %1338 : (tensor<1x8x64xf32>) -> tensor<1x1x1x8x64xf32>
    %1340 = stablehlo.dynamic_update_slice %1332, %1339, %28, %21, %1337, %9, %9 : (tensor<4x16x256x8x64xf32>, tensor<1x1x1x8x64xf32>, tensor<i32>, tensor<i32>, tensor<i32>, tensor<i32>, tensor<i32>) -> tensor<4x16x256x8x64xf32>
    %1341 = stablehlo.slice %1301 [2:3, 0:8, 0:64] : (tensor<4x8x64xf32>) -> tensor<1x8x64xf32>
    %1342 = stablehlo.reshape %1341 : (tensor<1x8x64xf32>) -> tensor<1x1x1x8x64xf32>
    %1343 = stablehlo.dynamic_update_slice %1335, %1342, %28, %21, %1337, %9, %9 : (tensor<4x16x256x8x64xf32>, tensor<1x1x1x8x64xf32>, tensor<i32>, tensor<i32>, tensor<i32>, tensor<i32>, tensor<i32>) -> tensor<4x16x256x8x64xf32>
    %1344 = stablehlo.slice %arg147 [3:4] : (tensor<4xi32>) -> tensor<1xi32>
    %1345 = stablehlo.reshape %1344 : (tensor<1xi32>) -> tensor<i32>
    %1346 = stablehlo.slice %1319 [3:4, 0:8, 0:64] : (tensor<4x8x64xf32>) -> tensor<1x8x64xf32>
    %1347 = stablehlo.reshape %1346 : (tensor<1x8x64xf32>) -> tensor<1x1x1x8x64xf32>
    %1348 = stablehlo.dynamic_update_slice %1340, %1347, %29, %21, %1345, %9, %9 : (tensor<4x16x256x8x64xf32>, tensor<1x1x1x8x64xf32>, tensor<i32>, tensor<i32>, tensor<i32>, tensor<i32>, tensor<i32>) -> tensor<4x16x256x8x64xf32>
    %1349 = stablehlo.slice %1301 [3:4, 0:8, 0:64] : (tensor<4x8x64xf32>) -> tensor<1x8x64xf32>
    %1350 = stablehlo.reshape %1349 : (tensor<1x8x64xf32>) -> tensor<1x1x1x8x64xf32>
    %1351 = stablehlo.dynamic_update_slice %1343, %1350, %29, %21, %1345, %9, %9 : (tensor<4x16x256x8x64xf32>, tensor<1x1x1x8x64xf32>, tensor<i32>, tensor<i32>, tensor<i32>, tensor<i32>, tensor<i32>) -> tensor<4x16x256x8x64xf32>
    %1352 = stablehlo.slice %1348 [0:4, 11:12, 0:256, 0:8, 0:64] : (tensor<4x16x256x8x64xf32>) -> tensor<4x1x256x8x64xf32>
    %1353 = stablehlo.reshape %1352 : (tensor<4x1x256x8x64xf32>) -> tensor<4x256x8x64xf32>
    %1354 = stablehlo.slice %1351 [0:4, 11:12, 0:256, 0:8, 0:64] : (tensor<4x16x256x8x64xf32>) -> tensor<4x1x256x8x64xf32>
    %1355 = stablehlo.reshape %1354 : (tensor<4x1x256x8x64xf32>) -> tensor<4x256x8x64xf32>
    %1356 = stablehlo.reshape %1310 : (tensor<4x32x64xf32>) -> tensor<4x8x4x64xf32>
    %1357 = stablehlo.dot_general %1356, %1353, batching_dims = [0, 1] x [0, 2], contracting_dims = [3] x [3] : (tensor<4x8x4x64xf32>, tensor<4x256x8x64xf32>) -> tensor<4x8x4x256xf32>
    %1358 = stablehlo.reshape %1357 : (tensor<4x8x4x256xf32>) -> tensor<4x32x256xf32>
    %1359 = stablehlo.broadcast_in_dim %8, dims = [] : (tensor<f32>) -> tensor<4x32x256xf32>
    %1360 = stablehlo.multiply %1358, %1359 : tensor<4x32x256xf32>
    %1361 = stablehlo.broadcast_in_dim %41, dims = [0, 2] : (tensor<4x256xf32>) -> tensor<4x32x256xf32>
    %1362 = stablehlo.add %1360, %1361 : tensor<4x32x256xf32>
    %1363 = stablehlo.reduce(%1362 init: %4) applies stablehlo.maximum across dimensions = [2] : (tensor<4x32x256xf32>, tensor<f32>) -> tensor<4x32xf32>
    %1364 = stablehlo.broadcast_in_dim %1363, dims = [0, 1] : (tensor<4x32xf32>) -> tensor<4x32x256xf32>
    %1365 = stablehlo.subtract %1362, %1364 : tensor<4x32x256xf32>
    %1366 = stablehlo.exponential %1365 : tensor<4x32x256xf32>
    %1367 = stablehlo.reduce(%1366 init: %2) applies stablehlo.add across dimensions = [2] : (tensor<4x32x256xf32>, tensor<f32>) -> tensor<4x32xf32>
    %1368 = stablehlo.broadcast_in_dim %1367, dims = [0, 1] : (tensor<4x32xf32>) -> tensor<4x32x256xf32>
    %1369 = stablehlo.divide %1366, %1368 : tensor<4x32x256xf32>
    %1370 = stablehlo.reshape %1369 : (tensor<4x32x256xf32>) -> tensor<4x8x4x256xf32>
    %1371 = stablehlo.dot_general %1370, %1355, batching_dims = [0, 1] x [0, 2], contracting_dims = [3] x [1] : (tensor<4x8x4x256xf32>, tensor<4x256x8x64xf32>) -> tensor<4x8x4x64xf32>
    %1372 = stablehlo.reshape %1371 : (tensor<4x8x4x64xf32>) -> tensor<4x32x64xf32>
    %1373 = stablehlo.reshape %1372 : (tensor<4x32x64xf32>) -> tensor<4x2048xf32>
    %1374 = stablehlo.dot_general %1373, %arg107, contracting_dims = [1] x [1] : (tensor<4x2048xf32>, tensor<2048x2048xf32>) -> tensor<4x2048xf32>
    %1375 = stablehlo.add %1284, %1374 : tensor<4x2048xf32>
    %1376 = stablehlo.multiply %1375, %1375 : tensor<4x2048xf32>
    %1377 = stablehlo.reduce(%1376 init: %2) applies stablehlo.add across dimensions = [1] : (tensor<4x2048xf32>, tensor<f32>) -> tensor<4xf32>
    %1378 = stablehlo.broadcast_in_dim %7, dims = [] : (tensor<f32>) -> tensor<4xf32>
    %1379 = stablehlo.divide %1377, %1378 : tensor<4xf32>
    %1380 = stablehlo.broadcast_in_dim %6, dims = [] : (tensor<f32>) -> tensor<4xf32>
    %1381 = stablehlo.add %1379, %1380 : tensor<4xf32>
    %1382 = stablehlo.rsqrt %1381 : tensor<4xf32>
    %1383 = stablehlo.broadcast_in_dim %1382, dims = [0] : (tensor<4xf32>) -> tensor<4x2048xf32>
    %1384 = stablehlo.multiply %1375, %1383 : tensor<4x2048xf32>
    %1385 = stablehlo.broadcast_in_dim %arg104, dims = [1] : (tensor<2048xf32>) -> tensor<4x2048xf32>
    %1386 = stablehlo.multiply %1384, %1385 : tensor<4x2048xf32>
    %1387 = stablehlo.dot_general %1386, %arg102, contracting_dims = [1] x [1] : (tensor<4x2048xf32>, tensor<8192x2048xf32>) -> tensor<4x8192xf32>
    %1388 = stablehlo.dot_general %1386, %arg105, contracting_dims = [1] x [1] : (tensor<4x2048xf32>, tensor<8192x2048xf32>) -> tensor<4x8192xf32>
    %1389 = stablehlo.negate %1387 : tensor<4x8192xf32>
    %1390 = stablehlo.exponential %1389 : tensor<4x8192xf32>
    %1391 = stablehlo.broadcast_in_dim %3, dims = [] : (tensor<f32>) -> tensor<4x8192xf32>
    %1392 = stablehlo.add %1391, %1390 : tensor<4x8192xf32>
    %1393 = stablehlo.divide %1391, %1392 : tensor<4x8192xf32>
    %1394 = stablehlo.multiply %1387, %1393 : tensor<4x8192xf32>
    %1395 = stablehlo.multiply %1394, %1388 : tensor<4x8192xf32>
    %1396 = stablehlo.dot_general %1395, %arg101, contracting_dims = [1] x [1] : (tensor<4x8192xf32>, tensor<2048x8192xf32>) -> tensor<4x2048xf32>
    %1397 = stablehlo.add %1375, %1396 : tensor<4x2048xf32>
    %1398 = stablehlo.multiply %1397, %1397 : tensor<4x2048xf32>
    %1399 = stablehlo.reduce(%1398 init: %2) applies stablehlo.add across dimensions = [1] : (tensor<4x2048xf32>, tensor<f32>) -> tensor<4xf32>
    %1400 = stablehlo.broadcast_in_dim %7, dims = [] : (tensor<f32>) -> tensor<4xf32>
    %1401 = stablehlo.divide %1399, %1400 : tensor<4xf32>
    %1402 = stablehlo.broadcast_in_dim %6, dims = [] : (tensor<f32>) -> tensor<4xf32>
    %1403 = stablehlo.add %1401, %1402 : tensor<4xf32>
    %1404 = stablehlo.rsqrt %1403 : tensor<4xf32>
    %1405 = stablehlo.broadcast_in_dim %1404, dims = [0] : (tensor<4xf32>) -> tensor<4x2048xf32>
    %1406 = stablehlo.multiply %1397, %1405 : tensor<4x2048xf32>
    %1407 = stablehlo.broadcast_in_dim %arg112, dims = [1] : (tensor<2048xf32>) -> tensor<4x2048xf32>
    %1408 = stablehlo.multiply %1406, %1407 : tensor<4x2048xf32>
    %1409 = stablehlo.dot_general %1408, %arg117, contracting_dims = [1] x [1] : (tensor<4x2048xf32>, tensor<2048x2048xf32>) -> tensor<4x2048xf32>
    %1410 = stablehlo.reshape %1409 : (tensor<4x2048xf32>) -> tensor<4x32x64xf32>
    %1411 = stablehlo.dot_general %1408, %arg115, contracting_dims = [1] x [1] : (tensor<4x2048xf32>, tensor<512x2048xf32>) -> tensor<4x512xf32>
    %1412 = stablehlo.reshape %1411 : (tensor<4x512xf32>) -> tensor<4x8x64xf32>
    %1413 = stablehlo.dot_general %1408, %arg118, contracting_dims = [1] x [1] : (tensor<4x2048xf32>, tensor<512x2048xf32>) -> tensor<4x512xf32>
    %1414 = stablehlo.reshape %1413 : (tensor<4x512xf32>) -> tensor<4x8x64xf32>
    %1415 = stablehlo.broadcast_in_dim %33, dims = [0, 2] : (tensor<4x64xf32>) -> tensor<4x32x64xf32>
    %1416 = stablehlo.broadcast_in_dim %34, dims = [0, 2] : (tensor<4x64xf32>) -> tensor<4x32x64xf32>
    %1417 = stablehlo.multiply %1410, %1415 : tensor<4x32x64xf32>
    %1418 = stablehlo.slice %1410 [0:4, 0:32, 0:32] : (tensor<4x32x64xf32>) -> tensor<4x32x32xf32>
    %1419 = stablehlo.slice %1410 [0:4, 0:32, 32:64] : (tensor<4x32x64xf32>) -> tensor<4x32x32xf32>
    %1420 = stablehlo.negate %1419 : tensor<4x32x32xf32>
    %1421 = stablehlo.concatenate %1420, %1418, dim = 2 : (tensor<4x32x32xf32>, tensor<4x32x32xf32>) -> tensor<4x32x64xf32>
    %1422 = stablehlo.multiply %1421, %1416 : tensor<4x32x64xf32>
    %1423 = stablehlo.add %1417, %1422 : tensor<4x32x64xf32>
    %1424 = stablehlo.broadcast_in_dim %33, dims = [0, 2] : (tensor<4x64xf32>) -> tensor<4x8x64xf32>
    %1425 = stablehlo.broadcast_in_dim %34, dims = [0, 2] : (tensor<4x64xf32>) -> tensor<4x8x64xf32>
    %1426 = stablehlo.multiply %1412, %1424 : tensor<4x8x64xf32>
    %1427 = stablehlo.slice %1412 [0:4, 0:8, 0:32] : (tensor<4x8x64xf32>) -> tensor<4x8x32xf32>
    %1428 = stablehlo.slice %1412 [0:4, 0:8, 32:64] : (tensor<4x8x64xf32>) -> tensor<4x8x32xf32>
    %1429 = stablehlo.negate %1428 : tensor<4x8x32xf32>
    %1430 = stablehlo.concatenate %1429, %1427, dim = 2 : (tensor<4x8x32xf32>, tensor<4x8x32xf32>) -> tensor<4x8x64xf32>
    %1431 = stablehlo.multiply %1430, %1425 : tensor<4x8x64xf32>
    %1432 = stablehlo.add %1426, %1431 : tensor<4x8x64xf32>
    %1433 = stablehlo.slice %arg147 [0:1] : (tensor<4xi32>) -> tensor<1xi32>
    %1434 = stablehlo.reshape %1433 : (tensor<1xi32>) -> tensor<i32>
    %1435 = stablehlo.slice %1432 [0:1, 0:8, 0:64] : (tensor<4x8x64xf32>) -> tensor<1x8x64xf32>
    %1436 = stablehlo.reshape %1435 : (tensor<1x8x64xf32>) -> tensor<1x1x1x8x64xf32>
    %1437 = stablehlo.dynamic_update_slice %1348, %1436, %26, %22, %1434, %9, %9 : (tensor<4x16x256x8x64xf32>, tensor<1x1x1x8x64xf32>, tensor<i32>, tensor<i32>, tensor<i32>, tensor<i32>, tensor<i32>) -> tensor<4x16x256x8x64xf32>
    %1438 = stablehlo.slice %1414 [0:1, 0:8, 0:64] : (tensor<4x8x64xf32>) -> tensor<1x8x64xf32>
    %1439 = stablehlo.reshape %1438 : (tensor<1x8x64xf32>) -> tensor<1x1x1x8x64xf32>
    %1440 = stablehlo.dynamic_update_slice %1351, %1439, %26, %22, %1434, %9, %9 : (tensor<4x16x256x8x64xf32>, tensor<1x1x1x8x64xf32>, tensor<i32>, tensor<i32>, tensor<i32>, tensor<i32>, tensor<i32>) -> tensor<4x16x256x8x64xf32>
    %1441 = stablehlo.slice %arg147 [1:2] : (tensor<4xi32>) -> tensor<1xi32>
    %1442 = stablehlo.reshape %1441 : (tensor<1xi32>) -> tensor<i32>
    %1443 = stablehlo.slice %1432 [1:2, 0:8, 0:64] : (tensor<4x8x64xf32>) -> tensor<1x8x64xf32>
    %1444 = stablehlo.reshape %1443 : (tensor<1x8x64xf32>) -> tensor<1x1x1x8x64xf32>
    %1445 = stablehlo.dynamic_update_slice %1437, %1444, %27, %22, %1442, %9, %9 : (tensor<4x16x256x8x64xf32>, tensor<1x1x1x8x64xf32>, tensor<i32>, tensor<i32>, tensor<i32>, tensor<i32>, tensor<i32>) -> tensor<4x16x256x8x64xf32>
    %1446 = stablehlo.slice %1414 [1:2, 0:8, 0:64] : (tensor<4x8x64xf32>) -> tensor<1x8x64xf32>
    %1447 = stablehlo.reshape %1446 : (tensor<1x8x64xf32>) -> tensor<1x1x1x8x64xf32>
    %1448 = stablehlo.dynamic_update_slice %1440, %1447, %27, %22, %1442, %9, %9 : (tensor<4x16x256x8x64xf32>, tensor<1x1x1x8x64xf32>, tensor<i32>, tensor<i32>, tensor<i32>, tensor<i32>, tensor<i32>) -> tensor<4x16x256x8x64xf32>
    %1449 = stablehlo.slice %arg147 [2:3] : (tensor<4xi32>) -> tensor<1xi32>
    %1450 = stablehlo.reshape %1449 : (tensor<1xi32>) -> tensor<i32>
    %1451 = stablehlo.slice %1432 [2:3, 0:8, 0:64] : (tensor<4x8x64xf32>) -> tensor<1x8x64xf32>
    %1452 = stablehlo.reshape %1451 : (tensor<1x8x64xf32>) -> tensor<1x1x1x8x64xf32>
    %1453 = stablehlo.dynamic_update_slice %1445, %1452, %28, %22, %1450, %9, %9 : (tensor<4x16x256x8x64xf32>, tensor<1x1x1x8x64xf32>, tensor<i32>, tensor<i32>, tensor<i32>, tensor<i32>, tensor<i32>) -> tensor<4x16x256x8x64xf32>
    %1454 = stablehlo.slice %1414 [2:3, 0:8, 0:64] : (tensor<4x8x64xf32>) -> tensor<1x8x64xf32>
    %1455 = stablehlo.reshape %1454 : (tensor<1x8x64xf32>) -> tensor<1x1x1x8x64xf32>
    %1456 = stablehlo.dynamic_update_slice %1448, %1455, %28, %22, %1450, %9, %9 : (tensor<4x16x256x8x64xf32>, tensor<1x1x1x8x64xf32>, tensor<i32>, tensor<i32>, tensor<i32>, tensor<i32>, tensor<i32>) -> tensor<4x16x256x8x64xf32>
    %1457 = stablehlo.slice %arg147 [3:4] : (tensor<4xi32>) -> tensor<1xi32>
    %1458 = stablehlo.reshape %1457 : (tensor<1xi32>) -> tensor<i32>
    %1459 = stablehlo.slice %1432 [3:4, 0:8, 0:64] : (tensor<4x8x64xf32>) -> tensor<1x8x64xf32>
    %1460 = stablehlo.reshape %1459 : (tensor<1x8x64xf32>) -> tensor<1x1x1x8x64xf32>
    %1461 = stablehlo.dynamic_update_slice %1453, %1460, %29, %22, %1458, %9, %9 : (tensor<4x16x256x8x64xf32>, tensor<1x1x1x8x64xf32>, tensor<i32>, tensor<i32>, tensor<i32>, tensor<i32>, tensor<i32>) -> tensor<4x16x256x8x64xf32>
    %1462 = stablehlo.slice %1414 [3:4, 0:8, 0:64] : (tensor<4x8x64xf32>) -> tensor<1x8x64xf32>
    %1463 = stablehlo.reshape %1462 : (tensor<1x8x64xf32>) -> tensor<1x1x1x8x64xf32>
    %1464 = stablehlo.dynamic_update_slice %1456, %1463, %29, %22, %1458, %9, %9 : (tensor<4x16x256x8x64xf32>, tensor<1x1x1x8x64xf32>, tensor<i32>, tensor<i32>, tensor<i32>, tensor<i32>, tensor<i32>) -> tensor<4x16x256x8x64xf32>
    %1465 = stablehlo.slice %1461 [0:4, 12:13, 0:256, 0:8, 0:64] : (tensor<4x16x256x8x64xf32>) -> tensor<4x1x256x8x64xf32>
    %1466 = stablehlo.reshape %1465 : (tensor<4x1x256x8x64xf32>) -> tensor<4x256x8x64xf32>
    %1467 = stablehlo.slice %1464 [0:4, 12:13, 0:256, 0:8, 0:64] : (tensor<4x16x256x8x64xf32>) -> tensor<4x1x256x8x64xf32>
    %1468 = stablehlo.reshape %1467 : (tensor<4x1x256x8x64xf32>) -> tensor<4x256x8x64xf32>
    %1469 = stablehlo.reshape %1423 : (tensor<4x32x64xf32>) -> tensor<4x8x4x64xf32>
    %1470 = stablehlo.dot_general %1469, %1466, batching_dims = [0, 1] x [0, 2], contracting_dims = [3] x [3] : (tensor<4x8x4x64xf32>, tensor<4x256x8x64xf32>) -> tensor<4x8x4x256xf32>
    %1471 = stablehlo.reshape %1470 : (tensor<4x8x4x256xf32>) -> tensor<4x32x256xf32>
    %1472 = stablehlo.broadcast_in_dim %8, dims = [] : (tensor<f32>) -> tensor<4x32x256xf32>
    %1473 = stablehlo.multiply %1471, %1472 : tensor<4x32x256xf32>
    %1474 = stablehlo.broadcast_in_dim %41, dims = [0, 2] : (tensor<4x256xf32>) -> tensor<4x32x256xf32>
    %1475 = stablehlo.add %1473, %1474 : tensor<4x32x256xf32>
    %1476 = stablehlo.reduce(%1475 init: %4) applies stablehlo.maximum across dimensions = [2] : (tensor<4x32x256xf32>, tensor<f32>) -> tensor<4x32xf32>
    %1477 = stablehlo.broadcast_in_dim %1476, dims = [0, 1] : (tensor<4x32xf32>) -> tensor<4x32x256xf32>
    %1478 = stablehlo.subtract %1475, %1477 : tensor<4x32x256xf32>
    %1479 = stablehlo.exponential %1478 : tensor<4x32x256xf32>
    %1480 = stablehlo.reduce(%1479 init: %2) applies stablehlo.add across dimensions = [2] : (tensor<4x32x256xf32>, tensor<f32>) -> tensor<4x32xf32>
    %1481 = stablehlo.broadcast_in_dim %1480, dims = [0, 1] : (tensor<4x32xf32>) -> tensor<4x32x256xf32>
    %1482 = stablehlo.divide %1479, %1481 : tensor<4x32x256xf32>
    %1483 = stablehlo.reshape %1482 : (tensor<4x32x256xf32>) -> tensor<4x8x4x256xf32>
    %1484 = stablehlo.dot_general %1483, %1468, batching_dims = [0, 1] x [0, 2], contracting_dims = [3] x [1] : (tensor<4x8x4x256xf32>, tensor<4x256x8x64xf32>) -> tensor<4x8x4x64xf32>
    %1485 = stablehlo.reshape %1484 : (tensor<4x8x4x64xf32>) -> tensor<4x32x64xf32>
    %1486 = stablehlo.reshape %1485 : (tensor<4x32x64xf32>) -> tensor<4x2048xf32>
    %1487 = stablehlo.dot_general %1486, %arg116, contracting_dims = [1] x [1] : (tensor<4x2048xf32>, tensor<2048x2048xf32>) -> tensor<4x2048xf32>
    %1488 = stablehlo.add %1397, %1487 : tensor<4x2048xf32>
    %1489 = stablehlo.multiply %1488, %1488 : tensor<4x2048xf32>
    %1490 = stablehlo.reduce(%1489 init: %2) applies stablehlo.add across dimensions = [1] : (tensor<4x2048xf32>, tensor<f32>) -> tensor<4xf32>
    %1491 = stablehlo.broadcast_in_dim %7, dims = [] : (tensor<f32>) -> tensor<4xf32>
    %1492 = stablehlo.divide %1490, %1491 : tensor<4xf32>
    %1493 = stablehlo.broadcast_in_dim %6, dims = [] : (tensor<f32>) -> tensor<4xf32>
    %1494 = stablehlo.add %1492, %1493 : tensor<4xf32>
    %1495 = stablehlo.rsqrt %1494 : tensor<4xf32>
    %1496 = stablehlo.broadcast_in_dim %1495, dims = [0] : (tensor<4xf32>) -> tensor<4x2048xf32>
    %1497 = stablehlo.multiply %1488, %1496 : tensor<4x2048xf32>
    %1498 = stablehlo.broadcast_in_dim %arg113, dims = [1] : (tensor<2048xf32>) -> tensor<4x2048xf32>
    %1499 = stablehlo.multiply %1497, %1498 : tensor<4x2048xf32>
    %1500 = stablehlo.dot_general %1499, %arg111, contracting_dims = [1] x [1] : (tensor<4x2048xf32>, tensor<8192x2048xf32>) -> tensor<4x8192xf32>
    %1501 = stablehlo.dot_general %1499, %arg114, contracting_dims = [1] x [1] : (tensor<4x2048xf32>, tensor<8192x2048xf32>) -> tensor<4x8192xf32>
    %1502 = stablehlo.negate %1500 : tensor<4x8192xf32>
    %1503 = stablehlo.exponential %1502 : tensor<4x8192xf32>
    %1504 = stablehlo.broadcast_in_dim %3, dims = [] : (tensor<f32>) -> tensor<4x8192xf32>
    %1505 = stablehlo.add %1504, %1503 : tensor<4x8192xf32>
    %1506 = stablehlo.divide %1504, %1505 : tensor<4x8192xf32>
    %1507 = stablehlo.multiply %1500, %1506 : tensor<4x8192xf32>
    %1508 = stablehlo.multiply %1507, %1501 : tensor<4x8192xf32>
    %1509 = stablehlo.dot_general %1508, %arg110, contracting_dims = [1] x [1] : (tensor<4x8192xf32>, tensor<2048x8192xf32>) -> tensor<4x2048xf32>
    %1510 = stablehlo.add %1488, %1509 : tensor<4x2048xf32>
    %1511 = stablehlo.multiply %1510, %1510 : tensor<4x2048xf32>
    %1512 = stablehlo.reduce(%1511 init: %2) applies stablehlo.add across dimensions = [1] : (tensor<4x2048xf32>, tensor<f32>) -> tensor<4xf32>
    %1513 = stablehlo.broadcast_in_dim %7, dims = [] : (tensor<f32>) -> tensor<4xf32>
    %1514 = stablehlo.divide %1512, %1513 : tensor<4xf32>
    %1515 = stablehlo.broadcast_in_dim %6, dims = [] : (tensor<f32>) -> tensor<4xf32>
    %1516 = stablehlo.add %1514, %1515 : tensor<4xf32>
    %1517 = stablehlo.rsqrt %1516 : tensor<4xf32>
    %1518 = stablehlo.broadcast_in_dim %1517, dims = [0] : (tensor<4xf32>) -> tensor<4x2048xf32>
    %1519 = stablehlo.multiply %1510, %1518 : tensor<4x2048xf32>
    %1520 = stablehlo.broadcast_in_dim %arg121, dims = [1] : (tensor<2048xf32>) -> tensor<4x2048xf32>
    %1521 = stablehlo.multiply %1519, %1520 : tensor<4x2048xf32>
    %1522 = stablehlo.dot_general %1521, %arg126, contracting_dims = [1] x [1] : (tensor<4x2048xf32>, tensor<2048x2048xf32>) -> tensor<4x2048xf32>
    %1523 = stablehlo.reshape %1522 : (tensor<4x2048xf32>) -> tensor<4x32x64xf32>
    %1524 = stablehlo.dot_general %1521, %arg124, contracting_dims = [1] x [1] : (tensor<4x2048xf32>, tensor<512x2048xf32>) -> tensor<4x512xf32>
    %1525 = stablehlo.reshape %1524 : (tensor<4x512xf32>) -> tensor<4x8x64xf32>
    %1526 = stablehlo.dot_general %1521, %arg127, contracting_dims = [1] x [1] : (tensor<4x2048xf32>, tensor<512x2048xf32>) -> tensor<4x512xf32>
    %1527 = stablehlo.reshape %1526 : (tensor<4x512xf32>) -> tensor<4x8x64xf32>
    %1528 = stablehlo.broadcast_in_dim %33, dims = [0, 2] : (tensor<4x64xf32>) -> tensor<4x32x64xf32>
    %1529 = stablehlo.broadcast_in_dim %34, dims = [0, 2] : (tensor<4x64xf32>) -> tensor<4x32x64xf32>
    %1530 = stablehlo.multiply %1523, %1528 : tensor<4x32x64xf32>
    %1531 = stablehlo.slice %1523 [0:4, 0:32, 0:32] : (tensor<4x32x64xf32>) -> tensor<4x32x32xf32>
    %1532 = stablehlo.slice %1523 [0:4, 0:32, 32:64] : (tensor<4x32x64xf32>) -> tensor<4x32x32xf32>
    %1533 = stablehlo.negate %1532 : tensor<4x32x32xf32>
    %1534 = stablehlo.concatenate %1533, %1531, dim = 2 : (tensor<4x32x32xf32>, tensor<4x32x32xf32>) -> tensor<4x32x64xf32>
    %1535 = stablehlo.multiply %1534, %1529 : tensor<4x32x64xf32>
    %1536 = stablehlo.add %1530, %1535 : tensor<4x32x64xf32>
    %1537 = stablehlo.broadcast_in_dim %33, dims = [0, 2] : (tensor<4x64xf32>) -> tensor<4x8x64xf32>
    %1538 = stablehlo.broadcast_in_dim %34, dims = [0, 2] : (tensor<4x64xf32>) -> tensor<4x8x64xf32>
    %1539 = stablehlo.multiply %1525, %1537 : tensor<4x8x64xf32>
    %1540 = stablehlo.slice %1525 [0:4, 0:8, 0:32] : (tensor<4x8x64xf32>) -> tensor<4x8x32xf32>
    %1541 = stablehlo.slice %1525 [0:4, 0:8, 32:64] : (tensor<4x8x64xf32>) -> tensor<4x8x32xf32>
    %1542 = stablehlo.negate %1541 : tensor<4x8x32xf32>
    %1543 = stablehlo.concatenate %1542, %1540, dim = 2 : (tensor<4x8x32xf32>, tensor<4x8x32xf32>) -> tensor<4x8x64xf32>
    %1544 = stablehlo.multiply %1543, %1538 : tensor<4x8x64xf32>
    %1545 = stablehlo.add %1539, %1544 : tensor<4x8x64xf32>
    %1546 = stablehlo.slice %arg147 [0:1] : (tensor<4xi32>) -> tensor<1xi32>
    %1547 = stablehlo.reshape %1546 : (tensor<1xi32>) -> tensor<i32>
    %1548 = stablehlo.slice %1545 [0:1, 0:8, 0:64] : (tensor<4x8x64xf32>) -> tensor<1x8x64xf32>
    %1549 = stablehlo.reshape %1548 : (tensor<1x8x64xf32>) -> tensor<1x1x1x8x64xf32>
    %1550 = stablehlo.dynamic_update_slice %1461, %1549, %26, %23, %1547, %9, %9 : (tensor<4x16x256x8x64xf32>, tensor<1x1x1x8x64xf32>, tensor<i32>, tensor<i32>, tensor<i32>, tensor<i32>, tensor<i32>) -> tensor<4x16x256x8x64xf32>
    %1551 = stablehlo.slice %1527 [0:1, 0:8, 0:64] : (tensor<4x8x64xf32>) -> tensor<1x8x64xf32>
    %1552 = stablehlo.reshape %1551 : (tensor<1x8x64xf32>) -> tensor<1x1x1x8x64xf32>
    %1553 = stablehlo.dynamic_update_slice %1464, %1552, %26, %23, %1547, %9, %9 : (tensor<4x16x256x8x64xf32>, tensor<1x1x1x8x64xf32>, tensor<i32>, tensor<i32>, tensor<i32>, tensor<i32>, tensor<i32>) -> tensor<4x16x256x8x64xf32>
    %1554 = stablehlo.slice %arg147 [1:2] : (tensor<4xi32>) -> tensor<1xi32>
    %1555 = stablehlo.reshape %1554 : (tensor<1xi32>) -> tensor<i32>
    %1556 = stablehlo.slice %1545 [1:2, 0:8, 0:64] : (tensor<4x8x64xf32>) -> tensor<1x8x64xf32>
    %1557 = stablehlo.reshape %1556 : (tensor<1x8x64xf32>) -> tensor<1x1x1x8x64xf32>
    %1558 = stablehlo.dynamic_update_slice %1550, %1557, %27, %23, %1555, %9, %9 : (tensor<4x16x256x8x64xf32>, tensor<1x1x1x8x64xf32>, tensor<i32>, tensor<i32>, tensor<i32>, tensor<i32>, tensor<i32>) -> tensor<4x16x256x8x64xf32>
    %1559 = stablehlo.slice %1527 [1:2, 0:8, 0:64] : (tensor<4x8x64xf32>) -> tensor<1x8x64xf32>
    %1560 = stablehlo.reshape %1559 : (tensor<1x8x64xf32>) -> tensor<1x1x1x8x64xf32>
    %1561 = stablehlo.dynamic_update_slice %1553, %1560, %27, %23, %1555, %9, %9 : (tensor<4x16x256x8x64xf32>, tensor<1x1x1x8x64xf32>, tensor<i32>, tensor<i32>, tensor<i32>, tensor<i32>, tensor<i32>) -> tensor<4x16x256x8x64xf32>
    %1562 = stablehlo.slice %arg147 [2:3] : (tensor<4xi32>) -> tensor<1xi32>
    %1563 = stablehlo.reshape %1562 : (tensor<1xi32>) -> tensor<i32>
    %1564 = stablehlo.slice %1545 [2:3, 0:8, 0:64] : (tensor<4x8x64xf32>) -> tensor<1x8x64xf32>
    %1565 = stablehlo.reshape %1564 : (tensor<1x8x64xf32>) -> tensor<1x1x1x8x64xf32>
    %1566 = stablehlo.dynamic_update_slice %1558, %1565, %28, %23, %1563, %9, %9 : (tensor<4x16x256x8x64xf32>, tensor<1x1x1x8x64xf32>, tensor<i32>, tensor<i32>, tensor<i32>, tensor<i32>, tensor<i32>) -> tensor<4x16x256x8x64xf32>
    %1567 = stablehlo.slice %1527 [2:3, 0:8, 0:64] : (tensor<4x8x64xf32>) -> tensor<1x8x64xf32>
    %1568 = stablehlo.reshape %1567 : (tensor<1x8x64xf32>) -> tensor<1x1x1x8x64xf32>
    %1569 = stablehlo.dynamic_update_slice %1561, %1568, %28, %23, %1563, %9, %9 : (tensor<4x16x256x8x64xf32>, tensor<1x1x1x8x64xf32>, tensor<i32>, tensor<i32>, tensor<i32>, tensor<i32>, tensor<i32>) -> tensor<4x16x256x8x64xf32>
    %1570 = stablehlo.slice %arg147 [3:4] : (tensor<4xi32>) -> tensor<1xi32>
    %1571 = stablehlo.reshape %1570 : (tensor<1xi32>) -> tensor<i32>
    %1572 = stablehlo.slice %1545 [3:4, 0:8, 0:64] : (tensor<4x8x64xf32>) -> tensor<1x8x64xf32>
    %1573 = stablehlo.reshape %1572 : (tensor<1x8x64xf32>) -> tensor<1x1x1x8x64xf32>
    %1574 = stablehlo.dynamic_update_slice %1566, %1573, %29, %23, %1571, %9, %9 : (tensor<4x16x256x8x64xf32>, tensor<1x1x1x8x64xf32>, tensor<i32>, tensor<i32>, tensor<i32>, tensor<i32>, tensor<i32>) -> tensor<4x16x256x8x64xf32>
    %1575 = stablehlo.slice %1527 [3:4, 0:8, 0:64] : (tensor<4x8x64xf32>) -> tensor<1x8x64xf32>
    %1576 = stablehlo.reshape %1575 : (tensor<1x8x64xf32>) -> tensor<1x1x1x8x64xf32>
    %1577 = stablehlo.dynamic_update_slice %1569, %1576, %29, %23, %1571, %9, %9 : (tensor<4x16x256x8x64xf32>, tensor<1x1x1x8x64xf32>, tensor<i32>, tensor<i32>, tensor<i32>, tensor<i32>, tensor<i32>) -> tensor<4x16x256x8x64xf32>
    %1578 = stablehlo.slice %1574 [0:4, 13:14, 0:256, 0:8, 0:64] : (tensor<4x16x256x8x64xf32>) -> tensor<4x1x256x8x64xf32>
    %1579 = stablehlo.reshape %1578 : (tensor<4x1x256x8x64xf32>) -> tensor<4x256x8x64xf32>
    %1580 = stablehlo.slice %1577 [0:4, 13:14, 0:256, 0:8, 0:64] : (tensor<4x16x256x8x64xf32>) -> tensor<4x1x256x8x64xf32>
    %1581 = stablehlo.reshape %1580 : (tensor<4x1x256x8x64xf32>) -> tensor<4x256x8x64xf32>
    %1582 = stablehlo.reshape %1536 : (tensor<4x32x64xf32>) -> tensor<4x8x4x64xf32>
    %1583 = stablehlo.dot_general %1582, %1579, batching_dims = [0, 1] x [0, 2], contracting_dims = [3] x [3] : (tensor<4x8x4x64xf32>, tensor<4x256x8x64xf32>) -> tensor<4x8x4x256xf32>
    %1584 = stablehlo.reshape %1583 : (tensor<4x8x4x256xf32>) -> tensor<4x32x256xf32>
    %1585 = stablehlo.broadcast_in_dim %8, dims = [] : (tensor<f32>) -> tensor<4x32x256xf32>
    %1586 = stablehlo.multiply %1584, %1585 : tensor<4x32x256xf32>
    %1587 = stablehlo.broadcast_in_dim %41, dims = [0, 2] : (tensor<4x256xf32>) -> tensor<4x32x256xf32>
    %1588 = stablehlo.add %1586, %1587 : tensor<4x32x256xf32>
    %1589 = stablehlo.reduce(%1588 init: %4) applies stablehlo.maximum across dimensions = [2] : (tensor<4x32x256xf32>, tensor<f32>) -> tensor<4x32xf32>
    %1590 = stablehlo.broadcast_in_dim %1589, dims = [0, 1] : (tensor<4x32xf32>) -> tensor<4x32x256xf32>
    %1591 = stablehlo.subtract %1588, %1590 : tensor<4x32x256xf32>
    %1592 = stablehlo.exponential %1591 : tensor<4x32x256xf32>
    %1593 = stablehlo.reduce(%1592 init: %2) applies stablehlo.add across dimensions = [2] : (tensor<4x32x256xf32>, tensor<f32>) -> tensor<4x32xf32>
    %1594 = stablehlo.broadcast_in_dim %1593, dims = [0, 1] : (tensor<4x32xf32>) -> tensor<4x32x256xf32>
    %1595 = stablehlo.divide %1592, %1594 : tensor<4x32x256xf32>
    %1596 = stablehlo.reshape %1595 : (tensor<4x32x256xf32>) -> tensor<4x8x4x256xf32>
    %1597 = stablehlo.dot_general %1596, %1581, batching_dims = [0, 1] x [0, 2], contracting_dims = [3] x [1] : (tensor<4x8x4x256xf32>, tensor<4x256x8x64xf32>) -> tensor<4x8x4x64xf32>
    %1598 = stablehlo.reshape %1597 : (tensor<4x8x4x64xf32>) -> tensor<4x32x64xf32>
    %1599 = stablehlo.reshape %1598 : (tensor<4x32x64xf32>) -> tensor<4x2048xf32>
    %1600 = stablehlo.dot_general %1599, %arg125, contracting_dims = [1] x [1] : (tensor<4x2048xf32>, tensor<2048x2048xf32>) -> tensor<4x2048xf32>
    %1601 = stablehlo.add %1510, %1600 : tensor<4x2048xf32>
    %1602 = stablehlo.multiply %1601, %1601 : tensor<4x2048xf32>
    %1603 = stablehlo.reduce(%1602 init: %2) applies stablehlo.add across dimensions = [1] : (tensor<4x2048xf32>, tensor<f32>) -> tensor<4xf32>
    %1604 = stablehlo.broadcast_in_dim %7, dims = [] : (tensor<f32>) -> tensor<4xf32>
    %1605 = stablehlo.divide %1603, %1604 : tensor<4xf32>
    %1606 = stablehlo.broadcast_in_dim %6, dims = [] : (tensor<f32>) -> tensor<4xf32>
    %1607 = stablehlo.add %1605, %1606 : tensor<4xf32>
    %1608 = stablehlo.rsqrt %1607 : tensor<4xf32>
    %1609 = stablehlo.broadcast_in_dim %1608, dims = [0] : (tensor<4xf32>) -> tensor<4x2048xf32>
    %1610 = stablehlo.multiply %1601, %1609 : tensor<4x2048xf32>
    %1611 = stablehlo.broadcast_in_dim %arg122, dims = [1] : (tensor<2048xf32>) -> tensor<4x2048xf32>
    %1612 = stablehlo.multiply %1610, %1611 : tensor<4x2048xf32>
    %1613 = stablehlo.dot_general %1612, %arg120, contracting_dims = [1] x [1] : (tensor<4x2048xf32>, tensor<8192x2048xf32>) -> tensor<4x8192xf32>
    %1614 = stablehlo.dot_general %1612, %arg123, contracting_dims = [1] x [1] : (tensor<4x2048xf32>, tensor<8192x2048xf32>) -> tensor<4x8192xf32>
    %1615 = stablehlo.negate %1613 : tensor<4x8192xf32>
    %1616 = stablehlo.exponential %1615 : tensor<4x8192xf32>
    %1617 = stablehlo.broadcast_in_dim %3, dims = [] : (tensor<f32>) -> tensor<4x8192xf32>
    %1618 = stablehlo.add %1617, %1616 : tensor<4x8192xf32>
    %1619 = stablehlo.divide %1617, %1618 : tensor<4x8192xf32>
    %1620 = stablehlo.multiply %1613, %1619 : tensor<4x8192xf32>
    %1621 = stablehlo.multiply %1620, %1614 : tensor<4x8192xf32>
    %1622 = stablehlo.dot_general %1621, %arg119, contracting_dims = [1] x [1] : (tensor<4x8192xf32>, tensor<2048x8192xf32>) -> tensor<4x2048xf32>
    %1623 = stablehlo.add %1601, %1622 : tensor<4x2048xf32>
    %1624 = stablehlo.multiply %1623, %1623 : tensor<4x2048xf32>
    %1625 = stablehlo.reduce(%1624 init: %2) applies stablehlo.add across dimensions = [1] : (tensor<4x2048xf32>, tensor<f32>) -> tensor<4xf32>
    %1626 = stablehlo.broadcast_in_dim %7, dims = [] : (tensor<f32>) -> tensor<4xf32>
    %1627 = stablehlo.divide %1625, %1626 : tensor<4xf32>
    %1628 = stablehlo.broadcast_in_dim %6, dims = [] : (tensor<f32>) -> tensor<4xf32>
    %1629 = stablehlo.add %1627, %1628 : tensor<4xf32>
    %1630 = stablehlo.rsqrt %1629 : tensor<4xf32>
    %1631 = stablehlo.broadcast_in_dim %1630, dims = [0] : (tensor<4xf32>) -> tensor<4x2048xf32>
    %1632 = stablehlo.multiply %1623, %1631 : tensor<4x2048xf32>
    %1633 = stablehlo.broadcast_in_dim %arg130, dims = [1] : (tensor<2048xf32>) -> tensor<4x2048xf32>
    %1634 = stablehlo.multiply %1632, %1633 : tensor<4x2048xf32>
    %1635 = stablehlo.dot_general %1634, %arg135, contracting_dims = [1] x [1] : (tensor<4x2048xf32>, tensor<2048x2048xf32>) -> tensor<4x2048xf32>
    %1636 = stablehlo.reshape %1635 : (tensor<4x2048xf32>) -> tensor<4x32x64xf32>
    %1637 = stablehlo.dot_general %1634, %arg133, contracting_dims = [1] x [1] : (tensor<4x2048xf32>, tensor<512x2048xf32>) -> tensor<4x512xf32>
    %1638 = stablehlo.reshape %1637 : (tensor<4x512xf32>) -> tensor<4x8x64xf32>
    %1639 = stablehlo.dot_general %1634, %arg136, contracting_dims = [1] x [1] : (tensor<4x2048xf32>, tensor<512x2048xf32>) -> tensor<4x512xf32>
    %1640 = stablehlo.reshape %1639 : (tensor<4x512xf32>) -> tensor<4x8x64xf32>
    %1641 = stablehlo.broadcast_in_dim %33, dims = [0, 2] : (tensor<4x64xf32>) -> tensor<4x32x64xf32>
    %1642 = stablehlo.broadcast_in_dim %34, dims = [0, 2] : (tensor<4x64xf32>) -> tensor<4x32x64xf32>
    %1643 = stablehlo.multiply %1636, %1641 : tensor<4x32x64xf32>
    %1644 = stablehlo.slice %1636 [0:4, 0:32, 0:32] : (tensor<4x32x64xf32>) -> tensor<4x32x32xf32>
    %1645 = stablehlo.slice %1636 [0:4, 0:32, 32:64] : (tensor<4x32x64xf32>) -> tensor<4x32x32xf32>
    %1646 = stablehlo.negate %1645 : tensor<4x32x32xf32>
    %1647 = stablehlo.concatenate %1646, %1644, dim = 2 : (tensor<4x32x32xf32>, tensor<4x32x32xf32>) -> tensor<4x32x64xf32>
    %1648 = stablehlo.multiply %1647, %1642 : tensor<4x32x64xf32>
    %1649 = stablehlo.add %1643, %1648 : tensor<4x32x64xf32>
    %1650 = stablehlo.broadcast_in_dim %33, dims = [0, 2] : (tensor<4x64xf32>) -> tensor<4x8x64xf32>
    %1651 = stablehlo.broadcast_in_dim %34, dims = [0, 2] : (tensor<4x64xf32>) -> tensor<4x8x64xf32>
    %1652 = stablehlo.multiply %1638, %1650 : tensor<4x8x64xf32>
    %1653 = stablehlo.slice %1638 [0:4, 0:8, 0:32] : (tensor<4x8x64xf32>) -> tensor<4x8x32xf32>
    %1654 = stablehlo.slice %1638 [0:4, 0:8, 32:64] : (tensor<4x8x64xf32>) -> tensor<4x8x32xf32>
    %1655 = stablehlo.negate %1654 : tensor<4x8x32xf32>
    %1656 = stablehlo.concatenate %1655, %1653, dim = 2 : (tensor<4x8x32xf32>, tensor<4x8x32xf32>) -> tensor<4x8x64xf32>
    %1657 = stablehlo.multiply %1656, %1651 : tensor<4x8x64xf32>
    %1658 = stablehlo.add %1652, %1657 : tensor<4x8x64xf32>
    %1659 = stablehlo.slice %arg147 [0:1] : (tensor<4xi32>) -> tensor<1xi32>
    %1660 = stablehlo.reshape %1659 : (tensor<1xi32>) -> tensor<i32>
    %1661 = stablehlo.slice %1658 [0:1, 0:8, 0:64] : (tensor<4x8x64xf32>) -> tensor<1x8x64xf32>
    %1662 = stablehlo.reshape %1661 : (tensor<1x8x64xf32>) -> tensor<1x1x1x8x64xf32>
    %1663 = stablehlo.dynamic_update_slice %1574, %1662, %26, %24, %1660, %9, %9 : (tensor<4x16x256x8x64xf32>, tensor<1x1x1x8x64xf32>, tensor<i32>, tensor<i32>, tensor<i32>, tensor<i32>, tensor<i32>) -> tensor<4x16x256x8x64xf32>
    %1664 = stablehlo.slice %1640 [0:1, 0:8, 0:64] : (tensor<4x8x64xf32>) -> tensor<1x8x64xf32>
    %1665 = stablehlo.reshape %1664 : (tensor<1x8x64xf32>) -> tensor<1x1x1x8x64xf32>
    %1666 = stablehlo.dynamic_update_slice %1577, %1665, %26, %24, %1660, %9, %9 : (tensor<4x16x256x8x64xf32>, tensor<1x1x1x8x64xf32>, tensor<i32>, tensor<i32>, tensor<i32>, tensor<i32>, tensor<i32>) -> tensor<4x16x256x8x64xf32>
    %1667 = stablehlo.slice %arg147 [1:2] : (tensor<4xi32>) -> tensor<1xi32>
    %1668 = stablehlo.reshape %1667 : (tensor<1xi32>) -> tensor<i32>
    %1669 = stablehlo.slice %1658 [1:2, 0:8, 0:64] : (tensor<4x8x64xf32>) -> tensor<1x8x64xf32>
    %1670 = stablehlo.reshape %1669 : (tensor<1x8x64xf32>) -> tensor<1x1x1x8x64xf32>
    %1671 = stablehlo.dynamic_update_slice %1663, %1670, %27, %24, %1668, %9, %9 : (tensor<4x16x256x8x64xf32>, tensor<1x1x1x8x64xf32>, tensor<i32>, tensor<i32>, tensor<i32>, tensor<i32>, tensor<i32>) -> tensor<4x16x256x8x64xf32>
    %1672 = stablehlo.slice %1640 [1:2, 0:8, 0:64] : (tensor<4x8x64xf32>) -> tensor<1x8x64xf32>
    %1673 = stablehlo.reshape %1672 : (tensor<1x8x64xf32>) -> tensor<1x1x1x8x64xf32>
    %1674 = stablehlo.dynamic_update_slice %1666, %1673, %27, %24, %1668, %9, %9 : (tensor<4x16x256x8x64xf32>, tensor<1x1x1x8x64xf32>, tensor<i32>, tensor<i32>, tensor<i32>, tensor<i32>, tensor<i32>) -> tensor<4x16x256x8x64xf32>
    %1675 = stablehlo.slice %arg147 [2:3] : (tensor<4xi32>) -> tensor<1xi32>
    %1676 = stablehlo.reshape %1675 : (tensor<1xi32>) -> tensor<i32>
    %1677 = stablehlo.slice %1658 [2:3, 0:8, 0:64] : (tensor<4x8x64xf32>) -> tensor<1x8x64xf32>
    %1678 = stablehlo.reshape %1677 : (tensor<1x8x64xf32>) -> tensor<1x1x1x8x64xf32>
    %1679 = stablehlo.dynamic_update_slice %1671, %1678, %28, %24, %1676, %9, %9 : (tensor<4x16x256x8x64xf32>, tensor<1x1x1x8x64xf32>, tensor<i32>, tensor<i32>, tensor<i32>, tensor<i32>, tensor<i32>) -> tensor<4x16x256x8x64xf32>
    %1680 = stablehlo.slice %1640 [2:3, 0:8, 0:64] : (tensor<4x8x64xf32>) -> tensor<1x8x64xf32>
    %1681 = stablehlo.reshape %1680 : (tensor<1x8x64xf32>) -> tensor<1x1x1x8x64xf32>
    %1682 = stablehlo.dynamic_update_slice %1674, %1681, %28, %24, %1676, %9, %9 : (tensor<4x16x256x8x64xf32>, tensor<1x1x1x8x64xf32>, tensor<i32>, tensor<i32>, tensor<i32>, tensor<i32>, tensor<i32>) -> tensor<4x16x256x8x64xf32>
    %1683 = stablehlo.slice %arg147 [3:4] : (tensor<4xi32>) -> tensor<1xi32>
    %1684 = stablehlo.reshape %1683 : (tensor<1xi32>) -> tensor<i32>
    %1685 = stablehlo.slice %1658 [3:4, 0:8, 0:64] : (tensor<4x8x64xf32>) -> tensor<1x8x64xf32>
    %1686 = stablehlo.reshape %1685 : (tensor<1x8x64xf32>) -> tensor<1x1x1x8x64xf32>
    %1687 = stablehlo.dynamic_update_slice %1679, %1686, %29, %24, %1684, %9, %9 : (tensor<4x16x256x8x64xf32>, tensor<1x1x1x8x64xf32>, tensor<i32>, tensor<i32>, tensor<i32>, tensor<i32>, tensor<i32>) -> tensor<4x16x256x8x64xf32>
    %1688 = stablehlo.slice %1640 [3:4, 0:8, 0:64] : (tensor<4x8x64xf32>) -> tensor<1x8x64xf32>
    %1689 = stablehlo.reshape %1688 : (tensor<1x8x64xf32>) -> tensor<1x1x1x8x64xf32>
    %1690 = stablehlo.dynamic_update_slice %1682, %1689, %29, %24, %1684, %9, %9 : (tensor<4x16x256x8x64xf32>, tensor<1x1x1x8x64xf32>, tensor<i32>, tensor<i32>, tensor<i32>, tensor<i32>, tensor<i32>) -> tensor<4x16x256x8x64xf32>
    %1691 = stablehlo.slice %1687 [0:4, 14:15, 0:256, 0:8, 0:64] : (tensor<4x16x256x8x64xf32>) -> tensor<4x1x256x8x64xf32>
    %1692 = stablehlo.reshape %1691 : (tensor<4x1x256x8x64xf32>) -> tensor<4x256x8x64xf32>
    %1693 = stablehlo.slice %1690 [0:4, 14:15, 0:256, 0:8, 0:64] : (tensor<4x16x256x8x64xf32>) -> tensor<4x1x256x8x64xf32>
    %1694 = stablehlo.reshape %1693 : (tensor<4x1x256x8x64xf32>) -> tensor<4x256x8x64xf32>
    %1695 = stablehlo.reshape %1649 : (tensor<4x32x64xf32>) -> tensor<4x8x4x64xf32>
    %1696 = stablehlo.dot_general %1695, %1692, batching_dims = [0, 1] x [0, 2], contracting_dims = [3] x [3] : (tensor<4x8x4x64xf32>, tensor<4x256x8x64xf32>) -> tensor<4x8x4x256xf32>
    %1697 = stablehlo.reshape %1696 : (tensor<4x8x4x256xf32>) -> tensor<4x32x256xf32>
    %1698 = stablehlo.broadcast_in_dim %8, dims = [] : (tensor<f32>) -> tensor<4x32x256xf32>
    %1699 = stablehlo.multiply %1697, %1698 : tensor<4x32x256xf32>
    %1700 = stablehlo.broadcast_in_dim %41, dims = [0, 2] : (tensor<4x256xf32>) -> tensor<4x32x256xf32>
    %1701 = stablehlo.add %1699, %1700 : tensor<4x32x256xf32>
    %1702 = stablehlo.reduce(%1701 init: %4) applies stablehlo.maximum across dimensions = [2] : (tensor<4x32x256xf32>, tensor<f32>) -> tensor<4x32xf32>
    %1703 = stablehlo.broadcast_in_dim %1702, dims = [0, 1] : (tensor<4x32xf32>) -> tensor<4x32x256xf32>
    %1704 = stablehlo.subtract %1701, %1703 : tensor<4x32x256xf32>
    %1705 = stablehlo.exponential %1704 : tensor<4x32x256xf32>
    %1706 = stablehlo.reduce(%1705 init: %2) applies stablehlo.add across dimensions = [2] : (tensor<4x32x256xf32>, tensor<f32>) -> tensor<4x32xf32>
    %1707 = stablehlo.broadcast_in_dim %1706, dims = [0, 1] : (tensor<4x32xf32>) -> tensor<4x32x256xf32>
    %1708 = stablehlo.divide %1705, %1707 : tensor<4x32x256xf32>
    %1709 = stablehlo.reshape %1708 : (tensor<4x32x256xf32>) -> tensor<4x8x4x256xf32>
    %1710 = stablehlo.dot_general %1709, %1694, batching_dims = [0, 1] x [0, 2], contracting_dims = [3] x [1] : (tensor<4x8x4x256xf32>, tensor<4x256x8x64xf32>) -> tensor<4x8x4x64xf32>
    %1711 = stablehlo.reshape %1710 : (tensor<4x8x4x64xf32>) -> tensor<4x32x64xf32>
    %1712 = stablehlo.reshape %1711 : (tensor<4x32x64xf32>) -> tensor<4x2048xf32>
    %1713 = stablehlo.dot_general %1712, %arg134, contracting_dims = [1] x [1] : (tensor<4x2048xf32>, tensor<2048x2048xf32>) -> tensor<4x2048xf32>
    %1714 = stablehlo.add %1623, %1713 : tensor<4x2048xf32>
    %1715 = stablehlo.multiply %1714, %1714 : tensor<4x2048xf32>
    %1716 = stablehlo.reduce(%1715 init: %2) applies stablehlo.add across dimensions = [1] : (tensor<4x2048xf32>, tensor<f32>) -> tensor<4xf32>
    %1717 = stablehlo.broadcast_in_dim %7, dims = [] : (tensor<f32>) -> tensor<4xf32>
    %1718 = stablehlo.divide %1716, %1717 : tensor<4xf32>
    %1719 = stablehlo.broadcast_in_dim %6, dims = [] : (tensor<f32>) -> tensor<4xf32>
    %1720 = stablehlo.add %1718, %1719 : tensor<4xf32>
    %1721 = stablehlo.rsqrt %1720 : tensor<4xf32>
    %1722 = stablehlo.broadcast_in_dim %1721, dims = [0] : (tensor<4xf32>) -> tensor<4x2048xf32>
    %1723 = stablehlo.multiply %1714, %1722 : tensor<4x2048xf32>
    %1724 = stablehlo.broadcast_in_dim %arg131, dims = [1] : (tensor<2048xf32>) -> tensor<4x2048xf32>
    %1725 = stablehlo.multiply %1723, %1724 : tensor<4x2048xf32>
    %1726 = stablehlo.dot_general %1725, %arg129, contracting_dims = [1] x [1] : (tensor<4x2048xf32>, tensor<8192x2048xf32>) -> tensor<4x8192xf32>
    %1727 = stablehlo.dot_general %1725, %arg132, contracting_dims = [1] x [1] : (tensor<4x2048xf32>, tensor<8192x2048xf32>) -> tensor<4x8192xf32>
    %1728 = stablehlo.negate %1726 : tensor<4x8192xf32>
    %1729 = stablehlo.exponential %1728 : tensor<4x8192xf32>
    %1730 = stablehlo.broadcast_in_dim %3, dims = [] : (tensor<f32>) -> tensor<4x8192xf32>
    %1731 = stablehlo.add %1730, %1729 : tensor<4x8192xf32>
    %1732 = stablehlo.divide %1730, %1731 : tensor<4x8192xf32>
    %1733 = stablehlo.multiply %1726, %1732 : tensor<4x8192xf32>
    %1734 = stablehlo.multiply %1733, %1727 : tensor<4x8192xf32>
    %1735 = stablehlo.dot_general %1734, %arg128, contracting_dims = [1] x [1] : (tensor<4x8192xf32>, tensor<2048x8192xf32>) -> tensor<4x2048xf32>
    %1736 = stablehlo.add %1714, %1735 : tensor<4x2048xf32>
    %1737 = stablehlo.multiply %1736, %1736 : tensor<4x2048xf32>
    %1738 = stablehlo.reduce(%1737 init: %2) applies stablehlo.add across dimensions = [1] : (tensor<4x2048xf32>, tensor<f32>) -> tensor<4xf32>
    %1739 = stablehlo.broadcast_in_dim %7, dims = [] : (tensor<f32>) -> tensor<4xf32>
    %1740 = stablehlo.divide %1738, %1739 : tensor<4xf32>
    %1741 = stablehlo.broadcast_in_dim %6, dims = [] : (tensor<f32>) -> tensor<4xf32>
    %1742 = stablehlo.add %1740, %1741 : tensor<4xf32>
    %1743 = stablehlo.rsqrt %1742 : tensor<4xf32>
    %1744 = stablehlo.broadcast_in_dim %1743, dims = [0] : (tensor<4xf32>) -> tensor<4x2048xf32>
    %1745 = stablehlo.multiply %1736, %1744 : tensor<4x2048xf32>
    %1746 = stablehlo.broadcast_in_dim %arg139, dims = [1] : (tensor<2048xf32>) -> tensor<4x2048xf32>
    %1747 = stablehlo.multiply %1745, %1746 : tensor<4x2048xf32>
    %1748 = stablehlo.dot_general %1747, %arg144, contracting_dims = [1] x [1] : (tensor<4x2048xf32>, tensor<2048x2048xf32>) -> tensor<4x2048xf32>
    %1749 = stablehlo.reshape %1748 : (tensor<4x2048xf32>) -> tensor<4x32x64xf32>
    %1750 = stablehlo.dot_general %1747, %arg142, contracting_dims = [1] x [1] : (tensor<4x2048xf32>, tensor<512x2048xf32>) -> tensor<4x512xf32>
    %1751 = stablehlo.reshape %1750 : (tensor<4x512xf32>) -> tensor<4x8x64xf32>
    %1752 = stablehlo.dot_general %1747, %arg145, contracting_dims = [1] x [1] : (tensor<4x2048xf32>, tensor<512x2048xf32>) -> tensor<4x512xf32>
    %1753 = stablehlo.reshape %1752 : (tensor<4x512xf32>) -> tensor<4x8x64xf32>
    %1754 = stablehlo.broadcast_in_dim %33, dims = [0, 2] : (tensor<4x64xf32>) -> tensor<4x32x64xf32>
    %1755 = stablehlo.broadcast_in_dim %34, dims = [0, 2] : (tensor<4x64xf32>) -> tensor<4x32x64xf32>
    %1756 = stablehlo.multiply %1749, %1754 : tensor<4x32x64xf32>
    %1757 = stablehlo.slice %1749 [0:4, 0:32, 0:32] : (tensor<4x32x64xf32>) -> tensor<4x32x32xf32>
    %1758 = stablehlo.slice %1749 [0:4, 0:32, 32:64] : (tensor<4x32x64xf32>) -> tensor<4x32x32xf32>
    %1759 = stablehlo.negate %1758 : tensor<4x32x32xf32>
    %1760 = stablehlo.concatenate %1759, %1757, dim = 2 : (tensor<4x32x32xf32>, tensor<4x32x32xf32>) -> tensor<4x32x64xf32>
    %1761 = stablehlo.multiply %1760, %1755 : tensor<4x32x64xf32>
    %1762 = stablehlo.add %1756, %1761 : tensor<4x32x64xf32>
    %1763 = stablehlo.broadcast_in_dim %33, dims = [0, 2] : (tensor<4x64xf32>) -> tensor<4x8x64xf32>
    %1764 = stablehlo.broadcast_in_dim %34, dims = [0, 2] : (tensor<4x64xf32>) -> tensor<4x8x64xf32>
    %1765 = stablehlo.multiply %1751, %1763 : tensor<4x8x64xf32>
    %1766 = stablehlo.slice %1751 [0:4, 0:8, 0:32] : (tensor<4x8x64xf32>) -> tensor<4x8x32xf32>
    %1767 = stablehlo.slice %1751 [0:4, 0:8, 32:64] : (tensor<4x8x64xf32>) -> tensor<4x8x32xf32>
    %1768 = stablehlo.negate %1767 : tensor<4x8x32xf32>
    %1769 = stablehlo.concatenate %1768, %1766, dim = 2 : (tensor<4x8x32xf32>, tensor<4x8x32xf32>) -> tensor<4x8x64xf32>
    %1770 = stablehlo.multiply %1769, %1764 : tensor<4x8x64xf32>
    %1771 = stablehlo.add %1765, %1770 : tensor<4x8x64xf32>
    %1772 = stablehlo.slice %arg147 [0:1] : (tensor<4xi32>) -> tensor<1xi32>
    %1773 = stablehlo.reshape %1772 : (tensor<1xi32>) -> tensor<i32>
    %1774 = stablehlo.slice %1771 [0:1, 0:8, 0:64] : (tensor<4x8x64xf32>) -> tensor<1x8x64xf32>
    %1775 = stablehlo.reshape %1774 : (tensor<1x8x64xf32>) -> tensor<1x1x1x8x64xf32>
    %1776 = stablehlo.dynamic_update_slice %1687, %1775, %26, %25, %1773, %9, %9 : (tensor<4x16x256x8x64xf32>, tensor<1x1x1x8x64xf32>, tensor<i32>, tensor<i32>, tensor<i32>, tensor<i32>, tensor<i32>) -> tensor<4x16x256x8x64xf32>
    %1777 = stablehlo.slice %1753 [0:1, 0:8, 0:64] : (tensor<4x8x64xf32>) -> tensor<1x8x64xf32>
    %1778 = stablehlo.reshape %1777 : (tensor<1x8x64xf32>) -> tensor<1x1x1x8x64xf32>
    %1779 = stablehlo.dynamic_update_slice %1690, %1778, %26, %25, %1773, %9, %9 : (tensor<4x16x256x8x64xf32>, tensor<1x1x1x8x64xf32>, tensor<i32>, tensor<i32>, tensor<i32>, tensor<i32>, tensor<i32>) -> tensor<4x16x256x8x64xf32>
    %1780 = stablehlo.slice %arg147 [1:2] : (tensor<4xi32>) -> tensor<1xi32>
    %1781 = stablehlo.reshape %1780 : (tensor<1xi32>) -> tensor<i32>
    %1782 = stablehlo.slice %1771 [1:2, 0:8, 0:64] : (tensor<4x8x64xf32>) -> tensor<1x8x64xf32>
    %1783 = stablehlo.reshape %1782 : (tensor<1x8x64xf32>) -> tensor<1x1x1x8x64xf32>
    %1784 = stablehlo.dynamic_update_slice %1776, %1783, %27, %25, %1781, %9, %9 : (tensor<4x16x256x8x64xf32>, tensor<1x1x1x8x64xf32>, tensor<i32>, tensor<i32>, tensor<i32>, tensor<i32>, tensor<i32>) -> tensor<4x16x256x8x64xf32>
    %1785 = stablehlo.slice %1753 [1:2, 0:8, 0:64] : (tensor<4x8x64xf32>) -> tensor<1x8x64xf32>
    %1786 = stablehlo.reshape %1785 : (tensor<1x8x64xf32>) -> tensor<1x1x1x8x64xf32>
    %1787 = stablehlo.dynamic_update_slice %1779, %1786, %27, %25, %1781, %9, %9 : (tensor<4x16x256x8x64xf32>, tensor<1x1x1x8x64xf32>, tensor<i32>, tensor<i32>, tensor<i32>, tensor<i32>, tensor<i32>) -> tensor<4x16x256x8x64xf32>
    %1788 = stablehlo.slice %arg147 [2:3] : (tensor<4xi32>) -> tensor<1xi32>
    %1789 = stablehlo.reshape %1788 : (tensor<1xi32>) -> tensor<i32>
    %1790 = stablehlo.slice %1771 [2:3, 0:8, 0:64] : (tensor<4x8x64xf32>) -> tensor<1x8x64xf32>
    %1791 = stablehlo.reshape %1790 : (tensor<1x8x64xf32>) -> tensor<1x1x1x8x64xf32>
    %1792 = stablehlo.dynamic_update_slice %1784, %1791, %28, %25, %1789, %9, %9 : (tensor<4x16x256x8x64xf32>, tensor<1x1x1x8x64xf32>, tensor<i32>, tensor<i32>, tensor<i32>, tensor<i32>, tensor<i32>) -> tensor<4x16x256x8x64xf32>
    %1793 = stablehlo.slice %1753 [2:3, 0:8, 0:64] : (tensor<4x8x64xf32>) -> tensor<1x8x64xf32>
    %1794 = stablehlo.reshape %1793 : (tensor<1x8x64xf32>) -> tensor<1x1x1x8x64xf32>
    %1795 = stablehlo.dynamic_update_slice %1787, %1794, %28, %25, %1789, %9, %9 : (tensor<4x16x256x8x64xf32>, tensor<1x1x1x8x64xf32>, tensor<i32>, tensor<i32>, tensor<i32>, tensor<i32>, tensor<i32>) -> tensor<4x16x256x8x64xf32>
    %1796 = stablehlo.slice %arg147 [3:4] : (tensor<4xi32>) -> tensor<1xi32>
    %1797 = stablehlo.reshape %1796 : (tensor<1xi32>) -> tensor<i32>
    %1798 = stablehlo.slice %1771 [3:4, 0:8, 0:64] : (tensor<4x8x64xf32>) -> tensor<1x8x64xf32>
    %1799 = stablehlo.reshape %1798 : (tensor<1x8x64xf32>) -> tensor<1x1x1x8x64xf32>
    %1800 = stablehlo.dynamic_update_slice %1792, %1799, %29, %25, %1797, %9, %9 : (tensor<4x16x256x8x64xf32>, tensor<1x1x1x8x64xf32>, tensor<i32>, tensor<i32>, tensor<i32>, tensor<i32>, tensor<i32>) -> tensor<4x16x256x8x64xf32>
    %1801 = stablehlo.slice %1753 [3:4, 0:8, 0:64] : (tensor<4x8x64xf32>) -> tensor<1x8x64xf32>
    %1802 = stablehlo.reshape %1801 : (tensor<1x8x64xf32>) -> tensor<1x1x1x8x64xf32>
    %1803 = stablehlo.dynamic_update_slice %1795, %1802, %29, %25, %1797, %9, %9 : (tensor<4x16x256x8x64xf32>, tensor<1x1x1x8x64xf32>, tensor<i32>, tensor<i32>, tensor<i32>, tensor<i32>, tensor<i32>) -> tensor<4x16x256x8x64xf32>
    %1804 = stablehlo.slice %1800 [0:4, 15:16, 0:256, 0:8, 0:64] : (tensor<4x16x256x8x64xf32>) -> tensor<4x1x256x8x64xf32>
    %1805 = stablehlo.reshape %1804 : (tensor<4x1x256x8x64xf32>) -> tensor<4x256x8x64xf32>
    %1806 = stablehlo.slice %1803 [0:4, 15:16, 0:256, 0:8, 0:64] : (tensor<4x16x256x8x64xf32>) -> tensor<4x1x256x8x64xf32>
    %1807 = stablehlo.reshape %1806 : (tensor<4x1x256x8x64xf32>) -> tensor<4x256x8x64xf32>
    %1808 = stablehlo.reshape %1762 : (tensor<4x32x64xf32>) -> tensor<4x8x4x64xf32>
    %1809 = stablehlo.dot_general %1808, %1805, batching_dims = [0, 1] x [0, 2], contracting_dims = [3] x [3] : (tensor<4x8x4x64xf32>, tensor<4x256x8x64xf32>) -> tensor<4x8x4x256xf32>
    %1810 = stablehlo.reshape %1809 : (tensor<4x8x4x256xf32>) -> tensor<4x32x256xf32>
    %1811 = stablehlo.broadcast_in_dim %8, dims = [] : (tensor<f32>) -> tensor<4x32x256xf32>
    %1812 = stablehlo.multiply %1810, %1811 : tensor<4x32x256xf32>
    %1813 = stablehlo.broadcast_in_dim %41, dims = [0, 2] : (tensor<4x256xf32>) -> tensor<4x32x256xf32>
    %1814 = stablehlo.add %1812, %1813 : tensor<4x32x256xf32>
    %1815 = stablehlo.reduce(%1814 init: %4) applies stablehlo.maximum across dimensions = [2] : (tensor<4x32x256xf32>, tensor<f32>) -> tensor<4x32xf32>
    %1816 = stablehlo.broadcast_in_dim %1815, dims = [0, 1] : (tensor<4x32xf32>) -> tensor<4x32x256xf32>
    %1817 = stablehlo.subtract %1814, %1816 : tensor<4x32x256xf32>
    %1818 = stablehlo.exponential %1817 : tensor<4x32x256xf32>
    %1819 = stablehlo.reduce(%1818 init: %2) applies stablehlo.add across dimensions = [2] : (tensor<4x32x256xf32>, tensor<f32>) -> tensor<4x32xf32>
    %1820 = stablehlo.broadcast_in_dim %1819, dims = [0, 1] : (tensor<4x32xf32>) -> tensor<4x32x256xf32>
    %1821 = stablehlo.divide %1818, %1820 : tensor<4x32x256xf32>
    %1822 = stablehlo.reshape %1821 : (tensor<4x32x256xf32>) -> tensor<4x8x4x256xf32>
    %1823 = stablehlo.dot_general %1822, %1807, batching_dims = [0, 1] x [0, 2], contracting_dims = [3] x [1] : (tensor<4x8x4x256xf32>, tensor<4x256x8x64xf32>) -> tensor<4x8x4x64xf32>
    %1824 = stablehlo.reshape %1823 : (tensor<4x8x4x64xf32>) -> tensor<4x32x64xf32>
    %1825 = stablehlo.reshape %1824 : (tensor<4x32x64xf32>) -> tensor<4x2048xf32>
    %1826 = stablehlo.dot_general %1825, %arg143, contracting_dims = [1] x [1] : (tensor<4x2048xf32>, tensor<2048x2048xf32>) -> tensor<4x2048xf32>
    %1827 = stablehlo.add %1736, %1826 : tensor<4x2048xf32>
    %1828 = stablehlo.multiply %1827, %1827 : tensor<4x2048xf32>
    %1829 = stablehlo.reduce(%1828 init: %2) applies stablehlo.add across dimensions = [1] : (tensor<4x2048xf32>, tensor<f32>) -> tensor<4xf32>
    %1830 = stablehlo.broadcast_in_dim %7, dims = [] : (tensor<f32>) -> tensor<4xf32>
    %1831 = stablehlo.divide %1829, %1830 : tensor<4xf32>
    %1832 = stablehlo.broadcast_in_dim %6, dims = [] : (tensor<f32>) -> tensor<4xf32>
    %1833 = stablehlo.add %1831, %1832 : tensor<4xf32>
    %1834 = stablehlo.rsqrt %1833 : tensor<4xf32>
    %1835 = stablehlo.broadcast_in_dim %1834, dims = [0] : (tensor<4xf32>) -> tensor<4x2048xf32>
    %1836 = stablehlo.multiply %1827, %1835 : tensor<4x2048xf32>
    %1837 = stablehlo.broadcast_in_dim %arg140, dims = [1] : (tensor<2048xf32>) -> tensor<4x2048xf32>
    %1838 = stablehlo.multiply %1836, %1837 : tensor<4x2048xf32>
    %1839 = stablehlo.dot_general %1838, %arg138, contracting_dims = [1] x [1] : (tensor<4x2048xf32>, tensor<8192x2048xf32>) -> tensor<4x8192xf32>
    %1840 = stablehlo.dot_general %1838, %arg141, contracting_dims = [1] x [1] : (tensor<4x2048xf32>, tensor<8192x2048xf32>) -> tensor<4x8192xf32>
    %1841 = stablehlo.negate %1839 : tensor<4x8192xf32>
    %1842 = stablehlo.exponential %1841 : tensor<4x8192xf32>
    %1843 = stablehlo.broadcast_in_dim %3, dims = [] : (tensor<f32>) -> tensor<4x8192xf32>
    %1844 = stablehlo.add %1843, %1842 : tensor<4x8192xf32>
    %1845 = stablehlo.divide %1843, %1844 : tensor<4x8192xf32>
    %1846 = stablehlo.multiply %1839, %1845 : tensor<4x8192xf32>
    %1847 = stablehlo.multiply %1846, %1840 : tensor<4x8192xf32>
    %1848 = stablehlo.dot_general %1847, %arg137, contracting_dims = [1] x [1] : (tensor<4x8192xf32>, tensor<2048x8192xf32>) -> tensor<4x2048xf32>
    %1849 = stablehlo.add %1827, %1848 : tensor<4x2048xf32>
    %1850 = stablehlo.multiply %1849, %1849 : tensor<4x2048xf32>
    %1851 = stablehlo.reduce(%1850 init: %2) applies stablehlo.add across dimensions = [1] : (tensor<4x2048xf32>, tensor<f32>) -> tensor<4xf32>
    %1852 = stablehlo.broadcast_in_dim %7, dims = [] : (tensor<f32>) -> tensor<4xf32>
    %1853 = stablehlo.divide %1851, %1852 : tensor<4xf32>
    %1854 = stablehlo.broadcast_in_dim %6, dims = [] : (tensor<f32>) -> tensor<4xf32>
    %1855 = stablehlo.add %1853, %1854 : tensor<4xf32>
    %1856 = stablehlo.rsqrt %1855 : tensor<4xf32>
    %1857 = stablehlo.broadcast_in_dim %1856, dims = [0] : (tensor<4xf32>) -> tensor<4x2048xf32>
    %1858 = stablehlo.multiply %1849, %1857 : tensor<4x2048xf32>
    %1859 = stablehlo.broadcast_in_dim %arg1, dims = [1] : (tensor<2048xf32>) -> tensor<4x2048xf32>
    %1860 = stablehlo.multiply %1858, %1859 : tensor<4x2048xf32>
    %1861 = stablehlo.dot_general %1860, %arg0, contracting_dims = [1] x [1] : (tensor<4x2048xf32>, tensor<128256x2048xf32>) -> tensor<4x128256xf32>
    %1862 = stablehlo.constant dense<0> : tensor<i32>
    %1863 = stablehlo.constant dense<0xFF800000> : tensor<f32>
    %1864 = stablehlo.iota dim = 1 : tensor<4x128256xi32>
    %1865:2 = stablehlo.reduce(%1861 init: %1863), (%1864 init: %1862) across dimensions = [1] : (tensor<4x128256xf32>, tensor<4x128256xi32>, tensor<f32>, tensor<i32>) -> (tensor<4xf32>, tensor<4xi32>)
    reducer(%amv_l: tensor<f32>, %amv_r: tensor<f32>) (%ami_l: tensor<i32>, %ami_r: tensor<i32>) {
      %1866 = stablehlo.compare GT, %amv_l, %amv_r, FLOAT : (tensor<f32>, tensor<f32>) -> tensor<i1>
      %1867 = stablehlo.compare NE, %amv_l, %amv_l, FLOAT : (tensor<f32>, tensor<f32>) -> tensor<i1>
      %1868 = stablehlo.or %1866, %1867 : tensor<i1>
      %1869 = stablehlo.compare EQ, %amv_l, %amv_r, FLOAT : (tensor<f32>, tensor<f32>) -> tensor<i1>
      %1870 = stablehlo.compare LT, %ami_l, %ami_r, SIGNED : (tensor<i32>, tensor<i32>) -> tensor<i1>
      %1871 = stablehlo.and %1869, %1870 : tensor<i1>
      %1872 = stablehlo.or %1868, %1871 : tensor<i1>
      %1873 = stablehlo.select %1868, %amv_l, %amv_r : tensor<i1>, tensor<f32>
      %1874 = stablehlo.select %1872, %ami_l, %ami_r : tensor<i1>, tensor<i32>
      stablehlo.return %1873, %1874 : tensor<f32>, tensor<i32>
    }
    return %1865#1, %1800, %1803 : tensor<4xi32>, tensor<4x16x256x8x64xf32>, tensor<4x16x256x8x64xf32>
  }
}
