module @decode_step {
  func.func public @main(%arg0: tensor<128256x2048xf32> loc("params['embed']"), %arg1: tensor<2048xf32> loc("params['final_norm']"), %arg2: tensor<2048x8192xf32> loc("params['layers'][0]['down']"), %arg3: tensor<8192x2048xf32> loc("params['layers'][0]['gate']"), %arg4: tensor<2048xf32> loc("params['layers'][0]['in_ln']"), %arg5: tensor<2048xf32> loc("params['layers'][0]['post_ln']"), %arg6: tensor<8192x2048xf32> loc("params['layers'][0]['up']"), %arg7: tensor<512x2048xf32> loc("params['layers'][0]['wk']"), %arg8: tensor<2048x2048xf32> loc("params['layers'][0]['wo']"), %arg9: tensor<2048x2048xf32> loc("params['layers'][0]['wq']"), %arg10: tensor<512x2048xf32> loc("params['layers'][0]['wv']"), %arg11: tensor<2048x8192xf32> loc("params['layers'][1]['down']"), %arg12: tensor<8192x2048xf32> loc("params['layers'][1]['gate']"), %arg13: tensor<2048xf32> loc("params['layers'][1]['in_ln']"), %arg14: tensor<2048xf32> loc("params['layers'][1]['post_ln']"), %arg15: tensor<8192x2048xf32> loc("params['layers'][1]['up']"), %arg16: tensor<512x2048xf32> loc("params['layers'][1]['wk']"), %arg17: tensor<2048x2048xf32> loc("params['layers'][1]['wo']"), %arg18: tensor<2048x2048xf32> loc("params['layers'][1]['wq']"), %arg19: tensor<512x2048xf32> loc("params['layers'][1]['wv']"), %arg20: tensor<2048x8192xf32> loc("params['layers'][2]['down']"), %arg21: tensor<8192x2048xf32> loc("params['layers'][2]['gate']"), %arg22: tensor<2048xf32> loc("params['layers'][2]['in_ln']"), %arg23: tensor<2048xf32> loc("params['layers'][2]['post_ln']"), %arg24: tensor<8192x2048xf32> loc("params['layers'][2]['up']"), %arg25: tensor<512x2048xf32> loc("params['layers'][2]['wk']"), %arg26: tensor<2048x2048xf32> loc("params['layers'][2]['wo']"), %arg27: tensor<2048x2048xf32> loc("params['layers'][2]['wq']"), %arg28: tensor<512x2048xf32> loc("params['layers'][2]['wv']"), %arg29: tensor<2048x8192xf32> loc("params['layers'][3]['down']"), %arg30: tensor<8192x2048xf32> loc("params['layers'][3]['gate']"), %arg31: tensor<2048xf32> loc("params['layers'][3]['in_ln']"), %arg32: tensor<2048xf32> loc("params['layers'][3]['post_ln']"), %arg33: tensor<8192x2048xf32> loc("params['layers'][3]['up']"), %arg34: tensor<512x2048xf32> loc("params['layers'][3]['wk']"), %arg35: tensor<2048x2048xf32> loc("params['layers'][3]['wo']"), %arg36: tensor<2048x2048xf32> loc("params['layers'][3]['wq']"), %arg37: tensor<512x2048xf32> loc("params['layers'][3]['wv']"), %arg38: tensor<2048x8192xf32> loc("params['layers'][4]['down']"), %arg39: tensor<8192x2048xf32> loc("params['layers'][4]['gate']"), %arg40: tensor<2048xf32> loc("params['layers'][4]['in_ln']"), %arg41: tensor<2048xf32> loc("params['layers'][4]['post_ln']"), %arg42: tensor<8192x2048xf32> loc("params['layers'][4]['up']"), %arg43: tensor<512x2048xf32> loc("params['layers'][4]['wk']"), %arg44: tensor<2048x2048xf32> loc("params['layers'][4]['wo']"), %arg45: tensor<2048x2048xf32> loc("params['layers'][4]['wq']"), %arg46: tensor<512x2048xf32> loc("params['layers'][4]['wv']"), %arg47: tensor<2048x8192xf32> loc("params['layers'][5]['down']"), %arg48: tensor<8192x2048xf32> loc("params['layers'][5]['gate']"), %arg49: tensor<2048xf32> loc("params['layers'][5]['in_ln']"), %arg50: tensor<2048xf32> loc("params['layers'][5]['post_ln']"), %arg51: tensor<8192x2048xf32> loc("params['layers'][5]['up']"), %arg52: tensor<512x2048xf32> loc("params['layers'][5]['wk']"), %arg53: tensor<2048x2048xf32> loc("params['layers'][5]['wo']"), %arg54: tensor<2048x2048xf32> loc("params['layers'][5]['wq']"), %arg55: tensor<512x2048xf32> loc("params['layers'][5]['wv']"), %arg56: tensor<2048x8192xf32> loc("params['layers'][6]['down']"), %arg57: tensor<8192x2048xf32> loc("params['layers'][6]['gate']"), %arg58: tensor<2048xf32> loc("params['layers'][6]['in_ln']"), %arg59: tensor<2048xf32> loc("params['layers'][6]['post_ln']"), %arg60: tensor<8192x2048xf32> loc("params['layers'][6]['up']"), %arg61: tensor<512x2048xf32> loc("params['layers'][6]['wk']"), %arg62: tensor<2048x2048xf32> loc("params['layers'][6]['wo']"), %arg63: tensor<2048x2048xf32> loc("params['layers'][6]['wq']"), %arg64: tensor<512x2048xf32> loc("params['layers'][6]['wv']"), %arg65: tensor<2048x8192xf32> loc("params['layers'][7]['down']"), %arg66: tensor<8192x2048xf32> loc("params['layers'][7]['gate']"), %arg67: tensor<2048xf32> loc("params['layers'][7]['in_ln']"), %arg68: tensor<2048xf32> loc("params['layers'][7]['post_ln']"), %arg69: tensor<8192x2048xf32> loc("params['layers'][7]['up']"), %arg70: tensor<512x2048xf32> loc("params['layers'][7]['wk']"), %arg71: tensor<2048x2048xf32> loc("params['layers'][7]['wo']"), %arg72: tensor<2048x2048xf32> loc("params['layers'][7]['wq']"), %arg73: tensor<512x2048xf32> loc("params['layers'][7]['wv']"), %arg74: tensor<2048x8192xf32> loc("params['layers'][8]['down']"), %arg75: tensor<8192x2048xf32> loc("params['layers'][8]['gate']"), %arg76: tensor<2048xf32> loc("params['layers'][8]['in_ln']"), %arg77: tensor<2048xf32> loc("params['layers'][8]['post_ln']"), %arg78: tensor<8192x2048xf32> loc("params['layers'][8]['up']"), %arg79: tensor<512x2048xf32> loc("params['layers'][8]['wk']"), %arg80: tensor<2048x2048xf32> loc("params['layers'][8]['wo']"), %arg81: tensor<2048x2048xf32> loc("params['layers'][8]['wq']"), %arg82: tensor<512x2048xf32> loc("params['layers'][8]['wv']"), %arg83: tensor<2048x8192xf32> loc("params['layers'][9]['down']"), %arg84: tensor<8192x2048xf32> loc("params['layers'][9]['gate']"), %arg85: tensor<2048xf32> loc("params['layers'][9]['in_ln']"), %arg86: tensor<2048xf32> loc("params['layers'][9]['post_ln']"), %arg87: tensor<8192x2048xf32> loc("params['layers'][9]['up']"), %arg88: tensor<512x2048xf32> loc("params['layers'][9]['wk']"), %arg89: tensor<2048x2048xf32> loc("params['layers'][9]['wo']"), %arg90: tensor<2048x2048xf32> loc("params['layers'][9]['wq']"), %arg91: tensor<512x2048xf32> loc("params['layers'][9]['wv']"), %arg92: tensor<2048x8192xf32> loc("params['layers'][10]['down']"), %arg93: tensor<8192x2048xf32> loc("params['layers'][10]['gate']"), %arg94: tensor<2048xf32> loc("params['layers'][10]['in_ln']"), %arg95: tensor<2048xf32> loc("params['layers'][10]['post_ln']"), %arg96: tensor<8192x2048xf32> loc("params['layers'][10]['up']"), %arg97: tensor<512x2048xf32> loc("params['layers'][10]['wk']"), %arg98: tensor<2048x2048xf32> loc("params['layers'][10]['wo']"), %arg99: tensor<2048x2048xf32> loc("params['layers'][10]['wq']"), %arg100: tensor<512x2048xf32> loc("params['layers'][10]['wv']"), %arg101: tensor<2048x8192xf32> loc("params['layers'][11]['down']"), %arg102: tensor<8192x2048xf32> loc("params['layers'][11]['gate']"), %arg103: tensor<2048xf32> loc("params['layers'][11]['in_ln']"), %arg104: tensor<2048xf32> loc("params['layers'][11]['post_ln']"), %arg105: tensor<8192x2048xf32> loc("params['layers'][11]['up']"), %arg106: tensor<512x2048xf32> loc("params['layers'][11]['wk']"), %arg107: tensor<2048x2048xf32> loc("params['layers'][11]['wo']"), %arg108: tensor<2048x2048xf32> loc("params['layers'][11]['wq']"), %arg109: tensor<512x2048xf32> loc("params['layers'][11]['wv']"), %arg110: tensor<2048x8192xf32> loc("params['layers'][12]['down']"), %arg111: tensor<8192x2048xf32> loc("params['layers'][12]['gate']"), %arg112: tensor<2048xf32> loc("params['layers'][12]['in_ln']"), %arg113: tensor<2048xf32> loc("params['layers'][12]['post_ln']"), %arg114: tensor<8192x2048xf32> loc("params['layers'][12]['up']"), %arg115: tensor<512x2048xf32> loc("params['layers'][12]['wk']"), %arg116: tensor<2048x2048xf32> loc("params['layers'][12]['wo']"), %arg117: tensor<2048x2048xf32> loc("params['layers'][12]['wq']"), %arg118: tensor<512x2048xf32> loc("params['layers'][12]['wv']"), %arg119: tensor<2048x8192xf32> loc("params['layers'][13]['down']"), %arg120: tensor<8192x2048xf32> loc("params['layers'][13]['gate']"), %arg121: tensor<2048xf32> loc("params['layers'][13]['in_ln']"), %arg122: tensor<2048xf32> loc("params['layers'][13]['post_ln']"), %arg123: tensor<8192x2048xf32> loc("params['layers'][13]['up']"), %arg124: tensor<512x2048xf32> loc("params['layers'][13]['wk']"), %arg125: tensor<2048x2048xf32> loc("params['layers'][13]['wo']"), %arg126: tensor<2048x2048xf32> loc("params['layers'][13]['wq']"), %arg127: tensor<512x2048xf32> loc("params['layers'][13]['wv']"), %arg128: tensor<2048x8192xf32> loc("params['layers'][14]['down']"), %arg129: tensor<8192x2048xf32> loc("params['layers'][14]['gate']"), %arg130: tensor<2048xf32> loc("params['layers'][14]['in_ln']"), %arg131: tensor<2048xf32> loc("params['layers'][14]['post_ln']"), %arg132: tensor<8192x2048xf32> loc("params['layers'][14]['up']"), %arg133: tensor<512x2048xf32> loc("params['layers'][14]['wk']"), %arg134: tensor<2048x2048xf32> loc("params['layers'][14]['wo']"), %arg135: tensor<2048x2048xf32> loc("params['layers'][14]['wq']"), %arg136: tensor<512x2048xf32> loc("params['layers'][14]['wv']"), %arg137: tensor<2048x8192xf32> loc("params['layers'][15]['down']"), %arg138: tensor<8192x2048xf32> loc("params['layers'][15]['gate']"), %arg139: tensor<2048xf32> loc("params['layers'][15]['in_ln']"), %arg140: tensor<2048xf32> loc("params['layers'][15]['post_ln']"), %arg141: tensor<8192x2048xf32> loc("params['layers'][15]['up']"), %arg142: tensor<512x2048xf32> loc("params['layers'][15]['wk']"), %arg143: tensor<2048x2048xf32> loc("params['layers'][15]['wo']"), %arg144: tensor<2048x2048xf32> loc("params['layers'][15]['wq']"), %arg145: tensor<512x2048xf32> loc("params['layers'][15]['wv']"), %arg146: tensor<i32> loc("token"), %arg147: tensor<i32> loc("pos"), %arg148: tensor<i32> loc("cache_len"), %arg149: tensor<16x256x8x64xf32> loc("kcache"), %arg150: tensor<16x256x8x64xf32> loc("vcache")) -> (tensor<i32>, tensor<16x256x8x64xf32>, tensor<16x256x8x64xf32>) {
    %0 = stablehlo.constant dense<"…"> : tensor<256x64xf32>
    %1 = stablehlo.constant dense<"…"> : tensor<256x64xf32>
    %2 = stablehlo.constant dense<0x00000000> : tensor<f32>
    %3 = stablehlo.constant dense<0x3F800000> : tensor<f32>
    %4 = stablehlo.constant dense<0xFF800000> : tensor<f32>
    %5 = stablehlo.constant dense<0xF149F2CA> : tensor<f32>
    %6 = stablehlo.constant dense<0x3727C5AC> : tensor<f32>
    %7 = stablehlo.constant dense<0x45000000> : tensor<f32>
    %8 = stablehlo.constant dense<0x3E000000> : tensor<f32>
    %9 = stablehlo.constant dense<0> : tensor<i32>
    %10 = stablehlo.constant dense<0> : tensor<i32>
    %11 = stablehlo.constant dense<1> : tensor<i32>
    %12 = stablehlo.constant dense<2> : tensor<i32>
    %13 = stablehlo.constant dense<3> : tensor<i32>
    %14 = stablehlo.constant dense<4> : tensor<i32>
    %15 = stablehlo.constant dense<5> : tensor<i32>
    %16 = stablehlo.constant dense<6> : tensor<i32>
    %17 = stablehlo.constant dense<7> : tensor<i32>
    %18 = stablehlo.constant dense<8> : tensor<i32>
    %19 = stablehlo.constant dense<9> : tensor<i32>
    %20 = stablehlo.constant dense<10> : tensor<i32>
    %21 = stablehlo.constant dense<11> : tensor<i32>
    %22 = stablehlo.constant dense<12> : tensor<i32>
    %23 = stablehlo.constant dense<13> : tensor<i32>
    %24 = stablehlo.constant dense<14> : tensor<i32>
    %25 = stablehlo.constant dense<15> : tensor<i32>
    %26 = stablehlo.dynamic_slice %arg0, %arg146, %9, sizes = [1, 2048] : (tensor<128256x2048xf32>, tensor<i32>, tensor<i32>) -> tensor<1x2048xf32>
    %27 = stablehlo.reshape %26 : (tensor<1x2048xf32>) -> tensor<2048xf32>
    %28 = stablehlo.dynamic_slice %0, %arg147, %9, sizes = [1, 64] : (tensor<256x64xf32>, tensor<i32>, tensor<i32>) -> tensor<1x64xf32>
    %29 = stablehlo.reshape %28 : (tensor<1x64xf32>) -> tensor<64xf32>
    %30 = stablehlo.dynamic_slice %1, %arg147, %9, sizes = [1, 64] : (tensor<256x64xf32>, tensor<i32>, tensor<i32>) -> tensor<1x64xf32>
    %31 = stablehlo.reshape %30 : (tensor<1x64xf32>) -> tensor<64xf32>
    %32 = stablehlo.iota dim = 0 : tensor<256xi32>
    %33 = stablehlo.broadcast_in_dim %arg148, dims = [] : (tensor<i32>) -> tensor<256xi32>
    %34 = stablehlo.compare LE, %32, %33, SIGNED : (tensor<256xi32>, tensor<256xi32>) -> tensor<256xi1>
    %35 = stablehlo.broadcast_in_dim %2, dims = [] : (tensor<f32>) -> tensor<256xf32>
    %36 = stablehlo.broadcast_in_dim %5, dims = [] : (tensor<f32>) -> tensor<256xf32>
    %37 = stablehlo.select %34, %35, %36 : tensor<256xi1>, tensor<256xf32>
    %38 = stablehlo.multiply %27, %27 : tensor<2048xf32>
    %39 = stablehlo.reduce(%38 init: %2) applies stablehlo.add across dimensions = [0] : (tensor<2048xf32>, tensor<f32>) -> tensor<f32>
    %40 = stablehlo.divide %39, %7 : tensor<f32>
    %41 = stablehlo.add %40, %6 : tensor<f32>
    %42 = stablehlo.rsqrt %41 : tensor<f32>
    %43 = stablehlo.broadcast_in_dim %42, dims = [] : (tensor<f32>) -> tensor<2048xf32>
    %44 = stablehlo.multiply %27, %43 : tensor<2048xf32>
    %45 = stablehlo.multiply %44, %arg4 : tensor<2048xf32>
    %46 = stablehlo.dot_general %45, %arg9, contracting_dims = [0] x [1] : (tensor<2048xf32>, tensor<2048x2048xf32>) -> tensor<2048xf32>
    %47 = stablehlo.reshape %46 : (tensor<2048xf32>) -> tensor<32x64xf32>
    %48 = stablehlo.dot_general %45, %arg7, contracting_dims = [0] x [1] : (tensor<2048xf32>, tensor<512x2048xf32>) -> tensor<512xf32>
    %49 = stablehlo.reshape %48 : (tensor<512xf32>) -> tensor<8x64xf32>
    %50 = stablehlo.dot_general %45, %arg10, contracting_dims = [0] x [1] : (tensor<2048xf32>, tensor<512x2048xf32>) -> tensor<512xf32>
    %51 = stablehlo.reshape %50 : (tensor<512xf32>) -> tensor<8x64xf32>
    %52 = stablehlo.broadcast_in_dim %29, dims = [1] : (tensor<64xf32>) -> tensor<32x64xf32>
    %53 = stablehlo.broadcast_in_dim %31, dims = [1] : (tensor<64xf32>) -> tensor<32x64xf32>
    %54 = stablehlo.multiply %47, %52 : tensor<32x64xf32>
    %55 = stablehlo.slice %47 [0:32, 0:32] : (tensor<32x64xf32>) -> tensor<32x32xf32>
    %56 = stablehlo.slice %47 [0:32, 32:64] : (tensor<32x64xf32>) -> tensor<32x32xf32>
    %57 = stablehlo.negate %56 : tensor<32x32xf32>
    %58 = stablehlo.concatenate %57, %55, dim = 1 : (tensor<32x32xf32>, tensor<32x32xf32>) -> tensor<32x64xf32>
    %59 = stablehlo.multiply %58, %53 : tensor<32x64xf32>
    %60 = stablehlo.add %54, %59 : tensor<32x64xf32>
    %61 = stablehlo.broadcast_in_dim %29, dims = [1] : (tensor<64xf32>) -> tensor<8x64xf32>
    %62 = stablehlo.broadcast_in_dim %31, dims = [1] : (tensor<64xf32>) -> tensor<8x64xf32>
    %63 = stablehlo.multiply %49, %61 : tensor<8x64xf32>
    %64 = stablehlo.slice %49 [0:8, 0:32] : (tensor<8x64xf32>) -> tensor<8x32xf32>
    %65 = stablehlo.slice %49 [0:8, 32:64] : (tensor<8x64xf32>) -> tensor<8x32xf32>
    %66 = stablehlo.negate %65 : tensor<8x32xf32>
    %67 = stablehlo.concatenate %66, %64, dim = 1 : (tensor<8x32xf32>, tensor<8x32xf32>) -> tensor<8x64xf32>
    %68 = stablehlo.multiply %67, %62 : tensor<8x64xf32>
    %69 = stablehlo.add %63, %68 : tensor<8x64xf32>
    %70 = stablehlo.reshape %69 : (tensor<8x64xf32>) -> tensor<1x1x8x64xf32>
    %71 = stablehlo.dynamic_update_slice %arg149, %70, %10, %arg148, %9, %9 : (tensor<16x256x8x64xf32>, tensor<1x1x8x64xf32>, tensor<i32>, tensor<i32>, tensor<i32>, tensor<i32>) -> tensor<16x256x8x64xf32>
    %72 = stablehlo.reshape %51 : (tensor<8x64xf32>) -> tensor<1x1x8x64xf32>
    %73 = stablehlo.dynamic_update_slice %arg150, %72, %10, %arg148, %9, %9 : (tensor<16x256x8x64xf32>, tensor<1x1x8x64xf32>, tensor<i32>, tensor<i32>, tensor<i32>, tensor<i32>) -> tensor<16x256x8x64xf32>
    %74 = stablehlo.slice %71 [0:1, 0:256, 0:8, 0:64] : (tensor<16x256x8x64xf32>) -> tensor<1x256x8x64xf32>
    %75 = stablehlo.reshape %74 : (tensor<1x256x8x64xf32>) -> tensor<256x8x64xf32>
    %76 = stablehlo.slice %73 [0:1, 0:256, 0:8, 0:64] : (tensor<16x256x8x64xf32>) -> tensor<1x256x8x64xf32>
    %77 = stablehlo.reshape %76 : (tensor<1x256x8x64xf32>) -> tensor<256x8x64xf32>
    %78 = stablehlo.reshape %60 : (tensor<32x64xf32>) -> tensor<8x4x64xf32>
    %79 = stablehlo.dot_general %78, %75, batching_dims = [0] x [1], contracting_dims = [2] x [2] : (tensor<8x4x64xf32>, tensor<256x8x64xf32>) -> tensor<8x4x256xf32>
    %80 = stablehlo.reshape %79 : (tensor<8x4x256xf32>) -> tensor<32x256xf32>
    %81 = stablehlo.broadcast_in_dim %8, dims = [] : (tensor<f32>) -> tensor<32x256xf32>
    %82 = stablehlo.multiply %80, %81 : tensor<32x256xf32>
    %83 = stablehlo.broadcast_in_dim %37, dims = [1] : (tensor<256xf32>) -> tensor<32x256xf32>
    %84 = stablehlo.add %82, %83 : tensor<32x256xf32>
    %85 = stablehlo.reduce(%84 init: %4) applies stablehlo.maximum across dimensions = [1] : (tensor<32x256xf32>, tensor<f32>) -> tensor<32xf32>
    %86 = stablehlo.broadcast_in_dim %85, dims = [0] : (tensor<32xf32>) -> tensor<32x256xf32>
    %87 = stablehlo.subtract %84, %86 : tensor<32x256xf32>
    %88 = stablehlo.exponential %87 : tensor<32x256xf32>
    %89 = stablehlo.reduce(%88 init: %2) applies stablehlo.add across dimensions = [1] : (tensor<32x256xf32>, tensor<f32>) -> tensor<32xf32>
    %90 = stablehlo.broadcast_in_dim %89, dims = [0] : (tensor<32xf32>) -> tensor<32x256xf32>
    %91 = stablehlo.divide %88, %90 : tensor<32x256xf32>
    %92 = stablehlo.reshape %91 : (tensor<32x256xf32>) -> tensor<8x4x256xf32>
    %93 = stablehlo.dot_general %92, %77, batching_dims = [0] x [1], contracting_dims = [2] x [0] : (tensor<8x4x256xf32>, tensor<256x8x64xf32>) -> tensor<8x4x64xf32>
    %94 = stablehlo.reshape %93 : (tensor<8x4x64xf32>) -> tensor<32x64xf32>
    %95 = stablehlo.reshape %94 : (tensor<32x64xf32>) -> tensor<2048xf32>
    %96 = stablehlo.dot_general %95, %arg8, contracting_dims = [0] x [1] : (tensor<2048xf32>, tensor<2048x2048xf32>) -> tensor<2048xf32>
    %97 = stablehlo.add %27, %96 : tensor<2048xf32>
    %98 = stablehlo.multiply %97, %97 : tensor<2048xf32>
    %99 = stablehlo.reduce(%98 init: %2) applies stablehlo.add across dimensions = [0] : (tensor<2048xf32>, tensor<f32>) -> tensor<f32>
    %100 = stablehlo.divide %99, %7 : tensor<f32>
    %101 = stablehlo.add %100, %6 : tensor<f32>
    %102 = stablehlo.rsqrt %101 : tensor<f32>
    %103 = stablehlo.broadcast_in_dim %102, dims = [] : (tensor<f32>) -> tensor<2048xf32>
    %104 = stablehlo.multiply %97, %103 : tensor<2048xf32>
    %105 = stablehlo.multiply %104, %arg5 : tensor<2048xf32>
    %106 = stablehlo.dot_general %105, %arg3, contracting_dims = [0] x [1] : (tensor<2048xf32>, tensor<8192x2048xf32>) -> tensor<8192xf32>
    %107 = stablehlo.dot_general %105, %arg6, contracting_dims = [0] x [1] : (tensor<2048xf32>, tensor<8192x2048xf32>) -> tensor<8192xf32>
    %108 = stablehlo.negate %106 : tensor<8192xf32>
    %109 = stablehlo.exponential %108 : tensor<8192xf32>
    %110 = stablehlo.broadcast_in_dim %3, dims = [] : (tensor<f32>) -> tensor<8192xf32>
    %111 = stablehlo.add %110, %109 : tensor<8192xf32>
    %112 = stablehlo.divide %110, %111 : tensor<8192xf32>
    %113 = stablehlo.multiply %106, %112 : tensor<8192xf32>
    %114 = stablehlo.multiply %113, %107 : tensor<8192xf32>
    %115 = stablehlo.dot_general %114, %arg2, contracting_dims = [0] x [1] : (tensor<8192xf32>, tensor<2048x8192xf32>) -> tensor<2048xf32>
    %116 = stablehlo.add %97, %115 : tensor<2048xf32>
    %117 = stablehlo.multiply %116, %116 : tensor<2048xf32>
    %118 = stablehlo.reduce(%117 init: %2) applies stablehlo.add across dimensions = [0] : (tensor<2048xf32>, tensor<f32>) -> tensor<f32>
    %119 = stablehlo.divide %118, %7 : tensor<f32>
    %120 = stablehlo.add %119, %6 : tensor<f32>
    %121 = stablehlo.rsqrt %120 : tensor<f32>
    %122 = stablehlo.broadcast_in_dim %121, dims = [] : (tensor<f32>) -> tensor<2048xf32>
    %123 = stablehlo.multiply %116, %122 : tensor<2048xf32>
    %124 = stablehlo.multiply %123, %arg13 : tensor<2048xf32>
    %125 = stablehlo.dot_general %124, %arg18, contracting_dims = [0] x [1] : (tensor<2048xf32>, tensor<2048x2048xf32>) -> tensor<2048xf32>
    %126 = stablehlo.reshape %125 : (tensor<2048xf32>) -> tensor<32x64xf32>
    %127 = stablehlo.dot_general %124, %arg16, contracting_dims = [0] x [1] : (tensor<2048xf32>, tensor<512x2048xf32>) -> tensor<512xf32>
    %128 = stablehlo.reshape %127 : (tensor<512xf32>) -> tensor<8x64xf32>
    %129 = stablehlo.dot_general %124, %arg19, contracting_dims = [0] x [1] : (tensor<2048xf32>, tensor<512x2048xf32>) -> tensor<512xf32>
    %130 = stablehlo.reshape %129 : (tensor<512xf32>) -> tensor<8x64xf32>
    %131 = stablehlo.broadcast_in_dim %29, dims = [1] : (tensor<64xf32>) -> tensor<32x64xf32>
    %132 = stablehlo.broadcast_in_dim %31, dims = [1] : (tensor<64xf32>) -> tensor<32x64xf32>
    %133 = stablehlo.multiply %126, %131 : tensor<32x64xf32>
    %134 = stablehlo.slice %126 [0:32, 0:32] : (tensor<32x64xf32>) -> tensor<32x32xf32>
    %135 = stablehlo.slice %126 [0:32, 32:64] : (tensor<32x64xf32>) -> tensor<32x32xf32>
    %136 = stablehlo.negate %135 : tensor<32x32xf32>
    %137 = stablehlo.concatenate %136, %134, dim = 1 : (tensor<32x32xf32>, tensor<32x32xf32>) -> tensor<32x64xf32>
    %138 = stablehlo.multiply %137, %132 : tensor<32x64xf32>
    %139 = stablehlo.add %133, %138 : tensor<32x64xf32>
    %140 = stablehlo.broadcast_in_dim %29, dims = [1] : (tensor<64xf32>) -> tensor<8x64xf32>
    %141 = stablehlo.broadcast_in_dim %31, dims = [1] : (tensor<64xf32>) -> tensor<8x64xf32>
    %142 = stablehlo.multiply %128, %140 : tensor<8x64xf32>
    %143 = stablehlo.slice %128 [0:8, 0:32] : (tensor<8x64xf32>) -> tensor<8x32xf32>
    %144 = stablehlo.slice %128 [0:8, 32:64] : (tensor<8x64xf32>) -> tensor<8x32xf32>
    %145 = stablehlo.negate %144 : tensor<8x32xf32>
    %146 = stablehlo.concatenate %145, %143, dim = 1 : (tensor<8x32xf32>, tensor<8x32xf32>) -> tensor<8x64xf32>
    %147 = stablehlo.multiply %146, %141 : tensor<8x64xf32>
    %148 = stablehlo.add %142, %147 : tensor<8x64xf32>
    %149 = stablehlo.reshape %148 : (tensor<8x64xf32>) -> tensor<1x1x8x64xf32>
    %150 = stablehlo.dynamic_update_slice %71, %149, %11, %arg148, %9, %9 : (tensor<16x256x8x64xf32>, tensor<1x1x8x64xf32>, tensor<i32>, tensor<i32>, tensor<i32>, tensor<i32>) -> tensor<16x256x8x64xf32>
    %151 = stablehlo.reshape %130 : (tensor<8x64xf32>) -> tensor<1x1x8x64xf32>
    %152 = stablehlo.dynamic_update_slice %73, %151, %11, %arg148, %9, %9 : (tensor<16x256x8x64xf32>, tensor<1x1x8x64xf32>, tensor<i32>, tensor<i32>, tensor<i32>, tensor<i32>) -> tensor<16x256x8x64xf32>
    %153 = stablehlo.slice %150 [1:2, 0:256, 0:8, 0:64] : (tensor<16x256x8x64xf32>) -> tensor<1x256x8x64xf32>
    %154 = stablehlo.reshape %153 : (tensor<1x256x8x64xf32>) -> tensor<256x8x64xf32>
    %155 = stablehlo.slice %152 [1:2, 0:256, 0:8, 0:64] : (tensor<16x256x8x64xf32>) -> tensor<1x256x8x64xf32>
    %156 = stablehlo.reshape %155 : (tensor<1x256x8x64xf32>) -> tensor<256x8x64xf32>
    %157 = stablehlo.reshape %139 : (tensor<32x64xf32>) -> tensor<8x4x64xf32>
    %158 = stablehlo.dot_general %157, %154, batching_dims = [0] x [1], contracting_dims = [2] x [2] : (tensor<8x4x64xf32>, tensor<256x8x64xf32>) -> tensor<8x4x256xf32>
    %159 = stablehlo.reshape %158 : (tensor<8x4x256xf32>) -> tensor<32x256xf32>
    %160 = stablehlo.broadcast_in_dim %8, dims = [] : (tensor<f32>) -> tensor<32x256xf32>
    %161 = stablehlo.multiply %159, %160 : tensor<32x256xf32>
    %162 = stablehlo.broadcast_in_dim %37, dims = [1] : (tensor<256xf32>) -> tensor<32x256xf32>
    %163 = stablehlo.add %161, %162 : tensor<32x256xf32>
    %164 = stablehlo.reduce(%163 init: %4) applies stablehlo.maximum across dimensions = [1] : (tensor<32x256xf32>, tensor<f32>) -> tensor<32xf32>
    %165 = stablehlo.broadcast_in_dim %164, dims = [0] : (tensor<32xf32>) -> tensor<32x256xf32>
    %166 = stablehlo.subtract %163, %165 : tensor<32x256xf32>
    %167 = stablehlo.exponential %166 : tensor<32x256xf32>
    %168 = stablehlo.reduce(%167 init: %2) applies stablehlo.add across dimensions = [1] : (tensor<32x256xf32>, tensor<f32>) -> tensor<32xf32>
    %169 = stablehlo.broadcast_in_dim %168, dims = [0] : (tensor<32xf32>) -> tensor<32x256xf32>
    %170 = stablehlo.divide %167, %169 : tensor<32x256xf32>
    %171 = stablehlo.reshape %170 : (tensor<32x256xf32>) -> tensor<8x4x256xf32>
    %172 = stablehlo.dot_general %171, %156, batching_dims = [0] x [1], contracting_dims = [2] x [0] : (tensor<8x4x256xf32>, tensor<256x8x64xf32>) -> tensor<8x4x64xf32>
    %173 = stablehlo.reshape %172 : (tensor<8x4x64xf32>) -> tensor<32x64xf32>
    %174 = stablehlo.reshape %173 : (tensor<32x64xf32>) -> tensor<2048xf32>
    %175 = stablehlo.dot_general %174, %arg17, contracting_dims = [0] x [1] : (tensor<2048xf32>, tensor<2048x2048xf32>) -> tensor<2048xf32>
    %176 = stablehlo.add %116, %175 : tensor<2048xf32>
    %177 = stablehlo.multiply %176, %176 : tensor<2048xf32>
    %178 = stablehlo.reduce(%177 init: %2) applies stablehlo.add across dimensions = [0] : (tensor<2048xf32>, tensor<f32>) -> tensor<f32>
    %179 = stablehlo.divide %178, %7 : tensor<f32>
    %180 = stablehlo.add %179, %6 : tensor<f32>
    %181 = stablehlo.rsqrt %180 : tensor<f32>
    %182 = stablehlo.broadcast_in_dim %181, dims = [] : (tensor<f32>) -> tensor<2048xf32>
    %183 = stablehlo.multiply %176, %182 : tensor<2048xf32>
    %184 = stablehlo.multiply %183, %arg14 : tensor<2048xf32>
    %185 = stablehlo.dot_general %184, %arg12, contracting_dims = [0] x [1] : (tensor<2048xf32>, tensor<8192x2048xf32>) -> tensor<8192xf32>
    %186 = stablehlo.dot_general %184, %arg15, contracting_dims = [0] x [1] : (tensor<2048xf32>, tensor<8192x2048xf32>) -> tensor<8192xf32>
    %187 = stablehlo.negate %185 : tensor<8192xf32>
    %188 = stablehlo.exponential %187 : tensor<8192xf32>
    %189 = stablehlo.broadcast_in_dim %3, dims = [] : (tensor<f32>) -> tensor<8192xf32>
    %190 = stablehlo.add %189, %188 : tensor<8192xf32>
    %191 = stablehlo.divide %189, %190 : tensor<8192xf32>
    %192 = stablehlo.multiply %185, %191 : tensor<8192xf32>
    %193 = stablehlo.multiply %192, %186 : tensor<8192xf32>
    %194 = stablehlo.dot_general %193, %arg11, contracting_dims = [0] x [1] : (tensor<8192xf32>, tensor<2048x8192xf32>) -> tensor<2048xf32>
    %195 = stablehlo.add %176, %194 : tensor<2048xf32>
    %196 = stablehlo.multiply %195, %195 : tensor<2048xf32>
    %197 = stablehlo.reduce(%196 init: %2) applies stablehlo.add across dimensions = [0] : (tensor<2048xf32>, tensor<f32>) -> tensor<f32>
    %198 = stablehlo.divide %197, %7 : tensor<f32>
    %199 = stablehlo.add %198, %6 : tensor<f32>
    %200 = stablehlo.rsqrt %199 : tensor<f32>
    %201 = stablehlo.broadcast_in_dim %200, dims = [] : (tensor<f32>) -> tensor<2048xf32>
    %202 = stablehlo.multiply %195, %201 : tensor<2048xf32>
    %203 = stablehlo.multiply %202, %arg22 : tensor<2048xf32>
    %204 = stablehlo.dot_general %203, %arg27, contracting_dims = [0] x [1] : (tensor<2048xf32>, tensor<2048x2048xf32>) -> tensor<2048xf32>
    %205 = stablehlo.reshape %204 : (tensor<2048xf32>) -> tensor<32x64xf32>
    %206 = stablehlo.dot_general %203, %arg25, contracting_dims = [0] x [1] : (tensor<2048xf32>, tensor<512x2048xf32>) -> tensor<512xf32>
    %207 = stablehlo.reshape %206 : (tensor<512xf32>) -> tensor<8x64xf32>
    %208 = stablehlo.dot_general %203, %arg28, contracting_dims = [0] x [1] : (tensor<2048xf32>, tensor<512x2048xf32>) -> tensor<512xf32>
    %209 = stablehlo.reshape %208 : (tensor<512xf32>) -> tensor<8x64xf32>
    %210 = stablehlo.broadcast_in_dim %29, dims = [1] : (tensor<64xf32>) -> tensor<32x64xf32>
    %211 = stablehlo.broadcast_in_dim %31, dims = [1] : (tensor<64xf32>) -> tensor<32x64xf32>
    %212 = stablehlo.multiply %205, %210 : tensor<32x64xf32>
    %213 = stablehlo.slice %205 [0:32, 0:32] : (tensor<32x64xf32>) -> tensor<32x32xf32>
    %214 = stablehlo.slice %205 [0:32, 32:64] : (tensor<32x64xf32>) -> tensor<32x32xf32>
    %215 = stablehlo.negate %214 : tensor<32x32xf32>
    %216 = stablehlo.concatenate %215, %213, dim = 1 : (tensor<32x32xf32>, tensor<32x32xf32>) -> tensor<32x64xf32>
    %217 = stablehlo.multiply %216, %211 : tensor<32x64xf32>
    %218 = stablehlo.add %212, %217 : tensor<32x64xf32>
    %219 = stablehlo.broadcast_in_dim %29, dims = [1] : (tensor<64xf32>) -> tensor<8x64xf32>
    %220 = stablehlo.broadcast_in_dim %31, dims = [1] : (tensor<64xf32>) -> tensor<8x64xf32>
    %221 = stablehlo.multiply %207, %219 : tensor<8x64xf32>
    %222 = stablehlo.slice %207 [0:8, 0:32] : (tensor<8x64xf32>) -> tensor<8x32xf32>
    %223 = stablehlo.slice %207 [0:8, 32:64] : (tensor<8x64xf32>) -> tensor<8x32xf32>
    %224 = stablehlo.negate %223 : tensor<8x32xf32>
    %225 = stablehlo.concatenate %224, %222, dim = 1 : (tensor<8x32xf32>, tensor<8x32xf32>) -> tensor<8x64xf32>
    %226 = stablehlo.multiply %225, %220 : tensor<8x64xf32>
    %227 = stablehlo.add %221, %226 : tensor<8x64xf32>
    %228 = stablehlo.reshape %227 : (tensor<8x64xf32>) -> tensor<1x1x8x64xf32>
    %229 = stablehlo.dynamic_update_slice %150, %228, %12, %arg148, %9, %9 : (tensor<16x256x8x64xf32>, tensor<1x1x8x64xf32>, tensor<i32>, tensor<i32>, tensor<i32>, tensor<i32>) -> tensor<16x256x8x64xf32>
    %230 = stablehlo.reshape %209 : (tensor<8x64xf32>) -> tensor<1x1x8x64xf32>
    %231 = stablehlo.dynamic_update_slice %152, %230, %12, %arg148, %9, %9 : (tensor<16x256x8x64xf32>, tensor<1x1x8x64xf32>, tensor<i32>, tensor<i32>, tensor<i32>, tensor<i32>) -> tensor<16x256x8x64xf32>
    %232 = stablehlo.slice %229 [2:3, 0:256, 0:8, 0:64] : (tensor<16x256x8x64xf32>) -> tensor<1x256x8x64xf32>
    %233 = stablehlo.reshape %232 : (tensor<1x256x8x64xf32>) -> tensor<256x8x64xf32>
    %234 = stablehlo.slice %231 [2:3, 0:256, 0:8, 0:64] : (tensor<16x256x8x64xf32>) -> tensor<1x256x8x64xf32>
    %235 = stablehlo.reshape %234 : (tensor<1x256x8x64xf32>) -> tensor<256x8x64xf32>
    %236 = stablehlo.reshape %218 : (tensor<32x64xf32>) -> tensor<8x4x64xf32>
    %237 = stablehlo.dot_general %236, %233, batching_dims = [0] x [1], contracting_dims = [2] x [2] : (tensor<8x4x64xf32>, tensor<256x8x64xf32>) -> tensor<8x4x256xf32>
    %238 = stablehlo.reshape %237 : (tensor<8x4x256xf32>) -> tensor<32x256xf32>
    %239 = stablehlo.broadcast_in_dim %8, dims = [] : (tensor<f32>) -> tensor<32x256xf32>
    %240 = stablehlo.multiply %238, %239 : tensor<32x256xf32>
    %241 = stablehlo.broadcast_in_dim %37, dims = [1] : (tensor<256xf32>) -> tensor<32x256xf32>
    %242 = stablehlo.add %240, %241 : tensor<32x256xf32>
    %243 = stablehlo.reduce(%242 init: %4) applies stablehlo.maximum across dimensions = [1] : (tensor<32x256xf32>, tensor<f32>) -> tensor<32xf32>
    %244 = stablehlo.broadcast_in_dim %243, dims = [0] : (tensor<32xf32>) -> tensor<32x256xf32>
    %245 = stablehlo.subtract %242, %244 : tensor<32x256xf32>
    %246 = stablehlo.exponential %245 : tensor<32x256xf32>
    %247 = stablehlo.reduce(%246 init: %2) applies stablehlo.add across dimensions = [1] : (tensor<32x256xf32>, tensor<f32>) -> tensor<32xf32>
    %248 = stablehlo.broadcast_in_dim %247, dims = [0] : (tensor<32xf32>) -> tensor<32x256xf32>
    %249 = stablehlo.divide %246, %248 : tensor<32x256xf32>
    %250 = stablehlo.reshape %249 : (tensor<32x256xf32>) -> tensor<8x4x256xf32>
    %251 = stablehlo.dot_general %250, %235, batching_dims = [0] x [1], contracting_dims = [2] x [0] : (tensor<8x4x256xf32>, tensor<256x8x64xf32>) -> tensor<8x4x64xf32>
    %252 = stablehlo.reshape %251 : (tensor<8x4x64xf32>) -> tensor<32x64xf32>
    %253 = stablehlo.reshape %252 : (tensor<32x64xf32>) -> tensor<2048xf32>
    %254 = stablehlo.dot_general %253, %arg26, contracting_dims = [0] x [1] : (tensor<2048xf32>, tensor<2048x2048xf32>) -> tensor<2048xf32>
    %255 = stablehlo.add %195, %254 : tensor<2048xf32>
    %256 = stablehlo.multiply %255, %255 : tensor<2048xf32>
    %257 = stablehlo.reduce(%256 init: %2) applies stablehlo.add across dimensions = [0] : (tensor<2048xf32>, tensor<f32>) -> tensor<f32>
    %258 = stablehlo.divide %257, %7 : tensor<f32>
    %259 = stablehlo.add %258, %6 : tensor<f32>
    %260 = stablehlo.rsqrt %259 : tensor<f32>
    %261 = stablehlo.broadcast_in_dim %260, dims = [] : (tensor<f32>) -> tensor<2048xf32>
    %262 = stablehlo.multiply %255, %261 : tensor<2048xf32>
    %263 = stablehlo.multiply %262, %arg23 : tensor<2048xf32>
    %264 = stablehlo.dot_general %263, %arg21, contracting_dims = [0] x [1] : (tensor<2048xf32>, tensor<8192x2048xf32>) -> tensor<8192xf32>
    %265 = stablehlo.dot_general %263, %arg24, contracting_dims = [0] x [1] : (tensor<2048xf32>, tensor<8192x2048xf32>) -> tensor<8192xf32>
    %266 = stablehlo.negate %264 : tensor<8192xf32>
    %267 = stablehlo.exponential %266 : tensor<8192xf32>
    %268 = stablehlo.broadcast_in_dim %3, dims = [] : (tensor<f32>) -> tensor<8192xf32>
    %269 = stablehlo.add %268, %267 : tensor<8192xf32>
    %270 = stablehlo.divide %268, %269 : tensor<8192xf32>
    %271 = stablehlo.multiply %264, %270 : tensor<8192xf32>
    %272 = stablehlo.multiply %271, %265 : tensor<8192xf32>
    %273 = stablehlo.dot_general %272, %arg20, contracting_dims = [0] x [1] : (tensor<8192xf32>, tensor<2048x8192xf32>) -> tensor<2048xf32>
    %274 = stablehlo.add %255, %273 : tensor<2048xf32>
    %275 = stablehlo.multiply %274, %274 : tensor<2048xf32>
    %276 = stablehlo.reduce(%275 init: %2) applies stablehlo.add across dimensions = [0] : (tensor<2048xf32>, tensor<f32>) -> tensor<f32>
    %277 = stablehlo.divide %276, %7 : tensor<f32>
    %278 = stablehlo.add %277, %6 : tensor<f32>
    %279 = stablehlo.rsqrt %278 : tensor<f32>
    %280 = stablehlo.broadcast_in_dim %279, dims = [] : (tensor<f32>) -> tensor<2048xf32>
    %281 = stablehlo.multiply %274, %280 : tensor<2048xf32>
    %282 = stablehlo.multiply %281, %arg31 : tensor<2048xf32>
    %283 = stablehlo.dot_general %282, %arg36, contracting_dims = [0] x [1] : (tensor<2048xf32>, tensor<2048x2048xf32>) -> tensor<2048xf32>
    %284 = stablehlo.reshape %283 : (tensor<2048xf32>) -> tensor<32x64xf32>
    %285 = stablehlo.dot_general %282, %arg34, contracting_dims = [0] x [1] : (tensor<2048xf32>, tensor<512x2048xf32>) -> tensor<512xf32>
    %286 = stablehlo.reshape %285 : (tensor<512xf32>) -> tensor<8x64xf32>
    %287 = stablehlo.dot_general %282, %arg37, contracting_dims = [0] x [1] : (tensor<2048xf32>, tensor<512x2048xf32>) -> tensor<512xf32>
    %288 = stablehlo.reshape %287 : (tensor<512xf32>) -> tensor<8x64xf32>
    %289 = stablehlo.broadcast_in_dim %29, dims = [1] : (tensor<64xf32>) -> tensor<32x64xf32>
    %290 = stablehlo.broadcast_in_dim %31, dims = [1] : (tensor<64xf32>) -> tensor<32x64xf32>
    %291 = stablehlo.multiply %284, %289 : tensor<32x64xf32>
    %292 = stablehlo.slice %284 [0:32, 0:32] : (tensor<32x64xf32>) -> tensor<32x32xf32>
    %293 = stablehlo.slice %284 [0:32, 32:64] : (tensor<32x64xf32>) -> tensor<32x32xf32>
    %294 = stablehlo.negate %293 : tensor<32x32xf32>
    %295 = stablehlo.concatenate %294, %292, dim = 1 : (tensor<32x32xf32>, tensor<32x32xf32>) -> tensor<32x64xf32>
    %296 = stablehlo.multiply %295, %290 : tensor<32x64xf32>
    %297 = stablehlo.add %291, %296 : tensor<32x64xf32>
    %298 = stablehlo.broadcast_in_dim %29, dims = [1] : (tensor<64xf32>) -> tensor<8x64xf32>
    %299 = stablehlo.broadcast_in_dim %31, dims = [1] : (tensor<64xf32>) -> tensor<8x64xf32>
    %300 = stablehlo.multiply %286, %298 : tensor<8x64xf32>
    %301 = stablehlo.slice %286 [0:8, 0:32] : (tensor<8x64xf32>) -> tensor<8x32xf32>
    %302 = stablehlo.slice %286 [0:8, 32:64] : (tensor<8x64xf32>) -> tensor<8x32xf32>
    %303 = stablehlo.negate %302 : tensor<8x32xf32>
    %304 = stablehlo.concatenate %303, %301, dim = 1 : (tensor<8x32xf32>, tensor<8x32xf32>) -> tensor<8x64xf32>
    %305 = stablehlo.multiply %304, %299 : tensor<8x64xf32>
    %306 = stablehlo.add %300, %305 : tensor<8x64xf32>
    %307 = stablehlo.reshape %306 : (tensor<8x64xf32>) -> tensor<1x1x8x64xf32>
    %308 = stablehlo.dynamic_update_slice %229, %307, %13, %arg148, %9, %9 : (tensor<16x256x8x64xf32>, tensor<1x1x8x64xf32>, tensor<i32>, tensor<i32>, tensor<i32>, tensor<i32>) -> tensor<16x256x8x64xf32>
    %309 = stablehlo.reshape %288 : (tensor<8x64xf32>) -> tensor<1x1x8x64xf32>
    %310 = stablehlo.dynamic_update_slice %231, %309, %13, %arg148, %9, %9 : (tensor<16x256x8x64xf32>, tensor<1x1x8x64xf32>, tensor<i32>, tensor<i32>, tensor<i32>, tensor<i32>) -> tensor<16x256x8x64xf32>
    %311 = stablehlo.slice %308 [3:4, 0:256, 0:8, 0:64] : (tensor<16x256x8x64xf32>) -> tensor<1x256x8x64xf32>
    %312 = stablehlo.reshape %311 : (tensor<1x256x8x64xf32>) -> tensor<256x8x64xf32>
    %313 = stablehlo.slice %310 [3:4, 0:256, 0:8, 0:64] : (tensor<16x256x8x64xf32>) -> tensor<1x256x8x64xf32>
    %314 = stablehlo.reshape %313 : (tensor<1x256x8x64xf32>) -> tensor<256x8x64xf32>
    %315 = stablehlo.reshape %297 : (tensor<32x64xf32>) -> tensor<8x4x64xf32>
    %316 = stablehlo.dot_general %315, %312, batching_dims = [0] x [1], contracting_dims = [2] x [2] : (tensor<8x4x64xf32>, tensor<256x8x64xf32>) -> tensor<8x4x256xf32>
    %317 = stablehlo.reshape %316 : (tensor<8x4x256xf32>) -> tensor<32x256xf32>
    %318 = stablehlo.broadcast_in_dim %8, dims = [] : (tensor<f32>) -> tensor<32x256xf32>
    %319 = stablehlo.multiply %317, %318 : tensor<32x256xf32>
    %320 = stablehlo.broadcast_in_dim %37, dims = [1] : (tensor<256xf32>) -> tensor<32x256xf32>
    %321 = stablehlo.add %319, %320 : tensor<32x256xf32>
    %322 = stablehlo.reduce(%321 init: %4) applies stablehlo.maximum across dimensions = [1] : (tensor<32x256xf32>, tensor<f32>) -> tensor<32xf32>
    %323 = stablehlo.broadcast_in_dim %322, dims = [0] : (tensor<32xf32>) -> tensor<32x256xf32>
    %324 = stablehlo.subtract %321, %323 : tensor<32x256xf32>
    %325 = stablehlo.exponential %324 : tensor<32x256xf32>
    %326 = stablehlo.reduce(%325 init: %2) applies stablehlo.add across dimensions = [1] : (tensor<32x256xf32>, tensor<f32>) -> tensor<32xf32>
    %327 = stablehlo.broadcast_in_dim %326, dims = [0] : (tensor<32xf32>) -> tensor<32x256xf32>
    %328 = stablehlo.divide %325, %327 : tensor<32x256xf32>
    %329 = stablehlo.reshape %328 : (tensor<32x256xf32>) -> tensor<8x4x256xf32>
    %330 = stablehlo.dot_general %329, %314, batching_dims = [0] x [1], contracting_dims = [2] x [0] : (tensor<8x4x256xf32>, tensor<256x8x64xf32>) -> tensor<8x4x64xf32>
    %331 = stablehlo.reshape %330 : (tensor<8x4x64xf32>) -> tensor<32x64xf32>
    %332 = stablehlo.reshape %331 : (tensor<32x64xf32>) -> tensor<2048xf32>
    %333 = stablehlo.dot_general %332, %arg35, contracting_dims = [0] x [1] : (tensor<2048xf32>, tensor<2048x2048xf32>) -> tensor<2048xf32>
    %334 = stablehlo.add %274, %333 : tensor<2048xf32>
    %335 = stablehlo.multiply %334, %334 : tensor<2048xf32>
    %336 = stablehlo.reduce(%335 init: %2) applies stablehlo.add across dimensions = [0] : (tensor<2048xf32>, tensor<f32>) -> tensor<f32>
    %337 = stablehlo.divide %336, %7 : tensor<f32>
    %338 = stablehlo.add %337, %6 : tensor<f32>
    %339 = stablehlo.rsqrt %338 : tensor<f32>
    %340 = stablehlo.broadcast_in_dim %339, dims = [] : (tensor<f32>) -> tensor<2048xf32>
    %341 = stablehlo.multiply %334, %340 : tensor<2048xf32>
    %342 = stablehlo.multiply %341, %arg32 : tensor<2048xf32>
    %343 = stablehlo.dot_general %342, %arg30, contracting_dims = [0] x [1] : (tensor<2048xf32>, tensor<8192x2048xf32>) -> tensor<8192xf32>
    %344 = stablehlo.dot_general %342, %arg33, contracting_dims = [0] x [1] : (tensor<2048xf32>, tensor<8192x2048xf32>) -> tensor<8192xf32>
    %345 = stablehlo.negate %343 : tensor<8192xf32>
    %346 = stablehlo.exponential %345 : tensor<8192xf32>
    %347 = stablehlo.broadcast_in_dim %3, dims = [] : (tensor<f32>) -> tensor<8192xf32>
    %348 = stablehlo.add %347, %346 : tensor<8192xf32>
    %349 = stablehlo.divide %347, %348 : tensor<8192xf32>
    %350 = stablehlo.multiply %343, %349 : tensor<8192xf32>
    %351 = stablehlo.multiply %350, %344 : tensor<8192xf32>
    %352 = stablehlo.dot_general %351, %arg29, contracting_dims = [0] x [1] : (tensor<8192xf32>, tensor<2048x8192xf32>) -> tensor<2048xf32>
    %353 = stablehlo.add %334, %352 : tensor<2048xf32>
    %354 = stablehlo.multiply %353, %353 : tensor<2048xf32>
    %355 = stablehlo.reduce(%354 init: %2) applies stablehlo.add across dimensions = [0] : (tensor<2048xf32>, tensor<f32>) -> tensor<f32>
    %356 = stablehlo.divide %355, %7 : tensor<f32>
    %357 = stablehlo.add %356, %6 : tensor<f32>
    %358 = stablehlo.rsqrt %357 : tensor<f32>
    %359 = stablehlo.broadcast_in_dim %358, dims = [] : (tensor<f32>) -> tensor<2048xf32>
    %360 = stablehlo.multiply %353, %359 : tensor<2048xf32>
    %361 = stablehlo.multiply %360, %arg40 : tensor<2048xf32>
    %362 = stablehlo.dot_general %361, %arg45, contracting_dims = [0] x [1] : (tensor<2048xf32>, tensor<2048x2048xf32>) -> tensor<2048xf32>
    %363 = stablehlo.reshape %362 : (tensor<2048xf32>) -> tensor<32x64xf32>
    %364 = stablehlo.dot_general %361, %arg43, contracting_dims = [0] x [1] : (tensor<2048xf32>, tensor<512x2048xf32>) -> tensor<512xf32>
    %365 = stablehlo.reshape %364 : (tensor<512xf32>) -> tensor<8x64xf32>
    %366 = stablehlo.dot_general %361, %arg46, contracting_dims = [0] x [1] : (tensor<2048xf32>, tensor<512x2048xf32>) -> tensor<512xf32>
    %367 = stablehlo.reshape %366 : (tensor<512xf32>) -> tensor<8x64xf32>
    %368 = stablehlo.broadcast_in_dim %29, dims = [1] : (tensor<64xf32>) -> tensor<32x64xf32>
    %369 = stablehlo.broadcast_in_dim %31, dims = [1] : (tensor<64xf32>) -> tensor<32x64xf32>
    %370 = stablehlo.multiply %363, %368 : tensor<32x64xf32>
    %371 = stablehlo.slice %363 [0:32, 0:32] : (tensor<32x64xf32>) -> tensor<32x32xf32>
    %372 = stablehlo.slice %363 [0:32, 32:64] : (tensor<32x64xf32>) -> tensor<32x32xf32>
    %373 = stablehlo.negate %372 : tensor<32x32xf32>
    %374 = stablehlo.concatenate %373, %371, dim = 1 : (tensor<32x32xf32>, tensor<32x32xf32>) -> tensor<32x64xf32>
    %375 = stablehlo.multiply %374, %369 : tensor<32x64xf32>
    %376 = stablehlo.add %370, %375 : tensor<32x64xf32>
    %377 = stablehlo.broadcast_in_dim %29, dims = [1] : (tensor<64xf32>) -> tensor<8x64xf32>
    %378 = stablehlo.broadcast_in_dim %31, dims = [1] : (tensor<64xf32>) -> tensor<8x64xf32>
    %379 = stablehlo.multiply %365, %377 : tensor<8x64xf32>
    %380 = stablehlo.slice %365 [0:8, 0:32] : (tensor<8x64xf32>) -> tensor<8x32xf32>
    %381 = stablehlo.slice %365 [0:8, 32:64] : (tensor<8x64xf32>) -> tensor<8x32xf32>
    %382 = stablehlo.negate %381 : tensor<8x32xf32>
    %383 = stablehlo.concatenate %382, %380, dim = 1 : (tensor<8x32xf32>, tensor<8x32xf32>) -> tensor<8x64xf32>
    %384 = stablehlo.multiply %383, %378 : tensor<8x64xf32>
    %385 = stablehlo.add %379, %384 : tensor<8x64xf32>
    %386 = stablehlo.reshape %385 : (tensor<8x64xf32>) -> tensor<1x1x8x64xf32>
    %387 = stablehlo.dynamic_update_slice %308, %386, %14, %arg148, %9, %9 : (tensor<16x256x8x64xf32>, tensor<1x1x8x64xf32>, tensor<i32>, tensor<i32>, tensor<i32>, tensor<i32>) -> tensor<16x256x8x64xf32>
    %388 = stablehlo.reshape %367 : (tensor<8x64xf32>) -> tensor<1x1x8x64xf32>
    %389 = stablehlo.dynamic_update_slice %310, %388, %14, %arg148, %9, %9 : (tensor<16x256x8x64xf32>, tensor<1x1x8x64xf32>, tensor<i32>, tensor<i32>, tensor<i32>, tensor<i32>) -> tensor<16x256x8x64xf32>
    %390 = stablehlo.slice %387 [4:5, 0:256, 0:8, 0:64] : (tensor<16x256x8x64xf32>) -> tensor<1x256x8x64xf32>
    %391 = stablehlo.reshape %390 : (tensor<1x256x8x64xf32>) -> tensor<256x8x64xf32>
    %392 = stablehlo.slice %389 [4:5, 0:256, 0:8, 0:64] : (tensor<16x256x8x64xf32>) -> tensor<1x256x8x64xf32>
    %393 = stablehlo.reshape %392 : (tensor<1x256x8x64xf32>) -> tensor<256x8x64xf32>
    %394 = stablehlo.reshape %376 : (tensor<32x64xf32>) -> tensor<8x4x64xf32>
    %395 = stablehlo.dot_general %394, %391, batching_dims = [0] x [1], contracting_dims = [2] x [2] : (tensor<8x4x64xf32>, tensor<256x8x64xf32>) -> tensor<8x4x256xf32>
    %396 = stablehlo.reshape %395 : (tensor<8x4x256xf32>) -> tensor<32x256xf32>
    %397 = stablehlo.broadcast_in_dim %8, dims = [] : (tensor<f32>) -> tensor<32x256xf32>
    %398 = stablehlo.multiply %396, %397 : tensor<32x256xf32>
    %399 = stablehlo.broadcast_in_dim %37, dims = [1] : (tensor<256xf32>) -> tensor<32x256xf32>
    %400 = stablehlo.add %398, %399 : tensor<32x256xf32>
    %401 = stablehlo.reduce(%400 init: %4) applies stablehlo.maximum across dimensions = [1] : (tensor<32x256xf32>, tensor<f32>) -> tensor<32xf32>
    %402 = stablehlo.broadcast_in_dim %401, dims = [0] : (tensor<32xf32>) -> tensor<32x256xf32>
    %403 = stablehlo.subtract %400, %402 : tensor<32x256xf32>
    %404 = stablehlo.exponential %403 : tensor<32x256xf32>
    %405 = stablehlo.reduce(%404 init: %2) applies stablehlo.add across dimensions = [1] : (tensor<32x256xf32>, tensor<f32>) -> tensor<32xf32>
    %406 = stablehlo.broadcast_in_dim %405, dims = [0] : (tensor<32xf32>) -> tensor<32x256xf32>
    %407 = stablehlo.divide %404, %406 : tensor<32x256xf32>
    %408 = stablehlo.reshape %407 : (tensor<32x256xf32>) -> tensor<8x4x256xf32>
    %409 = stablehlo.dot_general %408, %393, batching_dims = [0] x [1], contracting_dims = [2] x [0] : (tensor<8x4x256xf32>, tensor<256x8x64xf32>) -> tensor<8x4x64xf32>
    %410 = stablehlo.reshape %409 : (tensor<8x4x64xf32>) -> tensor<32x64xf32>
    %411 = stablehlo.reshape %410 : (tensor<32x64xf32>) -> tensor<2048xf32>
    %412 = stablehlo.dot_general %411, %arg44, contracting_dims = [0] x [1] : (tensor<2048xf32>, tensor<2048x2048xf32>) -> tensor<2048xf32>
    %413 = stablehlo.add %353, %412 : tensor<2048xf32>
    %414 = stablehlo.multiply %413, %413 : tensor<2048xf32>
    %415 = stablehlo.reduce(%414 init: %2) applies stablehlo.add across dimensions = [0] : (tensor<2048xf32>, tensor<f32>) -> tensor<f32>
    %416 = stablehlo.divide %415, %7 : tensor<f32>
    %417 = stablehlo.add %416, %6 : tensor<f32>
    %418 = stablehlo.rsqrt %417 : tensor<f32>
    %419 = stablehlo.broadcast_in_dim %418, dims = [] : (tensor<f32>) -> tensor<2048xf32>
    %420 = stablehlo.multiply %413, %419 : tensor<2048xf32>
    %421 = stablehlo.multiply %420, %arg41 : tensor<2048xf32>
    %422 = stablehlo.dot_general %421, %arg39, contracting_dims = [0] x [1] : (tensor<2048xf32>, tensor<8192x2048xf32>) -> tensor<8192xf32>
    %423 = stablehlo.dot_general %421, %arg42, contracting_dims = [0] x [1] : (tensor<2048xf32>, tensor<8192x2048xf32>) -> tensor<8192xf32>
    %424 = stablehlo.negate %422 : tensor<8192xf32>
    %425 = stablehlo.exponential %424 : tensor<8192xf32>
    %426 = stablehlo.broadcast_in_dim %3, dims = [] : (tensor<f32>) -> tensor<8192xf32>
    %427 = stablehlo.add %426, %425 : tensor<8192xf32>
    %428 = stablehlo.divide %426, %427 : tensor<8192xf32>
    %429 = stablehlo.multiply %422, %428 : tensor<8192xf32>
    %430 = stablehlo.multiply %429, %423 : tensor<8192xf32>
    %431 = stablehlo.dot_general %430, %arg38, contracting_dims = [0] x [1] : (tensor<8192xf32>, tensor<2048x8192xf32>) -> tensor<2048xf32>
    %432 = stablehlo.add %413, %431 : tensor<2048xf32>
    %433 = stablehlo.multiply %432, %432 : tensor<2048xf32>
    %434 = stablehlo.reduce(%433 init: %2) applies stablehlo.add across dimensions = [0] : (tensor<2048xf32>, tensor<f32>) -> tensor<f32>
    %435 = stablehlo.divide %434, %7 : tensor<f32>
    %436 = stablehlo.add %435, %6 : tensor<f32>
    %437 = stablehlo.rsqrt %436 : tensor<f32>
    %438 = stablehlo.broadcast_in_dim %437, dims = [] : (tensor<f32>) -> tensor<2048xf32>
    %439 = stablehlo.multiply %432, %438 : tensor<2048xf32>
    %440 = stablehlo.multiply %439, %arg49 : tensor<2048xf32>
    %441 = stablehlo.dot_general %440, %arg54, contracting_dims = [0] x [1] : (tensor<2048xf32>, tensor<2048x2048xf32>) -> tensor<2048xf32>
    %442 = stablehlo.reshape %441 : (tensor<2048xf32>) -> tensor<32x64xf32>
    %443 = stablehlo.dot_general %440, %arg52, contracting_dims = [0] x [1] : (tensor<2048xf32>, tensor<512x2048xf32>) -> tensor<512xf32>
    %444 = stablehlo.reshape %443 : (tensor<512xf32>) -> tensor<8x64xf32>
    %445 = stablehlo.dot_general %440, %arg55, contracting_dims = [0] x [1] : (tensor<2048xf32>, tensor<512x2048xf32>) -> tensor<512xf32>
    %446 = stablehlo.reshape %445 : (tensor<512xf32>) -> tensor<8x64xf32>
    %447 = stablehlo.broadcast_in_dim %29, dims = [1] : (tensor<64xf32>) -> tensor<32x64xf32>
    %448 = stablehlo.broadcast_in_dim %31, dims = [1] : (tensor<64xf32>) -> tensor<32x64xf32>
    %449 = stablehlo.multiply %442, %447 : tensor<32x64xf32>
    %450 = stablehlo.slice %442 [0:32, 0:32] : (tensor<32x64xf32>) -> tensor<32x32xf32>
    %451 = stablehlo.slice %442 [0:32, 32:64] : (tensor<32x64xf32>) -> tensor<32x32xf32>
    %452 = stablehlo.negate %451 : tensor<32x32xf32>
    %453 = stablehlo.concatenate %452, %450, dim = 1 : (tensor<32x32xf32>, tensor<32x32xf32>) -> tensor<32x64xf32>
    %454 = stablehlo.multiply %453, %448 : tensor<32x64xf32>
    %455 = stablehlo.add %449, %454 : tensor<32x64xf32>
    %456 = stablehlo.broadcast_in_dim %29, dims = [1] : (tensor<64xf32>) -> tensor<8x64xf32>
    %457 = stablehlo.broadcast_in_dim %31, dims = [1] : (tensor<64xf32>) -> tensor<8x64xf32>
    %458 = stablehlo.multiply %444, %456 : tensor<8x64xf32>
    %459 = stablehlo.slice %444 [0:8, 0:32] : (tensor<8x64xf32>) -> tensor<8x32xf32>
    %460 = stablehlo.slice %444 [0:8, 32:64] : (tensor<8x64xf32>) -> tensor<8x32xf32>
    %461 = stablehlo.negate %460 : tensor<8x32xf32>
    %462 = stablehlo.concatenate %461, %459, dim = 1 : (tensor<8x32xf32>, tensor<8x32xf32>) -> tensor<8x64xf32>
    %463 = stablehlo.multiply %462, %457 : tensor<8x64xf32>
    %464 = stablehlo.add %458, %463 : tensor<8x64xf32>
    %465 = stablehlo.reshape %464 : (tensor<8x64xf32>) -> tensor<1x1x8x64xf32>
    %466 = stablehlo.dynamic_update_slice %387, %465, %15, %arg148, %9, %9 : (tensor<16x256x8x64xf32>, tensor<1x1x8x64xf32>, tensor<i32>, tensor<i32>, tensor<i32>, tensor<i32>) -> tensor<16x256x8x64xf32>
    %467 = stablehlo.reshape %446 : (tensor<8x64xf32>) -> tensor<1x1x8x64xf32>
    %468 = stablehlo.dynamic_update_slice %389, %467, %15, %arg148, %9, %9 : (tensor<16x256x8x64xf32>, tensor<1x1x8x64xf32>, tensor<i32>, tensor<i32>, tensor<i32>, tensor<i32>) -> tensor<16x256x8x64xf32>
    %469 = stablehlo.slice %466 [5:6, 0:256, 0:8, 0:64] : (tensor<16x256x8x64xf32>) -> tensor<1x256x8x64xf32>
    %470 = stablehlo.reshape %469 : (tensor<1x256x8x64xf32>) -> tensor<256x8x64xf32>
    %471 = stablehlo.slice %468 [5:6, 0:256, 0:8, 0:64] : (tensor<16x256x8x64xf32>) -> tensor<1x256x8x64xf32>
    %472 = stablehlo.reshape %471 : (tensor<1x256x8x64xf32>) -> tensor<256x8x64xf32>
    %473 = stablehlo.reshape %455 : (tensor<32x64xf32>) -> tensor<8x4x64xf32>
    %474 = stablehlo.dot_general %473, %470, batching_dims = [0] x [1], contracting_dims = [2] x [2] : (tensor<8x4x64xf32>, tensor<256x8x64xf32>) -> tensor<8x4x256xf32>
    %475 = stablehlo.reshape %474 : (tensor<8x4x256xf32>) -> tensor<32x256xf32>
    %476 = stablehlo.broadcast_in_dim %8, dims = [] : (tensor<f32>) -> tensor<32x256xf32>
    %477 = stablehlo.multiply %475, %476 : tensor<32x256xf32>
    %478 = stablehlo.broadcast_in_dim %37, dims = [1] : (tensor<256xf32>) -> tensor<32x256xf32>
    %479 = stablehlo.add %477, %478 : tensor<32x256xf32>
    %480 = stablehlo.reduce(%479 init: %4) applies stablehlo.maximum across dimensions = [1] : (tensor<32x256xf32>, tensor<f32>) -> tensor<32xf32>
    %481 = stablehlo.broadcast_in_dim %480, dims = [0] : (tensor<32xf32>) -> tensor<32x256xf32>
    %482 = stablehlo.subtract %479, %481 : tensor<32x256xf32>
    %483 = stablehlo.exponential %482 : tensor<32x256xf32>
    %484 = stablehlo.reduce(%483 init: %2) applies stablehlo.add across dimensions = [1] : (tensor<32x256xf32>, tensor<f32>) -> tensor<32xf32>
    %485 = stablehlo.broadcast_in_dim %484, dims = [0] : (tensor<32xf32>) -> tensor<32x256xf32>
    %486 = stablehlo.divide %483, %485 : tensor<32x256xf32>
    %487 = stablehlo.reshape %486 : (tensor<32x256xf32>) -> tensor<8x4x256xf32>
    %488 = stablehlo.dot_general %487, %472, batching_dims = [0] x [1], contracting_dims = [2] x [0] : (tensor<8x4x256xf32>, tensor<256x8x64xf32>) -> tensor<8x4x64xf32>
    %489 = stablehlo.reshape %488 : (tensor<8x4x64xf32>) -> tensor<32x64xf32>
    %490 = stablehlo.reshape %489 : (tensor<32x64xf32>) -> tensor<2048xf32>
    %491 = stablehlo.dot_general %490, %arg53, contracting_dims = [0] x [1] : (tensor<2048xf32>, tensor<2048x2048xf32>) -> tensor<2048xf32>
    %492 = stablehlo.add %432, %491 : tensor<2048xf32>
    %493 = stablehlo.multiply %492, %492 : tensor<2048xf32>
    %494 = stablehlo.reduce(%493 init: %2) applies stablehlo.add across dimensions = [0] : (tensor<2048xf32>, tensor<f32>) -> tensor<f32>
    %495 = stablehlo.divide %494, %7 : tensor<f32>
    %496 = stablehlo.add %495, %6 : tensor<f32>
    %497 = stablehlo.rsqrt %496 : tensor<f32>
    %498 = stablehlo.broadcast_in_dim %497, dims = [] : (tensor<f32>) -> tensor<2048xf32>
    %499 = stablehlo.multiply %492, %498 : tensor<2048xf32>
    %500 = stablehlo.multiply %499, %arg50 : tensor<2048xf32>
    %501 = stablehlo.dot_general %500, %arg48, contracting_dims = [0] x [1] : (tensor<2048xf32>, tensor<8192x2048xf32>) -> tensor<8192xf32>
    %502 = stablehlo.dot_general %500, %arg51, contracting_dims = [0] x [1] : (tensor<2048xf32>, tensor<8192x2048xf32>) -> tensor<8192xf32>
    %503 = stablehlo.negate %501 : tensor<8192xf32>
    %504 = stablehlo.exponential %503 : tensor<8192xf32>
    %505 = stablehlo.broadcast_in_dim %3, dims = [] : (tensor<f32>) -> tensor<8192xf32>
    %506 = stablehlo.add %505, %504 : tensor<8192xf32>
    %507 = stablehlo.divide %505, %506 : tensor<8192xf32>
    %508 = stablehlo.multiply %501, %507 : tensor<8192xf32>
    %509 = stablehlo.multiply %508, %502 : tensor<8192xf32>
    %510 = stablehlo.dot_general %509, %arg47, contracting_dims = [0] x [1] : (tensor<8192xf32>, tensor<2048x8192xf32>) -> tensor<2048xf32>
    %511 = stablehlo.add %492, %510 : tensor<2048xf32>
    %512 = stablehlo.multiply %511, %511 : tensor<2048xf32>
    %513 = stablehlo.reduce(%512 init: %2) applies stablehlo.add across dimensions = [0] : (tensor<2048xf32>, tensor<f32>) -> tensor<f32>
    %514 = stablehlo.divide %513, %7 : tensor<f32>
    %515 = stablehlo.add %514, %6 : tensor<f32>
    %516 = stablehlo.rsqrt %515 : tensor<f32>
    %517 = stablehlo.broadcast_in_dim %516, dims = [] : (tensor<f32>) -> tensor<2048xf32>
    %518 = stablehlo.multiply %511, %517 : tensor<2048xf32>
    %519 = stablehlo.multiply %518, %arg58 : tensor<2048xf32>
    %520 = stablehlo.dot_general %519, %arg63, contracting_dims = [0] x [1] : (tensor<2048xf32>, tensor<2048x2048xf32>) -> tensor<2048xf32>
    %521 = stablehlo.reshape %520 : (tensor<2048xf32>) -> tensor<32x64xf32>
    %522 = stablehlo.dot_general %519, %arg61, contracting_dims = [0] x [1] : (tensor<2048xf32>, tensor<512x2048xf32>) -> tensor<512xf32>
    %523 = stablehlo.reshape %522 : (tensor<512xf32>) -> tensor<8x64xf32>
    %524 = stablehlo.dot_general %519, %arg64, contracting_dims = [0] x [1] : (tensor<2048xf32>, tensor<512x2048xf32>) -> tensor<512xf32>
    %525 = stablehlo.reshape %524 : (tensor<512xf32>) -> tensor<8x64xf32>
    %526 = stablehlo.broadcast_in_dim %29, dims = [1] : (tensor<64xf32>) -> tensor<32x64xf32>
    %527 = stablehlo.broadcast_in_dim %31, dims = [1] : (tensor<64xf32>) -> tensor<32x64xf32>
    %528 = stablehlo.multiply %521, %526 : tensor<32x64xf32>
    %529 = stablehlo.slice %521 [0:32, 0:32] : (tensor<32x64xf32>) -> tensor<32x32xf32>
    %530 = stablehlo.slice %521 [0:32, 32:64] : (tensor<32x64xf32>) -> tensor<32x32xf32>
    %531 = stablehlo.negate %530 : tensor<32x32xf32>
    %532 = stablehlo.concatenate %531, %529, dim = 1 : (tensor<32x32xf32>, tensor<32x32xf32>) -> tensor<32x64xf32>
    %533 = stablehlo.multiply %532, %527 : tensor<32x64xf32>
    %534 = stablehlo.add %528, %533 : tensor<32x64xf32>
    %535 = stablehlo.broadcast_in_dim %29, dims = [1] : (tensor<64xf32>) -> tensor<8x64xf32>
    %536 = stablehlo.broadcast_in_dim %31, dims = [1] : (tensor<64xf32>) -> tensor<8x64xf32>
    %537 = stablehlo.multiply %523, %535 : tensor<8x64xf32>
    %538 = stablehlo.slice %523 [0:8, 0:32] : (tensor<8x64xf32>) -> tensor<8x32xf32>
    %539 = stablehlo.slice %523 [0:8, 32:64] : (tensor<8x64xf32>) -> tensor<8x32xf32>
    %540 = stablehlo.negate %539 : tensor<8x32xf32>
    %541 = stablehlo.concatenate %540, %538, dim = 1 : (tensor<8x32xf32>, tensor<8x32xf32>) -> tensor<8x64xf32>
    %542 = stablehlo.multiply %541, %536 : tensor<8x64xf32>
    %543 = stablehlo.add %537, %542 : tensor<8x64xf32>
    %544 = stablehlo.reshape %543 : (tensor<8x64xf32>) -> tensor<1x1x8x64xf32>
    %545 = stablehlo.dynamic_update_slice %466, %544, %16, %arg148, %9, %9 : (tensor<16x256x8x64xf32>, tensor<1x1x8x64xf32>, tensor<i32>, tensor<i32>, tensor<i32>, tensor<i32>) -> tensor<16x256x8x64xf32>
    %546 = stablehlo.reshape %525 : (tensor<8x64xf32>) -> tensor<1x1x8x64xf32>
    %547 = stablehlo.dynamic_update_slice %468, %546, %16, %arg148, %9, %9 : (tensor<16x256x8x64xf32>, tensor<1x1x8x64xf32>, tensor<i32>, tensor<i32>, tensor<i32>, tensor<i32>) -> tensor<16x256x8x64xf32>
    %548 = stablehlo.slice %545 [6:7, 0:256, 0:8, 0:64] : (tensor<16x256x8x64xf32>) -> tensor<1x256x8x64xf32>
    %549 = stablehlo.reshape %548 : (tensor<1x256x8x64xf32>) -> tensor<256x8x64xf32>
    %550 = stablehlo.slice %547 [6:7, 0:256, 0:8, 0:64] : (tensor<16x256x8x64xf32>) -> tensor<1x256x8x64xf32>
    %551 = stablehlo.reshape %550 : (tensor<1x256x8x64xf32>) -> tensor<256x8x64xf32>
    %552 = stablehlo.reshape %534 : (tensor<32x64xf32>) -> tensor<8x4x64xf32>
    %553 = stablehlo.dot_general %552, %549, batching_dims = [0] x [1], contracting_dims = [2] x [2] : (tensor<8x4x64xf32>, tensor<256x8x64xf32>) -> tensor<8x4x256xf32>
    %554 = stablehlo.reshape %553 : (tensor<8x4x256xf32>) -> tensor<32x256xf32>
    %555 = stablehlo.broadcast_in_dim %8, dims = [] : (tensor<f32>) -> tensor<32x256xf32>
    %556 = stablehlo.multiply %554, %555 : tensor<32x256xf32>
    %557 = stablehlo.broadcast_in_dim %37, dims = [1] : (tensor<256xf32>) -> tensor<32x256xf32>
    %558 = stablehlo.add %556, %557 : tensor<32x256xf32>
    %559 = stablehlo.reduce(%558 init: %4) applies stablehlo.maximum across dimensions = [1] : (tensor<32x256xf32>, tensor<f32>) -> tensor<32xf32>
    %560 = stablehlo.broadcast_in_dim %559, dims = [0] : (tensor<32xf32>) -> tensor<32x256xf32>
    %561 = stablehlo.subtract %558, %560 : tensor<32x256xf32>
    %562 = stablehlo.exponential %561 : tensor<32x256xf32>
    %563 = stablehlo.reduce(%562 init: %2) applies stablehlo.add across dimensions = [1] : (tensor<32x256xf32>, tensor<f32>) -> tensor<32xf32>
    %564 = stablehlo.broadcast_in_dim %563, dims = [0] : (tensor<32xf32>) -> tensor<32x256xf32>
    %565 = stablehlo.divide %562, %564 : tensor<32x256xf32>
    %566 = stablehlo.reshape %565 : (tensor<32x256xf32>) -> tensor<8x4x256xf32>
    %567 = stablehlo.dot_general %566, %551, batching_dims = [0] x [1], contracting_dims = [2] x [0] : (tensor<8x4x256xf32>, tensor<256x8x64xf32>) -> tensor<8x4x64xf32>
    %568 = stablehlo.reshape %567 : (tensor<8x4x64xf32>) -> tensor<32x64xf32>
    %569 = stablehlo.reshape %568 : (tensor<32x64xf32>) -> tensor<2048xf32>
    %570 = stablehlo.dot_general %569, %arg62, contracting_dims = [0] x [1] : (tensor<2048xf32>, tensor<2048x2048xf32>) -> tensor<2048xf32>
    %571 = stablehlo.add %511, %570 : tensor<2048xf32>
    %572 = stablehlo.multiply %571, %571 : tensor<2048xf32>
    %573 = stablehlo.reduce(%572 init: %2) applies stablehlo.add across dimensions = [0] : (tensor<2048xf32>, tensor<f32>) -> tensor<f32>
    %574 = stablehlo.divide %573, %7 : tensor<f32>
    %575 = stablehlo.add %574, %6 : tensor<f32>
    %576 = stablehlo.rsqrt %575 : tensor<f32>
    %577 = stablehlo.broadcast_in_dim %576, dims = [] : (tensor<f32>) -> tensor<2048xf32>
    %578 = stablehlo.multiply %571, %577 : tensor<2048xf32>
    %579 = stablehlo.multiply %578, %arg59 : tensor<2048xf32>
    %580 = stablehlo.dot_general %579, %arg57, contracting_dims = [0] x [1] : (tensor<2048xf32>, tensor<8192x2048xf32>) -> tensor<8192xf32>
    %581 = stablehlo.dot_general %579, %arg60, contracting_dims = [0] x [1] : (tensor<2048xf32>, tensor<8192x2048xf32>) -> tensor<8192xf32>
    %582 = stablehlo.negate %580 : tensor<8192xf32>
    %583 = stablehlo.exponential %582 : tensor<8192xf32>
    %584 = stablehlo.broadcast_in_dim %3, dims = [] : (tensor<f32>) -> tensor<8192xf32>
    %585 = stablehlo.add %584, %583 : tensor<8192xf32>
    %586 = stablehlo.divide %584, %585 : tensor<8192xf32>
    %587 = stablehlo.multiply %580, %586 : tensor<8192xf32>
    %588 = stablehlo.multiply %587, %581 : tensor<8192xf32>
    %589 = stablehlo.dot_general %588, %arg56, contracting_dims = [0] x [1] : (tensor<8192xf32>, tensor<2048x8192xf32>) -> tensor<2048xf32>
    %590 = stablehlo.add %571, %589 : tensor<2048xf32>
    %591 = stablehlo.multiply %590, %590 : tensor<2048xf32>
    %592 = stablehlo.reduce(%591 init: %2) applies stablehlo.add across dimensions = [0] : (tensor<2048xf32>, tensor<f32>) -> tensor<f32>
    %593 = stablehlo.divide %592, %7 : tensor<f32>
    %594 = stablehlo.add %593, %6 : tensor<f32>
    %595 = stablehlo.rsqrt %594 : tensor<f32>
    %596 = stablehlo.broadcast_in_dim %595, dims = [] : (tensor<f32>) -> tensor<2048xf32>
    %597 = stablehlo.multiply %590, %596 : tensor<2048xf32>
    %598 = stablehlo.multiply %597, %arg67 : tensor<2048xf32>
    %599 = stablehlo.dot_general %598, %arg72, contracting_dims = [0] x [1] : (tensor<2048xf32>, tensor<2048x2048xf32>) -> tensor<2048xf32>
    %600 = stablehlo.reshape %599 : (tensor<2048xf32>) -> tensor<32x64xf32>
    %601 = stablehlo.dot_general %598, %arg70, contracting_dims = [0] x [1] : (tensor<2048xf32>, tensor<512x2048xf32>) -> tensor<512xf32>
    %602 = stablehlo.reshape %601 : (tensor<512xf32>) -> tensor<8x64xf32>
    %603 = stablehlo.dot_general %598, %arg73, contracting_dims = [0] x [1] : (tensor<2048xf32>, tensor<512x2048xf32>) -> tensor<512xf32>
    %604 = stablehlo.reshape %603 : (tensor<512xf32>) -> tensor<8x64xf32>
    %605 = stablehlo.broadcast_in_dim %29, dims = [1] : (tensor<64xf32>) -> tensor<32x64xf32>
    %606 = stablehlo.broadcast_in_dim %31, dims = [1] : (tensor<64xf32>) -> tensor<32x64xf32>
    %607 = stablehlo.multiply %600, %605 : tensor<32x64xf32>
    %608 = stablehlo.slice %600 [0:32, 0:32] : (tensor<32x64xf32>) -> tensor<32x32xf32>
    %609 = stablehlo.slice %600 [0:32, 32:64] : (tensor<32x64xf32>) -> tensor<32x32xf32>
    %610 = stablehlo.negate %609 : tensor<32x32xf32>
    %611 = stablehlo.concatenate %610, %608, dim = 1 : (tensor<32x32xf32>, tensor<32x32xf32>) -> tensor<32x64xf32>
    %612 = stablehlo.multiply %611, %606 : tensor<32x64xf32>
    %613 = stablehlo.add %607, %612 : tensor<32x64xf32>
    %614 = stablehlo.broadcast_in_dim %29, dims = [1] : (tensor<64xf32>) -> tensor<8x64xf32>
    %615 = stablehlo.broadcast_in_dim %31, dims = [1] : (tensor<64xf32>) -> tensor<8x64xf32>
    %616 = stablehlo.multiply %602, %614 : tensor<8x64xf32>
    %617 = stablehlo.slice %602 [0:8, 0:32] : (tensor<8x64xf32>) -> tensor<8x32xf32>
    %618 = stablehlo.slice %602 [0:8, 32:64] : (tensor<8x64xf32>) -> tensor<8x32xf32>
    %619 = stablehlo.negate %618 : tensor<8x32xf32>
    %620 = stablehlo.concatenate %619, %617, dim = 1 : (tensor<8x32xf32>, tensor<8x32xf32>) -> tensor<8x64xf32>
    %621 = stablehlo.multiply %620, %615 : tensor<8x64xf32>
    %622 = stablehlo.add %616, %621 : tensor<8x64xf32>
    %623 = stablehlo.reshape %622 : (tensor<8x64xf32>) -> tensor<1x1x8x64xf32>
    %624 = stablehlo.dynamic_update_slice %545, %623, %17, %arg148, %9, %9 : (tensor<16x256x8x64xf32>, tensor<1x1x8x64xf32>, tensor<i32>, tensor<i32>, tensor<i32>, tensor<i32>) -> tensor<16x256x8x64xf32>
    %625 = stablehlo.reshape %604 : (tensor<8x64xf32>) -> tensor<1x1x8x64xf32>
    %626 = stablehlo.dynamic_update_slice %547, %625, %17, %arg148, %9, %9 : (tensor<16x256x8x64xf32>, tensor<1x1x8x64xf32>, tensor<i32>, tensor<i32>, tensor<i32>, tensor<i32>) -> tensor<16x256x8x64xf32>
    %627 = stablehlo.slice %624 [7:8, 0:256, 0:8, 0:64] : (tensor<16x256x8x64xf32>) -> tensor<1x256x8x64xf32>
    %628 = stablehlo.reshape %627 : (tensor<1x256x8x64xf32>) -> tensor<256x8x64xf32>
    %629 = stablehlo.slice %626 [7:8, 0:256, 0:8, 0:64] : (tensor<16x256x8x64xf32>) -> tensor<1x256x8x64xf32>
    %630 = stablehlo.reshape %629 : (tensor<1x256x8x64xf32>) -> tensor<256x8x64xf32>
    %631 = stablehlo.reshape %613 : (tensor<32x64xf32>) -> tensor<8x4x64xf32>
    %632 = stablehlo.dot_general %631, %628, batching_dims = [0] x [1], contracting_dims = [2] x [2] : (tensor<8x4x64xf32>, tensor<256x8x64xf32>) -> tensor<8x4x256xf32>
    %633 = stablehlo.reshape %632 : (tensor<8x4x256xf32>) -> tensor<32x256xf32>
    %634 = stablehlo.broadcast_in_dim %8, dims = [] : (tensor<f32>) -> tensor<32x256xf32>
    %635 = stablehlo.multiply %633, %634 : tensor<32x256xf32>
    %636 = stablehlo.broadcast_in_dim %37, dims = [1] : (tensor<256xf32>) -> tensor<32x256xf32>
    %637 = stablehlo.add %635, %636 : tensor<32x256xf32>
    %638 = stablehlo.reduce(%637 init: %4) applies stablehlo.maximum across dimensions = [1] : (tensor<32x256xf32>, tensor<f32>) -> tensor<32xf32>
    %639 = stablehlo.broadcast_in_dim %638, dims = [0] : (tensor<32xf32>) -> tensor<32x256xf32>
    %640 = stablehlo.subtract %637, %639 : tensor<32x256xf32>
    %641 = stablehlo.exponential %640 : tensor<32x256xf32>
    %642 = stablehlo.reduce(%641 init: %2) applies stablehlo.add across dimensions = [1] : (tensor<32x256xf32>, tensor<f32>) -> tensor<32xf32>
    %643 = stablehlo.broadcast_in_dim %642, dims = [0] : (tensor<32xf32>) -> tensor<32x256xf32>
    %644 = stablehlo.divide %641, %643 : tensor<32x256xf32>
    %645 = stablehlo.reshape %644 : (tensor<32x256xf32>) -> tensor<8x4x256xf32>
    %646 = stablehlo.dot_general %645, %630, batching_dims = [0] x [1], contracting_dims = [2] x [0] : (tensor<8x4x256xf32>, tensor<256x8x64xf32>) -> tensor<8x4x64xf32>
    %647 = stablehlo.reshape %646 : (tensor<8x4x64xf32>) -> tensor<32x64xf32>
    %648 = stablehlo.reshape %647 : (tensor<32x64xf32>) -> tensor<2048xf32>
    %649 = stablehlo.dot_general %648, %arg71, contracting_dims = [0] x [1] : (tensor<2048xf32>, tensor<2048x2048xf32>) -> tensor<2048xf32>
    %650 = stablehlo.add %590, %649 : tensor<2048xf32>
    %651 = stablehlo.multiply %650, %650 : tensor<2048xf32>
    %652 = stablehlo.reduce(%651 init: %2) applies stablehlo.add across dimensions = [0] : (tensor<2048xf32>, tensor<f32>) -> tensor<f32>
    %653 = stablehlo.divide %652, %7 : tensor<f32>
    %654 = stablehlo.add %653, %6 : tensor<f32>
    %655 = stablehlo.rsqrt %654 : tensor<f32>
    %656 = stablehlo.broadcast_in_dim %655, dims = [] : (tensor<f32>) -> tensor<2048xf32>
    %657 = stablehlo.multiply %650, %656 : tensor<2048xf32>
    %658 = stablehlo.multiply %657, %arg68 : tensor<2048xf32>
    %659 = stablehlo.dot_general %658, %arg66, contracting_dims = [0] x [1] : (tensor<2048xf32>, tensor<8192x2048xf32>) -> tensor<8192xf32>
    %660 = stablehlo.dot_general %658, %arg69, contracting_dims = [0] x [1] : (tensor<2048xf32>, tensor<8192x2048xf32>) -> tensor<8192xf32>
    %661 = stablehlo.negate %659 : tensor<8192xf32>
    %662 = stablehlo.exponential %661 : tensor<8192xf32>
    %663 = stablehlo.broadcast_in_dim %3, dims = [] : (tensor<f32>) -> tensor<8192xf32>
    %664 = stablehlo.add %663, %662 : tensor<8192xf32>
    %665 = stablehlo.divide %663, %664 : tensor<8192xf32>
    %666 = stablehlo.multiply %659, %665 : tensor<8192xf32>
    %667 = stablehlo.multiply %666, %660 : tensor<8192xf32>
    %668 = stablehlo.dot_general %667, %arg65, contracting_dims = [0] x [1] : (tensor<8192xf32>, tensor<2048x8192xf32>) -> tensor<2048xf32>
    %669 = stablehlo.add %650, %668 : tensor<2048xf32>
    %670 = stablehlo.multiply %669, %669 : tensor<2048xf32>
    %671 = stablehlo.reduce(%670 init: %2) applies stablehlo.add across dimensions = [0] : (tensor<2048xf32>, tensor<f32>) -> tensor<f32>
    %672 = stablehlo.divide %671, %7 : tensor<f32>
    %673 = stablehlo.add %672, %6 : tensor<f32>
    %674 = stablehlo.rsqrt %673 : tensor<f32>
    %675 = stablehlo.broadcast_in_dim %674, dims = [] : (tensor<f32>) -> tensor<2048xf32>
    %676 = stablehlo.multiply %669, %675 : tensor<2048xf32>
    %677 = stablehlo.multiply %676, %arg76 : tensor<2048xf32>
    %678 = stablehlo.dot_general %677, %arg81, contracting_dims = [0] x [1] : (tensor<2048xf32>, tensor<2048x2048xf32>) -> tensor<2048xf32>
    %679 = stablehlo.reshape %678 : (tensor<2048xf32>) -> tensor<32x64xf32>
    %680 = stablehlo.dot_general %677, %arg79, contracting_dims = [0] x [1] : (tensor<2048xf32>, tensor<512x2048xf32>) -> tensor<512xf32>
    %681 = stablehlo.reshape %680 : (tensor<512xf32>) -> tensor<8x64xf32>
    %682 = stablehlo.dot_general %677, %arg82, contracting_dims = [0] x [1] : (tensor<2048xf32>, tensor<512x2048xf32>) -> tensor<512xf32>
    %683 = stablehlo.reshape %682 : (tensor<512xf32>) -> tensor<8x64xf32>
    %684 = stablehlo.broadcast_in_dim %29, dims = [1] : (tensor<64xf32>) -> tensor<32x64xf32>
    %685 = stablehlo.broadcast_in_dim %31, dims = [1] : (tensor<64xf32>) -> tensor<32x64xf32>
    %686 = stablehlo.multiply %679, %684 : tensor<32x64xf32>
    %687 = stablehlo.slice %679 [0:32, 0:32] : (tensor<32x64xf32>) -> tensor<32x32xf32>
    %688 = stablehlo.slice %679 [0:32, 32:64] : (tensor<32x64xf32>) -> tensor<32x32xf32>
    %689 = stablehlo.negate %688 : tensor<32x32xf32>
    %690 = stablehlo.concatenate %689, %687, dim = 1 : (tensor<32x32xf32>, tensor<32x32xf32>) -> tensor<32x64xf32>
    %691 = stablehlo.multiply %690, %685 : tensor<32x64xf32>
    %692 = stablehlo.add %686, %691 : tensor<32x64xf32>
    %693 = stablehlo.broadcast_in_dim %29, dims = [1] : (tensor<64xf32>) -> tensor<8x64xf32>
    %694 = stablehlo.broadcast_in_dim %31, dims = [1] : (tensor<64xf32>) -> tensor<8x64xf32>
    %695 = stablehlo.multiply %681, %693 : tensor<8x64xf32>
    %696 = stablehlo.slice %681 [0:8, 0:32] : (tensor<8x64xf32>) -> tensor<8x32xf32>
    %697 = stablehlo.slice %681 [0:8, 32:64] : (tensor<8x64xf32>) -> tensor<8x32xf32>
    %698 = stablehlo.negate %697 : tensor<8x32xf32>
    %699 = stablehlo.concatenate %698, %696, dim = 1 : (tensor<8x32xf32>, tensor<8x32xf32>) -> tensor<8x64xf32>
    %700 = stablehlo.multiply %699, %694 : tensor<8x64xf32>
    %701 = stablehlo.add %695, %700 : tensor<8x64xf32>
    %702 = stablehlo.reshape %701 : (tensor<8x64xf32>) -> tensor<1x1x8x64xf32>
    %703 = stablehlo.dynamic_update_slice %624, %702, %18, %arg148, %9, %9 : (tensor<16x256x8x64xf32>, tensor<1x1x8x64xf32>, tensor<i32>, tensor<i32>, tensor<i32>, tensor<i32>) -> tensor<16x256x8x64xf32>
    %704 = stablehlo.reshape %683 : (tensor<8x64xf32>) -> tensor<1x1x8x64xf32>
    %705 = stablehlo.dynamic_update_slice %626, %704, %18, %arg148, %9, %9 : (tensor<16x256x8x64xf32>, tensor<1x1x8x64xf32>, tensor<i32>, tensor<i32>, tensor<i32>, tensor<i32>) -> tensor<16x256x8x64xf32>
    %706 = stablehlo.slice %703 [8:9, 0:256, 0:8, 0:64] : (tensor<16x256x8x64xf32>) -> tensor<1x256x8x64xf32>
    %707 = stablehlo.reshape %706 : (tensor<1x256x8x64xf32>) -> tensor<256x8x64xf32>
    %708 = stablehlo.slice %705 [8:9, 0:256, 0:8, 0:64] : (tensor<16x256x8x64xf32>) -> tensor<1x256x8x64xf32>
    %709 = stablehlo.reshape %708 : (tensor<1x256x8x64xf32>) -> tensor<256x8x64xf32>
    %710 = stablehlo.reshape %692 : (tensor<32x64xf32>) -> tensor<8x4x64xf32>
    %711 = stablehlo.dot_general %710, %707, batching_dims = [0] x [1], contracting_dims = [2] x [2] : (tensor<8x4x64xf32>, tensor<256x8x64xf32>) -> tensor<8x4x256xf32>
    %712 = stablehlo.reshape %711 : (tensor<8x4x256xf32>) -> tensor<32x256xf32>
    %713 = stablehlo.broadcast_in_dim %8, dims = [] : (tensor<f32>) -> tensor<32x256xf32>
    %714 = stablehlo.multiply %712, %713 : tensor<32x256xf32>
    %715 = stablehlo.broadcast_in_dim %37, dims = [1] : (tensor<256xf32>) -> tensor<32x256xf32>
    %716 = stablehlo.add %714, %715 : tensor<32x256xf32>
    %717 = stablehlo.reduce(%716 init: %4) applies stablehlo.maximum across dimensions = [1] : (tensor<32x256xf32>, tensor<f32>) -> tensor<32xf32>
    %718 = stablehlo.broadcast_in_dim %717, dims = [0] : (tensor<32xf32>) -> tensor<32x256xf32>
    %719 = stablehlo.subtract %716, %718 : tensor<32x256xf32>
    %720 = stablehlo.exponential %719 : tensor<32x256xf32>
    %721 = stablehlo.reduce(%720 init: %2) applies stablehlo.add across dimensions = [1] : (tensor<32x256xf32>, tensor<f32>) -> tensor<32xf32>
    %722 = stablehlo.broadcast_in_dim %721, dims = [0] : (tensor<32xf32>) -> tensor<32x256xf32>
    %723 = stablehlo.divide %720, %722 : tensor<32x256xf32>
    %724 = stablehlo.reshape %723 : (tensor<32x256xf32>) -> tensor<8x4x256xf32>
    %725 = stablehlo.dot_general %724, %709, batching_dims = [0] x [1], contracting_dims = [2] x [0] : (tensor<8x4x256xf32>, tensor<256x8x64xf32>) -> tensor<8x4x64xf32>
    %726 = stablehlo.reshape %725 : (tensor<8x4x64xf32>) -> tensor<32x64xf32>
    %727 = stablehlo.reshape %726 : (tensor<32x64xf32>) -> tensor<2048xf32>
    %728 = stablehlo.dot_general %727, %arg80, contracting_dims = [0] x [1] : (tensor<2048xf32>, tensor<2048x2048xf32>) -> tensor<2048xf32>
    %729 = stablehlo.add %669, %728 : tensor<2048xf32>
    %730 = stablehlo.multiply %729, %729 : tensor<2048xf32>
    %731 = stablehlo.reduce(%730 init: %2) applies stablehlo.add across dimensions = [0] : (tensor<2048xf32>, tensor<f32>) -> tensor<f32>
    %732 = stablehlo.divide %731, %7 : tensor<f32>
    %733 = stablehlo.add %732, %6 : tensor<f32>
    %734 = stablehlo.rsqrt %733 : tensor<f32>
    %735 = stablehlo.broadcast_in_dim %734, dims = [] : (tensor<f32>) -> tensor<2048xf32>
    %736 = stablehlo.multiply %729, %735 : tensor<2048xf32>
    %737 = stablehlo.multiply %736, %arg77 : tensor<2048xf32>
    %738 = stablehlo.dot_general %737, %arg75, contracting_dims = [0] x [1] : (tensor<2048xf32>, tensor<8192x2048xf32>) -> tensor<8192xf32>
    %739 = stablehlo.dot_general %737, %arg78, contracting_dims = [0] x [1] : (tensor<2048xf32>, tensor<8192x2048xf32>) -> tensor<8192xf32>
    %740 = stablehlo.negate %738 : tensor<8192xf32>
    %741 = stablehlo.exponential %740 : tensor<8192xf32>
    %742 = stablehlo.broadcast_in_dim %3, dims = [] : (tensor<f32>) -> tensor<8192xf32>
    %743 = stablehlo.add %742, %741 : tensor<8192xf32>
    %744 = stablehlo.divide %742, %743 : tensor<8192xf32>
    %745 = stablehlo.multiply %738, %744 : tensor<8192xf32>
    %746 = stablehlo.multiply %745, %739 : tensor<8192xf32>
    %747 = stablehlo.dot_general %746, %arg74, contracting_dims = [0] x [1] : (tensor<8192xf32>, tensor<2048x8192xf32>) -> tensor<2048xf32>
    %748 = stablehlo.add %729, %747 : tensor<2048xf32>
    %749 = stablehlo.multiply %748, %748 : tensor<2048xf32>
    %750 = stablehlo.reduce(%749 init: %2) applies stablehlo.add across dimensions = [0] : (tensor<2048xf32>, tensor<f32>) -> tensor<f32>
    %751 = stablehlo.divide %750, %7 : tensor<f32>
    %752 = stablehlo.add %751, %6 : tensor<f32>
    %753 = stablehlo.rsqrt %752 : tensor<f32>
    %754 = stablehlo.broadcast_in_dim %753, dims = [] : (tensor<f32>) -> tensor<2048xf32>
    %755 = stablehlo.multiply %748, %754 : tensor<2048xf32>
    %756 = stablehlo.multiply %755, %arg85 : tensor<2048xf32>
    %757 = stablehlo.dot_general %756, %arg90, contracting_dims = [0] x [1] : (tensor<2048xf32>, tensor<2048x2048xf32>) -> tensor<2048xf32>
    %758 = stablehlo.reshape %757 : (tensor<2048xf32>) -> tensor<32x64xf32>
    %759 = stablehlo.dot_general %756, %arg88, contracting_dims = [0] x [1] : (tensor<2048xf32>, tensor<512x2048xf32>) -> tensor<512xf32>
    %760 = stablehlo.reshape %759 : (tensor<512xf32>) -> tensor<8x64xf32>
    %761 = stablehlo.dot_general %756, %arg91, contracting_dims = [0] x [1] : (tensor<2048xf32>, tensor<512x2048xf32>) -> tensor<512xf32>
    %762 = stablehlo.reshape %761 : (tensor<512xf32>) -> tensor<8x64xf32>
    %763 = stablehlo.broadcast_in_dim %29, dims = [1] : (tensor<64xf32>) -> tensor<32x64xf32>
    %764 = stablehlo.broadcast_in_dim %31, dims = [1] : (tensor<64xf32>) -> tensor<32x64xf32>
    %765 = stablehlo.multiply %758, %763 : tensor<32x64xf32>
    %766 = stablehlo.slice %758 [0:32, 0:32] : (tensor<32x64xf32>) -> tensor<32x32xf32>
    %767 = stablehlo.slice %758 [0:32, 32:64] : (tensor<32x64xf32>) -> tensor<32x32xf32>
    %768 = stablehlo.negate %767 : tensor<32x32xf32>
    %769 = stablehlo.concatenate %768, %766, dim = 1 : (tensor<32x32xf32>, tensor<32x32xf32>) -> tensor<32x64xf32>
    %770 = stablehlo.multiply %769, %764 : tensor<32x64xf32>
    %771 = stablehlo.add %765, %770 : tensor<32x64xf32>
    %772 = stablehlo.broadcast_in_dim %29, dims = [1] : (tensor<64xf32>) -> tensor<8x64xf32>
    %773 = stablehlo.broadcast_in_dim %31, dims = [1] : (tensor<64xf32>) -> tensor<8x64xf32>
    %774 = stablehlo.multiply %760, %772 : tensor<8x64xf32>
    %775 = stablehlo.slice %760 [0:8, 0:32] : (tensor<8x64xf32>) -> tensor<8x32xf32>
    %776 = stablehlo.slice %760 [0:8, 32:64] : (tensor<8x64xf32>) -> tensor<8x32xf32>
    %777 = stablehlo.negate %776 : tensor<8x32xf32>
    %778 = stablehlo.concatenate %777, %775, dim = 1 : (tensor<8x32xf32>, tensor<8x32xf32>) -> tensor<8x64xf32>
    %779 = stablehlo.multiply %778, %773 : tensor<8x64xf32>
    %780 = stablehlo.add %774, %779 : tensor<8x64xf32>
    %781 = stablehlo.reshape %780 : (tensor<8x64xf32>) -> tensor<1x1x8x64xf32>
    %782 = stablehlo.dynamic_update_slice %703, %781, %19, %arg148, %9, %9 : (tensor<16x256x8x64xf32>, tensor<1x1x8x64xf32>, tensor<i32>, tensor<i32>, tensor<i32>, tensor<i32>) -> tensor<16x256x8x64xf32>
    %783 = stablehlo.reshape %762 : (tensor<8x64xf32>) -> tensor<1x1x8x64xf32>
    %784 = stablehlo.dynamic_update_slice %705, %783, %19, %arg148, %9, %9 : (tensor<16x256x8x64xf32>, tensor<1x1x8x64xf32>, tensor<i32>, tensor<i32>, tensor<i32>, tensor<i32>) -> tensor<16x256x8x64xf32>
    %785 = stablehlo.slice %782 [9:10, 0:256, 0:8, 0:64] : (tensor<16x256x8x64xf32>) -> tensor<1x256x8x64xf32>
    %786 = stablehlo.reshape %785 : (tensor<1x256x8x64xf32>) -> tensor<256x8x64xf32>
    %787 = stablehlo.slice %784 [9:10, 0:256, 0:8, 0:64] : (tensor<16x256x8x64xf32>) -> tensor<1x256x8x64xf32>
    %788 = stablehlo.reshape %787 : (tensor<1x256x8x64xf32>) -> tensor<256x8x64xf32>
    %789 = stablehlo.reshape %771 : (tensor<32x64xf32>) -> tensor<8x4x64xf32>
    %790 = stablehlo.dot_general %789, %786, batching_dims = [0] x [1], contracting_dims = [2] x [2] : (tensor<8x4x64xf32>, tensor<256x8x64xf32>) -> tensor<8x4x256xf32>
    %791 = stablehlo.reshape %790 : (tensor<8x4x256xf32>) -> tensor<32x256xf32>
    %792 = stablehlo.broadcast_in_dim %8, dims = [] : (tensor<f32>) -> tensor<32x256xf32>
    %793 = stablehlo.multiply %791, %792 : tensor<32x256xf32>
    %794 = stablehlo.broadcast_in_dim %37, dims = [1] : (tensor<256xf32>) -> tensor<32x256xf32>
    %795 = stablehlo.add %793, %794 : tensor<32x256xf32>
    %796 = stablehlo.reduce(%795 init: %4) applies stablehlo.maximum across dimensions = [1] : (tensor<32x256xf32>, tensor<f32>) -> tensor<32xf32>
    %797 = stablehlo.broadcast_in_dim %796, dims = [0] : (tensor<32xf32>) -> tensor<32x256xf32>
    %798 = stablehlo.subtract %795, %797 : tensor<32x256xf32>
    %799 = stablehlo.exponential %798 : tensor<32x256xf32>
    %800 = stablehlo.reduce(%799 init: %2) applies stablehlo.add across dimensions = [1] : (tensor<32x256xf32>, tensor<f32>) -> tensor<32xf32>
    %801 = stablehlo.broadcast_in_dim %800, dims = [0] : (tensor<32xf32>) -> tensor<32x256xf32>
    %802 = stablehlo.divide %799, %801 : tensor<32x256xf32>
    %803 = stablehlo.reshape %802 : (tensor<32x256xf32>) -> tensor<8x4x256xf32>
    %804 = stablehlo.dot_general %803, %788, batching_dims = [0] x [1], contracting_dims = [2] x [0] : (tensor<8x4x256xf32>, tensor<256x8x64xf32>) -> tensor<8x4x64xf32>
    %805 = stablehlo.reshape %804 : (tensor<8x4x64xf32>) -> tensor<32x64xf32>
    %806 = stablehlo.reshape %805 : (tensor<32x64xf32>) -> tensor<2048xf32>
    %807 = stablehlo.dot_general %806, %arg89, contracting_dims = [0] x [1] : (tensor<2048xf32>, tensor<2048x2048xf32>) -> tensor<2048xf32>
    %808 = stablehlo.add %748, %807 : tensor<2048xf32>
    %809 = stablehlo.multiply %808, %808 : tensor<2048xf32>
    %810 = stablehlo.reduce(%809 init: %2) applies stablehlo.add across dimensions = [0] : (tensor<2048xf32>, tensor<f32>) -> tensor<f32>
    %811 = stablehlo.divide %810, %7 : tensor<f32>
    %812 = stablehlo.add %811, %6 : tensor<f32>
    %813 = stablehlo.rsqrt %812 : tensor<f32>
    %814 = stablehlo.broadcast_in_dim %813, dims = [] : (tensor<f32>) -> tensor<2048xf32>
    %815 = stablehlo.multiply %808, %814 : tensor<2048xf32>
    %816 = stablehlo.multiply %815, %arg86 : tensor<2048xf32>
    %817 = stablehlo.dot_general %816, %arg84, contracting_dims = [0] x [1] : (tensor<2048xf32>, tensor<8192x2048xf32>) -> tensor<8192xf32>
    %818 = stablehlo.dot_general %816, %arg87, contracting_dims = [0] x [1] : (tensor<2048xf32>, tensor<8192x2048xf32>) -> tensor<8192xf32>
    %819 = stablehlo.negate %817 : tensor<8192xf32>
    %820 = stablehlo.exponential %819 : tensor<8192xf32>
    %821 = stablehlo.broadcast_in_dim %3, dims = [] : (tensor<f32>) -> tensor<8192xf32>
    %822 = stablehlo.add %821, %820 : tensor<8192xf32>
    %823 = stablehlo.divide %821, %822 : tensor<8192xf32>
    %824 = stablehlo.multiply %817, %823 : tensor<8192xf32>
    %825 = stablehlo.multiply %824, %818 : tensor<8192xf32>
    %826 = stablehlo.dot_general %825, %arg83, contracting_dims = [0] x [1] : (tensor<8192xf32>, tensor<2048x8192xf32>) -> tensor<2048xf32>
    %827 = stablehlo.add %808, %826 : tensor<2048xf32>
    %828 = stablehlo.multiply %827, %827 : tensor<2048xf32>
    %829 = stablehlo.reduce(%828 init: %2) applies stablehlo.add across dimensions = [0] : (tensor<2048xf32>, tensor<f32>) -> tensor<f32>
    %830 = stablehlo.divide %829, %7 : tensor<f32>
    %831 = stablehlo.add %830, %6 : tensor<f32>
    %832 = stablehlo.rsqrt %831 : tensor<f32>
    %833 = stablehlo.broadcast_in_dim %832, dims = [] : (tensor<f32>) -> tensor<2048xf32>
    %834 = stablehlo.multiply %827, %833 : tensor<2048xf32>
    %835 = stablehlo.multiply %834, %arg94 : tensor<2048xf32>
    %836 = stablehlo.dot_general %835, %arg99, contracting_dims = [0] x [1] : (tensor<2048xf32>, tensor<2048x2048xf32>) -> tensor<2048xf32>
    %837 = stablehlo.reshape %836 : (tensor<2048xf32>) -> tensor<32x64xf32>
    %838 = stablehlo.dot_general %835, %arg97, contracting_dims = [0] x [1] : (tensor<2048xf32>, tensor<512x2048xf32>) -> tensor<512xf32>
    %839 = stablehlo.reshape %838 : (tensor<512xf32>) -> tensor<8x64xf32>
    %840 = stablehlo.dot_general %835, %arg100, contracting_dims = [0] x [1] : (tensor<2048xf32>, tensor<512x2048xf32>) -> tensor<512xf32>
    %841 = stablehlo.reshape %840 : (tensor<512xf32>) -> tensor<8x64xf32>
    %842 = stablehlo.broadcast_in_dim %29, dims = [1] : (tensor<64xf32>) -> tensor<32x64xf32>
    %843 = stablehlo.broadcast_in_dim %31, dims = [1] : (tensor<64xf32>) -> tensor<32x64xf32>
    %844 = stablehlo.multiply %837, %842 : tensor<32x64xf32>
    %845 = stablehlo.slice %837 [0:32, 0:32] : (tensor<32x64xf32>) -> tensor<32x32xf32>
    %846 = stablehlo.slice %837 [0:32, 32:64] : (tensor<32x64xf32>) -> tensor<32x32xf32>
    %847 = stablehlo.negate %846 : tensor<32x32xf32>
    %848 = stablehlo.concatenate %847, %845, dim = 1 : (tensor<32x32xf32>, tensor<32x32xf32>) -> tensor<32x64xf32>
    %849 = stablehlo.multiply %848, %843 : tensor<32x64xf32>
    %850 = stablehlo.add %844, %849 : tensor<32x64xf32>
    %851 = stablehlo.broadcast_in_dim %29, dims = [1] : (tensor<64xf32>) -> tensor<8x64xf32>
    %852 = stablehlo.broadcast_in_dim %31, dims = [1] : (tensor<64xf32>) -> tensor<8x64xf32>
    %853 = stablehlo.multiply %839, %851 : tensor<8x64xf32>
    %854 = stablehlo.slice %839 [0:8, 0:32] : (tensor<8x64xf32>) -> tensor<8x32xf32>
    %855 = stablehlo.slice %839 [0:8, 32:64] : (tensor<8x64xf32>) -> tensor<8x32xf32>
    %856 = stablehlo.negate %855 : tensor<8x32xf32>
    %857 = stablehlo.concatenate %856, %854, dim = 1 : (tensor<8x32xf32>, tensor<8x32xf32>) -> tensor<8x64xf32>
    %858 = stablehlo.multiply %857, %852 : tensor<8x64xf32>
    %859 = stablehlo.add %853, %858 : tensor<8x64xf32>
    %860 = stablehlo.reshape %859 : (tensor<8x64xf32>) -> tensor<1x1x8x64xf32>
    %861 = stablehlo.dynamic_update_slice %782, %860, %20, %arg148, %9, %9 : (tensor<16x256x8x64xf32>, tensor<1x1x8x64xf32>, tensor<i32>, tensor<i32>, tensor<i32>, tensor<i32>) -> tensor<16x256x8x64xf32>
    %862 = stablehlo.reshape %841 : (tensor<8x64xf32>) -> tensor<1x1x8x64xf32>
    %863 = stablehlo.dynamic_update_slice %784, %862, %20, %arg148, %9, %9 : (tensor<16x256x8x64xf32>, tensor<1x1x8x64xf32>, tensor<i32>, tensor<i32>, tensor<i32>, tensor<i32>) -> tensor<16x256x8x64xf32>
    %864 = stablehlo.slice %861 [10:11, 0:256, 0:8, 0:64] : (tensor<16x256x8x64xf32>) -> tensor<1x256x8x64xf32>
    %865 = stablehlo.reshape %864 : (tensor<1x256x8x64xf32>) -> tensor<256x8x64xf32>
    %866 = stablehlo.slice %863 [10:11, 0:256, 0:8, 0:64] : (tensor<16x256x8x64xf32>) -> tensor<1x256x8x64xf32>
    %867 = stablehlo.reshape %866 : (tensor<1x256x8x64xf32>) -> tensor<256x8x64xf32>
    %868 = stablehlo.reshape %850 : (tensor<32x64xf32>) -> tensor<8x4x64xf32>
    %869 = stablehlo.dot_general %868, %865, batching_dims = [0] x [1], contracting_dims = [2] x [2] : (tensor<8x4x64xf32>, tensor<256x8x64xf32>) -> tensor<8x4x256xf32>
    %870 = stablehlo.reshape %869 : (tensor<8x4x256xf32>) -> tensor<32x256xf32>
    %871 = stablehlo.broadcast_in_dim %8, dims = [] : (tensor<f32>) -> tensor<32x256xf32>
    %872 = stablehlo.multiply %870, %871 : tensor<32x256xf32>
    %873 = stablehlo.broadcast_in_dim %37, dims = [1] : (tensor<256xf32>) -> tensor<32x256xf32>
    %874 = stablehlo.add %872, %873 : tensor<32x256xf32>
    %875 = stablehlo.reduce(%874 init: %4) applies stablehlo.maximum across dimensions = [1] : (tensor<32x256xf32>, tensor<f32>) -> tensor<32xf32>
    %876 = stablehlo.broadcast_in_dim %875, dims = [0] : (tensor<32xf32>) -> tensor<32x256xf32>
    %877 = stablehlo.subtract %874, %876 : tensor<32x256xf32>
    %878 = stablehlo.exponential %877 : tensor<32x256xf32>
    %879 = stablehlo.reduce(%878 init: %2) applies stablehlo.add across dimensions = [1] : (tensor<32x256xf32>, tensor<f32>) -> tensor<32xf32>
    %880 = stablehlo.broadcast_in_dim %879, dims = [0] : (tensor<32xf32>) -> tensor<32x256xf32>
    %881 = stablehlo.divide %878, %880 : tensor<32x256xf32>
    %882 = stablehlo.reshape %881 : (tensor<32x256xf32>) -> tensor<8x4x256xf32>
    %883 = stablehlo.dot_general %882, %867, batching_dims = [0] x [1], contracting_dims = [2] x [0] : (tensor<8x4x256xf32>, tensor<256x8x64xf32>) -> tensor<8x4x64xf32>
    %884 = stablehlo.reshape %883 : (tensor<8x4x64xf32>) -> tensor<32x64xf32>
    %885 = stablehlo.reshape %884 : (tensor<32x64xf32>) -> tensor<2048xf32>
    %886 = stablehlo.dot_general %885, %arg98, contracting_dims = [0] x [1] : (tensor<2048xf32>, tensor<2048x2048xf32>) -> tensor<2048xf32>
    %887 = stablehlo.add %827, %886 : tensor<2048xf32>
    %888 = stablehlo.multiply %887, %887 : tensor<2048xf32>
    %889 = stablehlo.reduce(%888 init: %2) applies stablehlo.add across dimensions = [0] : (tensor<2048xf32>, tensor<f32>) -> tensor<f32>
    %890 = stablehlo.divide %889, %7 : tensor<f32>
    %891 = stablehlo.add %890, %6 : tensor<f32>
    %892 = stablehlo.rsqrt %891 : tensor<f32>
    %893 = stablehlo.broadcast_in_dim %892, dims = [] : (tensor<f32>) -> tensor<2048xf32>
    %894 = stablehlo.multiply %887, %893 : tensor<2048xf32>
    %895 = stablehlo.multiply %894, %arg95 : tensor<2048xf32>
    %896 = stablehlo.dot_general %895, %arg93, contracting_dims = [0] x [1] : (tensor<2048xf32>, tensor<8192x2048xf32>) -> tensor<8192xf32>
    %897 = stablehlo.dot_general %895, %arg96, contracting_dims = [0] x [1] : (tensor<2048xf32>, tensor<8192x2048xf32>) -> tensor<8192xf32>
    %898 = stablehlo.negate %896 : tensor<8192xf32>
    %899 = stablehlo.exponential %898 : tensor<8192xf32>
    %900 = stablehlo.broadcast_in_dim %3, dims = [] : (tensor<f32>) -> tensor<8192xf32>
    %901 = stablehlo.add %900, %899 : tensor<8192xf32>
    %902 = stablehlo.divide %900, %901 : tensor<8192xf32>
    %903 = stablehlo.multiply %896, %902 : tensor<8192xf32>
    %904 = stablehlo.multiply %903, %897 : tensor<8192xf32>
    %905 = stablehlo.dot_general %904, %arg92, contracting_dims = [0] x [1] : (tensor<8192xf32>, tensor<2048x8192xf32>) -> tensor<2048xf32>
    %906 = stablehlo.add %887, %905 : tensor<2048xf32>
    %907 = stablehlo.multiply %906, %906 : tensor<2048xf32>
    %908 = stablehlo.reduce(%907 init: %2) applies stablehlo.add across dimensions = [0] : (tensor<2048xf32>, tensor<f32>) -> tensor<f32>
    %909 = stablehlo.divide %908, %7 : tensor<f32>
    %910 = stablehlo.add %909, %6 : tensor<f32>
    %911 = stablehlo.rsqrt %910 : tensor<f32>
    %912 = stablehlo.broadcast_in_dim %911, dims = [] : (tensor<f32>) -> tensor<2048xf32>
    %913 = stablehlo.multiply %906, %912 : tensor<2048xf32>
    %914 = stablehlo.multiply %913, %arg103 : tensor<2048xf32>
    %915 = stablehlo.dot_general %914, %arg108, contracting_dims = [0] x [1] : (tensor<2048xf32>, tensor<2048x2048xf32>) -> tensor<2048xf32>
    %916 = stablehlo.reshape %915 : (tensor<2048xf32>) -> tensor<32x64xf32>
    %917 = stablehlo.dot_general %914, %arg106, contracting_dims = [0] x [1] : (tensor<2048xf32>, tensor<512x2048xf32>) -> tensor<512xf32>
    %918 = stablehlo.reshape %917 : (tensor<512xf32>) -> tensor<8x64xf32>
    %919 = stablehlo.dot_general %914, %arg109, contracting_dims = [0] x [1] : (tensor<2048xf32>, tensor<512x2048xf32>) -> tensor<512xf32>
    %920 = stablehlo.reshape %919 : (tensor<512xf32>) -> tensor<8x64xf32>
    %921 = stablehlo.broadcast_in_dim %29, dims = [1] : (tensor<64xf32>) -> tensor<32x64xf32>
    %922 = stablehlo.broadcast_in_dim %31, dims = [1] : (tensor<64xf32>) -> tensor<32x64xf32>
    %923 = stablehlo.multiply %916, %921 : tensor<32x64xf32>
    %924 = stablehlo.slice %916 [0:32, 0:32] : (tensor<32x64xf32>) -> tensor<32x32xf32>
    %925 = stablehlo.slice %916 [0:32, 32:64] : (tensor<32x64xf32>) -> tensor<32x32xf32>
    %926 = stablehlo.negate %925 : tensor<32x32xf32>
    %927 = stablehlo.concatenate %926, %924, dim = 1 : (tensor<32x32xf32>, tensor<32x32xf32>) -> tensor<32x64xf32>
    %928 = stablehlo.multiply %927, %922 : tensor<32x64xf32>
    %929 = stablehlo.add %923, %928 : tensor<32x64xf32>
    %930 = stablehlo.broadcast_in_dim %29, dims = [1] : (tensor<64xf32>) -> tensor<8x64xf32>
    %931 = stablehlo.broadcast_in_dim %31, dims = [1] : (tensor<64xf32>) -> tensor<8x64xf32>
    %932 = stablehlo.multiply %918, %930 : tensor<8x64xf32>
    %933 = stablehlo.slice %918 [0:8, 0:32] : (tensor<8x64xf32>) -> tensor<8x32xf32>
    %934 = stablehlo.slice %918 [0:8, 32:64] : (tensor<8x64xf32>) -> tensor<8x32xf32>
    %935 = stablehlo.negate %934 : tensor<8x32xf32>
    %936 = stablehlo.concatenate %935, %933, dim = 1 : (tensor<8x32xf32>, tensor<8x32xf32>) -> tensor<8x64xf32>
    %937 = stablehlo.multiply %936, %931 : tensor<8x64xf32>
    %938 = stablehlo.add %932, %937 : tensor<8x64xf32>
    %939 = stablehlo.reshape %938 : (tensor<8x64xf32>) -> tensor<1x1x8x64xf32>
    %940 = stablehlo.dynamic_update_slice %861, %939, %21, %arg148, %9, %9 : (tensor<16x256x8x64xf32>, tensor<1x1x8x64xf32>, tensor<i32>, tensor<i32>, tensor<i32>, tensor<i32>) -> tensor<16x256x8x64xf32>
    %941 = stablehlo.reshape %920 : (tensor<8x64xf32>) -> tensor<1x1x8x64xf32>
    %942 = stablehlo.dynamic_update_slice %863, %941, %21, %arg148, %9, %9 : (tensor<16x256x8x64xf32>, tensor<1x1x8x64xf32>, tensor<i32>, tensor<i32>, tensor<i32>, tensor<i32>) -> tensor<16x256x8x64xf32>
    %943 = stablehlo.slice %940 [11:12, 0:256, 0:8, 0:64] : (tensor<16x256x8x64xf32>) -> tensor<1x256x8x64xf32>
    %944 = stablehlo.reshape %943 : (tensor<1x256x8x64xf32>) -> tensor<256x8x64xf32>
    %945 = stablehlo.slice %942 [11:12, 0:256, 0:8, 0:64] : (tensor<16x256x8x64xf32>) -> tensor<1x256x8x64xf32>
    %946 = stablehlo.reshape %945 : (tensor<1x256x8x64xf32>) -> tensor<256x8x64xf32>
    %947 = stablehlo.reshape %929 : (tensor<32x64xf32>) -> tensor<8x4x64xf32>
    %948 = stablehlo.dot_general %947, %944, batching_dims = [0] x [1], contracting_dims = [2] x [2] : (tensor<8x4x64xf32>, tensor<256x8x64xf32>) -> tensor<8x4x256xf32>
    %949 = stablehlo.reshape %948 : (tensor<8x4x256xf32>) -> tensor<32x256xf32>
    %950 = stablehlo.broadcast_in_dim %8, dims = [] : (tensor<f32>) -> tensor<32x256xf32>
    %951 = stablehlo.multiply %949, %950 : tensor<32x256xf32>
    %952 = stablehlo.broadcast_in_dim %37, dims = [1] : (tensor<256xf32>) -> tensor<32x256xf32>
    %953 = stablehlo.add %951, %952 : tensor<32x256xf32>
    %954 = stablehlo.reduce(%953 init: %4) applies stablehlo.maximum across dimensions = [1] : (tensor<32x256xf32>, tensor<f32>) -> tensor<32xf32>
    %955 = stablehlo.broadcast_in_dim %954, dims = [0] : (tensor<32xf32>) -> tensor<32x256xf32>
    %956 = stablehlo.subtract %953, %955 : tensor<32x256xf32>
    %957 = stablehlo.exponential %956 : tensor<32x256xf32>
    %958 = stablehlo.reduce(%957 init: %2) applies stablehlo.add across dimensions = [1] : (tensor<32x256xf32>, tensor<f32>) -> tensor<32xf32>
    %959 = stablehlo.broadcast_in_dim %958, dims = [0] : (tensor<32xf32>) -> tensor<32x256xf32>
    %960 = stablehlo.divide %957, %959 : tensor<32x256xf32>
    %961 = stablehlo.reshape %960 : (tensor<32x256xf32>) -> tensor<8x4x256xf32>
    %962 = stablehlo.dot_general %961, %946, batching_dims = [0] x [1], contracting_dims = [2] x [0] : (tensor<8x4x256xf32>, tensor<256x8x64xf32>) -> tensor<8x4x64xf32>
    %963 = stablehlo.reshape %962 : (tensor<8x4x64xf32>) -> tensor<32x64xf32>
    %964 = stablehlo.reshape %963 : (tensor<32x64xf32>) -> tensor<2048xf32>
    %965 = stablehlo.dot_general %964, %arg107, contracting_dims = [0] x [1] : (tensor<2048xf32>, tensor<2048x2048xf32>) -> tensor<2048xf32>
    %966 = stablehlo.add %906, %965 : tensor<2048xf32>
    %967 = stablehlo.multiply %966, %966 : tensor<2048xf32>
    %968 = stablehlo.reduce(%967 init: %2) applies stablehlo.add across dimensions = [0] : (tensor<2048xf32>, tensor<f32>) -> tensor<f32>
    %969 = stablehlo.divide %968, %7 : tensor<f32>
    %970 = stablehlo.add %969, %6 : tensor<f32>
    %971 = stablehlo.rsqrt %970 : tensor<f32>
    %972 = stablehlo.broadcast_in_dim %971, dims = [] : (tensor<f32>) -> tensor<2048xf32>
    %973 = stablehlo.multiply %966, %972 : tensor<2048xf32>
    %974 = stablehlo.multiply %973, %arg104 : tensor<2048xf32>
    %975 = stablehlo.dot_general %974, %arg102, contracting_dims = [0] x [1] : (tensor<2048xf32>, tensor<8192x2048xf32>) -> tensor<8192xf32>
    %976 = stablehlo.dot_general %974, %arg105, contracting_dims = [0] x [1] : (tensor<2048xf32>, tensor<8192x2048xf32>) -> tensor<8192xf32>
    %977 = stablehlo.negate %975 : tensor<8192xf32>
    %978 = stablehlo.exponential %977 : tensor<8192xf32>
    %979 = stablehlo.broadcast_in_dim %3, dims = [] : (tensor<f32>) -> tensor<8192xf32>
    %980 = stablehlo.add %979, %978 : tensor<8192xf32>
    %981 = stablehlo.divide %979, %980 : tensor<8192xf32>
    %982 = stablehlo.multiply %975, %981 : tensor<8192xf32>
    %983 = stablehlo.multiply %982, %976 : tensor<8192xf32>
    %984 = stablehlo.dot_general %983, %arg101, contracting_dims = [0] x [1] : (tensor<8192xf32>, tensor<2048x8192xf32>) -> tensor<2048xf32>
    %985 = stablehlo.add %966, %984 : tensor<2048xf32>
    %986 = stablehlo.multiply %985, %985 : tensor<2048xf32>
    %987 = stablehlo.reduce(%986 init: %2) applies stablehlo.add across dimensions = [0] : (tensor<2048xf32>, tensor<f32>) -> tensor<f32>
    %988 = stablehlo.divide %987, %7 : tensor<f32>
    %989 = stablehlo.add %988, %6 : tensor<f32>
    %990 = stablehlo.rsqrt %989 : tensor<f32>
    %991 = stablehlo.broadcast_in_dim %990, dims = [] : (tensor<f32>) -> tensor<2048xf32>
    %992 = stablehlo.multiply %985, %991 : tensor<2048xf32>
    %993 = stablehlo.multiply %992, %arg112 : tensor<2048xf32>
    %994 = stablehlo.dot_general %993, %arg117, contracting_dims = [0] x [1] : (tensor<2048xf32>, tensor<2048x2048xf32>) -> tensor<2048xf32>
    %995 = stablehlo.reshape %994 : (tensor<2048xf32>) -> tensor<32x64xf32>
    %996 = stablehlo.dot_general %993, %arg115, contracting_dims = [0] x [1] : (tensor<2048xf32>, tensor<512x2048xf32>) -> tensor<512xf32>
    %997 = stablehlo.reshape %996 : (tensor<512xf32>) -> tensor<8x64xf32>
    %998 = stablehlo.dot_general %993, %arg118, contracting_dims = [0] x [1] : (tensor<2048xf32>, tensor<512x2048xf32>) -> tensor<512xf32>
    %999 = stablehlo.reshape %998 : (tensor<512xf32>) -> tensor<8x64xf32>
    %1000 = stablehlo.broadcast_in_dim %29, dims = [1] : (tensor<64xf32>) -> tensor<32x64xf32>
    %1001 = stablehlo.broadcast_in_dim %31, dims = [1] : (tensor<64xf32>) -> tensor<32x64xf32>
    %1002 = stablehlo.multiply %995, %1000 : tensor<32x64xf32>
    %1003 = stablehlo.slice %995 [0:32, 0:32] : (tensor<32x64xf32>) -> tensor<32x32xf32>
    %1004 = stablehlo.slice %995 [0:32, 32:64] : (tensor<32x64xf32>) -> tensor<32x32xf32>
    %1005 = stablehlo.negate %1004 : tensor<32x32xf32>
    %1006 = stablehlo.concatenate %1005, %1003, dim = 1 : (tensor<32x32xf32>, tensor<32x32xf32>) -> tensor<32x64xf32>
    %1007 = stablehlo.multiply %1006, %1001 : tensor<32x64xf32>
    %1008 = stablehlo.add %1002, %1007 : tensor<32x64xf32>
    %1009 = stablehlo.broadcast_in_dim %29, dims = [1] : (tensor<64xf32>) -> tensor<8x64xf32>
    %1010 = stablehlo.broadcast_in_dim %31, dims = [1] : (tensor<64xf32>) -> tensor<8x64xf32>
    %1011 = stablehlo.multiply %997, %1009 : tensor<8x64xf32>
    %1012 = stablehlo.slice %997 [0:8, 0:32] : (tensor<8x64xf32>) -> tensor<8x32xf32>
    %1013 = stablehlo.slice %997 [0:8, 32:64] : (tensor<8x64xf32>) -> tensor<8x32xf32>
    %1014 = stablehlo.negate %1013 : tensor<8x32xf32>
    %1015 = stablehlo.concatenate %1014, %1012, dim = 1 : (tensor<8x32xf32>, tensor<8x32xf32>) -> tensor<8x64xf32>
    %1016 = stablehlo.multiply %1015, %1010 : tensor<8x64xf32>
    %1017 = stablehlo.add %1011, %1016 : tensor<8x64xf32>
    %1018 = stablehlo.reshape %1017 : (tensor<8x64xf32>) -> tensor<1x1x8x64xf32>
    %1019 = stablehlo.dynamic_update_slice %940, %1018, %22, %arg148, %9, %9 : (tensor<16x256x8x64xf32>, tensor<1x1x8x64xf32>, tensor<i32>, tensor<i32>, tensor<i32>, tensor<i32>) -> tensor<16x256x8x64xf32>
    %1020 = stablehlo.reshape %999 : (tensor<8x64xf32>) -> tensor<1x1x8x64xf32>
    %1021 = stablehlo.dynamic_update_slice %942, %1020, %22, %arg148, %9, %9 : (tensor<16x256x8x64xf32>, tensor<1x1x8x64xf32>, tensor<i32>, tensor<i32>, tensor<i32>, tensor<i32>) -> tensor<16x256x8x64xf32>
    %1022 = stablehlo.slice %1019 [12:13, 0:256, 0:8, 0:64] : (tensor<16x256x8x64xf32>) -> tensor<1x256x8x64xf32>
    %1023 = stablehlo.reshape %1022 : (tensor<1x256x8x64xf32>) -> tensor<256x8x64xf32>
    %1024 = stablehlo.slice %1021 [12:13, 0:256, 0:8, 0:64] : (tensor<16x256x8x64xf32>) -> tensor<1x256x8x64xf32>
    %1025 = stablehlo.reshape %1024 : (tensor<1x256x8x64xf32>) -> tensor<256x8x64xf32>
    %1026 = stablehlo.reshape %1008 : (tensor<32x64xf32>) -> tensor<8x4x64xf32>
    %1027 = stablehlo.dot_general %1026, %1023, batching_dims = [0] x [1], contracting_dims = [2] x [2] : (tensor<8x4x64xf32>, tensor<256x8x64xf32>) -> tensor<8x4x256xf32>
    %1028 = stablehlo.reshape %1027 : (tensor<8x4x256xf32>) -> tensor<32x256xf32>
    %1029 = stablehlo.broadcast_in_dim %8, dims = [] : (tensor<f32>) -> tensor<32x256xf32>
    %1030 = stablehlo.multiply %1028, %1029 : tensor<32x256xf32>
    %1031 = stablehlo.broadcast_in_dim %37, dims = [1] : (tensor<256xf32>) -> tensor<32x256xf32>
    %1032 = stablehlo.add %1030, %1031 : tensor<32x256xf32>
    %1033 = stablehlo.reduce(%1032 init: %4) applies stablehlo.maximum across dimensions = [1] : (tensor<32x256xf32>, tensor<f32>) -> tensor<32xf32>
    %1034 = stablehlo.broadcast_in_dim %1033, dims = [0] : (tensor<32xf32>) -> tensor<32x256xf32>
    %1035 = stablehlo.subtract %1032, %1034 : tensor<32x256xf32>
    %1036 = stablehlo.exponential %1035 : tensor<32x256xf32>
    %1037 = stablehlo.reduce(%1036 init: %2) applies stablehlo.add across dimensions = [1] : (tensor<32x256xf32>, tensor<f32>) -> tensor<32xf32>
    %1038 = stablehlo.broadcast_in_dim %1037, dims = [0] : (tensor<32xf32>) -> tensor<32x256xf32>
    %1039 = stablehlo.divide %1036, %1038 : tensor<32x256xf32>
    %1040 = stablehlo.reshape %1039 : (tensor<32x256xf32>) -> tensor<8x4x256xf32>
    %1041 = stablehlo.dot_general %1040, %1025, batching_dims = [0] x [1], contracting_dims = [2] x [0] : (tensor<8x4x256xf32>, tensor<256x8x64xf32>) -> tensor<8x4x64xf32>
    %1042 = stablehlo.reshape %1041 : (tensor<8x4x64xf32>) -> tensor<32x64xf32>
    %1043 = stablehlo.reshape %1042 : (tensor<32x64xf32>) -> tensor<2048xf32>
    %1044 = stablehlo.dot_general %1043, %arg116, contracting_dims = [0] x [1] : (tensor<2048xf32>, tensor<2048x2048xf32>) -> tensor<2048xf32>
    %1045 = stablehlo.add %985, %1044 : tensor<2048xf32>
    %1046 = stablehlo.multiply %1045, %1045 : tensor<2048xf32>
    %1047 = stablehlo.reduce(%1046 init: %2) applies stablehlo.add across dimensions = [0] : (tensor<2048xf32>, tensor<f32>) -> tensor<f32>
    %1048 = stablehlo.divide %1047, %7 : tensor<f32>
    %1049 = stablehlo.add %1048, %6 : tensor<f32>
    %1050 = stablehlo.rsqrt %1049 : tensor<f32>
    %1051 = stablehlo.broadcast_in_dim %1050, dims = [] : (tensor<f32>) -> tensor<2048xf32>
    %1052 = stablehlo.multiply %1045, %1051 : tensor<2048xf32>
    %1053 = stablehlo.multiply %1052, %arg113 : tensor<2048xf32>
    %1054 = stablehlo.dot_general %1053, %arg111, contracting_dims = [0] x [1] : (tensor<2048xf32>, tensor<8192x2048xf32>) -> tensor<8192xf32>
    %1055 = stablehlo.dot_general %1053, %arg114, contracting_dims = [0] x [1] : (tensor<2048xf32>, tensor<8192x2048xf32>) -> tensor<8192xf32>
    %1056 = stablehlo.negate %1054 : tensor<8192xf32>
    %1057 = stablehlo.exponential %1056 : tensor<8192xf32>
    %1058 = stablehlo.broadcast_in_dim %3, dims = [] : (tensor<f32>) -> tensor<8192xf32>
    %1059 = stablehlo.add %1058, %1057 : tensor<8192xf32>
    %1060 = stablehlo.divide %1058, %1059 : tensor<8192xf32>
    %1061 = stablehlo.multiply %1054, %1060 : tensor<8192xf32>
    %1062 = stablehlo.multiply %1061, %1055 : tensor<8192xf32>
    %1063 = stablehlo.dot_general %1062, %arg110, contracting_dims = [0] x [1] : (tensor<8192xf32>, tensor<2048x8192xf32>) -> tensor<2048xf32>
    %1064 = stablehlo.add %1045, %1063 : tensor<2048xf32>
    %1065 = stablehlo.multiply %1064, %1064 : tensor<2048xf32>
    %1066 = stablehlo.reduce(%1065 init: %2) applies stablehlo.add across dimensions = [0] : (tensor<2048xf32>, tensor<f32>) -> tensor<f32>
    %1067 = stablehlo.divide %1066, %7 : tensor<f32>
    %1068 = stablehlo.add %1067, %6 : tensor<f32>
    %1069 = stablehlo.rsqrt %1068 : tensor<f32>
    %1070 = stablehlo.broadcast_in_dim %1069, dims = [] : (tensor<f32>) -> tensor<2048xf32>
    %1071 = stablehlo.multiply %1064, %1070 : tensor<2048xf32>
    %1072 = stablehlo.multiply %1071, %arg121 : tensor<2048xf32>
    %1073 = stablehlo.dot_general %1072, %arg126, contracting_dims = [0] x [1] : (tensor<2048xf32>, tensor<2048x2048xf32>) -> tensor<2048xf32>
    %1074 = stablehlo.reshape %1073 : (tensor<2048xf32>) -> tensor<32x64xf32>
    %1075 = stablehlo.dot_general %1072, %arg124, contracting_dims = [0] x [1] : (tensor<2048xf32>, tensor<512x2048xf32>) -> tensor<512xf32>
    %1076 = stablehlo.reshape %1075 : (tensor<512xf32>) -> tensor<8x64xf32>
    %1077 = stablehlo.dot_general %1072, %arg127, contracting_dims = [0] x [1] : (tensor<2048xf32>, tensor<512x2048xf32>) -> tensor<512xf32>
    %1078 = stablehlo.reshape %1077 : (tensor<512xf32>) -> tensor<8x64xf32>
    %1079 = stablehlo.broadcast_in_dim %29, dims = [1] : (tensor<64xf32>) -> tensor<32x64xf32>
    %1080 = stablehlo.broadcast_in_dim %31, dims = [1] : (tensor<64xf32>) -> tensor<32x64xf32>
    %1081 = stablehlo.multiply %1074, %1079 : tensor<32x64xf32>
    %1082 = stablehlo.slice %1074 [0:32, 0:32] : (tensor<32x64xf32>) -> tensor<32x32xf32>
    %1083 = stablehlo.slice %1074 [0:32, 32:64] : (tensor<32x64xf32>) -> tensor<32x32xf32>
    %1084 = stablehlo.negate %1083 : tensor<32x32xf32>
    %1085 = stablehlo.concatenate %1084, %1082, dim = 1 : (tensor<32x32xf32>, tensor<32x32xf32>) -> tensor<32x64xf32>
    %1086 = stablehlo.multiply %1085, %1080 : tensor<32x64xf32>
    %1087 = stablehlo.add %1081, %1086 : tensor<32x64xf32>
    %1088 = stablehlo.broadcast_in_dim %29, dims = [1] : (tensor<64xf32>) -> tensor<8x64xf32>
    %1089 = stablehlo.broadcast_in_dim %31, dims = [1] : (tensor<64xf32>) -> tensor<8x64xf32>
    %1090 = stablehlo.multiply %1076, %1088 : tensor<8x64xf32>
    %1091 = stablehlo.slice %1076 [0:8, 0:32] : (tensor<8x64xf32>) -> tensor<8x32xf32>
    %1092 = stablehlo.slice %1076 [0:8, 32:64] : (tensor<8x64xf32>) -> tensor<8x32xf32>
    %1093 = stablehlo.negate %1092 : tensor<8x32xf32>
    %1094 = stablehlo.concatenate %1093, %1091, dim = 1 : (tensor<8x32xf32>, tensor<8x32xf32>) -> tensor<8x64xf32>
    %1095 = stablehlo.multiply %1094, %1089 : tensor<8x64xf32>
    %1096 = stablehlo.add %1090, %1095 : tensor<8x64xf32>
    %1097 = stablehlo.reshape %1096 : (tensor<8x64xf32>) -> tensor<1x1x8x64xf32>
    %1098 = stablehlo.dynamic_update_slice %1019, %1097, %23, %arg148, %9, %9 : (tensor<16x256x8x64xf32>, tensor<1x1x8x64xf32>, tensor<i32>, tensor<i32>, tensor<i32>, tensor<i32>) -> tensor<16x256x8x64xf32>
    %1099 = stablehlo.reshape %1078 : (tensor<8x64xf32>) -> tensor<1x1x8x64xf32>
    %1100 = stablehlo.dynamic_update_slice %1021, %1099, %23, %arg148, %9, %9 : (tensor<16x256x8x64xf32>, tensor<1x1x8x64xf32>, tensor<i32>, tensor<i32>, tensor<i32>, tensor<i32>) -> tensor<16x256x8x64xf32>
    %1101 = stablehlo.slice %1098 [13:14, 0:256, 0:8, 0:64] : (tensor<16x256x8x64xf32>) -> tensor<1x256x8x64xf32>
    %1102 = stablehlo.reshape %1101 : (tensor<1x256x8x64xf32>) -> tensor<256x8x64xf32>
    %1103 = stablehlo.slice %1100 [13:14, 0:256, 0:8, 0:64] : (tensor<16x256x8x64xf32>) -> tensor<1x256x8x64xf32>
    %1104 = stablehlo.reshape %1103 : (tensor<1x256x8x64xf32>) -> tensor<256x8x64xf32>
    %1105 = stablehlo.reshape %1087 : (tensor<32x64xf32>) -> tensor<8x4x64xf32>
    %1106 = stablehlo.dot_general %1105, %1102, batching_dims = [0] x [1], contracting_dims = [2] x [2] : (tensor<8x4x64xf32>, tensor<256x8x64xf32>) -> tensor<8x4x256xf32>
    %1107 = stablehlo.reshape %1106 : (tensor<8x4x256xf32>) -> tensor<32x256xf32>
    %1108 = stablehlo.broadcast_in_dim %8, dims = [] : (tensor<f32>) -> tensor<32x256xf32>
    %1109 = stablehlo.multiply %1107, %1108 : tensor<32x256xf32>
    %1110 = stablehlo.broadcast_in_dim %37, dims = [1] : (tensor<256xf32>) -> tensor<32x256xf32>
    %1111 = stablehlo.add %1109, %1110 : tensor<32x256xf32>
    %1112 = stablehlo.reduce(%1111 init: %4) applies stablehlo.maximum across dimensions = [1] : (tensor<32x256xf32>, tensor<f32>) -> tensor<32xf32>
    %1113 = stablehlo.broadcast_in_dim %1112, dims = [0] : (tensor<32xf32>) -> tensor<32x256xf32>
    %1114 = stablehlo.subtract %1111, %1113 : tensor<32x256xf32>
    %1115 = stablehlo.exponential %1114 : tensor<32x256xf32>
    %1116 = stablehlo.reduce(%1115 init: %2) applies stablehlo.add across dimensions = [1] : (tensor<32x256xf32>, tensor<f32>) -> tensor<32xf32>
    %1117 = stablehlo.broadcast_in_dim %1116, dims = [0] : (tensor<32xf32>) -> tensor<32x256xf32>
    %1118 = stablehlo.divide %1115, %1117 : tensor<32x256xf32>
    %1119 = stablehlo.reshape %1118 : (tensor<32x256xf32>) -> tensor<8x4x256xf32>
    %1120 = stablehlo.dot_general %1119, %1104, batching_dims = [0] x [1], contracting_dims = [2] x [0] : (tensor<8x4x256xf32>, tensor<256x8x64xf32>) -> tensor<8x4x64xf32>
    %1121 = stablehlo.reshape %1120 : (tensor<8x4x64xf32>) -> tensor<32x64xf32>
    %1122 = stablehlo.reshape %1121 : (tensor<32x64xf32>) -> tensor<2048xf32>
    %1123 = stablehlo.dot_general %1122, %arg125, contracting_dims = [0] x [1] : (tensor<2048xf32>, tensor<2048x2048xf32>) -> tensor<2048xf32>
    %1124 = stablehlo.add %1064, %1123 : tensor<2048xf32>
    %1125 = stablehlo.multiply %1124, %1124 : tensor<2048xf32>
    %1126 = stablehlo.reduce(%1125 init: %2) applies stablehlo.add across dimensions = [0] : (tensor<2048xf32>, tensor<f32>) -> tensor<f32>
    %1127 = stablehlo.divide %1126, %7 : tensor<f32>
    %1128 = stablehlo.add %1127, %6 : tensor<f32>
    %1129 = stablehlo.rsqrt %1128 : tensor<f32>
    %1130 = stablehlo.broadcast_in_dim %1129, dims = [] : (tensor<f32>) -> tensor<2048xf32>
    %1131 = stablehlo.multiply %1124, %1130 : tensor<2048xf32>
    %1132 = stablehlo.multiply %1131, %arg122 : tensor<2048xf32>
    %1133 = stablehlo.dot_general %1132, %arg120, contracting_dims = [0] x [1] : (tensor<2048xf32>, tensor<8192x2048xf32>) -> tensor<8192xf32>
    %1134 = stablehlo.dot_general %1132, %arg123, contracting_dims = [0] x [1] : (tensor<2048xf32>, tensor<8192x2048xf32>) -> tensor<8192xf32>
    %1135 = stablehlo.negate %1133 : tensor<8192xf32>
    %1136 = stablehlo.exponential %1135 : tensor<8192xf32>
    %1137 = stablehlo.broadcast_in_dim %3, dims = [] : (tensor<f32>) -> tensor<8192xf32>
    %1138 = stablehlo.add %1137, %1136 : tensor<8192xf32>
    %1139 = stablehlo.divide %1137, %1138 : tensor<8192xf32>
    %1140 = stablehlo.multiply %1133, %1139 : tensor<8192xf32>
    %1141 = stablehlo.multiply %1140, %1134 : tensor<8192xf32>
    %1142 = stablehlo.dot_general %1141, %arg119, contracting_dims = [0] x [1] : (tensor<8192xf32>, tensor<2048x8192xf32>) -> tensor<2048xf32>
    %1143 = stablehlo.add %1124, %1142 : tensor<2048xf32>
    %1144 = stablehlo.multiply %1143, %1143 : tensor<2048xf32>
    %1145 = stablehlo.reduce(%1144 init: %2) applies stablehlo.add across dimensions = [0] : (tensor<2048xf32>, tensor<f32>) -> tensor<f32>
    %1146 = stablehlo.divide %1145, %7 : tensor<f32>
    %1147 = stablehlo.add %1146, %6 : tensor<f32>
    %1148 = stablehlo.rsqrt %1147 : tensor<f32>
    %1149 = stablehlo.broadcast_in_dim %1148, dims = [] : (tensor<f32>) -> tensor<2048xf32>
    %1150 = stablehlo.multiply %1143, %1149 : tensor<2048xf32>
    %1151 = stablehlo.multiply %1150, %arg130 : tensor<2048xf32>
    %1152 = stablehlo.dot_general %1151, %arg135, contracting_dims = [0] x [1] : (tensor<2048xf32>, tensor<2048x2048xf32>) -> tensor<2048xf32>
    %1153 = stablehlo.reshape %1152 : (tensor<2048xf32>) -> tensor<32x64xf32>
    %1154 = stablehlo.dot_general %1151, %arg133, contracting_dims = [0] x [1] : (tensor<2048xf32>, tensor<512x2048xf32>) -> tensor<512xf32>
    %1155 = stablehlo.reshape %1154 : (tensor<512xf32>) -> tensor<8x64xf32>
    %1156 = stablehlo.dot_general %1151, %arg136, contracting_dims = [0] x [1] : (tensor<2048xf32>, tensor<512x2048xf32>) -> tensor<512xf32>
    %1157 = stablehlo.reshape %1156 : (tensor<512xf32>) -> tensor<8x64xf32>
    %1158 = stablehlo.broadcast_in_dim %29, dims = [1] : (tensor<64xf32>) -> tensor<32x64xf32>
    %1159 = stablehlo.broadcast_in_dim %31, dims = [1] : (tensor<64xf32>) -> tensor<32x64xf32>
    %1160 = stablehlo.multiply %1153, %1158 : tensor<32x64xf32>
    %1161 = stablehlo.slice %1153 [0:32, 0:32] : (tensor<32x64xf32>) -> tensor<32x32xf32>
    %1162 = stablehlo.slice %1153 [0:32, 32:64] : (tensor<32x64xf32>) -> tensor<32x32xf32>
    %1163 = stablehlo.negate %1162 : tensor<32x32xf32>
    %1164 = stablehlo.concatenate %1163, %1161, dim = 1 : (tensor<32x32xf32>, tensor<32x32xf32>) -> tensor<32x64xf32>
    %1165 = stablehlo.multiply %1164, %1159 : tensor<32x64xf32>
    %1166 = stablehlo.add %1160, %1165 : tensor<32x64xf32>
    %1167 = stablehlo.broadcast_in_dim %29, dims = [1] : (tensor<64xf32>) -> tensor<8x64xf32>
    %1168 = stablehlo.broadcast_in_dim %31, dims = [1] : (tensor<64xf32>) -> tensor<8x64xf32>
    %1169 = stablehlo.multiply %1155, %1167 : tensor<8x64xf32>
    %1170 = stablehlo.slice %1155 [0:8, 0:32] : (tensor<8x64xf32>) -> tensor<8x32xf32>
    %1171 = stablehlo.slice %1155 [0:8, 32:64] : (tensor<8x64xf32>) -> tensor<8x32xf32>
    %1172 = stablehlo.negate %1171 : tensor<8x32xf32>
    %1173 = stablehlo.concatenate %1172, %1170, dim = 1 : (tensor<8x32xf32>, tensor<8x32xf32>) -> tensor<8x64xf32>
    %1174 = stablehlo.multiply %1173, %1168 : tensor<8x64xf32>
    %1175 = stablehlo.add %1169, %1174 : tensor<8x64xf32>
    %1176 = stablehlo.reshape %1175 : (tensor<8x64xf32>) -> tensor<1x1x8x64xf32>
    %1177 = stablehlo.dynamic_update_slice %1098, %1176, %24, %arg148, %9, %9 : (tensor<16x256x8x64xf32>, tensor<1x1x8x64xf32>, tensor<i32>, tensor<i32>, tensor<i32>, tensor<i32>) -> tensor<16x256x8x64xf32>
    %1178 = stablehlo.reshape %1157 : (tensor<8x64xf32>) -> tensor<1x1x8x64xf32>
    %1179 = stablehlo.dynamic_update_slice %1100, %1178, %24, %arg148, %9, %9 : (tensor<16x256x8x64xf32>, tensor<1x1x8x64xf32>, tensor<i32>, tensor<i32>, tensor<i32>, tensor<i32>) -> tensor<16x256x8x64xf32>
    %1180 = stablehlo.slice %1177 [14:15, 0:256, 0:8, 0:64] : (tensor<16x256x8x64xf32>) -> tensor<1x256x8x64xf32>
    %1181 = stablehlo.reshape %1180 : (tensor<1x256x8x64xf32>) -> tensor<256x8x64xf32>
    %1182 = stablehlo.slice %1179 [14:15, 0:256, 0:8, 0:64] : (tensor<16x256x8x64xf32>) -> tensor<1x256x8x64xf32>
    %1183 = stablehlo.reshape %1182 : (tensor<1x256x8x64xf32>) -> tensor<256x8x64xf32>
    %1184 = stablehlo.reshape %1166 : (tensor<32x64xf32>) -> tensor<8x4x64xf32>
    %1185 = stablehlo.dot_general %1184, %1181, batching_dims = [0] x [1], contracting_dims = [2] x [2] : (tensor<8x4x64xf32>, tensor<256x8x64xf32>) -> tensor<8x4x256xf32>
    %1186 = stablehlo.reshape %1185 : (tensor<8x4x256xf32>) -> tensor<32x256xf32>
    %1187 = stablehlo.broadcast_in_dim %8, dims = [] : (tensor<f32>) -> tensor<32x256xf32>
    %1188 = stablehlo.multiply %1186, %1187 : tensor<32x256xf32>
    %1189 = stablehlo.broadcast_in_dim %37, dims = [1] : (tensor<256xf32>) -> tensor<32x256xf32>
    %1190 = stablehlo.add %1188, %1189 : tensor<32x256xf32>
    %1191 = stablehlo.reduce(%1190 init: %4) applies stablehlo.maximum across dimensions = [1] : (tensor<32x256xf32>, tensor<f32>) -> tensor<32xf32>
    %1192 = stablehlo.broadcast_in_dim %1191, dims = [0] : (tensor<32xf32>) -> tensor<32x256xf32>
    %1193 = stablehlo.subtract %1190, %1192 : tensor<32x256xf32>
    %1194 = stablehlo.exponential %1193 : tensor<32x256xf32>
    %1195 = stablehlo.reduce(%1194 init: %2) applies stablehlo.add across dimensions = [1] : (tensor<32x256xf32>, tensor<f32>) -> tensor<32xf32>
    %1196 = stablehlo.broadcast_in_dim %1195, dims = [0] : (tensor<32xf32>) -> tensor<32x256xf32>
    %1197 = stablehlo.divide %1194, %1196 : tensor<32x256xf32>
    %1198 = stablehlo.reshape %1197 : (tensor<32x256xf32>) -> tensor<8x4x256xf32>
    %1199 = stablehlo.dot_general %1198, %1183, batching_dims = [0] x [1], contracting_dims = [2] x [0] : (tensor<8x4x256xf32>, tensor<256x8x64xf32>) -> tensor<8x4x64xf32>
    %1200 = stablehlo.reshape %1199 : (tensor<8x4x64xf32>) -> tensor<32x64xf32>
    %1201 = stablehlo.reshape %1200 : (tensor<32x64xf32>) -> tensor<2048xf32>
    %1202 = stablehlo.dot_general %1201, %arg134, contracting_dims = [0] x [1] : (tensor<2048xf32>, tensor<2048x2048xf32>) -> tensor<2048xf32>
    %1203 = stablehlo.add %1143, %1202 : tensor<2048xf32>
    %1204 = stablehlo.multiply %1203, %1203 : tensor<2048xf32>
    %1205 = stablehlo.reduce(%1204 init: %2) applies stablehlo.add across dimensions = [0] : (tensor<2048xf32>, tensor<f32>) -> tensor<f32>
    %1206 = stablehlo.divide %1205, %7 : tensor<f32>
    %1207 = stablehlo.add %1206, %6 : tensor<f32>
    %1208 = stablehlo.rsqrt %1207 : tensor<f32>
    %1209 = stablehlo.broadcast_in_dim %1208, dims = [] : (tensor<f32>) -> tensor<2048xf32>
    %1210 = stablehlo.multiply %1203, %1209 : tensor<2048xf32>
    %1211 = stablehlo.multiply %1210, %arg131 : tensor<2048xf32>
    %1212 = stablehlo.dot_general %1211, %arg129, contracting_dims = [0] x [1] : (tensor<2048xf32>, tensor<8192x2048xf32>) -> tensor<8192xf32>
    %1213 = stablehlo.dot_general %1211, %arg132, contracting_dims = [0] x [1] : (tensor<2048xf32>, tensor<8192x2048xf32>) -> tensor<8192xf32>
    %1214 = stablehlo.negate %1212 : tensor<8192xf32>
    %1215 = stablehlo.exponential %1214 : tensor<8192xf32>
    %1216 = stablehlo.broadcast_in_dim %3, dims = [] : (tensor<f32>) -> tensor<8192xf32>
    %1217 = stablehlo.add %1216, %1215 : tensor<8192xf32>
    %1218 = stablehlo.divide %1216, %1217 : tensor<8192xf32>
    %1219 = stablehlo.multiply %1212, %1218 : tensor<8192xf32>
    %1220 = stablehlo.multiply %1219, %1213 : tensor<8192xf32>
    %1221 = stablehlo.dot_general %1220, %arg128, contracting_dims = [0] x [1] : (tensor<8192xf32>, tensor<2048x8192xf32>) -> tensor<2048xf32>
    %1222 = stablehlo.add %1203, %1221 : tensor<2048xf32>
    %1223 = stablehlo.multiply %1222, %1222 : tensor<2048xf32>
    %1224 = stablehlo.reduce(%1223 init: %2) applies stablehlo.add across dimensions = [0] : (tensor<2048xf32>, tensor<f32>) -> tensor<f32>
    %1225 = stablehlo.divide %1224, %7 : tensor<f32>
    %1226 = stablehlo.add %1225, %6 : tensor<f32>
    %1227 = stablehlo.rsqrt %1226 : tensor<f32>
    %1228 = stablehlo.broadcast_in_dim %1227, dims = [] : (tensor<f32>) -> tensor<2048xf32>
    %1229 = stablehlo.multiply %1222, %1228 : tensor<2048xf32>
    %1230 = stablehlo.multiply %1229, %arg139 : tensor<2048xf32>
    %1231 = stablehlo.dot_general %1230, %arg144, contracting_dims = [0] x [1] : (tensor<2048xf32>, tensor<2048x2048xf32>) -> tensor<2048xf32>
    %1232 = stablehlo.reshape %1231 : (tensor<2048xf32>) -> tensor<32x64xf32>
    %1233 = stablehlo.dot_general %1230, %arg142, contracting_dims = [0] x [1] : (tensor<2048xf32>, tensor<512x2048xf32>) -> tensor<512xf32>
    %1234 = stablehlo.reshape %1233 : (tensor<512xf32>) -> tensor<8x64xf32>
    %1235 = stablehlo.dot_general %1230, %arg145, contracting_dims = [0] x [1] : (tensor<2048xf32>, tensor<512x2048xf32>) -> tensor<512xf32>
    %1236 = stablehlo.reshape %1235 : (tensor<512xf32>) -> tensor<8x64xf32>
    %1237 = stablehlo.broadcast_in_dim %29, dims = [1] : (tensor<64xf32>) -> tensor<32x64xf32>
    %1238 = stablehlo.broadcast_in_dim %31, dims = [1] : (tensor<64xf32>) -> tensor<32x64xf32>
    %1239 = stablehlo.multiply %1232, %1237 : tensor<32x64xf32>
    %1240 = stablehlo.slice %1232 [0:32, 0:32] : (tensor<32x64xf32>) -> tensor<32x32xf32>
    %1241 = stablehlo.slice %1232 [0:32, 32:64] : (tensor<32x64xf32>) -> tensor<32x32xf32>
    %1242 = stablehlo.negate %1241 : tensor<32x32xf32>
    %1243 = stablehlo.concatenate %1242, %1240, dim = 1 : (tensor<32x32xf32>, tensor<32x32xf32>) -> tensor<32x64xf32>
    %1244 = stablehlo.multiply %1243, %1238 : tensor<32x64xf32>
    %1245 = stablehlo.add %1239, %1244 : tensor<32x64xf32>
    %1246 = stablehlo.broadcast_in_dim %29, dims = [1] : (tensor<64xf32>) -> tensor<8x64xf32>
    %1247 = stablehlo.broadcast_in_dim %31, dims = [1] : (tensor<64xf32>) -> tensor<8x64xf32>
    %1248 = stablehlo.multiply %1234, %1246 : tensor<8x64xf32>
    %1249 = stablehlo.slice %1234 [0:8, 0:32] : (tensor<8x64xf32>) -> tensor<8x32xf32>
    %1250 = stablehlo.slice %1234 [0:8, 32:64] : (tensor<8x64xf32>) -> tensor<8x32xf32>
    %1251 = stablehlo.negate %1250 : tensor<8x32xf32>
    %1252 = stablehlo.concatenate %1251, %1249, dim = 1 : (tensor<8x32xf32>, tensor<8x32xf32>) -> tensor<8x64xf32>
    %1253 = stablehlo.multiply %1252, %1247 : tensor<8x64xf32>
    %1254 = stablehlo.add %1248, %1253 : tensor<8x64xf32>
    %1255 = stablehlo.reshape %1254 : (tensor<8x64xf32>) -> tensor<1x1x8x64xf32>
    %1256 = stablehlo.dynamic_update_slice %1177, %1255, %25, %arg148, %9, %9 : (tensor<16x256x8x64xf32>, tensor<1x1x8x64xf32>, tensor<i32>, tensor<i32>, tensor<i32>, tensor<i32>) -> tensor<16x256x8x64xf32>
    %1257 = stablehlo.reshape %1236 : (tensor<8x64xf32>) -> tensor<1x1x8x64xf32>
    %1258 = stablehlo.dynamic_update_slice %1179, %1257, %25, %arg148, %9, %9 : (tensor<16x256x8x64xf32>, tensor<1x1x8x64xf32>, tensor<i32>, tensor<i32>, tensor<i32>, tensor<i32>) -> tensor<16x256x8x64xf32>
    %1259 = stablehlo.slice %1256 [15:16, 0:256, 0:8, 0:64] : (tensor<16x256x8x64xf32>) -> tensor<1x256x8x64xf32>
    %1260 = stablehlo.reshape %1259 : (tensor<1x256x8x64xf32>) -> tensor<256x8x64xf32>
    %1261 = stablehlo.slice %1258 [15:16, 0:256, 0:8, 0:64] : (tensor<16x256x8x64xf32>) -> tensor<1x256x8x64xf32>
    %1262 = stablehlo.reshape %1261 : (tensor<1x256x8x64xf32>) -> tensor<256x8x64xf32>
    %1263 = stablehlo.reshape %1245 : (tensor<32x64xf32>) -> tensor<8x4x64xf32>
    %1264 = stablehlo.dot_general %1263, %1260, batching_dims = [0] x [1], contracting_dims = [2] x [2] : (tensor<8x4x64xf32>, tensor<256x8x64xf32>) -> tensor<8x4x256xf32>
    %1265 = stablehlo.reshape %1264 : (tensor<8x4x256xf32>) -> tensor<32x256xf32>
    %1266 = stablehlo.broadcast_in_dim %8, dims = [] : (tensor<f32>) -> tensor<32x256xf32>
    %1267 = stablehlo.multiply %1265, %1266 : tensor<32x256xf32>
    %1268 = stablehlo.broadcast_in_dim %37, dims = [1] : (tensor<256xf32>) -> tensor<32x256xf32>
    %1269 = stablehlo.add %1267, %1268 : tensor<32x256xf32>
    %1270 = stablehlo.reduce(%1269 init: %4) applies stablehlo.maximum across dimensions = [1] : (tensor<32x256xf32>, tensor<f32>) -> tensor<32xf32>
    %1271 = stablehlo.broadcast_in_dim %1270, dims = [0] : (tensor<32xf32>) -> tensor<32x256xf32>
    %1272 = stablehlo.subtract %1269, %1271 : tensor<32x256xf32>
    %1273 = stablehlo.exponential %1272 : tensor<32x256xf32>
    %1274 = stablehlo.reduce(%1273 init: %2) applies stablehlo.add across dimensions = [1] : (tensor<32x256xf32>, tensor<f32>) -> tensor<32xf32>
    %1275 = stablehlo.broadcast_in_dim %1274, dims = [0] : (tensor<32xf32>) -> tensor<32x256xf32>
    %1276 = stablehlo.divide %1273, %1275 : tensor<32x256xf32>
    %1277 = stablehlo.reshape %1276 : (tensor<32x256xf32>) -> tensor<8x4x256xf32>
    %1278 = stablehlo.dot_general %1277, %1262, batching_dims = [0] x [1], contracting_dims = [2] x [0] : (tensor<8x4x256xf32>, tensor<256x8x64xf32>) -> tensor<8x4x64xf32>
    %1279 = stablehlo.reshape %1278 : (tensor<8x4x64xf32>) -> tensor<32x64xf32>
    %1280 = stablehlo.reshape %1279 : (tensor<32x64xf32>) -> tensor<2048xf32>
    %1281 = stablehlo.dot_general %1280, %arg143, contracting_dims = [0] x [1] : (tensor<2048xf32>, tensor<2048x2048xf32>) -> tensor<2048xf32>
    %1282 = stablehlo.add %1222, %1281 : tensor<2048xf32>
    %1283 = stablehlo.multiply %1282, %1282 : tensor<2048xf32>
    %1284 = stablehlo.reduce(%1283 init: %2) applies stablehlo.add across dimensions = [0] : (tensor<2048xf32>, tensor<f32>) -> tensor<f32>
    %1285 = stablehlo.divide %1284, %7 : tensor<f32>
    %1286 = stablehlo.add %1285, %6 : tensor<f32>
    %1287 = stablehlo.rsqrt %1286 : tensor<f32>
    %1288 = stablehlo.broadcast_in_dim %1287, dims = [] : (tensor<f32>) -> tensor<2048xf32>
    %1289 = stablehlo.multiply %1282, %1288 : tensor<2048xf32>
    %1290 = stablehlo.multiply %1289, %arg140 : tensor<2048xf32>
    %1291 = stablehlo.dot_general %1290, %arg138, contracting_dims = [0] x [1] : (tensor<2048xf32>, tensor<8192x2048xf32>) -> tensor<8192xf32>
    %1292 = stablehlo.dot_general %1290, %arg141, contracting_dims = [0] x [1] : (tensor<2048xf32>, tensor<8192x2048xf32>) -> tensor<8192xf32>
    %1293 = stablehlo.negate %1291 : tensor<8192xf32>
    %1294 = stablehlo.exponential %1293 : tensor<8192xf32>
    %1295 = stablehlo.broadcast_in_dim %3, dims = [] : (tensor<f32>) -> tensor<8192xf32>
    %1296 = stablehlo.add %1295, %1294 : tensor<8192xf32>
    %1297 = stablehlo.divide %1295, %1296 : tensor<8192xf32>
    %1298 = stablehlo.multiply %1291, %1297 : tensor<8192xf32>
    %1299 = stablehlo.multiply %1298, %1292 : tensor<8192xf32>
    %1300 = stablehlo.dot_general %1299, %arg137, contracting_dims = [0] x [1] : (tensor<8192xf32>, tensor<2048x8192xf32>) -> tensor<2048xf32>
    %1301 = stablehlo.add %1282, %1300 : tensor<2048xf32>
    %1302 = stablehlo.multiply %1301, %1301 : tensor<2048xf32>
    %1303 = stablehlo.reduce(%1302 init: %2) applies stablehlo.add across dimensions = [0] : (tensor<2048xf32>, tensor<f32>) -> tensor<f32>
    %1304 = stablehlo.divide %1303, %7 : tensor<f32>
    %1305 = stablehlo.add %1304, %6 : tensor<f32>
    %1306 = stablehlo.rsqrt %1305 : tensor<f32>
    %1307 = stablehlo.broadcast_in_dim %1306, dims = [] : (tensor<f32>) -> tensor<2048xf32>
    %1308 = stablehlo.multiply %1301, %1307 : tensor<2048xf32>
    %1309 = stablehlo.multiply %1308, %arg1 : tensor<2048xf32>
    %1310 = stablehlo.dot_general %1309, %arg0, contracting_dims = [0] x [1] : (tensor<2048xf32>, tensor<128256x2048xf32>) -> tensor<128256xf32>
    %1311 = stablehlo.constant dense<0> : tensor<i32>
    %1312 = stablehlo.constant dense<0xFF800000> : tensor<f32>
    %1313 = stablehlo.iota dim = 0 : tensor<128256xi32>
    %1314:2 = stablehlo.reduce(%1310 init: %1312), (%1313 init: %1311) across dimensions = [0] : (tensor<128256xf32>, tensor<128256xi32>, tensor<f32>, tensor<i32>) -> (tensor<f32>, tensor<i32>)
    reducer(%amv_l: tensor<f32>, %amv_r: tensor<f32>) (%ami_l: tensor<i32>, %ami_r: tensor<i32>) {
      %1315 = stablehlo.compare GT, %amv_l, %amv_r, FLOAT : (tensor<f32>, tensor<f32>) -> tensor<i1>
      %1316 = stablehlo.compare NE, %amv_l, %amv_l, FLOAT : (tensor<f32>, tensor<f32>) -> tensor<i1>
      %1317 = stablehlo.or %1315, %1316 : tensor<i1>
      %1318 = stablehlo.compare EQ, %amv_l, %amv_r, FLOAT : (tensor<f32>, tensor<f32>) -> tensor<i1>
      %1319 = stablehlo.compare LT, %ami_l, %ami_r, SIGNED : (tensor<i32>, tensor<i32>) -> tensor<i1>
      %1320 = stablehlo.and %1318, %1319 : tensor<i1>
      %1321 = stablehlo.or %1317, %1320 : tensor<i1>
      %1322 = stablehlo.select %1317, %amv_l, %amv_r : tensor<i1>, tensor<f32>
      %1323 = stablehlo.select %1321, %ami_l, %ami_r : tensor<i1>, tensor<i32>
      stablehlo.return %1322, %1323 : tensor<f32>, tensor<i32>
    }
    return %1314#1, %1256, %1258 : tensor<i32>, tensor<16x256x8x64xf32>, tensor<16x256x8x64xf32>
  }
}
