module @prefill {
  func.func public @main(%arg0: tensor<32x32xf32> loc("params['embed']"), %arg1: tensor<32xf32> loc("params['final_norm']"), %arg2: tensor<32x64xf32> loc("params['layers'][0]['down']"), %arg3: tensor<64x32xf32> loc("params['layers'][0]['gate']"), %arg4: tensor<32xf32> loc("params['layers'][0]['in_ln']"), %arg5: tensor<64x32xf32> loc("params['layers'][0]['up']"), %arg6: tensor<16x32xf32> loc("params['layers'][0]['wk']"), %arg7: tensor<32x32xf32> loc("params['layers'][0]['wo']"), %arg8: tensor<32x32xf32> loc("params['layers'][0]['wq']"), %arg9: tensor<16x32xf32> loc("params['layers'][0]['wv']"), %arg10: tensor<32x64xf32> loc("params['layers'][1]['down']"), %arg11: tensor<64x32xf32> loc("params['layers'][1]['gate']"), %arg12: tensor<32xf32> loc("params['layers'][1]['in_ln']"), %arg13: tensor<64x32xf32> loc("params['layers'][1]['up']"), %arg14: tensor<16x32xf32> loc("params['layers'][1]['wk']"), %arg15: tensor<32x32xf32> loc("params['layers'][1]['wo']"), %arg16: tensor<32x32xf32> loc("params['layers'][1]['wq']"), %arg17: tensor<16x32xf32> loc("params['layers'][1]['wv']"), %arg18: tensor<256xi32> loc("tokens"), %arg19: tensor<256xi32> loc("positions"), %arg20: tensor<i32> loc("real_len")) -> (tensor<32xf32>, tensor<2x256x2x8xf32>, tensor<2x256x2x8xf32>) {
    %0 = stablehlo.constant dense<"…"> : tensor<256x8xf32>
    %1 = stablehlo.constant dense<"…"> : tensor<256x8xf32>
    %2 = stablehlo.constant dense<0x00000000> : tensor<f32>
    %3 = stablehlo.constant dense<0x3F800000> : tensor<f32>
    %4 = stablehlo.constant dense<0xFF800000> : tensor<f32>
    %5 = stablehlo.constant dense<0xF149F2CA> : tensor<f32>
    %6 = stablehlo.constant dense<0x3727C5AC> : tensor<f32>
    %7 = stablehlo.constant dense<0x42000000> : tensor<f32>
    %8 = stablehlo.constant dense<0x3EB504F3> : tensor<f32>
    %9 = stablehlo.constant dense<0> : tensor<i32>
    %10 = stablehlo.constant dense<0> : tensor<i32>
    %11 = stablehlo.constant dense<1> : tensor<i32>
    %12 = stablehlo.reshape %arg18 : (tensor<256xi32>) -> tensor<256x1xi32>
    %13 = "stablehlo.gather"(%arg0, %12) <{dimension_numbers = #stablehlo.gather<offset_dims = [1], collapsed_slice_dims = [0], start_index_map = [0], index_vector_dim = 1>, slice_sizes = array<i64: 1, 32>}> : (tensor<32x32xf32>, tensor<256x1xi32>) -> tensor<256x32xf32>
    %14 = stablehlo.reshape %arg19 : (tensor<256xi32>) -> tensor<256x1xi32>
    %15 = "stablehlo.gather"(%0, %14) <{dimension_numbers = #stablehlo.gather<offset_dims = [1], collapsed_slice_dims = [0], start_index_map = [0], index_vector_dim = 1>, slice_sizes = array<i64: 1, 8>}> : (tensor<256x8xf32>, tensor<256x1xi32>) -> tensor<256x8xf32>
    %16 = "stablehlo.gather"(%1, %14) <{dimension_numbers = #stablehlo.gather<offset_dims = [1], collapsed_slice_dims = [0], start_index_map = [0], index_vector_dim = 1>, slice_sizes = array<i64: 1, 8>}> : (tensor<256x8xf32>, tensor<256x1xi32>) -> tensor<256x8xf32>
    %17 = stablehlo.iota dim = 0 : tensor<256xi32>
    %18 = stablehlo.broadcast_in_dim %17, dims = [0] : (tensor<256xi32>) -> tensor<256x256xi32>
    %19 = stablehlo.iota dim = 0 : tensor<256xi32>
    %20 = stablehlo.broadcast_in_dim %19, dims = [1] : (tensor<256xi32>) -> tensor<256x256xi32>
    %21 = stablehlo.compare LE, %20, %18, SIGNED : (tensor<256x256xi32>, tensor<256x256xi32>) -> tensor<256x256xi1>
    %22 = stablehlo.broadcast_in_dim %2, dims = [] : (tensor<f32>) -> tensor<256x256xf32>
    %23 = stablehlo.broadcast_in_dim %5, dims = [] : (tensor<f32>) -> tensor<256x256xf32>
    %24 = stablehlo.select %21, %22, %23 : tensor<256x256xi1>, tensor<256x256xf32>
    %25 = stablehlo.broadcast_in_dim %2, dims = [] : (tensor<f32>) -> tensor<2x256x2x8xf32>
    %26 = stablehlo.broadcast_in_dim %2, dims = [] : (tensor<f32>) -> tensor<2x256x2x8xf32>
    %27 = stablehlo.reduce(%13 init: %2) applies stablehlo.add across dimensions = [1] : (tensor<256x32xf32>, tensor<f32>) -> tensor<256xf32>
    %28 = stablehlo.broadcast_in_dim %7, dims = [] : (tensor<f32>) -> tensor<256xf32>
    %29 = stablehlo.divide %27, %28 : tensor<256xf32>
    %30 = stablehlo.broadcast_in_dim %29, dims = [0] : (tensor<256xf32>) -> tensor<256x32xf32>
    %31 = stablehlo.subtract %13, %30 : tensor<256x32xf32>
    %32 = stablehlo.multiply %31, %31 : tensor<256x32xf32>
    %33 = stablehlo.reduce(%32 init: %2) applies stablehlo.add across dimensions = [1] : (tensor<256x32xf32>, tensor<f32>) -> tensor<256xf32>
    %34 = stablehlo.divide %33, %28 : tensor<256xf32>
    %35 = stablehlo.broadcast_in_dim %6, dims = [] : (tensor<f32>) -> tensor<256xf32>
    %36 = stablehlo.add %34, %35 : tensor<256xf32>
    %37 = stablehlo.rsqrt %36 : tensor<256xf32>
    %38 = stablehlo.broadcast_in_dim %37, dims = [0] : (tensor<256xf32>) -> tensor<256x32xf32>
    %39 = stablehlo.multiply %31, %38 : tensor<256x32xf32>
    %40 = stablehlo.broadcast_in_dim %arg4, dims = [1] : (tensor<32xf32>) -> tensor<256x32xf32>
    %41 = stablehlo.multiply %39, %40 : tensor<256x32xf32>
    %42 = stablehlo.dot_general %41, %arg8, contracting_dims = [1] x [1] : (tensor<256x32xf32>, tensor<32x32xf32>) -> tensor<256x32xf32>
    %43 = stablehlo.reshape %42 : (tensor<256x32xf32>) -> tensor<256x4x8xf32>
    %44 = stablehlo.dot_general %41, %arg6, contracting_dims = [1] x [1] : (tensor<256x32xf32>, tensor<16x32xf32>) -> tensor<256x16xf32>
    %45 = stablehlo.reshape %44 : (tensor<256x16xf32>) -> tensor<256x2x8xf32>
    %46 = stablehlo.dot_general %41, %arg9, contracting_dims = [1] x [1] : (tensor<256x32xf32>, tensor<16x32xf32>) -> tensor<256x16xf32>
    %47 = stablehlo.reshape %46 : (tensor<256x16xf32>) -> tensor<256x2x8xf32>
    %48 = stablehlo.broadcast_in_dim %15, dims = [0, 2] : (tensor<256x8xf32>) -> tensor<256x4x8xf32>
    %49 = stablehlo.broadcast_in_dim %16, dims = [0, 2] : (tensor<256x8xf32>) -> tensor<256x4x8xf32>
    %50 = stablehlo.multiply %43, %48 : tensor<256x4x8xf32>
    %51 = stablehlo.reshape %43 : (tensor<256x4x8xf32>) -> tensor<256x4x4x2xf32>
    %52 = stablehlo.slice %51 [0:256, 0:4, 0:4, 0:1] : (tensor<256x4x4x2xf32>) -> tensor<256x4x4x1xf32>
    %53 = stablehlo.slice %51 [0:256, 0:4, 0:4, 1:2] : (tensor<256x4x4x2xf32>) -> tensor<256x4x4x1xf32>
    %54 = stablehlo.negate %53 : tensor<256x4x4x1xf32>
    %55 = stablehlo.concatenate %54, %52, dim = 3 : (tensor<256x4x4x1xf32>, tensor<256x4x4x1xf32>) -> tensor<256x4x4x2xf32>
    %56 = stablehlo.reshape %55 : (tensor<256x4x4x2xf32>) -> tensor<256x4x8xf32>
    %57 = stablehlo.multiply %56, %49 : tensor<256x4x8xf32>
    %58 = stablehlo.add %50, %57 : tensor<256x4x8xf32>
    %59 = stablehlo.broadcast_in_dim %15, dims = [0, 2] : (tensor<256x8xf32>) -> tensor<256x2x8xf32>
    %60 = stablehlo.broadcast_in_dim %16, dims = [0, 2] : (tensor<256x8xf32>) -> tensor<256x2x8xf32>
    %61 = stablehlo.multiply %45, %59 : tensor<256x2x8xf32>
    %62 = stablehlo.reshape %45 : (tensor<256x2x8xf32>) -> tensor<256x2x4x2xf32>
    %63 = stablehlo.slice %62 [0:256, 0:2, 0:4, 0:1] : (tensor<256x2x4x2xf32>) -> tensor<256x2x4x1xf32>
    %64 = stablehlo.slice %62 [0:256, 0:2, 0:4, 1:2] : (tensor<256x2x4x2xf32>) -> tensor<256x2x4x1xf32>
    %65 = stablehlo.negate %64 : tensor<256x2x4x1xf32>
    %66 = stablehlo.concatenate %65, %63, dim = 3 : (tensor<256x2x4x1xf32>, tensor<256x2x4x1xf32>) -> tensor<256x2x4x2xf32>
    %67 = stablehlo.reshape %66 : (tensor<256x2x4x2xf32>) -> tensor<256x2x8xf32>
    %68 = stablehlo.multiply %67, %60 : tensor<256x2x8xf32>
    %69 = stablehlo.add %61, %68 : tensor<256x2x8xf32>
    %70 = stablehlo.reshape %69 : (tensor<256x2x8xf32>) -> tensor<1x256x2x8xf32>
    %71 = stablehlo.dynamic_update_slice %25, %70, %10, %9, %9, %9 : (tensor<2x256x2x8xf32>, tensor<1x256x2x8xf32>, tensor<i32>, tensor<i32>, tensor<i32>, tensor<i32>) -> tensor<2x256x2x8xf32>
    %72 = stablehlo.reshape %47 : (tensor<256x2x8xf32>) -> tensor<1x256x2x8xf32>
    %73 = stablehlo.dynamic_update_slice %26, %72, %10, %9, %9, %9 : (tensor<2x256x2x8xf32>, tensor<1x256x2x8xf32>, tensor<i32>, tensor<i32>, tensor<i32>, tensor<i32>) -> tensor<2x256x2x8xf32>
    %74 = stablehlo.reshape %58 : (tensor<256x4x8xf32>) -> tensor<256x2x2x8xf32>
    %75 = stablehlo.dot_general %74, %69, batching_dims = [1] x [1], contracting_dims = [3] x [2] : (tensor<256x2x2x8xf32>, tensor<256x2x8xf32>) -> tensor<2x256x2x256xf32>
    %76 = stablehlo.broadcast_in_dim %8, dims = [] : (tensor<f32>) -> tensor<2x256x2x256xf32>
    %77 = stablehlo.multiply %75, %76 : tensor<2x256x2x256xf32>
    %78 = stablehlo.broadcast_in_dim %24, dims = [1, 3] : (tensor<256x256xf32>) -> tensor<2x256x2x256xf32>
    %79 = stablehlo.add %77, %78 : tensor<2x256x2x256xf32>
    %80 = stablehlo.reduce(%79 init: %4) applies stablehlo.maximum across dimensions = [3] : (tensor<2x256x2x256xf32>, tensor<f32>) -> tensor<2x256x2xf32>
    %81 = stablehlo.broadcast_in_dim %80, dims = [0, 1, 2] : (tensor<2x256x2xf32>) -> tensor<2x256x2x256xf32>
    %82 = stablehlo.subtract %79, %81 : tensor<2x256x2x256xf32>
    %83 = stablehlo.exponential %82 : tensor<2x256x2x256xf32>
    %84 = stablehlo.reduce(%83 init: %2) applies stablehlo.add across dimensions = [3] : (tensor<2x256x2x256xf32>, tensor<f32>) -> tensor<2x256x2xf32>
    %85 = stablehlo.broadcast_in_dim %84, dims = [0, 1, 2] : (tensor<2x256x2xf32>) -> tensor<2x256x2x256xf32>
    %86 = stablehlo.divide %83, %85 : tensor<2x256x2x256xf32>
    %87 = stablehlo.dot_general %86, %47, batching_dims = [0] x [1], contracting_dims = [3] x [0] : (tensor<2x256x2x256xf32>, tensor<256x2x8xf32>) -> tensor<2x256x2x8xf32>
    %88 = stablehlo.transpose %87, dims = [1, 0, 2, 3] : (tensor<2x256x2x8xf32>) -> tensor<256x2x2x8xf32>
    %89 = stablehlo.reshape %88 : (tensor<256x2x2x8xf32>) -> tensor<256x32xf32>
    %90 = stablehlo.dot_general %89, %arg7, contracting_dims = [1] x [1] : (tensor<256x32xf32>, tensor<32x32xf32>) -> tensor<256x32xf32>
    %91 = stablehlo.dot_general %41, %arg3, contracting_dims = [1] x [1] : (tensor<256x32xf32>, tensor<64x32xf32>) -> tensor<256x64xf32>
    %92 = stablehlo.dot_general %41, %arg5, contracting_dims = [1] x [1] : (tensor<256x32xf32>, tensor<64x32xf32>) -> tensor<256x64xf32>
    %93 = stablehlo.negate %91 : tensor<256x64xf32>
    %94 = stablehlo.exponential %93 : tensor<256x64xf32>
    %95 = stablehlo.broadcast_in_dim %3, dims = [] : (tensor<f32>) -> tensor<256x64xf32>
    %96 = stablehlo.add %95, %94 : tensor<256x64xf32>
    %97 = stablehlo.divide %95, %96 : tensor<256x64xf32>
    %98 = stablehlo.multiply %91, %97 : tensor<256x64xf32>
    %99 = stablehlo.multiply %98, %92 : tensor<256x64xf32>
    %100 = stablehlo.dot_general %99, %arg2, contracting_dims = [1] x [1] : (tensor<256x64xf32>, tensor<32x64xf32>) -> tensor<256x32xf32>
    %101 = stablehlo.add %13, %90 : tensor<256x32xf32>
    %102 = stablehlo.add %101, %100 : tensor<256x32xf32>
    %103 = stablehlo.reduce(%102 init: %2) applies stablehlo.add across dimensions = [1] : (tensor<256x32xf32>, tensor<f32>) -> tensor<256xf32>
    %104 = stablehlo.broadcast_in_dim %7, dims = [] : (tensor<f32>) -> tensor<256xf32>
    %105 = stablehlo.divide %103, %104 : tensor<256xf32>
    %106 = stablehlo.broadcast_in_dim %105, dims = [0] : (tensor<256xf32>) -> tensor<256x32xf32>
    %107 = stablehlo.subtract %102, %106 : tensor<256x32xf32>
    %108 = stablehlo.multiply %107, %107 : tensor<256x32xf32>
    %109 = stablehlo.reduce(%108 init: %2) applies stablehlo.add across dimensions = [1] : (tensor<256x32xf32>, tensor<f32>) -> tensor<256xf32>
    %110 = stablehlo.divide %109, %104 : tensor<256xf32>
    %111 = stablehlo.broadcast_in_dim %6, dims = [] : (tensor<f32>) -> tensor<256xf32>
    %112 = stablehlo.add %110, %111 : tensor<256xf32>
    %113 = stablehlo.rsqrt %112 : tensor<256xf32>
    %114 = stablehlo.broadcast_in_dim %113, dims = [0] : (tensor<256xf32>) -> tensor<256x32xf32>
    %115 = stablehlo.multiply %107, %114 : tensor<256x32xf32>
    %116 = stablehlo.broadcast_in_dim %arg12, dims = [1] : (tensor<32xf32>) -> tensor<256x32xf32>
    %117 = stablehlo.multiply %115, %116 : tensor<256x32xf32>
    %118 = stablehlo.dot_general %117, %arg16, contracting_dims = [1] x [1] : (tensor<256x32xf32>, tensor<32x32xf32>) -> tensor<256x32xf32>
    %119 = stablehlo.reshape %118 : (tensor<256x32xf32>) -> tensor<256x4x8xf32>
    %120 = stablehlo.dot_general %117, %arg14, contracting_dims = [1] x [1] : (tensor<256x32xf32>, tensor<16x32xf32>) -> tensor<256x16xf32>
    %121 = stablehlo.reshape %120 : (tensor<256x16xf32>) -> tensor<256x2x8xf32>
    %122 = stablehlo.dot_general %117, %arg17, contracting_dims = [1] x [1] : (tensor<256x32xf32>, tensor<16x32xf32>) -> tensor<256x16xf32>
    %123 = stablehlo.reshape %122 : (tensor<256x16xf32>) -> tensor<256x2x8xf32>
    %124 = stablehlo.broadcast_in_dim %15, dims = [0, 2] : (tensor<256x8xf32>) -> tensor<256x4x8xf32>
    %125 = stablehlo.broadcast_in_dim %16, dims = [0, 2] : (tensor<256x8xf32>) -> tensor<256x4x8xf32>
    %126 = stablehlo.multiply %119, %124 : tensor<256x4x8xf32>
    %127 = stablehlo.reshape %119 : (tensor<256x4x8xf32>) -> tensor<256x4x4x2xf32>
    %128 = stablehlo.slice %127 [0:256, 0:4, 0:4, 0:1] : (tensor<256x4x4x2xf32>) -> tensor<256x4x4x1xf32>
    %129 = stablehlo.slice %127 [0:256, 0:4, 0:4, 1:2] : (tensor<256x4x4x2xf32>) -> tensor<256x4x4x1xf32>
    %130 = stablehlo.negate %129 : tensor<256x4x4x1xf32>
    %131 = stablehlo.concatenate %130, %128, dim = 3 : (tensor<256x4x4x1xf32>, tensor<256x4x4x1xf32>) -> tensor<256x4x4x2xf32>
    %132 = stablehlo.reshape %131 : (tensor<256x4x4x2xf32>) -> tensor<256x4x8xf32>
    %133 = stablehlo.multiply %132, %125 : tensor<256x4x8xf32>
    %134 = stablehlo.add %126, %133 : tensor<256x4x8xf32>
    %135 = stablehlo.broadcast_in_dim %15, dims = [0, 2] : (tensor<256x8xf32>) -> tensor<256x2x8xf32>
    %136 = stablehlo.broadcast_in_dim %16, dims = [0, 2] : (tensor<256x8xf32>) -> tensor<256x2x8xf32>
    %137 = stablehlo.multiply %121, %135 : tensor<256x2x8xf32>
    %138 = stablehlo.reshape %121 : (tensor<256x2x8xf32>) -> tensor<256x2x4x2xf32>
    %139 = stablehlo.slice %138 [0:256, 0:2, 0:4, 0:1] : (tensor<256x2x4x2xf32>) -> tensor<256x2x4x1xf32>
    %140 = stablehlo.slice %138 [0:256, 0:2, 0:4, 1:2] : (tensor<256x2x4x2xf32>) -> tensor<256x2x4x1xf32>
    %141 = stablehlo.negate %140 : tensor<256x2x4x1xf32>
    %142 = stablehlo.concatenate %141, %139, dim = 3 : (tensor<256x2x4x1xf32>, tensor<256x2x4x1xf32>) -> tensor<256x2x4x2xf32>
    %143 = stablehlo.reshape %142 : (tensor<256x2x4x2xf32>) -> tensor<256x2x8xf32>
    %144 = stablehlo.multiply %143, %136 : tensor<256x2x8xf32>
    %145 = stablehlo.add %137, %144 : tensor<256x2x8xf32>
    %146 = stablehlo.reshape %145 : (tensor<256x2x8xf32>) -> tensor<1x256x2x8xf32>
    %147 = stablehlo.dynamic_update_slice %71, %146, %11, %9, %9, %9 : (tensor<2x256x2x8xf32>, tensor<1x256x2x8xf32>, tensor<i32>, tensor<i32>, tensor<i32>, tensor<i32>) -> tensor<2x256x2x8xf32>
    %148 = stablehlo.reshape %123 : (tensor<256x2x8xf32>) -> tensor<1x256x2x8xf32>
    %149 = stablehlo.dynamic_update_slice %73, %148, %11, %9, %9, %9 : (tensor<2x256x2x8xf32>, tensor<1x256x2x8xf32>, tensor<i32>, tensor<i32>, tensor<i32>, tensor<i32>) -> tensor<2x256x2x8xf32>
    %150 = stablehlo.reshape %134 : (tensor<256x4x8xf32>) -> tensor<256x2x2x8xf32>
    %151 = stablehlo.dot_general %150, %145, batching_dims = [1] x [1], contracting_dims = [3] x [2] : (tensor<256x2x2x8xf32>, tensor<256x2x8xf32>) -> tensor<2x256x2x256xf32>
    %152 = stablehlo.broadcast_in_dim %8, dims = [] : (tensor<f32>) -> tensor<2x256x2x256xf32>
    %153 = stablehlo.multiply %151, %152 : tensor<2x256x2x256xf32>
    %154 = stablehlo.broadcast_in_dim %24, dims = [1, 3] : (tensor<256x256xf32>) -> tensor<2x256x2x256xf32>
    %155 = stablehlo.add %153, %154 : tensor<2x256x2x256xf32>
    %156 = stablehlo.reduce(%155 init: %4) applies stablehlo.maximum across dimensions = [3] : (tensor<2x256x2x256xf32>, tensor<f32>) -> tensor<2x256x2xf32>
    %157 = stablehlo.broadcast_in_dim %156, dims = [0, 1, 2] : (tensor<2x256x2xf32>) -> tensor<2x256x2x256xf32>
    %158 = stablehlo.subtract %155, %157 : tensor<2x256x2x256xf32>
    %159 = stablehlo.exponential %158 : tensor<2x256x2x256xf32>
    %160 = stablehlo.reduce(%159 init: %2) applies stablehlo.add across dimensions = [3] : (tensor<2x256x2x256xf32>, tensor<f32>) -> tensor<2x256x2xf32>
    %161 = stablehlo.broadcast_in_dim %160, dims = [0, 1, 2] : (tensor<2x256x2xf32>) -> tensor<2x256x2x256xf32>
    %162 = stablehlo.divide %159, %161 : tensor<2x256x2x256xf32>
    %163 = stablehlo.dot_general %162, %123, batching_dims = [0] x [1], contracting_dims = [3] x [0] : (tensor<2x256x2x256xf32>, tensor<256x2x8xf32>) -> tensor<2x256x2x8xf32>
    %164 = stablehlo.transpose %163, dims = [1, 0, 2, 3] : (tensor<2x256x2x8xf32>) -> tensor<256x2x2x8xf32>
    %165 = stablehlo.reshape %164 : (tensor<256x2x2x8xf32>) -> tensor<256x32xf32>
    %166 = stablehlo.dot_general %165, %arg15, contracting_dims = [1] x [1] : (tensor<256x32xf32>, tensor<32x32xf32>) -> tensor<256x32xf32>
    %167 = stablehlo.dot_general %117, %arg11, contracting_dims = [1] x [1] : (tensor<256x32xf32>, tensor<64x32xf32>) -> tensor<256x64xf32>
    %168 = stablehlo.dot_general %117, %arg13, contracting_dims = [1] x [1] : (tensor<256x32xf32>, tensor<64x32xf32>) -> tensor<256x64xf32>
    %169 = stablehlo.negate %167 : tensor<256x64xf32>
    %170 = stablehlo.exponential %169 : tensor<256x64xf32>
    %171 = stablehlo.broadcast_in_dim %3, dims = [] : (tensor<f32>) -> tensor<256x64xf32>
    %172 = stablehlo.add %171, %170 : tensor<256x64xf32>
    %173 = stablehlo.divide %171, %172 : tensor<256x64xf32>
    %174 = stablehlo.multiply %167, %173 : tensor<256x64xf32>
    %175 = stablehlo.multiply %174, %168 : tensor<256x64xf32>
    %176 = stablehlo.dot_general %175, %arg10, contracting_dims = [1] x [1] : (tensor<256x64xf32>, tensor<32x64xf32>) -> tensor<256x32xf32>
    %177 = stablehlo.add %102, %166 : tensor<256x32xf32>
    %178 = stablehlo.add %177, %176 : tensor<256x32xf32>
    %179 = stablehlo.reduce(%178 init: %2) applies stablehlo.add across dimensions = [1] : (tensor<256x32xf32>, tensor<f32>) -> tensor<256xf32>
    %180 = stablehlo.broadcast_in_dim %7, dims = [] : (tensor<f32>) -> tensor<256xf32>
    %181 = stablehlo.divide %179, %180 : tensor<256xf32>
    %182 = stablehlo.broadcast_in_dim %181, dims = [0] : (tensor<256xf32>) -> tensor<256x32xf32>
    %183 = stablehlo.subtract %178, %182 : tensor<256x32xf32>
    %184 = stablehlo.multiply %183, %183 : tensor<256x32xf32>
    %185 = stablehlo.reduce(%184 init: %2) applies stablehlo.add across dimensions = [1] : (tensor<256x32xf32>, tensor<f32>) -> tensor<256xf32>
    %186 = stablehlo.divide %185, %180 : tensor<256xf32>
    %187 = stablehlo.broadcast_in_dim %6, dims = [] : (tensor<f32>) -> tensor<256xf32>
    %188 = stablehlo.add %186, %187 : tensor<256xf32>
    %189 = stablehlo.rsqrt %188 : tensor<256xf32>
    %190 = stablehlo.broadcast_in_dim %189, dims = [0] : (tensor<256xf32>) -> tensor<256x32xf32>
    %191 = stablehlo.multiply %183, %190 : tensor<256x32xf32>
    %192 = stablehlo.broadcast_in_dim %arg1, dims = [1] : (tensor<32xf32>) -> tensor<256x32xf32>
    %193 = stablehlo.multiply %191, %192 : tensor<256x32xf32>
    %194 = stablehlo.constant dense<1> : tensor<i32>
    %195 = stablehlo.subtract %arg20, %194 : tensor<i32>
    %196 = stablehlo.dynamic_slice %193, %195, %9, sizes = [1, 32] : (tensor<256x32xf32>, tensor<i32>, tensor<i32>) -> tensor<1x32xf32>
    %197 = stablehlo.reshape %196 : (tensor<1x32xf32>) -> tensor<32xf32>
    %198 = stablehlo.dot_general %197, %arg0, contracting_dims = [0] x [1] : (tensor<32xf32>, tensor<32x32xf32>) -> tensor<32xf32>
    %199 = stablehlo.constant dense<0x3E800000> : tensor<f32>
    %200 = stablehlo.broadcast_in_dim %199, dims = [] : (tensor<f32>) -> tensor<32xf32>
    %201 = stablehlo.multiply %198, %200 : tensor<32xf32>
    return %201, %147, %149 : tensor<32xf32>, tensor<2x256x2x8xf32>, tensor<2x256x2x8xf32>
  }
}
