module @decode_step {
  func.func public @main(%arg0: tensor<32x32xf32> loc("params['embed']"), %arg1: tensor<32xf32> loc("params['final_norm']"), %arg2: tensor<32x64xf32> loc("params['layers'][0]['down']"), %arg3: tensor<64x32xf32> loc("params['layers'][0]['gate']"), %arg4: tensor<32xf32> loc("params['layers'][0]['in_ln']"), %arg5: tensor<32xf32> loc("params['layers'][0]['post_ln']"), %arg6: tensor<64x32xf32> loc("params['layers'][0]['up']"), %arg7: tensor<16x32xf32> loc("params['layers'][0]['wk']"), %arg8: tensor<32x32xf32> loc("params['layers'][0]['wo']"), %arg9: tensor<32x32xf32> loc("params['layers'][0]['wq']"), %arg10: tensor<16x32xf32> loc("params['layers'][0]['wv']"), %arg11: tensor<32x64xf32> loc("params['layers'][1]['down']"), %arg12: tensor<64x32xf32> loc("params['layers'][1]['gate']"), %arg13: tensor<32xf32> loc("params['layers'][1]['in_ln']"), %arg14: tensor<32xf32> loc("params['layers'][1]['post_ln']"), %arg15: tensor<64x32xf32> loc("params['layers'][1]['up']"), %arg16: tensor<16x32xf32> loc("params['layers'][1]['wk']"), %arg17: tensor<32x32xf32> loc("params['layers'][1]['wo']"), %arg18: tensor<32x32xf32> loc("params['layers'][1]['wq']"), %arg19: tensor<16x32xf32> loc("params['layers'][1]['wv']"), %arg20: tensor<i32> loc("token"), %arg21: tensor<i32> loc("pos"), %arg22: tensor<i32> loc("cache_len"), %arg23: tensor<2x256x2x8xf32> loc("kcache"), %arg24: tensor<2x256x2x8xf32> loc("vcache")) -> (tensor<32xf32>, tensor<2x256x2x8xf32>, tensor<2x256x2x8xf32>) {
    %0 = stablehlo.constant dense<"…"> : tensor<256x8xf32>
    %1 = stablehlo.constant dense<"…"> : tensor<256x8xf32>
    %2 = stablehlo.constant dense<0x00000000> : tensor<f32>
    %3 = stablehlo.constant dense<0x3F800000> : tensor<f32>
    %4 = stablehlo.constant dense<0xFF800000> : tensor<f32>
    %5 = stablehlo.constant dense<0xF149F2CA> : tensor<f32>
    %6 = stablehlo.constant dense<0x3727C5AC> : tensor<f32>
    %7 = stablehlo.constant dense<0x42000000> : tensor<f32>
    %8 = stablehlo.constant dense<0x3E000000> : tensor<f32>
    %9 = stablehlo.constant dense<0> : tensor<i32>
    %10 = stablehlo.constant dense<0> : tensor<i32>
    %11 = stablehlo.constant dense<1> : tensor<i32>
    %12 = stablehlo.dynamic_slice %arg0, %arg20, %9, sizes = [1, 32] : (tensor<32x32xf32>, tensor<i32>, tensor<i32>) -> tensor<1x32xf32>
    %13 = stablehlo.reshape %12 : (tensor<1x32xf32>) -> tensor<32xf32>
    %14 = stablehlo.constant dense<0x41400000> : tensor<f32>
    %15 = stablehlo.broadcast_in_dim %14, dims = [] : (tensor<f32>) -> tensor<32xf32>
    %16 = stablehlo.multiply %13, %15 : tensor<32xf32>
    %17 = stablehlo.dynamic_slice %0, %arg21, %9, sizes = [1, 8] : (tensor<256x8xf32>, tensor<i32>, tensor<i32>) -> tensor<1x8xf32>
    %18 = stablehlo.reshape %17 : (tensor<1x8xf32>) -> tensor<8xf32>
    %19 = stablehlo.dynamic_slice %1, %arg21, %9, sizes = [1, 8] : (tensor<256x8xf32>, tensor<i32>, tensor<i32>) -> tensor<1x8xf32>
    %20 = stablehlo.reshape %19 : (tensor<1x8xf32>) -> tensor<8xf32>
    %21 = stablehlo.iota dim = 0 : tensor<256xi32>
    %22 = stablehlo.broadcast_in_dim %arg22, dims = [] : (tensor<i32>) -> tensor<256xi32>
    %23 = stablehlo.compare LE, %21, %22, SIGNED : (tensor<256xi32>, tensor<256xi32>) -> tensor<256xi1>
    %24 = stablehlo.broadcast_in_dim %2, dims = [] : (tensor<f32>) -> tensor<256xf32>
    %25 = stablehlo.broadcast_in_dim %5, dims = [] : (tensor<f32>) -> tensor<256xf32>
    %26 = stablehlo.select %23, %24, %25 : tensor<256xi1>, tensor<256xf32>
    %27 = stablehlo.multiply %16, %16 : tensor<32xf32>
    %28 = stablehlo.reduce(%27 init: %2) applies stablehlo.add across dimensions = [0] : (tensor<32xf32>, tensor<f32>) -> tensor<f32>
    %29 = stablehlo.divide %28, %7 : tensor<f32>
    %30 = stablehlo.add %29, %6 : tensor<f32>
    %31 = stablehlo.rsqrt %30 : tensor<f32>
    %32 = stablehlo.broadcast_in_dim %31, dims = [] : (tensor<f32>) -> tensor<32xf32>
    %33 = stablehlo.multiply %16, %32 : tensor<32xf32>
    %34 = stablehlo.multiply %33, %arg4 : tensor<32xf32>
    %35 = stablehlo.dot_general %34, %arg9, contracting_dims = [0] x [1] : (tensor<32xf32>, tensor<32x32xf32>) -> tensor<32xf32>
    %36 = stablehlo.reshape %35 : (tensor<32xf32>) -> tensor<4x8xf32>
    %37 = stablehlo.dot_general %34, %arg7, contracting_dims = [0] x [1] : (tensor<32xf32>, tensor<16x32xf32>) -> tensor<16xf32>
    %38 = stablehlo.reshape %37 : (tensor<16xf32>) -> tensor<2x8xf32>
    %39 = stablehlo.dot_general %34, %arg10, contracting_dims = [0] x [1] : (tensor<32xf32>, tensor<16x32xf32>) -> tensor<16xf32>
    %40 = stablehlo.reshape %39 : (tensor<16xf32>) -> tensor<2x8xf32>
    %41 = stablehlo.broadcast_in_dim %18, dims = [1] : (tensor<8xf32>) -> tensor<4x8xf32>
    %42 = stablehlo.broadcast_in_dim %20, dims = [1] : (tensor<8xf32>) -> tensor<4x8xf32>
    %43 = stablehlo.multiply %36, %41 : tensor<4x8xf32>
    %44 = stablehlo.slice %36 [0:4, 0:4] : (tensor<4x8xf32>) -> tensor<4x4xf32>
    %45 = stablehlo.slice %36 [0:4, 4:8] : (tensor<4x8xf32>) -> tensor<4x4xf32>
    %46 = stablehlo.negate %45 : tensor<4x4xf32>
    %47 = stablehlo.concatenate %46, %44, dim = 1 : (tensor<4x4xf32>, tensor<4x4xf32>) -> tensor<4x8xf32>
    %48 = stablehlo.multiply %47, %42 : tensor<4x8xf32>
    %49 = stablehlo.add %43, %48 : tensor<4x8xf32>
    %50 = stablehlo.broadcast_in_dim %18, dims = [1] : (tensor<8xf32>) -> tensor<2x8xf32>
    %51 = stablehlo.broadcast_in_dim %20, dims = [1] : (tensor<8xf32>) -> tensor<2x8xf32>
    %52 = stablehlo.multiply %38, %50 : tensor<2x8xf32>
    %53 = stablehlo.slice %38 [0:2, 0:4] : (tensor<2x8xf32>) -> tensor<2x4xf32>
    %54 = stablehlo.slice %38 [0:2, 4:8] : (tensor<2x8xf32>) -> tensor<2x4xf32>
    %55 = stablehlo.negate %54 : tensor<2x4xf32>
    %56 = stablehlo.concatenate %55, %53, dim = 1 : (tensor<2x4xf32>, tensor<2x4xf32>) -> tensor<2x8xf32>
    %57 = stablehlo.multiply %56, %51 : tensor<2x8xf32>
    %58 = stablehlo.add %52, %57 : tensor<2x8xf32>
    %59 = stablehlo.reshape %58 : (tensor<2x8xf32>) -> tensor<1x1x2x8xf32>
    %60 = stablehlo.dynamic_update_slice %arg23, %59, %10, %arg22, %9, %9 : (tensor<2x256x2x8xf32>, tensor<1x1x2x8xf32>, tensor<i32>, tensor<i32>, tensor<i32>, tensor<i32>) -> tensor<2x256x2x8xf32>
    %61 = stablehlo.reshape %40 : (tensor<2x8xf32>) -> tensor<1x1x2x8xf32>
    %62 = stablehlo.dynamic_update_slice %arg24, %61, %10, %arg22, %9, %9 : (tensor<2x256x2x8xf32>, tensor<1x1x2x8xf32>, tensor<i32>, tensor<i32>, tensor<i32>, tensor<i32>) -> tensor<2x256x2x8xf32>
    %63 = stablehlo.slice %60 [0:1, 0:256, 0:2, 0:8] : (tensor<2x256x2x8xf32>) -> tensor<1x256x2x8xf32>
    %64 = stablehlo.reshape %63 : (tensor<1x256x2x8xf32>) -> tensor<256x2x8xf32>
    %65 = stablehlo.slice %62 [0:1, 0:256, 0:2, 0:8] : (tensor<2x256x2x8xf32>) -> tensor<1x256x2x8xf32>
    %66 = stablehlo.reshape %65 : (tensor<1x256x2x8xf32>) -> tensor<256x2x8xf32>
    %67 = stablehlo.reshape %49 : (tensor<4x8xf32>) -> tensor<2x2x8xf32>
    %68 = stablehlo.dot_general %67, %64, batching_dims = [0] x [1], contracting_dims = [2] x [2] : (tensor<2x2x8xf32>, tensor<256x2x8xf32>) -> tensor<2x2x256xf32>
    %69 = stablehlo.reshape %68 : (tensor<2x2x256xf32>) -> tensor<4x256xf32>
    %70 = stablehlo.broadcast_in_dim %8, dims = [] : (tensor<f32>) -> tensor<4x256xf32>
    %71 = stablehlo.multiply %69, %70 : tensor<4x256xf32>
    %72 = stablehlo.broadcast_in_dim %26, dims = [1] : (tensor<256xf32>) -> tensor<4x256xf32>
    %73 = stablehlo.add %71, %72 : tensor<4x256xf32>
    %74 = stablehlo.reduce(%73 init: %4) applies stablehlo.maximum across dimensions = [1] : (tensor<4x256xf32>, tensor<f32>) -> tensor<4xf32>
    %75 = stablehlo.broadcast_in_dim %74, dims = [0] : (tensor<4xf32>) -> tensor<4x256xf32>
    %76 = stablehlo.subtract %73, %75 : tensor<4x256xf32>
    %77 = stablehlo.exponential %76 : tensor<4x256xf32>
    %78 = stablehlo.reduce(%77 init: %2) applies stablehlo.add across dimensions = [1] : (tensor<4x256xf32>, tensor<f32>) -> tensor<4xf32>
    %79 = stablehlo.broadcast_in_dim %78, dims = [0] : (tensor<4xf32>) -> tensor<4x256xf32>
    %80 = stablehlo.divide %77, %79 : tensor<4x256xf32>
    %81 = stablehlo.reshape %80 : (tensor<4x256xf32>) -> tensor<2x2x256xf32>
    %82 = stablehlo.dot_general %81, %66, batching_dims = [0] x [1], contracting_dims = [2] x [0] : (tensor<2x2x256xf32>, tensor<256x2x8xf32>) -> tensor<2x2x8xf32>
    %83 = stablehlo.reshape %82 : (tensor<2x2x8xf32>) -> tensor<4x8xf32>
    %84 = stablehlo.reshape %83 : (tensor<4x8xf32>) -> tensor<32xf32>
    %85 = stablehlo.dot_general %84, %arg8, contracting_dims = [0] x [1] : (tensor<32xf32>, tensor<32x32xf32>) -> tensor<32xf32>
    %86 = stablehlo.constant dense<0x3E6147AE> : tensor<f32>
    %87 = stablehlo.broadcast_in_dim %86, dims = [] : (tensor<f32>) -> tensor<32xf32>
    %88 = stablehlo.multiply %85, %87 : tensor<32xf32>
    %89 = stablehlo.add %16, %88 : tensor<32xf32>
    %90 = stablehlo.multiply %89, %89 : tensor<32xf32>
    %91 = stablehlo.reduce(%90 init: %2) applies stablehlo.add across dimensions = [0] : (tensor<32xf32>, tensor<f32>) -> tensor<f32>
    %92 = stablehlo.divide %91, %7 : tensor<f32>
    %93 = stablehlo.add %92, %6 : tensor<f32>
    %94 = stablehlo.rsqrt %93 : tensor<f32>
    %95 = stablehlo.broadcast_in_dim %94, dims = [] : (tensor<f32>) -> tensor<32xf32>
    %96 = stablehlo.multiply %89, %95 : tensor<32xf32>
    %97 = stablehlo.multiply %96, %arg5 : tensor<32xf32>
    %98 = stablehlo.dot_general %97, %arg3, contracting_dims = [0] x [1] : (tensor<32xf32>, tensor<64x32xf32>) -> tensor<64xf32>
    %99 = stablehlo.dot_general %97, %arg6, contracting_dims = [0] x [1] : (tensor<32xf32>, tensor<64x32xf32>) -> tensor<64xf32>
    %100 = stablehlo.negate %98 : tensor<64xf32>
    %101 = stablehlo.exponential %100 : tensor<64xf32>
    %102 = stablehlo.broadcast_in_dim %3, dims = [] : (tensor<f32>) -> tensor<64xf32>
    %103 = stablehlo.add %102, %101 : tensor<64xf32>
    %104 = stablehlo.divide %102, %103 : tensor<64xf32>
    %105 = stablehlo.multiply %98, %104 : tensor<64xf32>
    %106 = stablehlo.multiply %105, %99 : tensor<64xf32>
    %107 = stablehlo.dot_general %106, %arg2, contracting_dims = [0] x [1] : (tensor<64xf32>, tensor<32x64xf32>) -> tensor<32xf32>
    %108 = stablehlo.constant dense<0x3E6147AE> : tensor<f32>
    %109 = stablehlo.broadcast_in_dim %108, dims = [] : (tensor<f32>) -> tensor<32xf32>
    %110 = stablehlo.multiply %107, %109 : tensor<32xf32>
    %111 = stablehlo.add %89, %110 : tensor<32xf32>
    %112 = stablehlo.multiply %111, %111 : tensor<32xf32>
    %113 = stablehlo.reduce(%112 init: %2) applies stablehlo.add across dimensions = [0] : (tensor<32xf32>, tensor<f32>) -> tensor<f32>
    %114 = stablehlo.divide %113, %7 : tensor<f32>
    %115 = stablehlo.add %114, %6 : tensor<f32>
    %116 = stablehlo.rsqrt %115 : tensor<f32>
    %117 = stablehlo.broadcast_in_dim %116, dims = [] : (tensor<f32>) -> tensor<32xf32>
    %118 = stablehlo.multiply %111, %117 : tensor<32xf32>
    %119 = stablehlo.multiply %118, %arg13 : tensor<32xf32>
    %120 = stablehlo.dot_general %119, %arg18, contracting_dims = [0] x [1] : (tensor<32xf32>, tensor<32x32xf32>) -> tensor<32xf32>
    %121 = stablehlo.reshape %120 : (tensor<32xf32>) -> tensor<4x8xf32>
    %122 = stablehlo.dot_general %119, %arg16, contracting_dims = [0] x [1] : (tensor<32xf32>, tensor<16x32xf32>) -> tensor<16xf32>
    %123 = stablehlo.reshape %122 : (tensor<16xf32>) -> tensor<2x8xf32>
    %124 = stablehlo.dot_general %119, %arg19, contracting_dims = [0] x [1] : (tensor<32xf32>, tensor<16x32xf32>) -> tensor<16xf32>
    %125 = stablehlo.reshape %124 : (tensor<16xf32>) -> tensor<2x8xf32>
    %126 = stablehlo.broadcast_in_dim %18, dims = [1] : (tensor<8xf32>) -> tensor<4x8xf32>
    %127 = stablehlo.broadcast_in_dim %20, dims = [1] : (tensor<8xf32>) -> tensor<4x8xf32>
    %128 = stablehlo.multiply %121, %126 : tensor<4x8xf32>
    %129 = stablehlo.slice %121 [0:4, 0:4] : (tensor<4x8xf32>) -> tensor<4x4xf32>
    %130 = stablehlo.slice %121 [0:4, 4:8] : (tensor<4x8xf32>) -> tensor<4x4xf32>
    %131 = stablehlo.negate %130 : tensor<4x4xf32>
    %132 = stablehlo.concatenate %131, %129, dim = 1 : (tensor<4x4xf32>, tensor<4x4xf32>) -> tensor<4x8xf32>
    %133 = stablehlo.multiply %132, %127 : tensor<4x8xf32>
    %134 = stablehlo.add %128, %133 : tensor<4x8xf32>
    %135 = stablehlo.broadcast_in_dim %18, dims = [1] : (tensor<8xf32>) -> tensor<2x8xf32>
    %136 = stablehlo.broadcast_in_dim %20, dims = [1] : (tensor<8xf32>) -> tensor<2x8xf32>
    %137 = stablehlo.multiply %123, %135 : tensor<2x8xf32>
    %138 = stablehlo.slice %123 [0:2, 0:4] : (tensor<2x8xf32>) -> tensor<2x4xf32>
    %139 = stablehlo.slice %123 [0:2, 4:8] : (tensor<2x8xf32>) -> tensor<2x4xf32>
    %140 = stablehlo.negate %139 : tensor<2x4xf32>
    %141 = stablehlo.concatenate %140, %138, dim = 1 : (tensor<2x4xf32>, tensor<2x4xf32>) -> tensor<2x8xf32>
    %142 = stablehlo.multiply %141, %136 : tensor<2x8xf32>
    %143 = stablehlo.add %137, %142 : tensor<2x8xf32>
    %144 = stablehlo.reshape %143 : (tensor<2x8xf32>) -> tensor<1x1x2x8xf32>
    %145 = stablehlo.dynamic_update_slice %60, %144, %11, %arg22, %9, %9 : (tensor<2x256x2x8xf32>, tensor<1x1x2x8xf32>, tensor<i32>, tensor<i32>, tensor<i32>, tensor<i32>) -> tensor<2x256x2x8xf32>
    %146 = stablehlo.reshape %125 : (tensor<2x8xf32>) -> tensor<1x1x2x8xf32>
    %147 = stablehlo.dynamic_update_slice %62, %146, %11, %arg22, %9, %9 : (tensor<2x256x2x8xf32>, tensor<1x1x2x8xf32>, tensor<i32>, tensor<i32>, tensor<i32>, tensor<i32>) -> tensor<2x256x2x8xf32>
    %148 = stablehlo.slice %145 [1:2, 0:256, 0:2, 0:8] : (tensor<2x256x2x8xf32>) -> tensor<1x256x2x8xf32>
    %149 = stablehlo.reshape %148 : (tensor<1x256x2x8xf32>) -> tensor<256x2x8xf32>
    %150 = stablehlo.slice %147 [1:2, 0:256, 0:2, 0:8] : (tensor<2x256x2x8xf32>) -> tensor<1x256x2x8xf32>
    %151 = stablehlo.reshape %150 : (tensor<1x256x2x8xf32>) -> tensor<256x2x8xf32>
    %152 = stablehlo.reshape %134 : (tensor<4x8xf32>) -> tensor<2x2x8xf32>
    %153 = stablehlo.dot_general %152, %149, batching_dims = [0] x [1], contracting_dims = [2] x [2] : (tensor<2x2x8xf32>, tensor<256x2x8xf32>) -> tensor<2x2x256xf32>
    %154 = stablehlo.reshape %153 : (tensor<2x2x256xf32>) -> tensor<4x256xf32>
    %155 = stablehlo.broadcast_in_dim %8, dims = [] : (tensor<f32>) -> tensor<4x256xf32>
    %156 = stablehlo.multiply %154, %155 : tensor<4x256xf32>
    %157 = stablehlo.broadcast_in_dim %26, dims = [1] : (tensor<256xf32>) -> tensor<4x256xf32>
    %158 = stablehlo.add %156, %157 : tensor<4x256xf32>
    %159 = stablehlo.reduce(%158 init: %4) applies stablehlo.maximum across dimensions = [1] : (tensor<4x256xf32>, tensor<f32>) -> tensor<4xf32>
    %160 = stablehlo.broadcast_in_dim %159, dims = [0] : (tensor<4xf32>) -> tensor<4x256xf32>
    %161 = stablehlo.subtract %158, %160 : tensor<4x256xf32>
    %162 = stablehlo.exponential %161 : tensor<4x256xf32>
    %163 = stablehlo.reduce(%162 init: %2) applies stablehlo.add across dimensions = [1] : (tensor<4x256xf32>, tensor<f32>) -> tensor<4xf32>
    %164 = stablehlo.broadcast_in_dim %163, dims = [0] : (tensor<4xf32>) -> tensor<4x256xf32>
    %165 = stablehlo.divide %162, %164 : tensor<4x256xf32>
    %166 = stablehlo.reshape %165 : (tensor<4x256xf32>) -> tensor<2x2x256xf32>
    %167 = stablehlo.dot_general %166, %151, batching_dims = [0] x [1], contracting_dims = [2] x [0] : (tensor<2x2x256xf32>, tensor<256x2x8xf32>) -> tensor<2x2x8xf32>
    %168 = stablehlo.reshape %167 : (tensor<2x2x8xf32>) -> tensor<4x8xf32>
    %169 = stablehlo.reshape %168 : (tensor<4x8xf32>) -> tensor<32xf32>
    %170 = stablehlo.dot_general %169, %arg17, contracting_dims = [0] x [1] : (tensor<32xf32>, tensor<32x32xf32>) -> tensor<32xf32>
    %171 = stablehlo.constant dense<0x3E6147AE> : tensor<f32>
    %172 = stablehlo.broadcast_in_dim %171, dims = [] : (tensor<f32>) -> tensor<32xf32>
    %173 = stablehlo.multiply %170, %172 : tensor<32xf32>
    %174 = stablehlo.add %111, %173 : tensor<32xf32>
    %175 = stablehlo.multiply %174, %174 : tensor<32xf32>
    %176 = stablehlo.reduce(%175 init: %2) applies stablehlo.add across dimensions = [0] : (tensor<32xf32>, tensor<f32>) -> tensor<f32>
    %177 = stablehlo.divide %176, %7 : tensor<f32>
    %178 = stablehlo.add %177, %6 : tensor<f32>
    %179 = stablehlo.rsqrt %178 : tensor<f32>
    %180 = stablehlo.broadcast_in_dim %179, dims = [] : (tensor<f32>) -> tensor<32xf32>
    %181 = stablehlo.multiply %174, %180 : tensor<32xf32>
    %182 = stablehlo.multiply %181, %arg14 : tensor<32xf32>
    %183 = stablehlo.dot_general %182, %arg12, contracting_dims = [0] x [1] : (tensor<32xf32>, tensor<64x32xf32>) -> tensor<64xf32>
    %184 = stablehlo.dot_general %182, %arg15, contracting_dims = [0] x [1] : (tensor<32xf32>, tensor<64x32xf32>) -> tensor<64xf32>
    %185 = stablehlo.negate %183 : tensor<64xf32>
    %186 = stablehlo.exponential %185 : tensor<64xf32>
    %187 = stablehlo.broadcast_in_dim %3, dims = [] : (tensor<f32>) -> tensor<64xf32>
    %188 = stablehlo.add %187, %186 : tensor<64xf32>
    %189 = stablehlo.divide %187, %188 : tensor<64xf32>
    %190 = stablehlo.multiply %183, %189 : tensor<64xf32>
    %191 = stablehlo.multiply %190, %184 : tensor<64xf32>
    %192 = stablehlo.dot_general %191, %arg11, contracting_dims = [0] x [1] : (tensor<64xf32>, tensor<32x64xf32>) -> tensor<32xf32>
    %193 = stablehlo.constant dense<0x3E6147AE> : tensor<f32>
    %194 = stablehlo.broadcast_in_dim %193, dims = [] : (tensor<f32>) -> tensor<32xf32>
    %195 = stablehlo.multiply %192, %194 : tensor<32xf32>
    %196 = stablehlo.add %174, %195 : tensor<32xf32>
    %197 = stablehlo.multiply %196, %196 : tensor<32xf32>
    %198 = stablehlo.reduce(%197 init: %2) applies stablehlo.add across dimensions = [0] : (tensor<32xf32>, tensor<f32>) -> tensor<f32>
    %199 = stablehlo.divide %198, %7 : tensor<f32>
    %200 = stablehlo.add %199, %6 : tensor<f32>
    %201 = stablehlo.rsqrt %200 : tensor<f32>
    %202 = stablehlo.broadcast_in_dim %201, dims = [] : (tensor<f32>) -> tensor<32xf32>
    %203 = stablehlo.multiply %196, %202 : tensor<32xf32>
    %204 = stablehlo.multiply %203, %arg1 : tensor<32xf32>
    %205 = stablehlo.dot_general %204, %arg0, contracting_dims = [0] x [1] : (tensor<32xf32>, tensor<32x32xf32>) -> tensor<32xf32>
    %206 = stablehlo.constant dense<0x41000000> : tensor<f32>
    %207 = stablehlo.broadcast_in_dim %206, dims = [] : (tensor<f32>) -> tensor<32xf32>
    %208 = stablehlo.divide %205, %207 : tensor<32xf32>
    return %208, %145, %147 : tensor<32xf32>, tensor<2x256x2x8xf32>, tensor<2x256x2x8xf32>
  }
}
