module @decode_step {
  func.func public @main(%arg0: tensor<10x8xf32> loc("params['embed']"), %arg1: tensor<8xf32> loc("params['final_norm']"), %arg2: tensor<10x8xf32> loc("params['lm_head']"), %arg3: tensor<8xf32> loc("params['layers'][0]['in_ln']"), %arg4: tensor<8xf32> loc("params['layers'][0]['post_ln']"), %arg5: tensor<4x8xf32> loc("params['layers'][0]['wk']"), %arg6: tensor<8x8xf32> loc("params['layers'][0]['wo']"), %arg7: tensor<8x8xf32> loc("params['layers'][0]['wq']"), %arg8: tensor<4x8xf32> loc("params['layers'][0]['wv']"), %arg9: tensor<4xf32> loc("params['layers'][0]['bk']"), %arg10: tensor<8xf32> loc("params['layers'][0]['bq']"), %arg11: tensor<4xf32> loc("params['layers'][0]['bv']"), %arg12: tensor<4x8xf32> loc("params['layers'][0]['moe_router']"), %arg13: tensor<4x12x8xf32> loc("params['layers'][0]['moe_gate']"), %arg14: tensor<4x12x8xf32> loc("params['layers'][0]['moe_up']"), %arg15: tensor<4x8x12xf32> loc("params['layers'][0]['moe_down']"), %arg16: tensor<10x8xf32> loc("params['layers'][0]['moe_shared_gate']"), %arg17: tensor<10x8xf32> loc("params['layers'][0]['moe_shared_up']"), %arg18: tensor<8x10xf32> loc("params['layers'][0]['moe_shared_down']"), %arg19: tensor<1x8xf32> loc("params['layers'][0]['moe_shared_expert_gate']"), %arg20: tensor<8xf32> loc("params['layers'][1]['in_ln']"), %arg21: tensor<8xf32> loc("params['layers'][1]['post_ln']"), %arg22: tensor<4x8xf32> loc("params['layers'][1]['wk']"), %arg23: tensor<8x8xf32> loc("params['layers'][1]['wo']"), %arg24: tensor<8x8xf32> loc("params['layers'][1]['wq']"), %arg25: tensor<4x8xf32> loc("params['layers'][1]['wv']"), %arg26: tensor<4xf32> loc("params['layers'][1]['bk']"), %arg27: tensor<8xf32> loc("params['layers'][1]['bq']"), %arg28: tensor<4xf32> loc("params['layers'][1]['bv']"), %arg29: tensor<4x8xf32> loc("params['layers'][1]['moe_router']"), %arg30: tensor<4x12x8xf32> loc("params['layers'][1]['moe_gate']"), %arg31: tensor<4x12x8xf32> loc("params['layers'][1]['moe_up']"), %arg32: tensor<4x8x12xf32> loc("params['layers'][1]['moe_down']"), %arg33: tensor<10x8xf32> loc("params['layers'][1]['moe_shared_gate']"), %arg34: tensor<10x8xf32> loc("params['layers'][1]['moe_shared_up']"), %arg35: tensor<8x10xf32> loc("params['layers'][1]['moe_shared_down']"), %arg36: tensor<1x8xf32> loc("params['layers'][1]['moe_shared_expert_gate']"), %arg37: tensor<i32> loc("token"), %arg38: tensor<i32> loc("pos"), %arg39: tensor<i32> loc("cache_len"), %arg40: tensor<2x256x1x4xf32> loc("kcache"), %arg41: tensor<2x256x1x4xf32> loc("vcache")) -> (tensor<i32>, tensor<2x256x1x4xf32>, tensor<2x256x1x4xf32>) {
    %0 = stablehlo.constant dense<"…"> : tensor<256x4xf32>
    %1 = stablehlo.constant dense<"…"> : tensor<256x4xf32>
    %2 = stablehlo.constant dense<0x00000000> : tensor<f32>
    %3 = stablehlo.constant dense<0x3F800000> : tensor<f32>
    %4 = stablehlo.constant dense<0xFF800000> : tensor<f32>
    %5 = stablehlo.constant dense<0xF149F2CA> : tensor<f32>
    %6 = stablehlo.constant dense<0x358637BD> : tensor<f32>
    %7 = stablehlo.constant dense<0x41000000> : tensor<f32>
    %8 = stablehlo.constant dense<0x3F000000> : tensor<f32>
    %9 = stablehlo.constant dense<0> : tensor<i32>
    %10 = stablehlo.constant dense<0> : tensor<i32>
    %11 = stablehlo.constant dense<1> : tensor<i32>
    %12 = stablehlo.dynamic_slice %arg0, %arg37, %9, sizes = [1, 8] : (tensor<10x8xf32>, tensor<i32>, tensor<i32>) -> tensor<1x8xf32>
    %13 = stablehlo.reshape %12 : (tensor<1x8xf32>) -> tensor<8xf32>
    %14 = stablehlo.dynamic_slice %0, %arg38, %9, sizes = [1, 4] : (tensor<256x4xf32>, tensor<i32>, tensor<i32>) -> tensor<1x4xf32>
    %15 = stablehlo.reshape %14 : (tensor<1x4xf32>) -> tensor<4xf32>
    %16 = stablehlo.dynamic_slice %1, %arg38, %9, sizes = [1, 4] : (tensor<256x4xf32>, tensor<i32>, tensor<i32>) -> tensor<1x4xf32>
    %17 = stablehlo.reshape %16 : (tensor<1x4xf32>) -> tensor<4xf32>
    %18 = stablehlo.iota dim = 0 : tensor<256xi32>
    %19 = stablehlo.broadcast_in_dim %arg39, dims = [] : (tensor<i32>) -> tensor<256xi32>
    %20 = stablehlo.compare LE, %18, %19, SIGNED : (tensor<256xi32>, tensor<256xi32>) -> tensor<256xi1>
    %21 = stablehlo.broadcast_in_dim %2, dims = [] : (tensor<f32>) -> tensor<256xf32>
    %22 = stablehlo.broadcast_in_dim %5, dims = [] : (tensor<f32>) -> tensor<256xf32>
    %23 = stablehlo.select %20, %21, %22 : tensor<256xi1>, tensor<256xf32>
    %24 = stablehlo.multiply %13, %13 : tensor<8xf32>
    %25 = stablehlo.reduce(%24 init: %2) applies stablehlo.add across dimensions = [0] : (tensor<8xf32>, tensor<f32>) -> tensor<f32>
    %26 = stablehlo.divide %25, %7 : tensor<f32>
    %27 = stablehlo.add %26, %6 : tensor<f32>
    %28 = stablehlo.rsqrt %27 : tensor<f32>
    %29 = stablehlo.broadcast_in_dim %28, dims = [] : (tensor<f32>) -> tensor<8xf32>
    %30 = stablehlo.multiply %13, %29 : tensor<8xf32>
    %31 = stablehlo.multiply %30, %arg3 : tensor<8xf32>
    %32 = stablehlo.dot_general %31, %arg7, contracting_dims = [0] x [1] : (tensor<8xf32>, tensor<8x8xf32>) -> tensor<8xf32>
    %33 = stablehlo.add %32, %arg10 : tensor<8xf32>
    %34 = stablehlo.reshape %33 : (tensor<8xf32>) -> tensor<2x4xf32>
    %35 = stablehlo.dot_general %31, %arg5, contracting_dims = [0] x [1] : (tensor<8xf32>, tensor<4x8xf32>) -> tensor<4xf32>
    %36 = stablehlo.add %35, %arg9 : tensor<4xf32>
    %37 = stablehlo.reshape %36 : (tensor<4xf32>) -> tensor<1x4xf32>
    %38 = stablehlo.dot_general %31, %arg8, contracting_dims = [0] x [1] : (tensor<8xf32>, tensor<4x8xf32>) -> tensor<4xf32>
    %39 = stablehlo.add %38, %arg11 : tensor<4xf32>
    %40 = stablehlo.reshape %39 : (tensor<4xf32>) -> tensor<1x4xf32>
    %41 = stablehlo.broadcast_in_dim %15, dims = [1] : (tensor<4xf32>) -> tensor<2x4xf32>
    %42 = stablehlo.broadcast_in_dim %17, dims = [1] : (tensor<4xf32>) -> tensor<2x4xf32>
    %43 = stablehlo.multiply %34, %41 : tensor<2x4xf32>
    %44 = stablehlo.slice %34 [0:2, 0:2] : (tensor<2x4xf32>) -> tensor<2x2xf32>
    %45 = stablehlo.slice %34 [0:2, 2:4] : (tensor<2x4xf32>) -> tensor<2x2xf32>
    %46 = stablehlo.negate %45 : tensor<2x2xf32>
    %47 = stablehlo.concatenate %46, %44, dim = 1 : (tensor<2x2xf32>, tensor<2x2xf32>) -> tensor<2x4xf32>
    %48 = stablehlo.multiply %47, %42 : tensor<2x4xf32>
    %49 = stablehlo.add %43, %48 : tensor<2x4xf32>
    %50 = stablehlo.broadcast_in_dim %15, dims = [1] : (tensor<4xf32>) -> tensor<1x4xf32>
    %51 = stablehlo.broadcast_in_dim %17, dims = [1] : (tensor<4xf32>) -> tensor<1x4xf32>
    %52 = stablehlo.multiply %37, %50 : tensor<1x4xf32>
    %53 = stablehlo.slice %37 [0:1, 0:2] : (tensor<1x4xf32>) -> tensor<1x2xf32>
    %54 = stablehlo.slice %37 [0:1, 2:4] : (tensor<1x4xf32>) -> tensor<1x2xf32>
    %55 = stablehlo.negate %54 : tensor<1x2xf32>
    %56 = stablehlo.concatenate %55, %53, dim = 1 : (tensor<1x2xf32>, tensor<1x2xf32>) -> tensor<1x4xf32>
    %57 = stablehlo.multiply %56, %51 : tensor<1x4xf32>
    %58 = stablehlo.add %52, %57 : tensor<1x4xf32>
    %59 = stablehlo.reshape %58 : (tensor<1x4xf32>) -> tensor<1x1x1x4xf32>
    %60 = stablehlo.dynamic_update_slice %arg40, %59, %10, %arg39, %9, %9 : (tensor<2x256x1x4xf32>, tensor<1x1x1x4xf32>, tensor<i32>, tensor<i32>, tensor<i32>, tensor<i32>) -> tensor<2x256x1x4xf32>
    %61 = stablehlo.reshape %40 : (tensor<1x4xf32>) -> tensor<1x1x1x4xf32>
    %62 = stablehlo.dynamic_update_slice %arg41, %61, %10, %arg39, %9, %9 : (tensor<2x256x1x4xf32>, tensor<1x1x1x4xf32>, tensor<i32>, tensor<i32>, tensor<i32>, tensor<i32>) -> tensor<2x256x1x4xf32>
    %63 = stablehlo.slice %60 [0:1, 0:256, 0:1, 0:4] : (tensor<2x256x1x4xf32>) -> tensor<1x256x1x4xf32>
    %64 = stablehlo.reshape %63 : (tensor<1x256x1x4xf32>) -> tensor<256x1x4xf32>
    %65 = stablehlo.slice %62 [0:1, 0:256, 0:1, 0:4] : (tensor<2x256x1x4xf32>) -> tensor<1x256x1x4xf32>
    %66 = stablehlo.reshape %65 : (tensor<1x256x1x4xf32>) -> tensor<256x1x4xf32>
    %67 = stablehlo.reshape %49 : (tensor<2x4xf32>) -> tensor<1x2x4xf32>
    %68 = stablehlo.dot_general %67, %64, batching_dims = [0] x [1], contracting_dims = [2] x [2] : (tensor<1x2x4xf32>, tensor<256x1x4xf32>) -> tensor<1x2x256xf32>
    %69 = stablehlo.reshape %68 : (tensor<1x2x256xf32>) -> tensor<2x256xf32>
    %70 = stablehlo.broadcast_in_dim %8, dims = [] : (tensor<f32>) -> tensor<2x256xf32>
    %71 = stablehlo.multiply %69, %70 : tensor<2x256xf32>
    %72 = stablehlo.broadcast_in_dim %23, dims = [1] : (tensor<256xf32>) -> tensor<2x256xf32>
    %73 = stablehlo.add %71, %72 : tensor<2x256xf32>
    %74 = stablehlo.reduce(%73 init: %4) applies stablehlo.maximum across dimensions = [1] : (tensor<2x256xf32>, tensor<f32>) -> tensor<2xf32>
    %75 = stablehlo.broadcast_in_dim %74, dims = [0] : (tensor<2xf32>) -> tensor<2x256xf32>
    %76 = stablehlo.subtract %73, %75 : tensor<2x256xf32>
    %77 = stablehlo.exponential %76 : tensor<2x256xf32>
    %78 = stablehlo.reduce(%77 init: %2) applies stablehlo.add across dimensions = [1] : (tensor<2x256xf32>, tensor<f32>) -> tensor<2xf32>
    %79 = stablehlo.broadcast_in_dim %78, dims = [0] : (tensor<2xf32>) -> tensor<2x256xf32>
    %80 = stablehlo.divide %77, %79 : tensor<2x256xf32>
    %81 = stablehlo.reshape %80 : (tensor<2x256xf32>) -> tensor<1x2x256xf32>
    %82 = stablehlo.dot_general %81, %66, batching_dims = [0] x [1], contracting_dims = [2] x [0] : (tensor<1x2x256xf32>, tensor<256x1x4xf32>) -> tensor<1x2x4xf32>
    %83 = stablehlo.reshape %82 : (tensor<1x2x4xf32>) -> tensor<2x4xf32>
    %84 = stablehlo.reshape %83 : (tensor<2x4xf32>) -> tensor<8xf32>
    %85 = stablehlo.dot_general %84, %arg6, contracting_dims = [0] x [1] : (tensor<8xf32>, tensor<8x8xf32>) -> tensor<8xf32>
    %86 = stablehlo.add %13, %85 : tensor<8xf32>
    %87 = stablehlo.multiply %86, %86 : tensor<8xf32>
    %88 = stablehlo.reduce(%87 init: %2) applies stablehlo.add across dimensions = [0] : (tensor<8xf32>, tensor<f32>) -> tensor<f32>
    %89 = stablehlo.divide %88, %7 : tensor<f32>
    %90 = stablehlo.add %89, %6 : tensor<f32>
    %91 = stablehlo.rsqrt %90 : tensor<f32>
    %92 = stablehlo.broadcast_in_dim %91, dims = [] : (tensor<f32>) -> tensor<8xf32>
    %93 = stablehlo.multiply %86, %92 : tensor<8xf32>
    %94 = stablehlo.multiply %93, %arg4 : tensor<8xf32>
    %95 = stablehlo.reshape %94 : (tensor<8xf32>) -> tensor<1x8xf32>
    %96 = stablehlo.dot_general %95, %arg12, contracting_dims = [1] x [1] : (tensor<1x8xf32>, tensor<4x8xf32>) -> tensor<1x4xf32>
    %97 = stablehlo.reduce(%96 init: %4) applies stablehlo.maximum across dimensions = [1] : (tensor<1x4xf32>, tensor<f32>) -> tensor<1xf32>
    %98 = stablehlo.broadcast_in_dim %97, dims = [0] : (tensor<1xf32>) -> tensor<1x4xf32>
    %99 = stablehlo.subtract %96, %98 : tensor<1x4xf32>
    %100 = stablehlo.exponential %99 : tensor<1x4xf32>
    %101 = stablehlo.reduce(%100 init: %2) applies stablehlo.add across dimensions = [1] : (tensor<1x4xf32>, tensor<f32>) -> tensor<1xf32>
    %102 = stablehlo.broadcast_in_dim %101, dims = [0] : (tensor<1xf32>) -> tensor<1x4xf32>
    %103 = stablehlo.divide %100, %102 : tensor<1x4xf32>
    %104 = stablehlo.iota dim = 0 : tensor<4xi32>
    %105 = stablehlo.broadcast_in_dim %104, dims = [1] : (tensor<4xi32>) -> tensor<1x4xi32>
    %106 = stablehlo.broadcast_in_dim %2, dims = [] : (tensor<f32>) -> tensor<1x4xf32>
    %107 = stablehlo.broadcast_in_dim %4, dims = [] : (tensor<f32>) -> tensor<1x4xf32>
    %108 = stablehlo.constant dense<0> : tensor<i32>
    %109 = stablehlo.constant dense<0xFF800000> : tensor<f32>
    %110 = stablehlo.iota dim = 1 : tensor<1x4xi32>
    %111:2 = stablehlo.reduce(%103 init: %109), (%110 init: %108) across dimensions = [1] : (tensor<1x4xf32>, tensor<1x4xi32>, tensor<f32>, tensor<i32>) -> (tensor<1xf32>, tensor<1xi32>)
    reducer(%amv_l: tensor<f32>, %amv_r: tensor<f32>) (%ami_l: tensor<i32>, %ami_r: tensor<i32>) {
      %112 = stablehlo.compare GT, %amv_l, %amv_r, FLOAT : (tensor<f32>, tensor<f32>) -> tensor<i1>
      %113 = stablehlo.compare NE, %amv_l, %amv_l, FLOAT : (tensor<f32>, tensor<f32>) -> tensor<i1>
      %114 = stablehlo.or %112, %113 : tensor<i1>
      %115 = stablehlo.compare EQ, %amv_l, %amv_r, FLOAT : (tensor<f32>, tensor<f32>) -> tensor<i1>
      %116 = stablehlo.compare LT, %ami_l, %ami_r, SIGNED : (tensor<i32>, tensor<i32>) -> tensor<i1>
      %117 = stablehlo.and %115, %116 : tensor<i1>
      %118 = stablehlo.or %114, %117 : tensor<i1>
      %119 = stablehlo.select %114, %amv_l, %amv_r : tensor<i1>, tensor<f32>
      %120 = stablehlo.select %118, %ami_l, %ami_r : tensor<i1>, tensor<i32>
      stablehlo.return %119, %120 : tensor<f32>, tensor<i32>
    }
    %121 = stablehlo.broadcast_in_dim %111#1, dims = [0] : (tensor<1xi32>) -> tensor<1x4xi32>
    %122 = stablehlo.compare EQ, %105, %121, SIGNED : (tensor<1x4xi32>, tensor<1x4xi32>) -> tensor<1x4xi1>
    %123 = stablehlo.select %122, %103, %106 : tensor<1x4xi1>, tensor<1x4xf32>
    %124 = stablehlo.reduce(%123 init: %2) applies stablehlo.add across dimensions = [1] : (tensor<1x4xf32>, tensor<f32>) -> tensor<1xf32>
    %125 = stablehlo.select %122, %107, %103 : tensor<1x4xi1>, tensor<1x4xf32>
    %126 = stablehlo.constant dense<0> : tensor<i32>
    %127 = stablehlo.constant dense<0xFF800000> : tensor<f32>
    %128 = stablehlo.iota dim = 1 : tensor<1x4xi32>
    %129:2 = stablehlo.reduce(%125 init: %127), (%128 init: %126) across dimensions = [1] : (tensor<1x4xf32>, tensor<1x4xi32>, tensor<f32>, tensor<i32>) -> (tensor<1xf32>, tensor<1xi32>)
    reducer(%amv_l: tensor<f32>, %amv_r: tensor<f32>) (%ami_l: tensor<i32>, %ami_r: tensor<i32>) {
      %130 = stablehlo.compare GT, %amv_l, %amv_r, FLOAT : (tensor<f32>, tensor<f32>) -> tensor<i1>
      %131 = stablehlo.compare NE, %amv_l, %amv_l, FLOAT : (tensor<f32>, tensor<f32>) -> tensor<i1>
      %132 = stablehlo.or %130, %131 : tensor<i1>
      %133 = stablehlo.compare EQ, %amv_l, %amv_r, FLOAT : (tensor<f32>, tensor<f32>) -> tensor<i1>
      %134 = stablehlo.compare LT, %ami_l, %ami_r, SIGNED : (tensor<i32>, tensor<i32>) -> tensor<i1>
      %135 = stablehlo.and %133, %134 : tensor<i1>
      %136 = stablehlo.or %132, %135 : tensor<i1>
      %137 = stablehlo.select %132, %amv_l, %amv_r : tensor<i1>, tensor<f32>
      %138 = stablehlo.select %136, %ami_l, %ami_r : tensor<i1>, tensor<i32>
      stablehlo.return %137, %138 : tensor<f32>, tensor<i32>
    }
    %139 = stablehlo.broadcast_in_dim %129#1, dims = [0] : (tensor<1xi32>) -> tensor<1x4xi32>
    %140 = stablehlo.compare EQ, %105, %139, SIGNED : (tensor<1x4xi32>, tensor<1x4xi32>) -> tensor<1x4xi1>
    %141 = stablehlo.select %140, %125, %106 : tensor<1x4xi1>, tensor<1x4xf32>
    %142 = stablehlo.reduce(%141 init: %2) applies stablehlo.add across dimensions = [1] : (tensor<1x4xf32>, tensor<f32>) -> tensor<1xf32>
    %143 = stablehlo.select %140, %107, %125 : tensor<1x4xi1>, tensor<1x4xf32>
    %144 = stablehlo.add %124, %142 : tensor<1xf32>
    %145 = stablehlo.divide %124, %144 : tensor<1xf32>
    %146 = stablehlo.divide %142, %144 : tensor<1xf32>
    %147 = stablehlo.broadcast_in_dim %2, dims = [] : (tensor<f32>) -> tensor<1x4xf32>
    %148 = stablehlo.broadcast_in_dim %145, dims = [0] : (tensor<1xf32>) -> tensor<1x4xf32>
    %149 = stablehlo.select %122, %148, %106 : tensor<1x4xi1>, tensor<1x4xf32>
    %150 = stablehlo.add %147, %149 : tensor<1x4xf32>
    %151 = stablehlo.broadcast_in_dim %146, dims = [0] : (tensor<1xf32>) -> tensor<1x4xf32>
    %152 = stablehlo.select %140, %151, %106 : tensor<1x4xi1>, tensor<1x4xf32>
    %153 = stablehlo.add %150, %152 : tensor<1x4xf32>
    %154 = stablehlo.broadcast_in_dim %95, dims = [1, 2] : (tensor<1x8xf32>) -> tensor<4x1x8xf32>
    %155 = stablehlo.dot_general %154, %arg13, batching_dims = [0] x [0], contracting_dims = [2] x [2] : (tensor<4x1x8xf32>, tensor<4x12x8xf32>) -> tensor<4x1x12xf32>
    %156 = stablehlo.dot_general %154, %arg14, batching_dims = [0] x [0], contracting_dims = [2] x [2] : (tensor<4x1x8xf32>, tensor<4x12x8xf32>) -> tensor<4x1x12xf32>
    %157 = stablehlo.broadcast_in_dim %3, dims = [] : (tensor<f32>) -> tensor<4x1x12xf32>
    %158 = stablehlo.negate %155 : tensor<4x1x12xf32>
    %159 = stablehlo.exponential %158 : tensor<4x1x12xf32>
    %160 = stablehlo.add %157, %159 : tensor<4x1x12xf32>
    %161 = stablehlo.divide %157, %160 : tensor<4x1x12xf32>
    %162 = stablehlo.multiply %155, %161 : tensor<4x1x12xf32>
    %163 = stablehlo.multiply %162, %156 : tensor<4x1x12xf32>
    %164 = stablehlo.dot_general %163, %arg15, batching_dims = [0] x [0], contracting_dims = [2] x [2] : (tensor<4x1x12xf32>, tensor<4x8x12xf32>) -> tensor<4x1x8xf32>
    %165 = stablehlo.dot_general %153, %164, batching_dims = [0] x [1], contracting_dims = [1] x [0] : (tensor<1x4xf32>, tensor<4x1x8xf32>) -> tensor<1x8xf32>
    %166 = stablehlo.dot_general %95, %arg16, contracting_dims = [1] x [1] : (tensor<1x8xf32>, tensor<10x8xf32>) -> tensor<1x10xf32>
    %167 = stablehlo.dot_general %95, %arg17, contracting_dims = [1] x [1] : (tensor<1x8xf32>, tensor<10x8xf32>) -> tensor<1x10xf32>
    %168 = stablehlo.broadcast_in_dim %3, dims = [] : (tensor<f32>) -> tensor<1x10xf32>
    %169 = stablehlo.negate %166 : tensor<1x10xf32>
    %170 = stablehlo.exponential %169 : tensor<1x10xf32>
    %171 = stablehlo.add %168, %170 : tensor<1x10xf32>
    %172 = stablehlo.divide %168, %171 : tensor<1x10xf32>
    %173 = stablehlo.multiply %166, %172 : tensor<1x10xf32>
    %174 = stablehlo.multiply %173, %167 : tensor<1x10xf32>
    %175 = stablehlo.dot_general %174, %arg18, contracting_dims = [1] x [1] : (tensor<1x10xf32>, tensor<8x10xf32>) -> tensor<1x8xf32>
    %176 = stablehlo.dot_general %95, %arg19, contracting_dims = [1] x [1] : (tensor<1x8xf32>, tensor<1x8xf32>) -> tensor<1x1xf32>
    %177 = stablehlo.reshape %176 : (tensor<1x1xf32>) -> tensor<1xf32>
    %178 = stablehlo.broadcast_in_dim %3, dims = [] : (tensor<f32>) -> tensor<1xf32>
    %179 = stablehlo.negate %177 : tensor<1xf32>
    %180 = stablehlo.exponential %179 : tensor<1xf32>
    %181 = stablehlo.add %178, %180 : tensor<1xf32>
    %182 = stablehlo.divide %178, %181 : tensor<1xf32>
    %183 = stablehlo.broadcast_in_dim %182, dims = [0] : (tensor<1xf32>) -> tensor<1x8xf32>
    %184 = stablehlo.multiply %175, %183 : tensor<1x8xf32>
    %185 = stablehlo.add %165, %184 : tensor<1x8xf32>
    %186 = stablehlo.reshape %185 : (tensor<1x8xf32>) -> tensor<8xf32>
    %187 = stablehlo.add %86, %186 : tensor<8xf32>
    %188 = stablehlo.multiply %187, %187 : tensor<8xf32>
    %189 = stablehlo.reduce(%188 init: %2) applies stablehlo.add across dimensions = [0] : (tensor<8xf32>, tensor<f32>) -> tensor<f32>
    %190 = stablehlo.divide %189, %7 : tensor<f32>
    %191 = stablehlo.add %190, %6 : tensor<f32>
    %192 = stablehlo.rsqrt %191 : tensor<f32>
    %193 = stablehlo.broadcast_in_dim %192, dims = [] : (tensor<f32>) -> tensor<8xf32>
    %194 = stablehlo.multiply %187, %193 : tensor<8xf32>
    %195 = stablehlo.multiply %194, %arg20 : tensor<8xf32>
    %196 = stablehlo.dot_general %195, %arg24, contracting_dims = [0] x [1] : (tensor<8xf32>, tensor<8x8xf32>) -> tensor<8xf32>
    %197 = stablehlo.add %196, %arg27 : tensor<8xf32>
    %198 = stablehlo.reshape %197 : (tensor<8xf32>) -> tensor<2x4xf32>
    %199 = stablehlo.dot_general %195, %arg22, contracting_dims = [0] x [1] : (tensor<8xf32>, tensor<4x8xf32>) -> tensor<4xf32>
    %200 = stablehlo.add %199, %arg26 : tensor<4xf32>
    %201 = stablehlo.reshape %200 : (tensor<4xf32>) -> tensor<1x4xf32>
    %202 = stablehlo.dot_general %195, %arg25, contracting_dims = [0] x [1] : (tensor<8xf32>, tensor<4x8xf32>) -> tensor<4xf32>
    %203 = stablehlo.add %202, %arg28 : tensor<4xf32>
    %204 = stablehlo.reshape %203 : (tensor<4xf32>) -> tensor<1x4xf32>
    %205 = stablehlo.broadcast_in_dim %15, dims = [1] : (tensor<4xf32>) -> tensor<2x4xf32>
    %206 = stablehlo.broadcast_in_dim %17, dims = [1] : (tensor<4xf32>) -> tensor<2x4xf32>
    %207 = stablehlo.multiply %198, %205 : tensor<2x4xf32>
    %208 = stablehlo.slice %198 [0:2, 0:2] : (tensor<2x4xf32>) -> tensor<2x2xf32>
    %209 = stablehlo.slice %198 [0:2, 2:4] : (tensor<2x4xf32>) -> tensor<2x2xf32>
    %210 = stablehlo.negate %209 : tensor<2x2xf32>
    %211 = stablehlo.concatenate %210, %208, dim = 1 : (tensor<2x2xf32>, tensor<2x2xf32>) -> tensor<2x4xf32>
    %212 = stablehlo.multiply %211, %206 : tensor<2x4xf32>
    %213 = stablehlo.add %207, %212 : tensor<2x4xf32>
    %214 = stablehlo.broadcast_in_dim %15, dims = [1] : (tensor<4xf32>) -> tensor<1x4xf32>
    %215 = stablehlo.broadcast_in_dim %17, dims = [1] : (tensor<4xf32>) -> tensor<1x4xf32>
    %216 = stablehlo.multiply %201, %214 : tensor<1x4xf32>
    %217 = stablehlo.slice %201 [0:1, 0:2] : (tensor<1x4xf32>) -> tensor<1x2xf32>
    %218 = stablehlo.slice %201 [0:1, 2:4] : (tensor<1x4xf32>) -> tensor<1x2xf32>
    %219 = stablehlo.negate %218 : tensor<1x2xf32>
    %220 = stablehlo.concatenate %219, %217, dim = 1 : (tensor<1x2xf32>, tensor<1x2xf32>) -> tensor<1x4xf32>
    %221 = stablehlo.multiply %220, %215 : tensor<1x4xf32>
    %222 = stablehlo.add %216, %221 : tensor<1x4xf32>
    %223 = stablehlo.reshape %222 : (tensor<1x4xf32>) -> tensor<1x1x1x4xf32>
    %224 = stablehlo.dynamic_update_slice %60, %223, %11, %arg39, %9, %9 : (tensor<2x256x1x4xf32>, tensor<1x1x1x4xf32>, tensor<i32>, tensor<i32>, tensor<i32>, tensor<i32>) -> tensor<2x256x1x4xf32>
    %225 = stablehlo.reshape %204 : (tensor<1x4xf32>) -> tensor<1x1x1x4xf32>
    %226 = stablehlo.dynamic_update_slice %62, %225, %11, %arg39, %9, %9 : (tensor<2x256x1x4xf32>, tensor<1x1x1x4xf32>, tensor<i32>, tensor<i32>, tensor<i32>, tensor<i32>) -> tensor<2x256x1x4xf32>
    %227 = stablehlo.slice %224 [1:2, 0:256, 0:1, 0:4] : (tensor<2x256x1x4xf32>) -> tensor<1x256x1x4xf32>
    %228 = stablehlo.reshape %227 : (tensor<1x256x1x4xf32>) -> tensor<256x1x4xf32>
    %229 = stablehlo.slice %226 [1:2, 0:256, 0:1, 0:4] : (tensor<2x256x1x4xf32>) -> tensor<1x256x1x4xf32>
    %230 = stablehlo.reshape %229 : (tensor<1x256x1x4xf32>) -> tensor<256x1x4xf32>
    %231 = stablehlo.reshape %213 : (tensor<2x4xf32>) -> tensor<1x2x4xf32>
    %232 = stablehlo.dot_general %231, %228, batching_dims = [0] x [1], contracting_dims = [2] x [2] : (tensor<1x2x4xf32>, tensor<256x1x4xf32>) -> tensor<1x2x256xf32>
    %233 = stablehlo.reshape %232 : (tensor<1x2x256xf32>) -> tensor<2x256xf32>
    %234 = stablehlo.broadcast_in_dim %8, dims = [] : (tensor<f32>) -> tensor<2x256xf32>
    %235 = stablehlo.multiply %233, %234 : tensor<2x256xf32>
    %236 = stablehlo.broadcast_in_dim %23, dims = [1] : (tensor<256xf32>) -> tensor<2x256xf32>
    %237 = stablehlo.add %235, %236 : tensor<2x256xf32>
    %238 = stablehlo.reduce(%237 init: %4) applies stablehlo.maximum across dimensions = [1] : (tensor<2x256xf32>, tensor<f32>) -> tensor<2xf32>
    %239 = stablehlo.broadcast_in_dim %238, dims = [0] : (tensor<2xf32>) -> tensor<2x256xf32>
    %240 = stablehlo.subtract %237, %239 : tensor<2x256xf32>
    %241 = stablehlo.exponential %240 : tensor<2x256xf32>
    %242 = stablehlo.reduce(%241 init: %2) applies stablehlo.add across dimensions = [1] : (tensor<2x256xf32>, tensor<f32>) -> tensor<2xf32>
    %243 = stablehlo.broadcast_in_dim %242, dims = [0] : (tensor<2xf32>) -> tensor<2x256xf32>
    %244 = stablehlo.divide %241, %243 : tensor<2x256xf32>
    %245 = stablehlo.reshape %244 : (tensor<2x256xf32>) -> tensor<1x2x256xf32>
    %246 = stablehlo.dot_general %245, %230, batching_dims = [0] x [1], contracting_dims = [2] x [0] : (tensor<1x2x256xf32>, tensor<256x1x4xf32>) -> tensor<1x2x4xf32>
    %247 = stablehlo.reshape %246 : (tensor<1x2x4xf32>) -> tensor<2x4xf32>
    %248 = stablehlo.reshape %247 : (tensor<2x4xf32>) -> tensor<8xf32>
    %249 = stablehlo.dot_general %248, %arg23, contracting_dims = [0] x [1] : (tensor<8xf32>, tensor<8x8xf32>) -> tensor<8xf32>
    %250 = stablehlo.add %187, %249 : tensor<8xf32>
    %251 = stablehlo.multiply %250, %250 : tensor<8xf32>
    %252 = stablehlo.reduce(%251 init: %2) applies stablehlo.add across dimensions = [0] : (tensor<8xf32>, tensor<f32>) -> tensor<f32>
    %253 = stablehlo.divide %252, %7 : tensor<f32>
    %254 = stablehlo.add %253, %6 : tensor<f32>
    %255 = stablehlo.rsqrt %254 : tensor<f32>
    %256 = stablehlo.broadcast_in_dim %255, dims = [] : (tensor<f32>) -> tensor<8xf32>
    %257 = stablehlo.multiply %250, %256 : tensor<8xf32>
    %258 = stablehlo.multiply %257, %arg21 : tensor<8xf32>
    %259 = stablehlo.reshape %258 : (tensor<8xf32>) -> tensor<1x8xf32>
    %260 = stablehlo.dot_general %259, %arg29, contracting_dims = [1] x [1] : (tensor<1x8xf32>, tensor<4x8xf32>) -> tensor<1x4xf32>
    %261 = stablehlo.reduce(%260 init: %4) applies stablehlo.maximum across dimensions = [1] : (tensor<1x4xf32>, tensor<f32>) -> tensor<1xf32>
    %262 = stablehlo.broadcast_in_dim %261, dims = [0] : (tensor<1xf32>) -> tensor<1x4xf32>
    %263 = stablehlo.subtract %260, %262 : tensor<1x4xf32>
    %264 = stablehlo.exponential %263 : tensor<1x4xf32>
    %265 = stablehlo.reduce(%264 init: %2) applies stablehlo.add across dimensions = [1] : (tensor<1x4xf32>, tensor<f32>) -> tensor<1xf32>
    %266 = stablehlo.broadcast_in_dim %265, dims = [0] : (tensor<1xf32>) -> tensor<1x4xf32>
    %267 = stablehlo.divide %264, %266 : tensor<1x4xf32>
    %268 = stablehlo.iota dim = 0 : tensor<4xi32>
    %269 = stablehlo.broadcast_in_dim %268, dims = [1] : (tensor<4xi32>) -> tensor<1x4xi32>
    %270 = stablehlo.broadcast_in_dim %2, dims = [] : (tensor<f32>) -> tensor<1x4xf32>
    %271 = stablehlo.broadcast_in_dim %4, dims = [] : (tensor<f32>) -> tensor<1x4xf32>
    %272 = stablehlo.constant dense<0> : tensor<i32>
    %273 = stablehlo.constant dense<0xFF800000> : tensor<f32>
    %274 = stablehlo.iota dim = 1 : tensor<1x4xi32>
    %275:2 = stablehlo.reduce(%267 init: %273), (%274 init: %272) across dimensions = [1] : (tensor<1x4xf32>, tensor<1x4xi32>, tensor<f32>, tensor<i32>) -> (tensor<1xf32>, tensor<1xi32>)
    reducer(%amv_l: tensor<f32>, %amv_r: tensor<f32>) (%ami_l: tensor<i32>, %ami_r: tensor<i32>) {
      %276 = stablehlo.compare GT, %amv_l, %amv_r, FLOAT : (tensor<f32>, tensor<f32>) -> tensor<i1>
      %277 = stablehlo.compare NE, %amv_l, %amv_l, FLOAT : (tensor<f32>, tensor<f32>) -> tensor<i1>
      %278 = stablehlo.or %276, %277 : tensor<i1>
      %279 = stablehlo.compare EQ, %amv_l, %amv_r, FLOAT : (tensor<f32>, tensor<f32>) -> tensor<i1>
      %280 = stablehlo.compare LT, %ami_l, %ami_r, SIGNED : (tensor<i32>, tensor<i32>) -> tensor<i1>
      %281 = stablehlo.and %279, %280 : tensor<i1>
      %282 = stablehlo.or %278, %281 : tensor<i1>
      %283 = stablehlo.select %278, %amv_l, %amv_r : tensor<i1>, tensor<f32>
      %284 = stablehlo.select %282, %ami_l, %ami_r : tensor<i1>, tensor<i32>
      stablehlo.return %283, %284 : tensor<f32>, tensor<i32>
    }
    %285 = stablehlo.broadcast_in_dim %275#1, dims = [0] : (tensor<1xi32>) -> tensor<1x4xi32>
    %286 = stablehlo.compare EQ, %269, %285, SIGNED : (tensor<1x4xi32>, tensor<1x4xi32>) -> tensor<1x4xi1>
    %287 = stablehlo.select %286, %267, %270 : tensor<1x4xi1>, tensor<1x4xf32>
    %288 = stablehlo.reduce(%287 init: %2) applies stablehlo.add across dimensions = [1] : (tensor<1x4xf32>, tensor<f32>) -> tensor<1xf32>
    %289 = stablehlo.select %286, %271, %267 : tensor<1x4xi1>, tensor<1x4xf32>
    %290 = stablehlo.constant dense<0> : tensor<i32>
    %291 = stablehlo.constant dense<0xFF800000> : tensor<f32>
    %292 = stablehlo.iota dim = 1 : tensor<1x4xi32>
    %293:2 = stablehlo.reduce(%289 init: %291), (%292 init: %290) across dimensions = [1] : (tensor<1x4xf32>, tensor<1x4xi32>, tensor<f32>, tensor<i32>) -> (tensor<1xf32>, tensor<1xi32>)
    reducer(%amv_l: tensor<f32>, %amv_r: tensor<f32>) (%ami_l: tensor<i32>, %ami_r: tensor<i32>) {
      %294 = stablehlo.compare GT, %amv_l, %amv_r, FLOAT : (tensor<f32>, tensor<f32>) -> tensor<i1>
      %295 = stablehlo.compare NE, %amv_l, %amv_l, FLOAT : (tensor<f32>, tensor<f32>) -> tensor<i1>
      %296 = stablehlo.or %294, %295 : tensor<i1>
      %297 = stablehlo.compare EQ, %amv_l, %amv_r, FLOAT : (tensor<f32>, tensor<f32>) -> tensor<i1>
      %298 = stablehlo.compare LT, %ami_l, %ami_r, SIGNED : (tensor<i32>, tensor<i32>) -> tensor<i1>
      %299 = stablehlo.and %297, %298 : tensor<i1>
      %300 = stablehlo.or %296, %299 : tensor<i1>
      %301 = stablehlo.select %296, %amv_l, %amv_r : tensor<i1>, tensor<f32>
      %302 = stablehlo.select %300, %ami_l, %ami_r : tensor<i1>, tensor<i32>
      stablehlo.return %301, %302 : tensor<f32>, tensor<i32>
    }
    %303 = stablehlo.broadcast_in_dim %293#1, dims = [0] : (tensor<1xi32>) -> tensor<1x4xi32>
    %304 = stablehlo.compare EQ, %269, %303, SIGNED : (tensor<1x4xi32>, tensor<1x4xi32>) -> tensor<1x4xi1>
    %305 = stablehlo.select %304, %289, %270 : tensor<1x4xi1>, tensor<1x4xf32>
    %306 = stablehlo.reduce(%305 init: %2) applies stablehlo.add across dimensions = [1] : (tensor<1x4xf32>, tensor<f32>) -> tensor<1xf32>
    %307 = stablehlo.select %304, %271, %289 : tensor<1x4xi1>, tensor<1x4xf32>
    %308 = stablehlo.add %288, %306 : tensor<1xf32>
    %309 = stablehlo.divide %288, %308 : tensor<1xf32>
    %310 = stablehlo.divide %306, %308 : tensor<1xf32>
    %311 = stablehlo.broadcast_in_dim %2, dims = [] : (tensor<f32>) -> tensor<1x4xf32>
    %312 = stablehlo.broadcast_in_dim %309, dims = [0] : (tensor<1xf32>) -> tensor<1x4xf32>
    %313 = stablehlo.select %286, %312, %270 : tensor<1x4xi1>, tensor<1x4xf32>
    %314 = stablehlo.add %311, %313 : tensor<1x4xf32>
    %315 = stablehlo.broadcast_in_dim %310, dims = [0] : (tensor<1xf32>) -> tensor<1x4xf32>
    %316 = stablehlo.select %304, %315, %270 : tensor<1x4xi1>, tensor<1x4xf32>
    %317 = stablehlo.add %314, %316 : tensor<1x4xf32>
    %318 = stablehlo.broadcast_in_dim %259, dims = [1, 2] : (tensor<1x8xf32>) -> tensor<4x1x8xf32>
    %319 = stablehlo.dot_general %318, %arg30, batching_dims = [0] x [0], contracting_dims = [2] x [2] : (tensor<4x1x8xf32>, tensor<4x12x8xf32>) -> tensor<4x1x12xf32>
    %320 = stablehlo.dot_general %318, %arg31, batching_dims = [0] x [0], contracting_dims = [2] x [2] : (tensor<4x1x8xf32>, tensor<4x12x8xf32>) -> tensor<4x1x12xf32>
    %321 = stablehlo.broadcast_in_dim %3, dims = [] : (tensor<f32>) -> tensor<4x1x12xf32>
    %322 = stablehlo.negate %319 : tensor<4x1x12xf32>
    %323 = stablehlo.exponential %322 : tensor<4x1x12xf32>
    %324 = stablehlo.add %321, %323 : tensor<4x1x12xf32>
    %325 = stablehlo.divide %321, %324 : tensor<4x1x12xf32>
    %326 = stablehlo.multiply %319, %325 : tensor<4x1x12xf32>
    %327 = stablehlo.multiply %326, %320 : tensor<4x1x12xf32>
    %328 = stablehlo.dot_general %327, %arg32, batching_dims = [0] x [0], contracting_dims = [2] x [2] : (tensor<4x1x12xf32>, tensor<4x8x12xf32>) -> tensor<4x1x8xf32>
    %329 = stablehlo.dot_general %317, %328, batching_dims = [0] x [1], contracting_dims = [1] x [0] : (tensor<1x4xf32>, tensor<4x1x8xf32>) -> tensor<1x8xf32>
    %330 = stablehlo.dot_general %259, %arg33, contracting_dims = [1] x [1] : (tensor<1x8xf32>, tensor<10x8xf32>) -> tensor<1x10xf32>
    %331 = stablehlo.dot_general %259, %arg34, contracting_dims = [1] x [1] : (tensor<1x8xf32>, tensor<10x8xf32>) -> tensor<1x10xf32>
    %332 = stablehlo.broadcast_in_dim %3, dims = [] : (tensor<f32>) -> tensor<1x10xf32>
    %333 = stablehlo.negate %330 : tensor<1x10xf32>
    %334 = stablehlo.exponential %333 : tensor<1x10xf32>
    %335 = stablehlo.add %332, %334 : tensor<1x10xf32>
    %336 = stablehlo.divide %332, %335 : tensor<1x10xf32>
    %337 = stablehlo.multiply %330, %336 : tensor<1x10xf32>
    %338 = stablehlo.multiply %337, %331 : tensor<1x10xf32>
    %339 = stablehlo.dot_general %338, %arg35, contracting_dims = [1] x [1] : (tensor<1x10xf32>, tensor<8x10xf32>) -> tensor<1x8xf32>
    %340 = stablehlo.dot_general %259, %arg36, contracting_dims = [1] x [1] : (tensor<1x8xf32>, tensor<1x8xf32>) -> tensor<1x1xf32>
    %341 = stablehlo.reshape %340 : (tensor<1x1xf32>) -> tensor<1xf32>
    %342 = stablehlo.broadcast_in_dim %3, dims = [] : (tensor<f32>) -> tensor<1xf32>
    %343 = stablehlo.negate %341 : tensor<1xf32>
    %344 = stablehlo.exponential %343 : tensor<1xf32>
    %345 = stablehlo.add %342, %344 : tensor<1xf32>
    %346 = stablehlo.divide %342, %345 : tensor<1xf32>
    %347 = stablehlo.broadcast_in_dim %346, dims = [0] : (tensor<1xf32>) -> tensor<1x8xf32>
    %348 = stablehlo.multiply %339, %347 : tensor<1x8xf32>
    %349 = stablehlo.add %329, %348 : tensor<1x8xf32>
    %350 = stablehlo.reshape %349 : (tensor<1x8xf32>) -> tensor<8xf32>
    %351 = stablehlo.add %250, %350 : tensor<8xf32>
    %352 = stablehlo.multiply %351, %351 : tensor<8xf32>
    %353 = stablehlo.reduce(%352 init: %2) applies stablehlo.add across dimensions = [0] : (tensor<8xf32>, tensor<f32>) -> tensor<f32>
    %354 = stablehlo.divide %353, %7 : tensor<f32>
    %355 = stablehlo.add %354, %6 : tensor<f32>
    %356 = stablehlo.rsqrt %355 : tensor<f32>
    %357 = stablehlo.broadcast_in_dim %356, dims = [] : (tensor<f32>) -> tensor<8xf32>
    %358 = stablehlo.multiply %351, %357 : tensor<8xf32>
    %359 = stablehlo.multiply %358, %arg1 : tensor<8xf32>
    %360 = stablehlo.dot_general %359, %arg2, contracting_dims = [0] x [1] : (tensor<8xf32>, tensor<10x8xf32>) -> tensor<10xf32>
    %361 = stablehlo.constant dense<0> : tensor<i32>
    %362 = stablehlo.constant dense<0xFF800000> : tensor<f32>
    %363 = stablehlo.iota dim = 0 : tensor<10xi32>
    %364:2 = stablehlo.reduce(%360 init: %362), (%363 init: %361) across dimensions = [0] : (tensor<10xf32>, tensor<10xi32>, tensor<f32>, tensor<i32>) -> (tensor<f32>, tensor<i32>)
    reducer(%amv_l: tensor<f32>, %amv_r: tensor<f32>) (%ami_l: tensor<i32>, %ami_r: tensor<i32>) {
      %365 = stablehlo.compare GT, %amv_l, %amv_r, FLOAT : (tensor<f32>, tensor<f32>) -> tensor<i1>
      %366 = stablehlo.compare NE, %amv_l, %amv_l, FLOAT : (tensor<f32>, tensor<f32>) -> tensor<i1>
      %367 = stablehlo.or %365, %366 : tensor<i1>
      %368 = stablehlo.compare EQ, %amv_l, %amv_r, FLOAT : (tensor<f32>, tensor<f32>) -> tensor<i1>
      %369 = stablehlo.compare LT, %ami_l, %ami_r, SIGNED : (tensor<i32>, tensor<i32>) -> tensor<i1>
      %370 = stablehlo.and %368, %369 : tensor<i1>
      %371 = stablehlo.or %367, %370 : tensor<i1>
      %372 = stablehlo.select %367, %amv_l, %amv_r : tensor<i1>, tensor<f32>
      %373 = stablehlo.select %371, %ami_l, %ami_r : tensor<i1>, tensor<i32>
      stablehlo.return %372, %373 : tensor<f32>, tensor<i32>
    }
    return %364#1, %224, %226 : tensor<i32>, tensor<2x256x1x4xf32>, tensor<2x256x1x4xf32>
  }
}
