module @prefill {
  func.func public @main(%arg0: tensor<10x8xf32> loc("params['embed']"), %arg1: tensor<8xf32> loc("params['final_norm']"), %arg2: tensor<10x8xf32> loc("params['lm_head']"), %arg3: tensor<8xf32> loc("params['layers'][0]['in_ln']"), %arg4: tensor<8xf32> loc("params['layers'][0]['post_ln']"), %arg5: tensor<4x8xf32> loc("params['layers'][0]['wk']"), %arg6: tensor<8x8xf32> loc("params['layers'][0]['wo']"), %arg7: tensor<8x8xf32> loc("params['layers'][0]['wq']"), %arg8: tensor<4x8xf32> loc("params['layers'][0]['wv']"), %arg9: tensor<4xf32> loc("params['layers'][0]['bk']"), %arg10: tensor<8xf32> loc("params['layers'][0]['bq']"), %arg11: tensor<4xf32> loc("params['layers'][0]['bv']"), %arg12: tensor<4x8xf32> loc("params['layers'][0]['moe_router']"), %arg13: tensor<4x12x8xf32> loc("params['layers'][0]['moe_gate']"), %arg14: tensor<4x12x8xf32> loc("params['layers'][0]['moe_up']"), %arg15: tensor<4x8x12xf32> loc("params['layers'][0]['moe_down']"), %arg16: tensor<10x8xf32> loc("params['layers'][0]['moe_shared_gate']"), %arg17: tensor<10x8xf32> loc("params['layers'][0]['moe_shared_up']"), %arg18: tensor<8x10xf32> loc("params['layers'][0]['moe_shared_down']"), %arg19: tensor<1x8xf32> loc("params['layers'][0]['moe_shared_expert_gate']"), %arg20: tensor<8xf32> loc("params['layers'][1]['in_ln']"), %arg21: tensor<8xf32> loc("params['layers'][1]['post_ln']"), %arg22: tensor<4x8xf32> loc("params['layers'][1]['wk']"), %arg23: tensor<8x8xf32> loc("params['layers'][1]['wo']"), %arg24: tensor<8x8xf32> loc("params['layers'][1]['wq']"), %arg25: tensor<4x8xf32> loc("params['layers'][1]['wv']"), %arg26: tensor<4xf32> loc("params['layers'][1]['bk']"), %arg27: tensor<8xf32> loc("params['layers'][1]['bq']"), %arg28: tensor<4xf32> loc("params['layers'][1]['bv']"), %arg29: tensor<4x8xf32> loc("params['layers'][1]['moe_router']"), %arg30: tensor<4x12x8xf32> loc("params['layers'][1]['moe_gate']"), %arg31: tensor<4x12x8xf32> loc("params['layers'][1]['moe_up']"), %arg32: tensor<4x8x12xf32> loc("params['layers'][1]['moe_down']"), %arg33: tensor<10x8xf32> loc("params['layers'][1]['moe_shared_gate']"), %arg34: tensor<10x8xf32> loc("params['layers'][1]['moe_shared_up']"), %arg35: tensor<8x10xf32> loc("params['layers'][1]['moe_shared_down']"), %arg36: tensor<1x8xf32> loc("params['layers'][1]['moe_shared_expert_gate']"), %arg37: tensor<256xi32> loc("tokens"), %arg38: tensor<256xi32> loc("positions"), %arg39: tensor<i32> loc("real_len")) -> (tensor<i32>, tensor<2x256x1x4xf32>, tensor<2x256x1x4xf32>) {
    %0 = stablehlo.constant dense<"…"> : tensor<256x4xf32>
    %1 = stablehlo.constant dense<"…"> : tensor<256x4xf32>
    %2 = stablehlo.constant dense<0x00000000> : tensor<f32>
    %3 = stablehlo.constant dense<0x3F800000> : tensor<f32>
    %4 = stablehlo.constant dense<0xFF800000> : tensor<f32>
    %5 = stablehlo.constant dense<0xF149F2CA> : tensor<f32>
    %6 = stablehlo.constant dense<0x358637BD> : tensor<f32>
    %7 = stablehlo.constant dense<0x41000000> : tensor<f32>
    %8 = stablehlo.constant dense<0x3F000000> : tensor<f32>
    %9 = stablehlo.constant dense<0> : tensor<i32>
    %10 = stablehlo.constant dense<0> : tensor<i32>
    %11 = stablehlo.constant dense<1> : tensor<i32>
    %12 = stablehlo.reshape %arg37 : (tensor<256xi32>) -> tensor<256x1xi32>
    %13 = "stablehlo.gather"(%arg0, %12) <{dimension_numbers = #stablehlo.gather<offset_dims = [1], collapsed_slice_dims = [0], start_index_map = [0], index_vector_dim = 1>, slice_sizes = array<i64: 1, 8>}> : (tensor<10x8xf32>, tensor<256x1xi32>) -> tensor<256x8xf32>
    %14 = stablehlo.reshape %arg38 : (tensor<256xi32>) -> tensor<256x1xi32>
    %15 = "stablehlo.gather"(%0, %14) <{dimension_numbers = #stablehlo.gather<offset_dims = [1], collapsed_slice_dims = [0], start_index_map = [0], index_vector_dim = 1>, slice_sizes = array<i64: 1, 4>}> : (tensor<256x4xf32>, tensor<256x1xi32>) -> tensor<256x4xf32>
    %16 = "stablehlo.gather"(%1, %14) <{dimension_numbers = #stablehlo.gather<offset_dims = [1], collapsed_slice_dims = [0], start_index_map = [0], index_vector_dim = 1>, slice_sizes = array<i64: 1, 4>}> : (tensor<256x4xf32>, tensor<256x1xi32>) -> tensor<256x4xf32>
    %17 = stablehlo.iota dim = 0 : tensor<256xi32>
    %18 = stablehlo.broadcast_in_dim %17, dims = [0] : (tensor<256xi32>) -> tensor<256x256xi32>
    %19 = stablehlo.iota dim = 0 : tensor<256xi32>
    %20 = stablehlo.broadcast_in_dim %19, dims = [1] : (tensor<256xi32>) -> tensor<256x256xi32>
    %21 = stablehlo.compare LE, %20, %18, SIGNED : (tensor<256x256xi32>, tensor<256x256xi32>) -> tensor<256x256xi1>
    %22 = stablehlo.broadcast_in_dim %2, dims = [] : (tensor<f32>) -> tensor<256x256xf32>
    %23 = stablehlo.broadcast_in_dim %5, dims = [] : (tensor<f32>) -> tensor<256x256xf32>
    %24 = stablehlo.select %21, %22, %23 : tensor<256x256xi1>, tensor<256x256xf32>
    %25 = stablehlo.broadcast_in_dim %2, dims = [] : (tensor<f32>) -> tensor<2x256x1x4xf32>
    %26 = stablehlo.broadcast_in_dim %2, dims = [] : (tensor<f32>) -> tensor<2x256x1x4xf32>
    %27 = stablehlo.multiply %13, %13 : tensor<256x8xf32>
    %28 = stablehlo.reduce(%27 init: %2) applies stablehlo.add across dimensions = [1] : (tensor<256x8xf32>, tensor<f32>) -> tensor<256xf32>
    %29 = stablehlo.broadcast_in_dim %7, dims = [] : (tensor<f32>) -> tensor<256xf32>
    %30 = stablehlo.divide %28, %29 : tensor<256xf32>
    %31 = stablehlo.broadcast_in_dim %6, dims = [] : (tensor<f32>) -> tensor<256xf32>
    %32 = stablehlo.add %30, %31 : tensor<256xf32>
    %33 = stablehlo.rsqrt %32 : tensor<256xf32>
    %34 = stablehlo.broadcast_in_dim %33, dims = [0] : (tensor<256xf32>) -> tensor<256x8xf32>
    %35 = stablehlo.multiply %13, %34 : tensor<256x8xf32>
    %36 = stablehlo.broadcast_in_dim %arg3, dims = [1] : (tensor<8xf32>) -> tensor<256x8xf32>
    %37 = stablehlo.multiply %35, %36 : tensor<256x8xf32>
    %38 = stablehlo.dot_general %37, %arg7, contracting_dims = [1] x [1] : (tensor<256x8xf32>, tensor<8x8xf32>) -> tensor<256x8xf32>
    %39 = stablehlo.broadcast_in_dim %arg10, dims = [1] : (tensor<8xf32>) -> tensor<256x8xf32>
    %40 = stablehlo.add %38, %39 : tensor<256x8xf32>
    %41 = stablehlo.reshape %40 : (tensor<256x8xf32>) -> tensor<256x2x4xf32>
    %42 = stablehlo.dot_general %37, %arg5, contracting_dims = [1] x [1] : (tensor<256x8xf32>, tensor<4x8xf32>) -> tensor<256x4xf32>
    %43 = stablehlo.broadcast_in_dim %arg9, dims = [1] : (tensor<4xf32>) -> tensor<256x4xf32>
    %44 = stablehlo.add %42, %43 : tensor<256x4xf32>
    %45 = stablehlo.reshape %44 : (tensor<256x4xf32>) -> tensor<256x1x4xf32>
    %46 = stablehlo.dot_general %37, %arg8, contracting_dims = [1] x [1] : (tensor<256x8xf32>, tensor<4x8xf32>) -> tensor<256x4xf32>
    %47 = stablehlo.broadcast_in_dim %arg11, dims = [1] : (tensor<4xf32>) -> tensor<256x4xf32>
    %48 = stablehlo.add %46, %47 : tensor<256x4xf32>
    %49 = stablehlo.reshape %48 : (tensor<256x4xf32>) -> tensor<256x1x4xf32>
    %50 = stablehlo.broadcast_in_dim %15, dims = [0, 2] : (tensor<256x4xf32>) -> tensor<256x2x4xf32>
    %51 = stablehlo.broadcast_in_dim %16, dims = [0, 2] : (tensor<256x4xf32>) -> tensor<256x2x4xf32>
    %52 = stablehlo.multiply %41, %50 : tensor<256x2x4xf32>
    %53 = stablehlo.slice %41 [0:256, 0:2, 0:2] : (tensor<256x2x4xf32>) -> tensor<256x2x2xf32>
    %54 = stablehlo.slice %41 [0:256, 0:2, 2:4] : (tensor<256x2x4xf32>) -> tensor<256x2x2xf32>
    %55 = stablehlo.negate %54 : tensor<256x2x2xf32>
    %56 = stablehlo.concatenate %55, %53, dim = 2 : (tensor<256x2x2xf32>, tensor<256x2x2xf32>) -> tensor<256x2x4xf32>
    %57 = stablehlo.multiply %56, %51 : tensor<256x2x4xf32>
    %58 = stablehlo.add %52, %57 : tensor<256x2x4xf32>
    %59 = stablehlo.broadcast_in_dim %15, dims = [0, 2] : (tensor<256x4xf32>) -> tensor<256x1x4xf32>
    %60 = stablehlo.broadcast_in_dim %16, dims = [0, 2] : (tensor<256x4xf32>) -> tensor<256x1x4xf32>
    %61 = stablehlo.multiply %45, %59 : tensor<256x1x4xf32>
    %62 = stablehlo.slice %45 [0:256, 0:1, 0:2] : (tensor<256x1x4xf32>) -> tensor<256x1x2xf32>
    %63 = stablehlo.slice %45 [0:256, 0:1, 2:4] : (tensor<256x1x4xf32>) -> tensor<256x1x2xf32>
    %64 = stablehlo.negate %63 : tensor<256x1x2xf32>
    %65 = stablehlo.concatenate %64, %62, dim = 2 : (tensor<256x1x2xf32>, tensor<256x1x2xf32>) -> tensor<256x1x4xf32>
    %66 = stablehlo.multiply %65, %60 : tensor<256x1x4xf32>
    %67 = stablehlo.add %61, %66 : tensor<256x1x4xf32>
    %68 = stablehlo.reshape %67 : (tensor<256x1x4xf32>) -> tensor<1x256x1x4xf32>
    %69 = stablehlo.dynamic_update_slice %25, %68, %10, %9, %9, %9 : (tensor<2x256x1x4xf32>, tensor<1x256x1x4xf32>, tensor<i32>, tensor<i32>, tensor<i32>, tensor<i32>) -> tensor<2x256x1x4xf32>
    %70 = stablehlo.reshape %49 : (tensor<256x1x4xf32>) -> tensor<1x256x1x4xf32>
    %71 = stablehlo.dynamic_update_slice %26, %70, %10, %9, %9, %9 : (tensor<2x256x1x4xf32>, tensor<1x256x1x4xf32>, tensor<i32>, tensor<i32>, tensor<i32>, tensor<i32>) -> tensor<2x256x1x4xf32>
    %72 = stablehlo.reshape %58 : (tensor<256x2x4xf32>) -> tensor<256x1x2x4xf32>
    %73 = stablehlo.dot_general %72, %67, batching_dims = [1] x [1], contracting_dims = [3] x [2] : (tensor<256x1x2x4xf32>, tensor<256x1x4xf32>) -> tensor<1x256x2x256xf32>
    %74 = stablehlo.broadcast_in_dim %8, dims = [] : (tensor<f32>) -> tensor<1x256x2x256xf32>
    %75 = stablehlo.multiply %73, %74 : tensor<1x256x2x256xf32>
    %76 = stablehlo.broadcast_in_dim %24, dims = [1, 3] : (tensor<256x256xf32>) -> tensor<1x256x2x256xf32>
    %77 = stablehlo.add %75, %76 : tensor<1x256x2x256xf32>
    %78 = stablehlo.reduce(%77 init: %4) applies stablehlo.maximum across dimensions = [3] : (tensor<1x256x2x256xf32>, tensor<f32>) -> tensor<1x256x2xf32>
    %79 = stablehlo.broadcast_in_dim %78, dims = [0, 1, 2] : (tensor<1x256x2xf32>) -> tensor<1x256x2x256xf32>
    %80 = stablehlo.subtract %77, %79 : tensor<1x256x2x256xf32>
    %81 = stablehlo.exponential %80 : tensor<1x256x2x256xf32>
    %82 = stablehlo.reduce(%81 init: %2) applies stablehlo.add across dimensions = [3] : (tensor<1x256x2x256xf32>, tensor<f32>) -> tensor<1x256x2xf32>
    %83 = stablehlo.broadcast_in_dim %82, dims = [0, 1, 2] : (tensor<1x256x2xf32>) -> tensor<1x256x2x256xf32>
    %84 = stablehlo.divide %81, %83 : tensor<1x256x2x256xf32>
    %85 = stablehlo.dot_general %84, %49, batching_dims = [0] x [1], contracting_dims = [3] x [0] : (tensor<1x256x2x256xf32>, tensor<256x1x4xf32>) -> tensor<1x256x2x4xf32>
    %86 = stablehlo.transpose %85, dims = [1, 0, 2, 3] : (tensor<1x256x2x4xf32>) -> tensor<256x1x2x4xf32>
    %87 = stablehlo.reshape %86 : (tensor<256x1x2x4xf32>) -> tensor<256x8xf32>
    %88 = stablehlo.dot_general %87, %arg6, contracting_dims = [1] x [1] : (tensor<256x8xf32>, tensor<8x8xf32>) -> tensor<256x8xf32>
    %89 = stablehlo.add %13, %88 : tensor<256x8xf32>
    %90 = stablehlo.multiply %89, %89 : tensor<256x8xf32>
    %91 = stablehlo.reduce(%90 init: %2) applies stablehlo.add across dimensions = [1] : (tensor<256x8xf32>, tensor<f32>) -> tensor<256xf32>
    %92 = stablehlo.broadcast_in_dim %7, dims = [] : (tensor<f32>) -> tensor<256xf32>
    %93 = stablehlo.divide %91, %92 : tensor<256xf32>
    %94 = stablehlo.broadcast_in_dim %6, dims = [] : (tensor<f32>) -> tensor<256xf32>
    %95 = stablehlo.add %93, %94 : tensor<256xf32>
    %96 = stablehlo.rsqrt %95 : tensor<256xf32>
    %97 = stablehlo.broadcast_in_dim %96, dims = [0] : (tensor<256xf32>) -> tensor<256x8xf32>
    %98 = stablehlo.multiply %89, %97 : tensor<256x8xf32>
    %99 = stablehlo.broadcast_in_dim %arg4, dims = [1] : (tensor<8xf32>) -> tensor<256x8xf32>
    %100 = stablehlo.multiply %98, %99 : tensor<256x8xf32>
    %101 = stablehlo.dot_general %100, %arg12, contracting_dims = [1] x [1] : (tensor<256x8xf32>, tensor<4x8xf32>) -> tensor<256x4xf32>
    %102 = stablehlo.reduce(%101 init: %4) applies stablehlo.maximum across dimensions = [1] : (tensor<256x4xf32>, tensor<f32>) -> tensor<256xf32>
    %103 = stablehlo.broadcast_in_dim %102, dims = [0] : (tensor<256xf32>) -> tensor<256x4xf32>
    %104 = stablehlo.subtract %101, %103 : tensor<256x4xf32>
    %105 = stablehlo.exponential %104 : tensor<256x4xf32>
    %106 = stablehlo.reduce(%105 init: %2) applies stablehlo.add across dimensions = [1] : (tensor<256x4xf32>, tensor<f32>) -> tensor<256xf32>
    %107 = stablehlo.broadcast_in_dim %106, dims = [0] : (tensor<256xf32>) -> tensor<256x4xf32>
    %108 = stablehlo.divide %105, %107 : tensor<256x4xf32>
    %109 = stablehlo.iota dim = 0 : tensor<4xi32>
    %110 = stablehlo.broadcast_in_dim %109, dims = [1] : (tensor<4xi32>) -> tensor<256x4xi32>
    %111 = stablehlo.broadcast_in_dim %2, dims = [] : (tensor<f32>) -> tensor<256x4xf32>
    %112 = stablehlo.broadcast_in_dim %4, dims = [] : (tensor<f32>) -> tensor<256x4xf32>
    %113 = stablehlo.constant dense<0> : tensor<i32>
    %114 = stablehlo.constant dense<0xFF800000> : tensor<f32>
    %115 = stablehlo.iota dim = 1 : tensor<256x4xi32>
    %116:2 = stablehlo.reduce(%108 init: %114), (%115 init: %113) across dimensions = [1] : (tensor<256x4xf32>, tensor<256x4xi32>, tensor<f32>, tensor<i32>) -> (tensor<256xf32>, tensor<256xi32>)
    reducer(%amv_l: tensor<f32>, %amv_r: tensor<f32>) (%ami_l: tensor<i32>, %ami_r: tensor<i32>) {
      %117 = stablehlo.compare GT, %amv_l, %amv_r, FLOAT : (tensor<f32>, tensor<f32>) -> tensor<i1>
      %118 = stablehlo.compare NE, %amv_l, %amv_l, FLOAT : (tensor<f32>, tensor<f32>) -> tensor<i1>
      %119 = stablehlo.or %117, %118 : tensor<i1>
      %120 = stablehlo.compare EQ, %amv_l, %amv_r, FLOAT : (tensor<f32>, tensor<f32>) -> tensor<i1>
      %121 = stablehlo.compare LT, %ami_l, %ami_r, SIGNED : (tensor<i32>, tensor<i32>) -> tensor<i1>
      %122 = stablehlo.and %120, %121 : tensor<i1>
      %123 = stablehlo.or %119, %122 : tensor<i1>
      %124 = stablehlo.select %119, %amv_l, %amv_r : tensor<i1>, tensor<f32>
      %125 = stablehlo.select %123, %ami_l, %ami_r : tensor<i1>, tensor<i32>
      stablehlo.return %124, %125 : tensor<f32>, tensor<i32>
    }
    %126 = stablehlo.broadcast_in_dim %116#1, dims = [0] : (tensor<256xi32>) -> tensor<256x4xi32>
    %127 = stablehlo.compare EQ, %110, %126, SIGNED : (tensor<256x4xi32>, tensor<256x4xi32>) -> tensor<256x4xi1>
    %128 = stablehlo.select %127, %108, %111 : tensor<256x4xi1>, tensor<256x4xf32>
    %129 = stablehlo.reduce(%128 init: %2) applies stablehlo.add across dimensions = [1] : (tensor<256x4xf32>, tensor<f32>) -> tensor<256xf32>
    %130 = stablehlo.select %127, %112, %108 : tensor<256x4xi1>, tensor<256x4xf32>
    %131 = stablehlo.constant dense<0> : tensor<i32>
    %132 = stablehlo.constant dense<0xFF800000> : tensor<f32>
    %133 = stablehlo.iota dim = 1 : tensor<256x4xi32>
    %134:2 = stablehlo.reduce(%130 init: %132), (%133 init: %131) across dimensions = [1] : (tensor<256x4xf32>, tensor<256x4xi32>, tensor<f32>, tensor<i32>) -> (tensor<256xf32>, tensor<256xi32>)
    reducer(%amv_l: tensor<f32>, %amv_r: tensor<f32>) (%ami_l: tensor<i32>, %ami_r: tensor<i32>) {
      %135 = stablehlo.compare GT, %amv_l, %amv_r, FLOAT : (tensor<f32>, tensor<f32>) -> tensor<i1>
      %136 = stablehlo.compare NE, %amv_l, %amv_l, FLOAT : (tensor<f32>, tensor<f32>) -> tensor<i1>
      %137 = stablehlo.or %135, %136 : tensor<i1>
      %138 = stablehlo.compare EQ, %amv_l, %amv_r, FLOAT : (tensor<f32>, tensor<f32>) -> tensor<i1>
      %139 = stablehlo.compare LT, %ami_l, %ami_r, SIGNED : (tensor<i32>, tensor<i32>) -> tensor<i1>
      %140 = stablehlo.and %138, %139 : tensor<i1>
      %141 = stablehlo.or %137, %140 : tensor<i1>
      %142 = stablehlo.select %137, %amv_l, %amv_r : tensor<i1>, tensor<f32>
      %143 = stablehlo.select %141, %ami_l, %ami_r : tensor<i1>, tensor<i32>
      stablehlo.return %142, %143 : tensor<f32>, tensor<i32>
    }
    %144 = stablehlo.broadcast_in_dim %134#1, dims = [0] : (tensor<256xi32>) -> tensor<256x4xi32>
    %145 = stablehlo.compare EQ, %110, %144, SIGNED : (tensor<256x4xi32>, tensor<256x4xi32>) -> tensor<256x4xi1>
    %146 = stablehlo.select %145, %130, %111 : tensor<256x4xi1>, tensor<256x4xf32>
    %147 = stablehlo.reduce(%146 init: %2) applies stablehlo.add across dimensions = [1] : (tensor<256x4xf32>, tensor<f32>) -> tensor<256xf32>
    %148 = stablehlo.select %145, %112, %130 : tensor<256x4xi1>, tensor<256x4xf32>
    %149 = stablehlo.add %129, %147 : tensor<256xf32>
    %150 = stablehlo.divide %129, %149 : tensor<256xf32>
    %151 = stablehlo.divide %147, %149 : tensor<256xf32>
    %152 = stablehlo.broadcast_in_dim %2, dims = [] : (tensor<f32>) -> tensor<256x4xf32>
    %153 = stablehlo.broadcast_in_dim %150, dims = [0] : (tensor<256xf32>) -> tensor<256x4xf32>
    %154 = stablehlo.select %127, %153, %111 : tensor<256x4xi1>, tensor<256x4xf32>
    %155 = stablehlo.add %152, %154 : tensor<256x4xf32>
    %156 = stablehlo.broadcast_in_dim %151, dims = [0] : (tensor<256xf32>) -> tensor<256x4xf32>
    %157 = stablehlo.select %145, %156, %111 : tensor<256x4xi1>, tensor<256x4xf32>
    %158 = stablehlo.add %155, %157 : tensor<256x4xf32>
    %159 = stablehlo.broadcast_in_dim %100, dims = [1, 2] : (tensor<256x8xf32>) -> tensor<4x256x8xf32>
    %160 = stablehlo.dot_general %159, %arg13, batching_dims = [0] x [0], contracting_dims = [2] x [2] : (tensor<4x256x8xf32>, tensor<4x12x8xf32>) -> tensor<4x256x12xf32>
    %161 = stablehlo.dot_general %159, %arg14, batching_dims = [0] x [0], contracting_dims = [2] x [2] : (tensor<4x256x8xf32>, tensor<4x12x8xf32>) -> tensor<4x256x12xf32>
    %162 = stablehlo.broadcast_in_dim %3, dims = [] : (tensor<f32>) -> tensor<4x256x12xf32>
    %163 = stablehlo.negate %160 : tensor<4x256x12xf32>
    %164 = stablehlo.exponential %163 : tensor<4x256x12xf32>
    %165 = stablehlo.add %162, %164 : tensor<4x256x12xf32>
    %166 = stablehlo.divide %162, %165 : tensor<4x256x12xf32>
    %167 = stablehlo.multiply %160, %166 : tensor<4x256x12xf32>
    %168 = stablehlo.multiply %167, %161 : tensor<4x256x12xf32>
    %169 = stablehlo.dot_general %168, %arg15, batching_dims = [0] x [0], contracting_dims = [2] x [2] : (tensor<4x256x12xf32>, tensor<4x8x12xf32>) -> tensor<4x256x8xf32>
    %170 = stablehlo.dot_general %158, %169, batching_dims = [0] x [1], contracting_dims = [1] x [0] : (tensor<256x4xf32>, tensor<4x256x8xf32>) -> tensor<256x8xf32>
    %171 = stablehlo.dot_general %100, %arg16, contracting_dims = [1] x [1] : (tensor<256x8xf32>, tensor<10x8xf32>) -> tensor<256x10xf32>
    %172 = stablehlo.dot_general %100, %arg17, contracting_dims = [1] x [1] : (tensor<256x8xf32>, tensor<10x8xf32>) -> tensor<256x10xf32>
    %173 = stablehlo.broadcast_in_dim %3, dims = [] : (tensor<f32>) -> tensor<256x10xf32>
    %174 = stablehlo.negate %171 : tensor<256x10xf32>
    %175 = stablehlo.exponential %174 : tensor<256x10xf32>
    %176 = stablehlo.add %173, %175 : tensor<256x10xf32>
    %177 = stablehlo.divide %173, %176 : tensor<256x10xf32>
    %178 = stablehlo.multiply %171, %177 : tensor<256x10xf32>
    %179 = stablehlo.multiply %178, %172 : tensor<256x10xf32>
    %180 = stablehlo.dot_general %179, %arg18, contracting_dims = [1] x [1] : (tensor<256x10xf32>, tensor<8x10xf32>) -> tensor<256x8xf32>
    %181 = stablehlo.dot_general %100, %arg19, contracting_dims = [1] x [1] : (tensor<256x8xf32>, tensor<1x8xf32>) -> tensor<256x1xf32>
    %182 = stablehlo.reshape %181 : (tensor<256x1xf32>) -> tensor<256xf32>
    %183 = stablehlo.broadcast_in_dim %3, dims = [] : (tensor<f32>) -> tensor<256xf32>
    %184 = stablehlo.negate %182 : tensor<256xf32>
    %185 = stablehlo.exponential %184 : tensor<256xf32>
    %186 = stablehlo.add %183, %185 : tensor<256xf32>
    %187 = stablehlo.divide %183, %186 : tensor<256xf32>
    %188 = stablehlo.broadcast_in_dim %187, dims = [0] : (tensor<256xf32>) -> tensor<256x8xf32>
    %189 = stablehlo.multiply %180, %188 : tensor<256x8xf32>
    %190 = stablehlo.add %170, %189 : tensor<256x8xf32>
    %191 = stablehlo.add %89, %190 : tensor<256x8xf32>
    %192 = stablehlo.multiply %191, %191 : tensor<256x8xf32>
    %193 = stablehlo.reduce(%192 init: %2) applies stablehlo.add across dimensions = [1] : (tensor<256x8xf32>, tensor<f32>) -> tensor<256xf32>
    %194 = stablehlo.broadcast_in_dim %7, dims = [] : (tensor<f32>) -> tensor<256xf32>
    %195 = stablehlo.divide %193, %194 : tensor<256xf32>
    %196 = stablehlo.broadcast_in_dim %6, dims = [] : (tensor<f32>) -> tensor<256xf32>
    %197 = stablehlo.add %195, %196 : tensor<256xf32>
    %198 = stablehlo.rsqrt %197 : tensor<256xf32>
    %199 = stablehlo.broadcast_in_dim %198, dims = [0] : (tensor<256xf32>) -> tensor<256x8xf32>
    %200 = stablehlo.multiply %191, %199 : tensor<256x8xf32>
    %201 = stablehlo.broadcast_in_dim %arg20, dims = [1] : (tensor<8xf32>) -> tensor<256x8xf32>
    %202 = stablehlo.multiply %200, %201 : tensor<256x8xf32>
    %203 = stablehlo.dot_general %202, %arg24, contracting_dims = [1] x [1] : (tensor<256x8xf32>, tensor<8x8xf32>) -> tensor<256x8xf32>
    %204 = stablehlo.broadcast_in_dim %arg27, dims = [1] : (tensor<8xf32>) -> tensor<256x8xf32>
    %205 = stablehlo.add %203, %204 : tensor<256x8xf32>
    %206 = stablehlo.reshape %205 : (tensor<256x8xf32>) -> tensor<256x2x4xf32>
    %207 = stablehlo.dot_general %202, %arg22, contracting_dims = [1] x [1] : (tensor<256x8xf32>, tensor<4x8xf32>) -> tensor<256x4xf32>
    %208 = stablehlo.broadcast_in_dim %arg26, dims = [1] : (tensor<4xf32>) -> tensor<256x4xf32>
    %209 = stablehlo.add %207, %208 : tensor<256x4xf32>
    %210 = stablehlo.reshape %209 : (tensor<256x4xf32>) -> tensor<256x1x4xf32>
    %211 = stablehlo.dot_general %202, %arg25, contracting_dims = [1] x [1] : (tensor<256x8xf32>, tensor<4x8xf32>) -> tensor<256x4xf32>
    %212 = stablehlo.broadcast_in_dim %arg28, dims = [1] : (tensor<4xf32>) -> tensor<256x4xf32>
    %213 = stablehlo.add %211, %212 : tensor<256x4xf32>
    %214 = stablehlo.reshape %213 : (tensor<256x4xf32>) -> tensor<256x1x4xf32>
    %215 = stablehlo.broadcast_in_dim %15, dims = [0, 2] : (tensor<256x4xf32>) -> tensor<256x2x4xf32>
    %216 = stablehlo.broadcast_in_dim %16, dims = [0, 2] : (tensor<256x4xf32>) -> tensor<256x2x4xf32>
    %217 = stablehlo.multiply %206, %215 : tensor<256x2x4xf32>
    %218 = stablehlo.slice %206 [0:256, 0:2, 0:2] : (tensor<256x2x4xf32>) -> tensor<256x2x2xf32>
    %219 = stablehlo.slice %206 [0:256, 0:2, 2:4] : (tensor<256x2x4xf32>) -> tensor<256x2x2xf32>
    %220 = stablehlo.negate %219 : tensor<256x2x2xf32>
    %221 = stablehlo.concatenate %220, %218, dim = 2 : (tensor<256x2x2xf32>, tensor<256x2x2xf32>) -> tensor<256x2x4xf32>
    %222 = stablehlo.multiply %221, %216 : tensor<256x2x4xf32>
    %223 = stablehlo.add %217, %222 : tensor<256x2x4xf32>
    %224 = stablehlo.broadcast_in_dim %15, dims = [0, 2] : (tensor<256x4xf32>) -> tensor<256x1x4xf32>
    %225 = stablehlo.broadcast_in_dim %16, dims = [0, 2] : (tensor<256x4xf32>) -> tensor<256x1x4xf32>
    %226 = stablehlo.multiply %210, %224 : tensor<256x1x4xf32>
    %227 = stablehlo.slice %210 [0:256, 0:1, 0:2] : (tensor<256x1x4xf32>) -> tensor<256x1x2xf32>
    %228 = stablehlo.slice %210 [0:256, 0:1, 2:4] : (tensor<256x1x4xf32>) -> tensor<256x1x2xf32>
    %229 = stablehlo.negate %228 : tensor<256x1x2xf32>
    %230 = stablehlo.concatenate %229, %227, dim = 2 : (tensor<256x1x2xf32>, tensor<256x1x2xf32>) -> tensor<256x1x4xf32>
    %231 = stablehlo.multiply %230, %225 : tensor<256x1x4xf32>
    %232 = stablehlo.add %226, %231 : tensor<256x1x4xf32>
    %233 = stablehlo.reshape %232 : (tensor<256x1x4xf32>) -> tensor<1x256x1x4xf32>
    %234 = stablehlo.dynamic_update_slice %69, %233, %11, %9, %9, %9 : (tensor<2x256x1x4xf32>, tensor<1x256x1x4xf32>, tensor<i32>, tensor<i32>, tensor<i32>, tensor<i32>) -> tensor<2x256x1x4xf32>
    %235 = stablehlo.reshape %214 : (tensor<256x1x4xf32>) -> tensor<1x256x1x4xf32>
    %236 = stablehlo.dynamic_update_slice %71, %235, %11, %9, %9, %9 : (tensor<2x256x1x4xf32>, tensor<1x256x1x4xf32>, tensor<i32>, tensor<i32>, tensor<i32>, tensor<i32>) -> tensor<2x256x1x4xf32>
    %237 = stablehlo.reshape %223 : (tensor<256x2x4xf32>) -> tensor<256x1x2x4xf32>
    %238 = stablehlo.dot_general %237, %232, batching_dims = [1] x [1], contracting_dims = [3] x [2] : (tensor<256x1x2x4xf32>, tensor<256x1x4xf32>) -> tensor<1x256x2x256xf32>
    %239 = stablehlo.broadcast_in_dim %8, dims = [] : (tensor<f32>) -> tensor<1x256x2x256xf32>
    %240 = stablehlo.multiply %238, %239 : tensor<1x256x2x256xf32>
    %241 = stablehlo.broadcast_in_dim %24, dims = [1, 3] : (tensor<256x256xf32>) -> tensor<1x256x2x256xf32>
    %242 = stablehlo.add %240, %241 : tensor<1x256x2x256xf32>
    %243 = stablehlo.reduce(%242 init: %4) applies stablehlo.maximum across dimensions = [3] : (tensor<1x256x2x256xf32>, tensor<f32>) -> tensor<1x256x2xf32>
    %244 = stablehlo.broadcast_in_dim %243, dims = [0, 1, 2] : (tensor<1x256x2xf32>) -> tensor<1x256x2x256xf32>
    %245 = stablehlo.subtract %242, %244 : tensor<1x256x2x256xf32>
    %246 = stablehlo.exponential %245 : tensor<1x256x2x256xf32>
    %247 = stablehlo.reduce(%246 init: %2) applies stablehlo.add across dimensions = [3] : (tensor<1x256x2x256xf32>, tensor<f32>) -> tensor<1x256x2xf32>
    %248 = stablehlo.broadcast_in_dim %247, dims = [0, 1, 2] : (tensor<1x256x2xf32>) -> tensor<1x256x2x256xf32>
    %249 = stablehlo.divide %246, %248 : tensor<1x256x2x256xf32>
    %250 = stablehlo.dot_general %249, %214, batching_dims = [0] x [1], contracting_dims = [3] x [0] : (tensor<1x256x2x256xf32>, tensor<256x1x4xf32>) -> tensor<1x256x2x4xf32>
    %251 = stablehlo.transpose %250, dims = [1, 0, 2, 3] : (tensor<1x256x2x4xf32>) -> tensor<256x1x2x4xf32>
    %252 = stablehlo.reshape %251 : (tensor<256x1x2x4xf32>) -> tensor<256x8xf32>
    %253 = stablehlo.dot_general %252, %arg23, contracting_dims = [1] x [1] : (tensor<256x8xf32>, tensor<8x8xf32>) -> tensor<256x8xf32>
    %254 = stablehlo.add %191, %253 : tensor<256x8xf32>
    %255 = stablehlo.multiply %254, %254 : tensor<256x8xf32>
    %256 = stablehlo.reduce(%255 init: %2) applies stablehlo.add across dimensions = [1] : (tensor<256x8xf32>, tensor<f32>) -> tensor<256xf32>
    %257 = stablehlo.broadcast_in_dim %7, dims = [] : (tensor<f32>) -> tensor<256xf32>
    %258 = stablehlo.divide %256, %257 : tensor<256xf32>
    %259 = stablehlo.broadcast_in_dim %6, dims = [] : (tensor<f32>) -> tensor<256xf32>
    %260 = stablehlo.add %258, %259 : tensor<256xf32>
    %261 = stablehlo.rsqrt %260 : tensor<256xf32>
    %262 = stablehlo.broadcast_in_dim %261, dims = [0] : (tensor<256xf32>) -> tensor<256x8xf32>
    %263 = stablehlo.multiply %254, %262 : tensor<256x8xf32>
    %264 = stablehlo.broadcast_in_dim %arg21, dims = [1] : (tensor<8xf32>) -> tensor<256x8xf32>
    %265 = stablehlo.multiply %263, %264 : tensor<256x8xf32>
    %266 = stablehlo.dot_general %265, %arg29, contracting_dims = [1] x [1] : (tensor<256x8xf32>, tensor<4x8xf32>) -> tensor<256x4xf32>
    %267 = stablehlo.reduce(%266 init: %4) applies stablehlo.maximum across dimensions = [1] : (tensor<256x4xf32>, tensor<f32>) -> tensor<256xf32>
    %268 = stablehlo.broadcast_in_dim %267, dims = [0] : (tensor<256xf32>) -> tensor<256x4xf32>
    %269 = stablehlo.subtract %266, %268 : tensor<256x4xf32>
    %270 = stablehlo.exponential %269 : tensor<256x4xf32>
    %271 = stablehlo.reduce(%270 init: %2) applies stablehlo.add across dimensions = [1] : (tensor<256x4xf32>, tensor<f32>) -> tensor<256xf32>
    %272 = stablehlo.broadcast_in_dim %271, dims = [0] : (tensor<256xf32>) -> tensor<256x4xf32>
    %273 = stablehlo.divide %270, %272 : tensor<256x4xf32>
    %274 = stablehlo.iota dim = 0 : tensor<4xi32>
    %275 = stablehlo.broadcast_in_dim %274, dims = [1] : (tensor<4xi32>) -> tensor<256x4xi32>
    %276 = stablehlo.broadcast_in_dim %2, dims = [] : (tensor<f32>) -> tensor<256x4xf32>
    %277 = stablehlo.broadcast_in_dim %4, dims = [] : (tensor<f32>) -> tensor<256x4xf32>
    %278 = stablehlo.constant dense<0> : tensor<i32>
    %279 = stablehlo.constant dense<0xFF800000> : tensor<f32>
    %280 = stablehlo.iota dim = 1 : tensor<256x4xi32>
    %281:2 = stablehlo.reduce(%273 init: %279), (%280 init: %278) across dimensions = [1] : (tensor<256x4xf32>, tensor<256x4xi32>, tensor<f32>, tensor<i32>) -> (tensor<256xf32>, tensor<256xi32>)
    reducer(%amv_l: tensor<f32>, %amv_r: tensor<f32>) (%ami_l: tensor<i32>, %ami_r: tensor<i32>) {
      %282 = stablehlo.compare GT, %amv_l, %amv_r, FLOAT : (tensor<f32>, tensor<f32>) -> tensor<i1>
      %283 = stablehlo.compare NE, %amv_l, %amv_l, FLOAT : (tensor<f32>, tensor<f32>) -> tensor<i1>
      %284 = stablehlo.or %282, %283 : tensor<i1>
      %285 = stablehlo.compare EQ, %amv_l, %amv_r, FLOAT : (tensor<f32>, tensor<f32>) -> tensor<i1>
      %286 = stablehlo.compare LT, %ami_l, %ami_r, SIGNED : (tensor<i32>, tensor<i32>) -> tensor<i1>
      %287 = stablehlo.and %285, %286 : tensor<i1>
      %288 = stablehlo.or %284, %287 : tensor<i1>
      %289 = stablehlo.select %284, %amv_l, %amv_r : tensor<i1>, tensor<f32>
      %290 = stablehlo.select %288, %ami_l, %ami_r : tensor<i1>, tensor<i32>
      stablehlo.return %289, %290 : tensor<f32>, tensor<i32>
    }
    %291 = stablehlo.broadcast_in_dim %281#1, dims = [0] : (tensor<256xi32>) -> tensor<256x4xi32>
    %292 = stablehlo.compare EQ, %275, %291, SIGNED : (tensor<256x4xi32>, tensor<256x4xi32>) -> tensor<256x4xi1>
    %293 = stablehlo.select %292, %273, %276 : tensor<256x4xi1>, tensor<256x4xf32>
    %294 = stablehlo.reduce(%293 init: %2) applies stablehlo.add across dimensions = [1] : (tensor<256x4xf32>, tensor<f32>) -> tensor<256xf32>
    %295 = stablehlo.select %292, %277, %273 : tensor<256x4xi1>, tensor<256x4xf32>
    %296 = stablehlo.constant dense<0> : tensor<i32>
    %297 = stablehlo.constant dense<0xFF800000> : tensor<f32>
    %298 = stablehlo.iota dim = 1 : tensor<256x4xi32>
    %299:2 = stablehlo.reduce(%295 init: %297), (%298 init: %296) across dimensions = [1] : (tensor<256x4xf32>, tensor<256x4xi32>, tensor<f32>, tensor<i32>) -> (tensor<256xf32>, tensor<256xi32>)
    reducer(%amv_l: tensor<f32>, %amv_r: tensor<f32>) (%ami_l: tensor<i32>, %ami_r: tensor<i32>) {
      %300 = stablehlo.compare GT, %amv_l, %amv_r, FLOAT : (tensor<f32>, tensor<f32>) -> tensor<i1>
      %301 = stablehlo.compare NE, %amv_l, %amv_l, FLOAT : (tensor<f32>, tensor<f32>) -> tensor<i1>
      %302 = stablehlo.or %300, %301 : tensor<i1>
      %303 = stablehlo.compare EQ, %amv_l, %amv_r, FLOAT : (tensor<f32>, tensor<f32>) -> tensor<i1>
      %304 = stablehlo.compare LT, %ami_l, %ami_r, SIGNED : (tensor<i32>, tensor<i32>) -> tensor<i1>
      %305 = stablehlo.and %303, %304 : tensor<i1>
      %306 = stablehlo.or %302, %305 : tensor<i1>
      %307 = stablehlo.select %302, %amv_l, %amv_r : tensor<i1>, tensor<f32>
      %308 = stablehlo.select %306, %ami_l, %ami_r : tensor<i1>, tensor<i32>
      stablehlo.return %307, %308 : tensor<f32>, tensor<i32>
    }
    %309 = stablehlo.broadcast_in_dim %299#1, dims = [0] : (tensor<256xi32>) -> tensor<256x4xi32>
    %310 = stablehlo.compare EQ, %275, %309, SIGNED : (tensor<256x4xi32>, tensor<256x4xi32>) -> tensor<256x4xi1>
    %311 = stablehlo.select %310, %295, %276 : tensor<256x4xi1>, tensor<256x4xf32>
    %312 = stablehlo.reduce(%311 init: %2) applies stablehlo.add across dimensions = [1] : (tensor<256x4xf32>, tensor<f32>) -> tensor<256xf32>
    %313 = stablehlo.select %310, %277, %295 : tensor<256x4xi1>, tensor<256x4xf32>
    %314 = stablehlo.add %294, %312 : tensor<256xf32>
    %315 = stablehlo.divide %294, %314 : tensor<256xf32>
    %316 = stablehlo.divide %312, %314 : tensor<256xf32>
    %317 = stablehlo.broadcast_in_dim %2, dims = [] : (tensor<f32>) -> tensor<256x4xf32>
    %318 = stablehlo.broadcast_in_dim %315, dims = [0] : (tensor<256xf32>) -> tensor<256x4xf32>
    %319 = stablehlo.select %292, %318, %276 : tensor<256x4xi1>, tensor<256x4xf32>
    %320 = stablehlo.add %317, %319 : tensor<256x4xf32>
    %321 = stablehlo.broadcast_in_dim %316, dims = [0] : (tensor<256xf32>) -> tensor<256x4xf32>
    %322 = stablehlo.select %310, %321, %276 : tensor<256x4xi1>, tensor<256x4xf32>
    %323 = stablehlo.add %320, %322 : tensor<256x4xf32>
    %324 = stablehlo.broadcast_in_dim %265, dims = [1, 2] : (tensor<256x8xf32>) -> tensor<4x256x8xf32>
    %325 = stablehlo.dot_general %324, %arg30, batching_dims = [0] x [0], contracting_dims = [2] x [2] : (tensor<4x256x8xf32>, tensor<4x12x8xf32>) -> tensor<4x256x12xf32>
    %326 = stablehlo.dot_general %324, %arg31, batching_dims = [0] x [0], contracting_dims = [2] x [2] : (tensor<4x256x8xf32>, tensor<4x12x8xf32>) -> tensor<4x256x12xf32>
    %327 = stablehlo.broadcast_in_dim %3, dims = [] : (tensor<f32>) -> tensor<4x256x12xf32>
    %328 = stablehlo.negate %325 : tensor<4x256x12xf32>
    %329 = stablehlo.exponential %328 : tensor<4x256x12xf32>
    %330 = stablehlo.add %327, %329 : tensor<4x256x12xf32>
    %331 = stablehlo.divide %327, %330 : tensor<4x256x12xf32>
    %332 = stablehlo.multiply %325, %331 : tensor<4x256x12xf32>
    %333 = stablehlo.multiply %332, %326 : tensor<4x256x12xf32>
    %334 = stablehlo.dot_general %333, %arg32, batching_dims = [0] x [0], contracting_dims = [2] x [2] : (tensor<4x256x12xf32>, tensor<4x8x12xf32>) -> tensor<4x256x8xf32>
    %335 = stablehlo.dot_general %323, %334, batching_dims = [0] x [1], contracting_dims = [1] x [0] : (tensor<256x4xf32>, tensor<4x256x8xf32>) -> tensor<256x8xf32>
    %336 = stablehlo.dot_general %265, %arg33, contracting_dims = [1] x [1] : (tensor<256x8xf32>, tensor<10x8xf32>) -> tensor<256x10xf32>
    %337 = stablehlo.dot_general %265, %arg34, contracting_dims = [1] x [1] : (tensor<256x8xf32>, tensor<10x8xf32>) -> tensor<256x10xf32>
    %338 = stablehlo.broadcast_in_dim %3, dims = [] : (tensor<f32>) -> tensor<256x10xf32>
    %339 = stablehlo.negate %336 : tensor<256x10xf32>
    %340 = stablehlo.exponential %339 : tensor<256x10xf32>
    %341 = stablehlo.add %338, %340 : tensor<256x10xf32>
    %342 = stablehlo.divide %338, %341 : tensor<256x10xf32>
    %343 = stablehlo.multiply %336, %342 : tensor<256x10xf32>
    %344 = stablehlo.multiply %343, %337 : tensor<256x10xf32>
    %345 = stablehlo.dot_general %344, %arg35, contracting_dims = [1] x [1] : (tensor<256x10xf32>, tensor<8x10xf32>) -> tensor<256x8xf32>
    %346 = stablehlo.dot_general %265, %arg36, contracting_dims = [1] x [1] : (tensor<256x8xf32>, tensor<1x8xf32>) -> tensor<256x1xf32>
    %347 = stablehlo.reshape %346 : (tensor<256x1xf32>) -> tensor<256xf32>
    %348 = stablehlo.broadcast_in_dim %3, dims = [] : (tensor<f32>) -> tensor<256xf32>
    %349 = stablehlo.negate %347 : tensor<256xf32>
    %350 = stablehlo.exponential %349 : tensor<256xf32>
    %351 = stablehlo.add %348, %350 : tensor<256xf32>
    %352 = stablehlo.divide %348, %351 : tensor<256xf32>
    %353 = stablehlo.broadcast_in_dim %352, dims = [0] : (tensor<256xf32>) -> tensor<256x8xf32>
    %354 = stablehlo.multiply %345, %353 : tensor<256x8xf32>
    %355 = stablehlo.add %335, %354 : tensor<256x8xf32>
    %356 = stablehlo.add %254, %355 : tensor<256x8xf32>
    %357 = stablehlo.multiply %356, %356 : tensor<256x8xf32>
    %358 = stablehlo.reduce(%357 init: %2) applies stablehlo.add across dimensions = [1] : (tensor<256x8xf32>, tensor<f32>) -> tensor<256xf32>
    %359 = stablehlo.broadcast_in_dim %7, dims = [] : (tensor<f32>) -> tensor<256xf32>
    %360 = stablehlo.divide %358, %359 : tensor<256xf32>
    %361 = stablehlo.broadcast_in_dim %6, dims = [] : (tensor<f32>) -> tensor<256xf32>
    %362 = stablehlo.add %360, %361 : tensor<256xf32>
    %363 = stablehlo.rsqrt %362 : tensor<256xf32>
    %364 = stablehlo.broadcast_in_dim %363, dims = [0] : (tensor<256xf32>) -> tensor<256x8xf32>
    %365 = stablehlo.multiply %356, %364 : tensor<256x8xf32>
    %366 = stablehlo.broadcast_in_dim %arg1, dims = [1] : (tensor<8xf32>) -> tensor<256x8xf32>
    %367 = stablehlo.multiply %365, %366 : tensor<256x8xf32>
    %368 = stablehlo.constant dense<1> : tensor<i32>
    %369 = stablehlo.subtract %arg39, %368 : tensor<i32>
    %370 = stablehlo.dynamic_slice %367, %369, %9, sizes = [1, 8] : (tensor<256x8xf32>, tensor<i32>, tensor<i32>) -> tensor<1x8xf32>
    %371 = stablehlo.reshape %370 : (tensor<1x8xf32>) -> tensor<8xf32>
    %372 = stablehlo.dot_general %371, %arg2, contracting_dims = [0] x [1] : (tensor<8xf32>, tensor<10x8xf32>) -> tensor<10xf32>
    %373 = stablehlo.constant dense<0> : tensor<i32>
    %374 = stablehlo.constant dense<0xFF800000> : tensor<f32>
    %375 = stablehlo.iota dim = 0 : tensor<10xi32>
    %376:2 = stablehlo.reduce(%372 init: %374), (%375 init: %373) across dimensions = [0] : (tensor<10xf32>, tensor<10xi32>, tensor<f32>, tensor<i32>) -> (tensor<f32>, tensor<i32>)
    reducer(%amv_l: tensor<f32>, %amv_r: tensor<f32>) (%ami_l: tensor<i32>, %ami_r: tensor<i32>) {
      %377 = stablehlo.compare GT, %amv_l, %amv_r, FLOAT : (tensor<f32>, tensor<f32>) -> tensor<i1>
      %378 = stablehlo.compare NE, %amv_l, %amv_l, FLOAT : (tensor<f32>, tensor<f32>) -> tensor<i1>
      %379 = stablehlo.or %377, %378 : tensor<i1>
      %380 = stablehlo.compare EQ, %amv_l, %amv_r, FLOAT : (tensor<f32>, tensor<f32>) -> tensor<i1>
      %381 = stablehlo.compare LT, %ami_l, %ami_r, SIGNED : (tensor<i32>, tensor<i32>) -> tensor<i1>
      %382 = stablehlo.and %380, %381 : tensor<i1>
      %383 = stablehlo.or %379, %382 : tensor<i1>
      %384 = stablehlo.select %379, %amv_l, %amv_r : tensor<i1>, tensor<f32>
      %385 = stablehlo.select %383, %ami_l, %ami_r : tensor<i1>, tensor<i32>
      stablehlo.return %384, %385 : tensor<f32>, tensor<i32>
    }
    return %376#1, %234, %236 : tensor<i32>, tensor<2x256x1x4xf32>, tensor<2x256x1x4xf32>
  }
}
