module @prefill_embeddings {
  func.func public @main(%arg0: tensor<10x8xf32> loc("params['embed']"), %arg1: tensor<8xf32> loc("params['final_norm']"), %arg2: tensor<10x8xf32> loc("params['lm_head']"), %arg3: tensor<8xf32> loc("params['layers'][0]['in_ln']"), %arg4: tensor<8xf32> loc("params['layers'][0]['post_ln']"), %arg5: tensor<4x8xf32> loc("params['layers'][0]['wk']"), %arg6: tensor<8x8xf32> loc("params['layers'][0]['wo']"), %arg7: tensor<8x8xf32> loc("params['layers'][0]['wq']"), %arg8: tensor<4x8xf32> loc("params['layers'][0]['wv']"), %arg9: tensor<4xf32> loc("params['layers'][0]['bk']"), %arg10: tensor<8xf32> loc("params['layers'][0]['bq']"), %arg11: tensor<4xf32> loc("params['layers'][0]['bv']"), %arg12: tensor<4x8xf32> loc("params['layers'][0]['moe_router']"), %arg13: tensor<4x12x8xf32> loc("params['layers'][0]['moe_gate']"), %arg14: tensor<4x12x8xf32> loc("params['layers'][0]['moe_up']"), %arg15: tensor<4x8x12xf32> loc("params['layers'][0]['moe_down']"), %arg16: tensor<10x8xf32> loc("params['layers'][0]['moe_shared_gate']"), %arg17: tensor<10x8xf32> loc("params['layers'][0]['moe_shared_up']"), %arg18: tensor<8x10xf32> loc("params['layers'][0]['moe_shared_down']"), %arg19: tensor<1x8xf32> loc("params['layers'][0]['moe_shared_expert_gate']"), %arg20: tensor<8xf32> loc("params['layers'][1]['in_ln']"), %arg21: tensor<8xf32> loc("params['layers'][1]['post_ln']"), %arg22: tensor<4x8xf32> loc("params['layers'][1]['wk']"), %arg23: tensor<8x8xf32> loc("params['layers'][1]['wo']"), %arg24: tensor<8x8xf32> loc("params['layers'][1]['wq']"), %arg25: tensor<4x8xf32> loc("params['layers'][1]['wv']"), %arg26: tensor<4xf32> loc("params['layers'][1]['bk']"), %arg27: tensor<8xf32> loc("params['layers'][1]['bq']"), %arg28: tensor<4xf32> loc("params['layers'][1]['bv']"), %arg29: tensor<4x8xf32> loc("params['layers'][1]['moe_router']"), %arg30: tensor<4x12x8xf32> loc("params['layers'][1]['moe_gate']"), %arg31: tensor<4x12x8xf32> loc("params['layers'][1]['moe_up']"), %arg32: tensor<4x8x12xf32> loc("params['layers'][1]['moe_down']"), %arg33: tensor<10x8xf32> loc("params['layers'][1]['moe_shared_gate']"), %arg34: tensor<10x8xf32> loc("params['layers'][1]['moe_shared_up']"), %arg35: tensor<8x10xf32> loc("params['layers'][1]['moe_shared_down']"), %arg36: tensor<1x8xf32> loc("params['layers'][1]['moe_shared_expert_gate']"), %arg37: tensor<256x8xf32> loc("embeddings"), %arg38: tensor<256xi32> loc("positions"), %arg39: tensor<i32> loc("real_len"), %arg40: tensor<256x256xf32> loc("attention_bias")) -> (tensor<10xf32>, tensor<2x256x1x4xf32>, tensor<2x256x1x4xf32>) {
    %0 = stablehlo.constant dense<"…"> : tensor<256x4xf32>
    %1 = stablehlo.constant dense<"…"> : tensor<256x4xf32>
    %2 = stablehlo.constant dense<0x00000000> : tensor<f32>
    %3 = stablehlo.constant dense<0x3F800000> : tensor<f32>
    %4 = stablehlo.constant dense<0xFF800000> : tensor<f32>
    %5 = stablehlo.constant dense<0xF149F2CA> : tensor<f32>
    %6 = stablehlo.constant dense<0x358637BD> : tensor<f32>
    %7 = stablehlo.constant dense<0x41000000> : tensor<f32>
    %8 = stablehlo.constant dense<0x3F000000> : tensor<f32>
    %9 = stablehlo.constant dense<0> : tensor<i32>
    %10 = stablehlo.constant dense<0> : tensor<i32>
    %11 = stablehlo.constant dense<1> : tensor<i32>
    %12 = stablehlo.reshape %arg38 : (tensor<256xi32>) -> tensor<256x1xi32>
    %13 = "stablehlo.gather"(%0, %12) <{dimension_numbers = #stablehlo.gather<offset_dims = [1], collapsed_slice_dims = [0], start_index_map = [0], index_vector_dim = 1>, slice_sizes = array<i64: 1, 4>}> : (tensor<256x4xf32>, tensor<256x1xi32>) -> tensor<256x4xf32>
    %14 = "stablehlo.gather"(%1, %12) <{dimension_numbers = #stablehlo.gather<offset_dims = [1], collapsed_slice_dims = [0], start_index_map = [0], index_vector_dim = 1>, slice_sizes = array<i64: 1, 4>}> : (tensor<256x4xf32>, tensor<256x1xi32>) -> tensor<256x4xf32>
    %15 = stablehlo.broadcast_in_dim %2, dims = [] : (tensor<f32>) -> tensor<2x256x1x4xf32>
    %16 = stablehlo.broadcast_in_dim %2, dims = [] : (tensor<f32>) -> tensor<2x256x1x4xf32>
    %17 = stablehlo.multiply %arg37, %arg37 : tensor<256x8xf32>
    %18 = stablehlo.reduce(%17 init: %2) applies stablehlo.add across dimensions = [1] : (tensor<256x8xf32>, tensor<f32>) -> tensor<256xf32>
    %19 = stablehlo.broadcast_in_dim %7, dims = [] : (tensor<f32>) -> tensor<256xf32>
    %20 = stablehlo.divide %18, %19 : tensor<256xf32>
    %21 = stablehlo.broadcast_in_dim %6, dims = [] : (tensor<f32>) -> tensor<256xf32>
    %22 = stablehlo.add %20, %21 : tensor<256xf32>
    %23 = stablehlo.rsqrt %22 : tensor<256xf32>
    %24 = stablehlo.broadcast_in_dim %23, dims = [0] : (tensor<256xf32>) -> tensor<256x8xf32>
    %25 = stablehlo.multiply %arg37, %24 : tensor<256x8xf32>
    %26 = stablehlo.broadcast_in_dim %arg3, dims = [1] : (tensor<8xf32>) -> tensor<256x8xf32>
    %27 = stablehlo.multiply %25, %26 : tensor<256x8xf32>
    %28 = stablehlo.dot_general %27, %arg7, contracting_dims = [1] x [1] : (tensor<256x8xf32>, tensor<8x8xf32>) -> tensor<256x8xf32>
    %29 = stablehlo.broadcast_in_dim %arg10, dims = [1] : (tensor<8xf32>) -> tensor<256x8xf32>
    %30 = stablehlo.add %28, %29 : tensor<256x8xf32>
    %31 = stablehlo.reshape %30 : (tensor<256x8xf32>) -> tensor<256x2x4xf32>
    %32 = stablehlo.dot_general %27, %arg5, contracting_dims = [1] x [1] : (tensor<256x8xf32>, tensor<4x8xf32>) -> tensor<256x4xf32>
    %33 = stablehlo.broadcast_in_dim %arg9, dims = [1] : (tensor<4xf32>) -> tensor<256x4xf32>
    %34 = stablehlo.add %32, %33 : tensor<256x4xf32>
    %35 = stablehlo.reshape %34 : (tensor<256x4xf32>) -> tensor<256x1x4xf32>
    %36 = stablehlo.dot_general %27, %arg8, contracting_dims = [1] x [1] : (tensor<256x8xf32>, tensor<4x8xf32>) -> tensor<256x4xf32>
    %37 = stablehlo.broadcast_in_dim %arg11, dims = [1] : (tensor<4xf32>) -> tensor<256x4xf32>
    %38 = stablehlo.add %36, %37 : tensor<256x4xf32>
    %39 = stablehlo.reshape %38 : (tensor<256x4xf32>) -> tensor<256x1x4xf32>
    %40 = stablehlo.broadcast_in_dim %13, dims = [0, 2] : (tensor<256x4xf32>) -> tensor<256x2x4xf32>
    %41 = stablehlo.broadcast_in_dim %14, dims = [0, 2] : (tensor<256x4xf32>) -> tensor<256x2x4xf32>
    %42 = stablehlo.multiply %31, %40 : tensor<256x2x4xf32>
    %43 = stablehlo.slice %31 [0:256, 0:2, 0:2] : (tensor<256x2x4xf32>) -> tensor<256x2x2xf32>
    %44 = stablehlo.slice %31 [0:256, 0:2, 2:4] : (tensor<256x2x4xf32>) -> tensor<256x2x2xf32>
    %45 = stablehlo.negate %44 : tensor<256x2x2xf32>
    %46 = stablehlo.concatenate %45, %43, dim = 2 : (tensor<256x2x2xf32>, tensor<256x2x2xf32>) -> tensor<256x2x4xf32>
    %47 = stablehlo.multiply %46, %41 : tensor<256x2x4xf32>
    %48 = stablehlo.add %42, %47 : tensor<256x2x4xf32>
    %49 = stablehlo.broadcast_in_dim %13, dims = [0, 2] : (tensor<256x4xf32>) -> tensor<256x1x4xf32>
    %50 = stablehlo.broadcast_in_dim %14, dims = [0, 2] : (tensor<256x4xf32>) -> tensor<256x1x4xf32>
    %51 = stablehlo.multiply %35, %49 : tensor<256x1x4xf32>
    %52 = stablehlo.slice %35 [0:256, 0:1, 0:2] : (tensor<256x1x4xf32>) -> tensor<256x1x2xf32>
    %53 = stablehlo.slice %35 [0:256, 0:1, 2:4] : (tensor<256x1x4xf32>) -> tensor<256x1x2xf32>
    %54 = stablehlo.negate %53 : tensor<256x1x2xf32>
    %55 = stablehlo.concatenate %54, %52, dim = 2 : (tensor<256x1x2xf32>, tensor<256x1x2xf32>) -> tensor<256x1x4xf32>
    %56 = stablehlo.multiply %55, %50 : tensor<256x1x4xf32>
    %57 = stablehlo.add %51, %56 : tensor<256x1x4xf32>
    %58 = stablehlo.reshape %57 : (tensor<256x1x4xf32>) -> tensor<1x256x1x4xf32>
    %59 = stablehlo.dynamic_update_slice %15, %58, %10, %9, %9, %9 : (tensor<2x256x1x4xf32>, tensor<1x256x1x4xf32>, tensor<i32>, tensor<i32>, tensor<i32>, tensor<i32>) -> tensor<2x256x1x4xf32>
    %60 = stablehlo.reshape %39 : (tensor<256x1x4xf32>) -> tensor<1x256x1x4xf32>
    %61 = stablehlo.dynamic_update_slice %16, %60, %10, %9, %9, %9 : (tensor<2x256x1x4xf32>, tensor<1x256x1x4xf32>, tensor<i32>, tensor<i32>, tensor<i32>, tensor<i32>) -> tensor<2x256x1x4xf32>
    %62 = stablehlo.reshape %48 : (tensor<256x2x4xf32>) -> tensor<256x1x2x4xf32>
    %63 = stablehlo.dot_general %62, %57, batching_dims = [1] x [1], contracting_dims = [3] x [2] : (tensor<256x1x2x4xf32>, tensor<256x1x4xf32>) -> tensor<1x256x2x256xf32>
    %64 = stablehlo.broadcast_in_dim %8, dims = [] : (tensor<f32>) -> tensor<1x256x2x256xf32>
    %65 = stablehlo.multiply %63, %64 : tensor<1x256x2x256xf32>
    %66 = stablehlo.broadcast_in_dim %arg40, dims = [1, 3] : (tensor<256x256xf32>) -> tensor<1x256x2x256xf32>
    %67 = stablehlo.add %65, %66 : tensor<1x256x2x256xf32>
    %68 = stablehlo.reduce(%67 init: %4) applies stablehlo.maximum across dimensions = [3] : (tensor<1x256x2x256xf32>, tensor<f32>) -> tensor<1x256x2xf32>
    %69 = stablehlo.broadcast_in_dim %68, dims = [0, 1, 2] : (tensor<1x256x2xf32>) -> tensor<1x256x2x256xf32>
    %70 = stablehlo.subtract %67, %69 : tensor<1x256x2x256xf32>
    %71 = stablehlo.exponential %70 : tensor<1x256x2x256xf32>
    %72 = stablehlo.reduce(%71 init: %2) applies stablehlo.add across dimensions = [3] : (tensor<1x256x2x256xf32>, tensor<f32>) -> tensor<1x256x2xf32>
    %73 = stablehlo.broadcast_in_dim %72, dims = [0, 1, 2] : (tensor<1x256x2xf32>) -> tensor<1x256x2x256xf32>
    %74 = stablehlo.divide %71, %73 : tensor<1x256x2x256xf32>
    %75 = stablehlo.dot_general %74, %39, batching_dims = [0] x [1], contracting_dims = [3] x [0] : (tensor<1x256x2x256xf32>, tensor<256x1x4xf32>) -> tensor<1x256x2x4xf32>
    %76 = stablehlo.transpose %75, dims = [1, 0, 2, 3] : (tensor<1x256x2x4xf32>) -> tensor<256x1x2x4xf32>
    %77 = stablehlo.reshape %76 : (tensor<256x1x2x4xf32>) -> tensor<256x8xf32>
    %78 = stablehlo.dot_general %77, %arg6, contracting_dims = [1] x [1] : (tensor<256x8xf32>, tensor<8x8xf32>) -> tensor<256x8xf32>
    %79 = stablehlo.add %arg37, %78 : tensor<256x8xf32>
    %80 = stablehlo.multiply %79, %79 : tensor<256x8xf32>
    %81 = stablehlo.reduce(%80 init: %2) applies stablehlo.add across dimensions = [1] : (tensor<256x8xf32>, tensor<f32>) -> tensor<256xf32>
    %82 = stablehlo.broadcast_in_dim %7, dims = [] : (tensor<f32>) -> tensor<256xf32>
    %83 = stablehlo.divide %81, %82 : tensor<256xf32>
    %84 = stablehlo.broadcast_in_dim %6, dims = [] : (tensor<f32>) -> tensor<256xf32>
    %85 = stablehlo.add %83, %84 : tensor<256xf32>
    %86 = stablehlo.rsqrt %85 : tensor<256xf32>
    %87 = stablehlo.broadcast_in_dim %86, dims = [0] : (tensor<256xf32>) -> tensor<256x8xf32>
    %88 = stablehlo.multiply %79, %87 : tensor<256x8xf32>
    %89 = stablehlo.broadcast_in_dim %arg4, dims = [1] : (tensor<8xf32>) -> tensor<256x8xf32>
    %90 = stablehlo.multiply %88, %89 : tensor<256x8xf32>
    %91 = stablehlo.dot_general %90, %arg12, contracting_dims = [1] x [1] : (tensor<256x8xf32>, tensor<4x8xf32>) -> tensor<256x4xf32>
    %92 = stablehlo.reduce(%91 init: %4) applies stablehlo.maximum across dimensions = [1] : (tensor<256x4xf32>, tensor<f32>) -> tensor<256xf32>
    %93 = stablehlo.broadcast_in_dim %92, dims = [0] : (tensor<256xf32>) -> tensor<256x4xf32>
    %94 = stablehlo.subtract %91, %93 : tensor<256x4xf32>
    %95 = stablehlo.exponential %94 : tensor<256x4xf32>
    %96 = stablehlo.reduce(%95 init: %2) applies stablehlo.add across dimensions = [1] : (tensor<256x4xf32>, tensor<f32>) -> tensor<256xf32>
    %97 = stablehlo.broadcast_in_dim %96, dims = [0] : (tensor<256xf32>) -> tensor<256x4xf32>
    %98 = stablehlo.divide %95, %97 : tensor<256x4xf32>
    %99 = stablehlo.iota dim = 0 : tensor<4xi32>
    %100 = stablehlo.broadcast_in_dim %99, dims = [1] : (tensor<4xi32>) -> tensor<256x4xi32>
    %101 = stablehlo.broadcast_in_dim %2, dims = [] : (tensor<f32>) -> tensor<256x4xf32>
    %102 = stablehlo.broadcast_in_dim %4, dims = [] : (tensor<f32>) -> tensor<256x4xf32>
    %103 = stablehlo.constant dense<0> : tensor<i32>
    %104 = stablehlo.constant dense<0xFF800000> : tensor<f32>
    %105 = stablehlo.iota dim = 1 : tensor<256x4xi32>
    %106:2 = stablehlo.reduce(%98 init: %104), (%105 init: %103) across dimensions = [1] : (tensor<256x4xf32>, tensor<256x4xi32>, tensor<f32>, tensor<i32>) -> (tensor<256xf32>, tensor<256xi32>)
    reducer(%amv_l: tensor<f32>, %amv_r: tensor<f32>) (%ami_l: tensor<i32>, %ami_r: tensor<i32>) {
      %107 = stablehlo.compare GT, %amv_l, %amv_r, FLOAT : (tensor<f32>, tensor<f32>) -> tensor<i1>
      %108 = stablehlo.compare NE, %amv_l, %amv_l, FLOAT : (tensor<f32>, tensor<f32>) -> tensor<i1>
      %109 = stablehlo.or %107, %108 : tensor<i1>
      %110 = stablehlo.compare EQ, %amv_l, %amv_r, FLOAT : (tensor<f32>, tensor<f32>) -> tensor<i1>
      %111 = stablehlo.compare LT, %ami_l, %ami_r, SIGNED : (tensor<i32>, tensor<i32>) -> tensor<i1>
      %112 = stablehlo.and %110, %111 : tensor<i1>
      %113 = stablehlo.or %109, %112 : tensor<i1>
      %114 = stablehlo.select %109, %amv_l, %amv_r : tensor<i1>, tensor<f32>
      %115 = stablehlo.select %113, %ami_l, %ami_r : tensor<i1>, tensor<i32>
      stablehlo.return %114, %115 : tensor<f32>, tensor<i32>
    }
    %116 = stablehlo.broadcast_in_dim %106#1, dims = [0] : (tensor<256xi32>) -> tensor<256x4xi32>
    %117 = stablehlo.compare EQ, %100, %116, SIGNED : (tensor<256x4xi32>, tensor<256x4xi32>) -> tensor<256x4xi1>
    %118 = stablehlo.select %117, %98, %101 : tensor<256x4xi1>, tensor<256x4xf32>
    %119 = stablehlo.reduce(%118 init: %2) applies stablehlo.add across dimensions = [1] : (tensor<256x4xf32>, tensor<f32>) -> tensor<256xf32>
    %120 = stablehlo.select %117, %102, %98 : tensor<256x4xi1>, tensor<256x4xf32>
    %121 = stablehlo.constant dense<0> : tensor<i32>
    %122 = stablehlo.constant dense<0xFF800000> : tensor<f32>
    %123 = stablehlo.iota dim = 1 : tensor<256x4xi32>
    %124:2 = stablehlo.reduce(%120 init: %122), (%123 init: %121) across dimensions = [1] : (tensor<256x4xf32>, tensor<256x4xi32>, tensor<f32>, tensor<i32>) -> (tensor<256xf32>, tensor<256xi32>)
    reducer(%amv_l: tensor<f32>, %amv_r: tensor<f32>) (%ami_l: tensor<i32>, %ami_r: tensor<i32>) {
      %125 = stablehlo.compare GT, %amv_l, %amv_r, FLOAT : (tensor<f32>, tensor<f32>) -> tensor<i1>
      %126 = stablehlo.compare NE, %amv_l, %amv_l, FLOAT : (tensor<f32>, tensor<f32>) -> tensor<i1>
      %127 = stablehlo.or %125, %126 : tensor<i1>
      %128 = stablehlo.compare EQ, %amv_l, %amv_r, FLOAT : (tensor<f32>, tensor<f32>) -> tensor<i1>
      %129 = stablehlo.compare LT, %ami_l, %ami_r, SIGNED : (tensor<i32>, tensor<i32>) -> tensor<i1>
      %130 = stablehlo.and %128, %129 : tensor<i1>
      %131 = stablehlo.or %127, %130 : tensor<i1>
      %132 = stablehlo.select %127, %amv_l, %amv_r : tensor<i1>, tensor<f32>
      %133 = stablehlo.select %131, %ami_l, %ami_r : tensor<i1>, tensor<i32>
      stablehlo.return %132, %133 : tensor<f32>, tensor<i32>
    }
    %134 = stablehlo.broadcast_in_dim %124#1, dims = [0] : (tensor<256xi32>) -> tensor<256x4xi32>
    %135 = stablehlo.compare EQ, %100, %134, SIGNED : (tensor<256x4xi32>, tensor<256x4xi32>) -> tensor<256x4xi1>
    %136 = stablehlo.select %135, %120, %101 : tensor<256x4xi1>, tensor<256x4xf32>
    %137 = stablehlo.reduce(%136 init: %2) applies stablehlo.add across dimensions = [1] : (tensor<256x4xf32>, tensor<f32>) -> tensor<256xf32>
    %138 = stablehlo.select %135, %102, %120 : tensor<256x4xi1>, tensor<256x4xf32>
    %139 = stablehlo.add %119, %137 : tensor<256xf32>
    %140 = stablehlo.divide %119, %139 : tensor<256xf32>
    %141 = stablehlo.divide %137, %139 : tensor<256xf32>
    %142 = stablehlo.broadcast_in_dim %2, dims = [] : (tensor<f32>) -> tensor<256x4xf32>
    %143 = stablehlo.broadcast_in_dim %140, dims = [0] : (tensor<256xf32>) -> tensor<256x4xf32>
    %144 = stablehlo.select %117, %143, %101 : tensor<256x4xi1>, tensor<256x4xf32>
    %145 = stablehlo.add %142, %144 : tensor<256x4xf32>
    %146 = stablehlo.broadcast_in_dim %141, dims = [0] : (tensor<256xf32>) -> tensor<256x4xf32>
    %147 = stablehlo.select %135, %146, %101 : tensor<256x4xi1>, tensor<256x4xf32>
    %148 = stablehlo.add %145, %147 : tensor<256x4xf32>
    %149 = stablehlo.broadcast_in_dim %90, dims = [1, 2] : (tensor<256x8xf32>) -> tensor<4x256x8xf32>
    %150 = stablehlo.dot_general %149, %arg13, batching_dims = [0] x [0], contracting_dims = [2] x [2] : (tensor<4x256x8xf32>, tensor<4x12x8xf32>) -> tensor<4x256x12xf32>
    %151 = stablehlo.dot_general %149, %arg14, batching_dims = [0] x [0], contracting_dims = [2] x [2] : (tensor<4x256x8xf32>, tensor<4x12x8xf32>) -> tensor<4x256x12xf32>
    %152 = stablehlo.broadcast_in_dim %3, dims = [] : (tensor<f32>) -> tensor<4x256x12xf32>
    %153 = stablehlo.negate %150 : tensor<4x256x12xf32>
    %154 = stablehlo.exponential %153 : tensor<4x256x12xf32>
    %155 = stablehlo.add %152, %154 : tensor<4x256x12xf32>
    %156 = stablehlo.divide %152, %155 : tensor<4x256x12xf32>
    %157 = stablehlo.multiply %150, %156 : tensor<4x256x12xf32>
    %158 = stablehlo.multiply %157, %151 : tensor<4x256x12xf32>
    %159 = stablehlo.dot_general %158, %arg15, batching_dims = [0] x [0], contracting_dims = [2] x [2] : (tensor<4x256x12xf32>, tensor<4x8x12xf32>) -> tensor<4x256x8xf32>
    %160 = stablehlo.dot_general %148, %159, batching_dims = [0] x [1], contracting_dims = [1] x [0] : (tensor<256x4xf32>, tensor<4x256x8xf32>) -> tensor<256x8xf32>
    %161 = stablehlo.dot_general %90, %arg16, contracting_dims = [1] x [1] : (tensor<256x8xf32>, tensor<10x8xf32>) -> tensor<256x10xf32>
    %162 = stablehlo.dot_general %90, %arg17, contracting_dims = [1] x [1] : (tensor<256x8xf32>, tensor<10x8xf32>) -> tensor<256x10xf32>
    %163 = stablehlo.broadcast_in_dim %3, dims = [] : (tensor<f32>) -> tensor<256x10xf32>
    %164 = stablehlo.negate %161 : tensor<256x10xf32>
    %165 = stablehlo.exponential %164 : tensor<256x10xf32>
    %166 = stablehlo.add %163, %165 : tensor<256x10xf32>
    %167 = stablehlo.divide %163, %166 : tensor<256x10xf32>
    %168 = stablehlo.multiply %161, %167 : tensor<256x10xf32>
    %169 = stablehlo.multiply %168, %162 : tensor<256x10xf32>
    %170 = stablehlo.dot_general %169, %arg18, contracting_dims = [1] x [1] : (tensor<256x10xf32>, tensor<8x10xf32>) -> tensor<256x8xf32>
    %171 = stablehlo.dot_general %90, %arg19, contracting_dims = [1] x [1] : (tensor<256x8xf32>, tensor<1x8xf32>) -> tensor<256x1xf32>
    %172 = stablehlo.reshape %171 : (tensor<256x1xf32>) -> tensor<256xf32>
    %173 = stablehlo.broadcast_in_dim %3, dims = [] : (tensor<f32>) -> tensor<256xf32>
    %174 = stablehlo.negate %172 : tensor<256xf32>
    %175 = stablehlo.exponential %174 : tensor<256xf32>
    %176 = stablehlo.add %173, %175 : tensor<256xf32>
    %177 = stablehlo.divide %173, %176 : tensor<256xf32>
    %178 = stablehlo.broadcast_in_dim %177, dims = [0] : (tensor<256xf32>) -> tensor<256x8xf32>
    %179 = stablehlo.multiply %170, %178 : tensor<256x8xf32>
    %180 = stablehlo.add %160, %179 : tensor<256x8xf32>
    %181 = stablehlo.add %79, %180 : tensor<256x8xf32>
    %182 = stablehlo.multiply %181, %181 : tensor<256x8xf32>
    %183 = stablehlo.reduce(%182 init: %2) applies stablehlo.add across dimensions = [1] : (tensor<256x8xf32>, tensor<f32>) -> tensor<256xf32>
    %184 = stablehlo.broadcast_in_dim %7, dims = [] : (tensor<f32>) -> tensor<256xf32>
    %185 = stablehlo.divide %183, %184 : tensor<256xf32>
    %186 = stablehlo.broadcast_in_dim %6, dims = [] : (tensor<f32>) -> tensor<256xf32>
    %187 = stablehlo.add %185, %186 : tensor<256xf32>
    %188 = stablehlo.rsqrt %187 : tensor<256xf32>
    %189 = stablehlo.broadcast_in_dim %188, dims = [0] : (tensor<256xf32>) -> tensor<256x8xf32>
    %190 = stablehlo.multiply %181, %189 : tensor<256x8xf32>
    %191 = stablehlo.broadcast_in_dim %arg20, dims = [1] : (tensor<8xf32>) -> tensor<256x8xf32>
    %192 = stablehlo.multiply %190, %191 : tensor<256x8xf32>
    %193 = stablehlo.dot_general %192, %arg24, contracting_dims = [1] x [1] : (tensor<256x8xf32>, tensor<8x8xf32>) -> tensor<256x8xf32>
    %194 = stablehlo.broadcast_in_dim %arg27, dims = [1] : (tensor<8xf32>) -> tensor<256x8xf32>
    %195 = stablehlo.add %193, %194 : tensor<256x8xf32>
    %196 = stablehlo.reshape %195 : (tensor<256x8xf32>) -> tensor<256x2x4xf32>
    %197 = stablehlo.dot_general %192, %arg22, contracting_dims = [1] x [1] : (tensor<256x8xf32>, tensor<4x8xf32>) -> tensor<256x4xf32>
    %198 = stablehlo.broadcast_in_dim %arg26, dims = [1] : (tensor<4xf32>) -> tensor<256x4xf32>
    %199 = stablehlo.add %197, %198 : tensor<256x4xf32>
    %200 = stablehlo.reshape %199 : (tensor<256x4xf32>) -> tensor<256x1x4xf32>
    %201 = stablehlo.dot_general %192, %arg25, contracting_dims = [1] x [1] : (tensor<256x8xf32>, tensor<4x8xf32>) -> tensor<256x4xf32>
    %202 = stablehlo.broadcast_in_dim %arg28, dims = [1] : (tensor<4xf32>) -> tensor<256x4xf32>
    %203 = stablehlo.add %201, %202 : tensor<256x4xf32>
    %204 = stablehlo.reshape %203 : (tensor<256x4xf32>) -> tensor<256x1x4xf32>
    %205 = stablehlo.broadcast_in_dim %13, dims = [0, 2] : (tensor<256x4xf32>) -> tensor<256x2x4xf32>
    %206 = stablehlo.broadcast_in_dim %14, dims = [0, 2] : (tensor<256x4xf32>) -> tensor<256x2x4xf32>
    %207 = stablehlo.multiply %196, %205 : tensor<256x2x4xf32>
    %208 = stablehlo.slice %196 [0:256, 0:2, 0:2] : (tensor<256x2x4xf32>) -> tensor<256x2x2xf32>
    %209 = stablehlo.slice %196 [0:256, 0:2, 2:4] : (tensor<256x2x4xf32>) -> tensor<256x2x2xf32>
    %210 = stablehlo.negate %209 : tensor<256x2x2xf32>
    %211 = stablehlo.concatenate %210, %208, dim = 2 : (tensor<256x2x2xf32>, tensor<256x2x2xf32>) -> tensor<256x2x4xf32>
    %212 = stablehlo.multiply %211, %206 : tensor<256x2x4xf32>
    %213 = stablehlo.add %207, %212 : tensor<256x2x4xf32>
    %214 = stablehlo.broadcast_in_dim %13, dims = [0, 2] : (tensor<256x4xf32>) -> tensor<256x1x4xf32>
    %215 = stablehlo.broadcast_in_dim %14, dims = [0, 2] : (tensor<256x4xf32>) -> tensor<256x1x4xf32>
    %216 = stablehlo.multiply %200, %214 : tensor<256x1x4xf32>
    %217 = stablehlo.slice %200 [0:256, 0:1, 0:2] : (tensor<256x1x4xf32>) -> tensor<256x1x2xf32>
    %218 = stablehlo.slice %200 [0:256, 0:1, 2:4] : (tensor<256x1x4xf32>) -> tensor<256x1x2xf32>
    %219 = stablehlo.negate %218 : tensor<256x1x2xf32>
    %220 = stablehlo.concatenate %219, %217, dim = 2 : (tensor<256x1x2xf32>, tensor<256x1x2xf32>) -> tensor<256x1x4xf32>
    %221 = stablehlo.multiply %220, %215 : tensor<256x1x4xf32>
    %222 = stablehlo.add %216, %221 : tensor<256x1x4xf32>
    %223 = stablehlo.reshape %222 : (tensor<256x1x4xf32>) -> tensor<1x256x1x4xf32>
    %224 = stablehlo.dynamic_update_slice %59, %223, %11, %9, %9, %9 : (tensor<2x256x1x4xf32>, tensor<1x256x1x4xf32>, tensor<i32>, tensor<i32>, tensor<i32>, tensor<i32>) -> tensor<2x256x1x4xf32>
    %225 = stablehlo.reshape %204 : (tensor<256x1x4xf32>) -> tensor<1x256x1x4xf32>
    %226 = stablehlo.dynamic_update_slice %61, %225, %11, %9, %9, %9 : (tensor<2x256x1x4xf32>, tensor<1x256x1x4xf32>, tensor<i32>, tensor<i32>, tensor<i32>, tensor<i32>) -> tensor<2x256x1x4xf32>
    %227 = stablehlo.reshape %213 : (tensor<256x2x4xf32>) -> tensor<256x1x2x4xf32>
    %228 = stablehlo.dot_general %227, %222, batching_dims = [1] x [1], contracting_dims = [3] x [2] : (tensor<256x1x2x4xf32>, tensor<256x1x4xf32>) -> tensor<1x256x2x256xf32>
    %229 = stablehlo.broadcast_in_dim %8, dims = [] : (tensor<f32>) -> tensor<1x256x2x256xf32>
    %230 = stablehlo.multiply %228, %229 : tensor<1x256x2x256xf32>
    %231 = stablehlo.broadcast_in_dim %arg40, dims = [1, 3] : (tensor<256x256xf32>) -> tensor<1x256x2x256xf32>
    %232 = stablehlo.add %230, %231 : tensor<1x256x2x256xf32>
    %233 = stablehlo.reduce(%232 init: %4) applies stablehlo.maximum across dimensions = [3] : (tensor<1x256x2x256xf32>, tensor<f32>) -> tensor<1x256x2xf32>
    %234 = stablehlo.broadcast_in_dim %233, dims = [0, 1, 2] : (tensor<1x256x2xf32>) -> tensor<1x256x2x256xf32>
    %235 = stablehlo.subtract %232, %234 : tensor<1x256x2x256xf32>
    %236 = stablehlo.exponential %235 : tensor<1x256x2x256xf32>
    %237 = stablehlo.reduce(%236 init: %2) applies stablehlo.add across dimensions = [3] : (tensor<1x256x2x256xf32>, tensor<f32>) -> tensor<1x256x2xf32>
    %238 = stablehlo.broadcast_in_dim %237, dims = [0, 1, 2] : (tensor<1x256x2xf32>) -> tensor<1x256x2x256xf32>
    %239 = stablehlo.divide %236, %238 : tensor<1x256x2x256xf32>
    %240 = stablehlo.dot_general %239, %204, batching_dims = [0] x [1], contracting_dims = [3] x [0] : (tensor<1x256x2x256xf32>, tensor<256x1x4xf32>) -> tensor<1x256x2x4xf32>
    %241 = stablehlo.transpose %240, dims = [1, 0, 2, 3] : (tensor<1x256x2x4xf32>) -> tensor<256x1x2x4xf32>
    %242 = stablehlo.reshape %241 : (tensor<256x1x2x4xf32>) -> tensor<256x8xf32>
    %243 = stablehlo.dot_general %242, %arg23, contracting_dims = [1] x [1] : (tensor<256x8xf32>, tensor<8x8xf32>) -> tensor<256x8xf32>
    %244 = stablehlo.add %181, %243 : tensor<256x8xf32>
    %245 = stablehlo.multiply %244, %244 : tensor<256x8xf32>
    %246 = stablehlo.reduce(%245 init: %2) applies stablehlo.add across dimensions = [1] : (tensor<256x8xf32>, tensor<f32>) -> tensor<256xf32>
    %247 = stablehlo.broadcast_in_dim %7, dims = [] : (tensor<f32>) -> tensor<256xf32>
    %248 = stablehlo.divide %246, %247 : tensor<256xf32>
    %249 = stablehlo.broadcast_in_dim %6, dims = [] : (tensor<f32>) -> tensor<256xf32>
    %250 = stablehlo.add %248, %249 : tensor<256xf32>
    %251 = stablehlo.rsqrt %250 : tensor<256xf32>
    %252 = stablehlo.broadcast_in_dim %251, dims = [0] : (tensor<256xf32>) -> tensor<256x8xf32>
    %253 = stablehlo.multiply %244, %252 : tensor<256x8xf32>
    %254 = stablehlo.broadcast_in_dim %arg21, dims = [1] : (tensor<8xf32>) -> tensor<256x8xf32>
    %255 = stablehlo.multiply %253, %254 : tensor<256x8xf32>
    %256 = stablehlo.dot_general %255, %arg29, contracting_dims = [1] x [1] : (tensor<256x8xf32>, tensor<4x8xf32>) -> tensor<256x4xf32>
    %257 = stablehlo.reduce(%256 init: %4) applies stablehlo.maximum across dimensions = [1] : (tensor<256x4xf32>, tensor<f32>) -> tensor<256xf32>
    %258 = stablehlo.broadcast_in_dim %257, dims = [0] : (tensor<256xf32>) -> tensor<256x4xf32>
    %259 = stablehlo.subtract %256, %258 : tensor<256x4xf32>
    %260 = stablehlo.exponential %259 : tensor<256x4xf32>
    %261 = stablehlo.reduce(%260 init: %2) applies stablehlo.add across dimensions = [1] : (tensor<256x4xf32>, tensor<f32>) -> tensor<256xf32>
    %262 = stablehlo.broadcast_in_dim %261, dims = [0] : (tensor<256xf32>) -> tensor<256x4xf32>
    %263 = stablehlo.divide %260, %262 : tensor<256x4xf32>
    %264 = stablehlo.iota dim = 0 : tensor<4xi32>
    %265 = stablehlo.broadcast_in_dim %264, dims = [1] : (tensor<4xi32>) -> tensor<256x4xi32>
    %266 = stablehlo.broadcast_in_dim %2, dims = [] : (tensor<f32>) -> tensor<256x4xf32>
    %267 = stablehlo.broadcast_in_dim %4, dims = [] : (tensor<f32>) -> tensor<256x4xf32>
    %268 = stablehlo.constant dense<0> : tensor<i32>
    %269 = stablehlo.constant dense<0xFF800000> : tensor<f32>
    %270 = stablehlo.iota dim = 1 : tensor<256x4xi32>
    %271:2 = stablehlo.reduce(%263 init: %269), (%270 init: %268) across dimensions = [1] : (tensor<256x4xf32>, tensor<256x4xi32>, tensor<f32>, tensor<i32>) -> (tensor<256xf32>, tensor<256xi32>)
    reducer(%amv_l: tensor<f32>, %amv_r: tensor<f32>) (%ami_l: tensor<i32>, %ami_r: tensor<i32>) {
      %272 = stablehlo.compare GT, %amv_l, %amv_r, FLOAT : (tensor<f32>, tensor<f32>) -> tensor<i1>
      %273 = stablehlo.compare NE, %amv_l, %amv_l, FLOAT : (tensor<f32>, tensor<f32>) -> tensor<i1>
      %274 = stablehlo.or %272, %273 : tensor<i1>
      %275 = stablehlo.compare EQ, %amv_l, %amv_r, FLOAT : (tensor<f32>, tensor<f32>) -> tensor<i1>
      %276 = stablehlo.compare LT, %ami_l, %ami_r, SIGNED : (tensor<i32>, tensor<i32>) -> tensor<i1>
      %277 = stablehlo.and %275, %276 : tensor<i1>
      %278 = stablehlo.or %274, %277 : tensor<i1>
      %279 = stablehlo.select %274, %amv_l, %amv_r : tensor<i1>, tensor<f32>
      %280 = stablehlo.select %278, %ami_l, %ami_r : tensor<i1>, tensor<i32>
      stablehlo.return %279, %280 : tensor<f32>, tensor<i32>
    }
    %281 = stablehlo.broadcast_in_dim %271#1, dims = [0] : (tensor<256xi32>) -> tensor<256x4xi32>
    %282 = stablehlo.compare EQ, %265, %281, SIGNED : (tensor<256x4xi32>, tensor<256x4xi32>) -> tensor<256x4xi1>
    %283 = stablehlo.select %282, %263, %266 : tensor<256x4xi1>, tensor<256x4xf32>
    %284 = stablehlo.reduce(%283 init: %2) applies stablehlo.add across dimensions = [1] : (tensor<256x4xf32>, tensor<f32>) -> tensor<256xf32>
    %285 = stablehlo.select %282, %267, %263 : tensor<256x4xi1>, tensor<256x4xf32>
    %286 = stablehlo.constant dense<0> : tensor<i32>
    %287 = stablehlo.constant dense<0xFF800000> : tensor<f32>
    %288 = stablehlo.iota dim = 1 : tensor<256x4xi32>
    %289:2 = stablehlo.reduce(%285 init: %287), (%288 init: %286) across dimensions = [1] : (tensor<256x4xf32>, tensor<256x4xi32>, tensor<f32>, tensor<i32>) -> (tensor<256xf32>, tensor<256xi32>)
    reducer(%amv_l: tensor<f32>, %amv_r: tensor<f32>) (%ami_l: tensor<i32>, %ami_r: tensor<i32>) {
      %290 = stablehlo.compare GT, %amv_l, %amv_r, FLOAT : (tensor<f32>, tensor<f32>) -> tensor<i1>
      %291 = stablehlo.compare NE, %amv_l, %amv_l, FLOAT : (tensor<f32>, tensor<f32>) -> tensor<i1>
      %292 = stablehlo.or %290, %291 : tensor<i1>
      %293 = stablehlo.compare EQ, %amv_l, %amv_r, FLOAT : (tensor<f32>, tensor<f32>) -> tensor<i1>
      %294 = stablehlo.compare LT, %ami_l, %ami_r, SIGNED : (tensor<i32>, tensor<i32>) -> tensor<i1>
      %295 = stablehlo.and %293, %294 : tensor<i1>
      %296 = stablehlo.or %292, %295 : tensor<i1>
      %297 = stablehlo.select %292, %amv_l, %amv_r : tensor<i1>, tensor<f32>
      %298 = stablehlo.select %296, %ami_l, %ami_r : tensor<i1>, tensor<i32>
      stablehlo.return %297, %298 : tensor<f32>, tensor<i32>
    }
    %299 = stablehlo.broadcast_in_dim %289#1, dims = [0] : (tensor<256xi32>) -> tensor<256x4xi32>
    %300 = stablehlo.compare EQ, %265, %299, SIGNED : (tensor<256x4xi32>, tensor<256x4xi32>) -> tensor<256x4xi1>
    %301 = stablehlo.select %300, %285, %266 : tensor<256x4xi1>, tensor<256x4xf32>
    %302 = stablehlo.reduce(%301 init: %2) applies stablehlo.add across dimensions = [1] : (tensor<256x4xf32>, tensor<f32>) -> tensor<256xf32>
    %303 = stablehlo.select %300, %267, %285 : tensor<256x4xi1>, tensor<256x4xf32>
    %304 = stablehlo.add %284, %302 : tensor<256xf32>
    %305 = stablehlo.divide %284, %304 : tensor<256xf32>
    %306 = stablehlo.divide %302, %304 : tensor<256xf32>
    %307 = stablehlo.broadcast_in_dim %2, dims = [] : (tensor<f32>) -> tensor<256x4xf32>
    %308 = stablehlo.broadcast_in_dim %305, dims = [0] : (tensor<256xf32>) -> tensor<256x4xf32>
    %309 = stablehlo.select %282, %308, %266 : tensor<256x4xi1>, tensor<256x4xf32>
    %310 = stablehlo.add %307, %309 : tensor<256x4xf32>
    %311 = stablehlo.broadcast_in_dim %306, dims = [0] : (tensor<256xf32>) -> tensor<256x4xf32>
    %312 = stablehlo.select %300, %311, %266 : tensor<256x4xi1>, tensor<256x4xf32>
    %313 = stablehlo.add %310, %312 : tensor<256x4xf32>
    %314 = stablehlo.broadcast_in_dim %255, dims = [1, 2] : (tensor<256x8xf32>) -> tensor<4x256x8xf32>
    %315 = stablehlo.dot_general %314, %arg30, batching_dims = [0] x [0], contracting_dims = [2] x [2] : (tensor<4x256x8xf32>, tensor<4x12x8xf32>) -> tensor<4x256x12xf32>
    %316 = stablehlo.dot_general %314, %arg31, batching_dims = [0] x [0], contracting_dims = [2] x [2] : (tensor<4x256x8xf32>, tensor<4x12x8xf32>) -> tensor<4x256x12xf32>
    %317 = stablehlo.broadcast_in_dim %3, dims = [] : (tensor<f32>) -> tensor<4x256x12xf32>
    %318 = stablehlo.negate %315 : tensor<4x256x12xf32>
    %319 = stablehlo.exponential %318 : tensor<4x256x12xf32>
    %320 = stablehlo.add %317, %319 : tensor<4x256x12xf32>
    %321 = stablehlo.divide %317, %320 : tensor<4x256x12xf32>
    %322 = stablehlo.multiply %315, %321 : tensor<4x256x12xf32>
    %323 = stablehlo.multiply %322, %316 : tensor<4x256x12xf32>
    %324 = stablehlo.dot_general %323, %arg32, batching_dims = [0] x [0], contracting_dims = [2] x [2] : (tensor<4x256x12xf32>, tensor<4x8x12xf32>) -> tensor<4x256x8xf32>
    %325 = stablehlo.dot_general %313, %324, batching_dims = [0] x [1], contracting_dims = [1] x [0] : (tensor<256x4xf32>, tensor<4x256x8xf32>) -> tensor<256x8xf32>
    %326 = stablehlo.dot_general %255, %arg33, contracting_dims = [1] x [1] : (tensor<256x8xf32>, tensor<10x8xf32>) -> tensor<256x10xf32>
    %327 = stablehlo.dot_general %255, %arg34, contracting_dims = [1] x [1] : (tensor<256x8xf32>, tensor<10x8xf32>) -> tensor<256x10xf32>
    %328 = stablehlo.broadcast_in_dim %3, dims = [] : (tensor<f32>) -> tensor<256x10xf32>
    %329 = stablehlo.negate %326 : tensor<256x10xf32>
    %330 = stablehlo.exponential %329 : tensor<256x10xf32>
    %331 = stablehlo.add %328, %330 : tensor<256x10xf32>
    %332 = stablehlo.divide %328, %331 : tensor<256x10xf32>
    %333 = stablehlo.multiply %326, %332 : tensor<256x10xf32>
    %334 = stablehlo.multiply %333, %327 : tensor<256x10xf32>
    %335 = stablehlo.dot_general %334, %arg35, contracting_dims = [1] x [1] : (tensor<256x10xf32>, tensor<8x10xf32>) -> tensor<256x8xf32>
    %336 = stablehlo.dot_general %255, %arg36, contracting_dims = [1] x [1] : (tensor<256x8xf32>, tensor<1x8xf32>) -> tensor<256x1xf32>
    %337 = stablehlo.reshape %336 : (tensor<256x1xf32>) -> tensor<256xf32>
    %338 = stablehlo.broadcast_in_dim %3, dims = [] : (tensor<f32>) -> tensor<256xf32>
    %339 = stablehlo.negate %337 : tensor<256xf32>
    %340 = stablehlo.exponential %339 : tensor<256xf32>
    %341 = stablehlo.add %338, %340 : tensor<256xf32>
    %342 = stablehlo.divide %338, %341 : tensor<256xf32>
    %343 = stablehlo.broadcast_in_dim %342, dims = [0] : (tensor<256xf32>) -> tensor<256x8xf32>
    %344 = stablehlo.multiply %335, %343 : tensor<256x8xf32>
    %345 = stablehlo.add %325, %344 : tensor<256x8xf32>
    %346 = stablehlo.add %244, %345 : tensor<256x8xf32>
    %347 = stablehlo.multiply %346, %346 : tensor<256x8xf32>
    %348 = stablehlo.reduce(%347 init: %2) applies stablehlo.add across dimensions = [1] : (tensor<256x8xf32>, tensor<f32>) -> tensor<256xf32>
    %349 = stablehlo.broadcast_in_dim %7, dims = [] : (tensor<f32>) -> tensor<256xf32>
    %350 = stablehlo.divide %348, %349 : tensor<256xf32>
    %351 = stablehlo.broadcast_in_dim %6, dims = [] : (tensor<f32>) -> tensor<256xf32>
    %352 = stablehlo.add %350, %351 : tensor<256xf32>
    %353 = stablehlo.rsqrt %352 : tensor<256xf32>
    %354 = stablehlo.broadcast_in_dim %353, dims = [0] : (tensor<256xf32>) -> tensor<256x8xf32>
    %355 = stablehlo.multiply %346, %354 : tensor<256x8xf32>
    %356 = stablehlo.broadcast_in_dim %arg1, dims = [1] : (tensor<8xf32>) -> tensor<256x8xf32>
    %357 = stablehlo.multiply %355, %356 : tensor<256x8xf32>
    %358 = stablehlo.constant dense<1> : tensor<i32>
    %359 = stablehlo.subtract %arg39, %358 : tensor<i32>
    %360 = stablehlo.dynamic_slice %357, %359, %9, sizes = [1, 8] : (tensor<256x8xf32>, tensor<i32>, tensor<i32>) -> tensor<1x8xf32>
    %361 = stablehlo.reshape %360 : (tensor<1x8xf32>) -> tensor<8xf32>
    %362 = stablehlo.dot_general %361, %arg2, contracting_dims = [0] x [1] : (tensor<8xf32>, tensor<10x8xf32>) -> tensor<10xf32>
    return %362, %224, %226 : tensor<10xf32>, tensor<2x256x1x4xf32>, tensor<2x256x1x4xf32>
  }
}
