module @decode_step {
  func.func public @main(%arg0: tensor<10x8xf32> loc("params['embed']"), %arg1: tensor<8xf32> loc("params['final_norm']"), %arg2: tensor<8x16xf32> loc("params['layers'][0]['down']"), %arg3: tensor<16x8xf32> loc("params['layers'][0]['gate']"), %arg4: tensor<8xf32> loc("params['layers'][0]['in_ln']"), %arg5: tensor<8xf32> loc("params['layers'][0]['post_ln']"), %arg6: tensor<16x8xf32> loc("params['layers'][0]['up']"), %arg7: tensor<4x8xf32> loc("params['layers'][0]['wk']"), %arg8: tensor<8x8xf32> loc("params['layers'][0]['wo']"), %arg9: tensor<8x8xf32> loc("params['layers'][0]['wq']"), %arg10: tensor<4x8xf32> loc("params['layers'][0]['wv']"), %arg11: tensor<8x16xf32> loc("params['layers'][1]['down']"), %arg12: tensor<16x8xf32> loc("params['layers'][1]['gate']"), %arg13: tensor<8xf32> loc("params['layers'][1]['in_ln']"), %arg14: tensor<8xf32> loc("params['layers'][1]['post_ln']"), %arg15: tensor<16x8xf32> loc("params['layers'][1]['up']"), %arg16: tensor<4x8xf32> loc("params['layers'][1]['wk']"), %arg17: tensor<8x8xf32> loc("params['layers'][1]['wo']"), %arg18: tensor<8x8xf32> loc("params['layers'][1]['wq']"), %arg19: tensor<4x8xf32> loc("params['layers'][1]['wv']"), %arg20: tensor<i32> loc("token"), %arg21: tensor<i32> loc("pos"), %arg22: tensor<i32> loc("cache_len"), %arg23: tensor<2x256x1x4xf32> loc("kcache"), %arg24: tensor<2x256x1x4xf32> loc("vcache")) -> (tensor<i32>, tensor<2x256x1x4xf32>, tensor<2x256x1x4xf32>) {
    %0 = stablehlo.constant dense<"…"> : tensor<256x4xf32>
    %1 = stablehlo.constant dense<"…"> : tensor<256x4xf32>
    %2 = stablehlo.constant dense<0x00000000> : tensor<f32>
    %3 = stablehlo.constant dense<0x3F800000> : tensor<f32>
    %4 = stablehlo.constant dense<0xFF800000> : tensor<f32>
    %5 = stablehlo.constant dense<0xF149F2CA> : tensor<f32>
    %6 = stablehlo.constant dense<0x3727C5AC> : tensor<f32>
    %7 = stablehlo.constant dense<0x41000000> : tensor<f32>
    %8 = stablehlo.constant dense<0x3F000000> : tensor<f32>
    %9 = stablehlo.constant dense<0> : tensor<i32>
    %10 = stablehlo.constant dense<0> : tensor<i32>
    %11 = stablehlo.constant dense<1> : tensor<i32>
    %12 = stablehlo.dynamic_slice %arg0, %arg20, %9, sizes = [1, 8] : (tensor<10x8xf32>, tensor<i32>, tensor<i32>) -> tensor<1x8xf32>
    %13 = stablehlo.reshape %12 : (tensor<1x8xf32>) -> tensor<8xf32>
    %14 = stablehlo.dynamic_slice %0, %arg21, %9, sizes = [1, 4] : (tensor<256x4xf32>, tensor<i32>, tensor<i32>) -> tensor<1x4xf32>
    %15 = stablehlo.reshape %14 : (tensor<1x4xf32>) -> tensor<4xf32>
    %16 = stablehlo.dynamic_slice %1, %arg21, %9, sizes = [1, 4] : (tensor<256x4xf32>, tensor<i32>, tensor<i32>) -> tensor<1x4xf32>
    %17 = stablehlo.reshape %16 : (tensor<1x4xf32>) -> tensor<4xf32>
    %18 = stablehlo.iota dim = 0 : tensor<256xi32>
    %19 = stablehlo.broadcast_in_dim %arg22, dims = [] : (tensor<i32>) -> tensor<256xi32>
    %20 = stablehlo.compare LE, %18, %19, SIGNED : (tensor<256xi32>, tensor<256xi32>) -> tensor<256xi1>
    %21 = stablehlo.broadcast_in_dim %2, dims = [] : (tensor<f32>) -> tensor<256xf32>
    %22 = stablehlo.broadcast_in_dim %5, dims = [] : (tensor<f32>) -> tensor<256xf32>
    %23 = stablehlo.select %20, %21, %22 : tensor<256xi1>, tensor<256xf32>
    %24 = stablehlo.multiply %13, %13 : tensor<8xf32>
    %25 = stablehlo.reduce(%24 init: %2) applies stablehlo.add across dimensions = [0] : (tensor<8xf32>, tensor<f32>) -> tensor<f32>
    %26 = stablehlo.divide %25, %7 : tensor<f32>
    %27 = stablehlo.add %26, %6 : tensor<f32>
    %28 = stablehlo.rsqrt %27 : tensor<f32>
    %29 = stablehlo.broadcast_in_dim %28, dims = [] : (tensor<f32>) -> tensor<8xf32>
    %30 = stablehlo.multiply %13, %29 : tensor<8xf32>
    %31 = stablehlo.multiply %30, %arg4 : tensor<8xf32>
    %32 = stablehlo.dot_general %31, %arg9, contracting_dims = [0] x [1] : (tensor<8xf32>, tensor<8x8xf32>) -> tensor<8xf32>
    %33 = stablehlo.reshape %32 : (tensor<8xf32>) -> tensor<2x4xf32>
    %34 = stablehlo.dot_general %31, %arg7, contracting_dims = [0] x [1] : (tensor<8xf32>, tensor<4x8xf32>) -> tensor<4xf32>
    %35 = stablehlo.reshape %34 : (tensor<4xf32>) -> tensor<1x4xf32>
    %36 = stablehlo.dot_general %31, %arg10, contracting_dims = [0] x [1] : (tensor<8xf32>, tensor<4x8xf32>) -> tensor<4xf32>
    %37 = stablehlo.reshape %36 : (tensor<4xf32>) -> tensor<1x4xf32>
    %38 = stablehlo.broadcast_in_dim %15, dims = [1] : (tensor<4xf32>) -> tensor<2x4xf32>
    %39 = stablehlo.broadcast_in_dim %17, dims = [1] : (tensor<4xf32>) -> tensor<2x4xf32>
    %40 = stablehlo.multiply %33, %38 : tensor<2x4xf32>
    %41 = stablehlo.slice %33 [0:2, 0:2] : (tensor<2x4xf32>) -> tensor<2x2xf32>
    %42 = stablehlo.slice %33 [0:2, 2:4] : (tensor<2x4xf32>) -> tensor<2x2xf32>
    %43 = stablehlo.negate %42 : tensor<2x2xf32>
    %44 = stablehlo.concatenate %43, %41, dim = 1 : (tensor<2x2xf32>, tensor<2x2xf32>) -> tensor<2x4xf32>
    %45 = stablehlo.multiply %44, %39 : tensor<2x4xf32>
    %46 = stablehlo.add %40, %45 : tensor<2x4xf32>
    %47 = stablehlo.broadcast_in_dim %15, dims = [1] : (tensor<4xf32>) -> tensor<1x4xf32>
    %48 = stablehlo.broadcast_in_dim %17, dims = [1] : (tensor<4xf32>) -> tensor<1x4xf32>
    %49 = stablehlo.multiply %35, %47 : tensor<1x4xf32>
    %50 = stablehlo.slice %35 [0:1, 0:2] : (tensor<1x4xf32>) -> tensor<1x2xf32>
    %51 = stablehlo.slice %35 [0:1, 2:4] : (tensor<1x4xf32>) -> tensor<1x2xf32>
    %52 = stablehlo.negate %51 : tensor<1x2xf32>
    %53 = stablehlo.concatenate %52, %50, dim = 1 : (tensor<1x2xf32>, tensor<1x2xf32>) -> tensor<1x4xf32>
    %54 = stablehlo.multiply %53, %48 : tensor<1x4xf32>
    %55 = stablehlo.add %49, %54 : tensor<1x4xf32>
    %56 = stablehlo.reshape %55 : (tensor<1x4xf32>) -> tensor<1x1x1x4xf32>
    %57 = stablehlo.dynamic_update_slice %arg23, %56, %10, %arg22, %9, %9 : (tensor<2x256x1x4xf32>, tensor<1x1x1x4xf32>, tensor<i32>, tensor<i32>, tensor<i32>, tensor<i32>) -> tensor<2x256x1x4xf32>
    %58 = stablehlo.reshape %37 : (tensor<1x4xf32>) -> tensor<1x1x1x4xf32>
    %59 = stablehlo.dynamic_update_slice %arg24, %58, %10, %arg22, %9, %9 : (tensor<2x256x1x4xf32>, tensor<1x1x1x4xf32>, tensor<i32>, tensor<i32>, tensor<i32>, tensor<i32>) -> tensor<2x256x1x4xf32>
    %60 = stablehlo.slice %57 [0:1, 0:256, 0:1, 0:4] : (tensor<2x256x1x4xf32>) -> tensor<1x256x1x4xf32>
    %61 = stablehlo.reshape %60 : (tensor<1x256x1x4xf32>) -> tensor<256x1x4xf32>
    %62 = stablehlo.slice %59 [0:1, 0:256, 0:1, 0:4] : (tensor<2x256x1x4xf32>) -> tensor<1x256x1x4xf32>
    %63 = stablehlo.reshape %62 : (tensor<1x256x1x4xf32>) -> tensor<256x1x4xf32>
    %64 = stablehlo.reshape %46 : (tensor<2x4xf32>) -> tensor<1x2x4xf32>
    %65 = stablehlo.dot_general %64, %61, batching_dims = [0] x [1], contracting_dims = [2] x [2] : (tensor<1x2x4xf32>, tensor<256x1x4xf32>) -> tensor<1x2x256xf32>
    %66 = stablehlo.reshape %65 : (tensor<1x2x256xf32>) -> tensor<2x256xf32>
    %67 = stablehlo.broadcast_in_dim %8, dims = [] : (tensor<f32>) -> tensor<2x256xf32>
    %68 = stablehlo.multiply %66, %67 : tensor<2x256xf32>
    %69 = stablehlo.broadcast_in_dim %23, dims = [1] : (tensor<256xf32>) -> tensor<2x256xf32>
    %70 = stablehlo.add %68, %69 : tensor<2x256xf32>
    %71 = stablehlo.reduce(%70 init: %4) applies stablehlo.maximum across dimensions = [1] : (tensor<2x256xf32>, tensor<f32>) -> tensor<2xf32>
    %72 = stablehlo.broadcast_in_dim %71, dims = [0] : (tensor<2xf32>) -> tensor<2x256xf32>
    %73 = stablehlo.subtract %70, %72 : tensor<2x256xf32>
    %74 = stablehlo.exponential %73 : tensor<2x256xf32>
    %75 = stablehlo.reduce(%74 init: %2) applies stablehlo.add across dimensions = [1] : (tensor<2x256xf32>, tensor<f32>) -> tensor<2xf32>
    %76 = stablehlo.broadcast_in_dim %75, dims = [0] : (tensor<2xf32>) -> tensor<2x256xf32>
    %77 = stablehlo.divide %74, %76 : tensor<2x256xf32>
    %78 = stablehlo.reshape %77 : (tensor<2x256xf32>) -> tensor<1x2x256xf32>
    %79 = stablehlo.dot_general %78, %63, batching_dims = [0] x [1], contracting_dims = [2] x [0] : (tensor<1x2x256xf32>, tensor<256x1x4xf32>) -> tensor<1x2x4xf32>
    %80 = stablehlo.reshape %79 : (tensor<1x2x4xf32>) -> tensor<2x4xf32>
    %81 = stablehlo.reshape %80 : (tensor<2x4xf32>) -> tensor<8xf32>
    %82 = stablehlo.dot_general %81, %arg8, contracting_dims = [0] x [1] : (tensor<8xf32>, tensor<8x8xf32>) -> tensor<8xf32>
    %83 = stablehlo.add %13, %82 : tensor<8xf32>
    %84 = stablehlo.multiply %83, %83 : tensor<8xf32>
    %85 = stablehlo.reduce(%84 init: %2) applies stablehlo.add across dimensions = [0] : (tensor<8xf32>, tensor<f32>) -> tensor<f32>
    %86 = stablehlo.divide %85, %7 : tensor<f32>
    %87 = stablehlo.add %86, %6 : tensor<f32>
    %88 = stablehlo.rsqrt %87 : tensor<f32>
    %89 = stablehlo.broadcast_in_dim %88, dims = [] : (tensor<f32>) -> tensor<8xf32>
    %90 = stablehlo.multiply %83, %89 : tensor<8xf32>
    %91 = stablehlo.multiply %90, %arg5 : tensor<8xf32>
    %92 = stablehlo.dot_general %91, %arg3, contracting_dims = [0] x [1] : (tensor<8xf32>, tensor<16x8xf32>) -> tensor<16xf32>
    %93 = stablehlo.dot_general %91, %arg6, contracting_dims = [0] x [1] : (tensor<8xf32>, tensor<16x8xf32>) -> tensor<16xf32>
    %94 = stablehlo.negate %92 : tensor<16xf32>
    %95 = stablehlo.exponential %94 : tensor<16xf32>
    %96 = stablehlo.broadcast_in_dim %3, dims = [] : (tensor<f32>) -> tensor<16xf32>
    %97 = stablehlo.add %96, %95 : tensor<16xf32>
    %98 = stablehlo.divide %96, %97 : tensor<16xf32>
    %99 = stablehlo.multiply %92, %98 : tensor<16xf32>
    %100 = stablehlo.multiply %99, %93 : tensor<16xf32>
    %101 = stablehlo.dot_general %100, %arg2, contracting_dims = [0] x [1] : (tensor<16xf32>, tensor<8x16xf32>) -> tensor<8xf32>
    %102 = stablehlo.add %83, %101 : tensor<8xf32>
    %103 = stablehlo.multiply %102, %102 : tensor<8xf32>
    %104 = stablehlo.reduce(%103 init: %2) applies stablehlo.add across dimensions = [0] : (tensor<8xf32>, tensor<f32>) -> tensor<f32>
    %105 = stablehlo.divide %104, %7 : tensor<f32>
    %106 = stablehlo.add %105, %6 : tensor<f32>
    %107 = stablehlo.rsqrt %106 : tensor<f32>
    %108 = stablehlo.broadcast_in_dim %107, dims = [] : (tensor<f32>) -> tensor<8xf32>
    %109 = stablehlo.multiply %102, %108 : tensor<8xf32>
    %110 = stablehlo.multiply %109, %arg13 : tensor<8xf32>
    %111 = stablehlo.dot_general %110, %arg18, contracting_dims = [0] x [1] : (tensor<8xf32>, tensor<8x8xf32>) -> tensor<8xf32>
    %112 = stablehlo.reshape %111 : (tensor<8xf32>) -> tensor<2x4xf32>
    %113 = stablehlo.dot_general %110, %arg16, contracting_dims = [0] x [1] : (tensor<8xf32>, tensor<4x8xf32>) -> tensor<4xf32>
    %114 = stablehlo.reshape %113 : (tensor<4xf32>) -> tensor<1x4xf32>
    %115 = stablehlo.dot_general %110, %arg19, contracting_dims = [0] x [1] : (tensor<8xf32>, tensor<4x8xf32>) -> tensor<4xf32>
    %116 = stablehlo.reshape %115 : (tensor<4xf32>) -> tensor<1x4xf32>
    %117 = stablehlo.broadcast_in_dim %15, dims = [1] : (tensor<4xf32>) -> tensor<2x4xf32>
    %118 = stablehlo.broadcast_in_dim %17, dims = [1] : (tensor<4xf32>) -> tensor<2x4xf32>
    %119 = stablehlo.multiply %112, %117 : tensor<2x4xf32>
    %120 = stablehlo.slice %112 [0:2, 0:2] : (tensor<2x4xf32>) -> tensor<2x2xf32>
    %121 = stablehlo.slice %112 [0:2, 2:4] : (tensor<2x4xf32>) -> tensor<2x2xf32>
    %122 = stablehlo.negate %121 : tensor<2x2xf32>
    %123 = stablehlo.concatenate %122, %120, dim = 1 : (tensor<2x2xf32>, tensor<2x2xf32>) -> tensor<2x4xf32>
    %124 = stablehlo.multiply %123, %118 : tensor<2x4xf32>
    %125 = stablehlo.add %119, %124 : tensor<2x4xf32>
    %126 = stablehlo.broadcast_in_dim %15, dims = [1] : (tensor<4xf32>) -> tensor<1x4xf32>
    %127 = stablehlo.broadcast_in_dim %17, dims = [1] : (tensor<4xf32>) -> tensor<1x4xf32>
    %128 = stablehlo.multiply %114, %126 : tensor<1x4xf32>
    %129 = stablehlo.slice %114 [0:1, 0:2] : (tensor<1x4xf32>) -> tensor<1x2xf32>
    %130 = stablehlo.slice %114 [0:1, 2:4] : (tensor<1x4xf32>) -> tensor<1x2xf32>
    %131 = stablehlo.negate %130 : tensor<1x2xf32>
    %132 = stablehlo.concatenate %131, %129, dim = 1 : (tensor<1x2xf32>, tensor<1x2xf32>) -> tensor<1x4xf32>
    %133 = stablehlo.multiply %132, %127 : tensor<1x4xf32>
    %134 = stablehlo.add %128, %133 : tensor<1x4xf32>
    %135 = stablehlo.reshape %134 : (tensor<1x4xf32>) -> tensor<1x1x1x4xf32>
    %136 = stablehlo.dynamic_update_slice %57, %135, %11, %arg22, %9, %9 : (tensor<2x256x1x4xf32>, tensor<1x1x1x4xf32>, tensor<i32>, tensor<i32>, tensor<i32>, tensor<i32>) -> tensor<2x256x1x4xf32>
    %137 = stablehlo.reshape %116 : (tensor<1x4xf32>) -> tensor<1x1x1x4xf32>
    %138 = stablehlo.dynamic_update_slice %59, %137, %11, %arg22, %9, %9 : (tensor<2x256x1x4xf32>, tensor<1x1x1x4xf32>, tensor<i32>, tensor<i32>, tensor<i32>, tensor<i32>) -> tensor<2x256x1x4xf32>
    %139 = stablehlo.slice %136 [1:2, 0:256, 0:1, 0:4] : (tensor<2x256x1x4xf32>) -> tensor<1x256x1x4xf32>
    %140 = stablehlo.reshape %139 : (tensor<1x256x1x4xf32>) -> tensor<256x1x4xf32>
    %141 = stablehlo.slice %138 [1:2, 0:256, 0:1, 0:4] : (tensor<2x256x1x4xf32>) -> tensor<1x256x1x4xf32>
    %142 = stablehlo.reshape %141 : (tensor<1x256x1x4xf32>) -> tensor<256x1x4xf32>
    %143 = stablehlo.reshape %125 : (tensor<2x4xf32>) -> tensor<1x2x4xf32>
    %144 = stablehlo.dot_general %143, %140, batching_dims = [0] x [1], contracting_dims = [2] x [2] : (tensor<1x2x4xf32>, tensor<256x1x4xf32>) -> tensor<1x2x256xf32>
    %145 = stablehlo.reshape %144 : (tensor<1x2x256xf32>) -> tensor<2x256xf32>
    %146 = stablehlo.broadcast_in_dim %8, dims = [] : (tensor<f32>) -> tensor<2x256xf32>
    %147 = stablehlo.multiply %145, %146 : tensor<2x256xf32>
    %148 = stablehlo.broadcast_in_dim %23, dims = [1] : (tensor<256xf32>) -> tensor<2x256xf32>
    %149 = stablehlo.add %147, %148 : tensor<2x256xf32>
    %150 = stablehlo.reduce(%149 init: %4) applies stablehlo.maximum across dimensions = [1] : (tensor<2x256xf32>, tensor<f32>) -> tensor<2xf32>
    %151 = stablehlo.broadcast_in_dim %150, dims = [0] : (tensor<2xf32>) -> tensor<2x256xf32>
    %152 = stablehlo.subtract %149, %151 : tensor<2x256xf32>
    %153 = stablehlo.exponential %152 : tensor<2x256xf32>
    %154 = stablehlo.reduce(%153 init: %2) applies stablehlo.add across dimensions = [1] : (tensor<2x256xf32>, tensor<f32>) -> tensor<2xf32>
    %155 = stablehlo.broadcast_in_dim %154, dims = [0] : (tensor<2xf32>) -> tensor<2x256xf32>
    %156 = stablehlo.divide %153, %155 : tensor<2x256xf32>
    %157 = stablehlo.reshape %156 : (tensor<2x256xf32>) -> tensor<1x2x256xf32>
    %158 = stablehlo.dot_general %157, %142, batching_dims = [0] x [1], contracting_dims = [2] x [0] : (tensor<1x2x256xf32>, tensor<256x1x4xf32>) -> tensor<1x2x4xf32>
    %159 = stablehlo.reshape %158 : (tensor<1x2x4xf32>) -> tensor<2x4xf32>
    %160 = stablehlo.reshape %159 : (tensor<2x4xf32>) -> tensor<8xf32>
    %161 = stablehlo.dot_general %160, %arg17, contracting_dims = [0] x [1] : (tensor<8xf32>, tensor<8x8xf32>) -> tensor<8xf32>
    %162 = stablehlo.add %102, %161 : tensor<8xf32>
    %163 = stablehlo.multiply %162, %162 : tensor<8xf32>
    %164 = stablehlo.reduce(%163 init: %2) applies stablehlo.add across dimensions = [0] : (tensor<8xf32>, tensor<f32>) -> tensor<f32>
    %165 = stablehlo.divide %164, %7 : tensor<f32>
    %166 = stablehlo.add %165, %6 : tensor<f32>
    %167 = stablehlo.rsqrt %166 : tensor<f32>
    %168 = stablehlo.broadcast_in_dim %167, dims = [] : (tensor<f32>) -> tensor<8xf32>
    %169 = stablehlo.multiply %162, %168 : tensor<8xf32>
    %170 = stablehlo.multiply %169, %arg14 : tensor<8xf32>
    %171 = stablehlo.dot_general %170, %arg12, contracting_dims = [0] x [1] : (tensor<8xf32>, tensor<16x8xf32>) -> tensor<16xf32>
    %172 = stablehlo.dot_general %170, %arg15, contracting_dims = [0] x [1] : (tensor<8xf32>, tensor<16x8xf32>) -> tensor<16xf32>
    %173 = stablehlo.negate %171 : tensor<16xf32>
    %174 = stablehlo.exponential %173 : tensor<16xf32>
    %175 = stablehlo.broadcast_in_dim %3, dims = [] : (tensor<f32>) -> tensor<16xf32>
    %176 = stablehlo.add %175, %174 : tensor<16xf32>
    %177 = stablehlo.divide %175, %176 : tensor<16xf32>
    %178 = stablehlo.multiply %171, %177 : tensor<16xf32>
    %179 = stablehlo.multiply %178, %172 : tensor<16xf32>
    %180 = stablehlo.dot_general %179, %arg11, contracting_dims = [0] x [1] : (tensor<16xf32>, tensor<8x16xf32>) -> tensor<8xf32>
    %181 = stablehlo.add %162, %180 : tensor<8xf32>
    %182 = stablehlo.multiply %181, %181 : tensor<8xf32>
    %183 = stablehlo.reduce(%182 init: %2) applies stablehlo.add across dimensions = [0] : (tensor<8xf32>, tensor<f32>) -> tensor<f32>
    %184 = stablehlo.divide %183, %7 : tensor<f32>
    %185 = stablehlo.add %184, %6 : tensor<f32>
    %186 = stablehlo.rsqrt %185 : tensor<f32>
    %187 = stablehlo.broadcast_in_dim %186, dims = [] : (tensor<f32>) -> tensor<8xf32>
    %188 = stablehlo.multiply %181, %187 : tensor<8xf32>
    %189 = stablehlo.multiply %188, %arg1 : tensor<8xf32>
    %190 = stablehlo.dot_general %189, %arg0, contracting_dims = [0] x [1] : (tensor<8xf32>, tensor<10x8xf32>) -> tensor<10xf32>
    %191 = stablehlo.constant dense<0> : tensor<i32>
    %192 = stablehlo.constant dense<0xFF800000> : tensor<f32>
    %193 = stablehlo.iota dim = 0 : tensor<10xi32>
    %194:2 = stablehlo.reduce(%190 init: %192), (%193 init: %191) across dimensions = [0] : (tensor<10xf32>, tensor<10xi32>, tensor<f32>, tensor<i32>) -> (tensor<f32>, tensor<i32>)
    reducer(%amv_l: tensor<f32>, %amv_r: tensor<f32>) (%ami_l: tensor<i32>, %ami_r: tensor<i32>) {
      %195 = stablehlo.compare GT, %amv_l, %amv_r, FLOAT : (tensor<f32>, tensor<f32>) -> tensor<i1>
      %196 = stablehlo.compare NE, %amv_l, %amv_l, FLOAT : (tensor<f32>, tensor<f32>) -> tensor<i1>
      %197 = stablehlo.or %195, %196 : tensor<i1>
      %198 = stablehlo.compare EQ, %amv_l, %amv_r, FLOAT : (tensor<f32>, tensor<f32>) -> tensor<i1>
      %199 = stablehlo.compare LT, %ami_l, %ami_r, SIGNED : (tensor<i32>, tensor<i32>) -> tensor<i1>
      %200 = stablehlo.and %198, %199 : tensor<i1>
      %201 = stablehlo.or %197, %200 : tensor<i1>
      %202 = stablehlo.select %197, %amv_l, %amv_r : tensor<i1>, tensor<f32>
      %203 = stablehlo.select %201, %ami_l, %ami_r : tensor<i1>, tensor<i32>
      stablehlo.return %202, %203 : tensor<f32>, tensor<i32>
    }
    return %194#1, %136, %138 : tensor<i32>, tensor<2x256x1x4xf32>, tensor<2x256x1x4xf32>
  }
}
