module @prefill {
  func.func public @main(%arg0: tensor<10x8xf32> loc("params['embed']"), %arg1: tensor<8xf32> loc("params['final_norm']"), %arg2: tensor<8x16xf32> loc("params['layers'][0]['down']"), %arg3: tensor<16x8xf32> loc("params['layers'][0]['gate']"), %arg4: tensor<8xf32> loc("params['layers'][0]['in_ln']"), %arg5: tensor<8xf32> loc("params['layers'][0]['post_ln']"), %arg6: tensor<16x8xf32> loc("params['layers'][0]['up']"), %arg7: tensor<4x8xf32> loc("params['layers'][0]['wk']"), %arg8: tensor<8x8xf32> loc("params['layers'][0]['wo']"), %arg9: tensor<8x8xf32> loc("params['layers'][0]['wq']"), %arg10: tensor<4x8xf32> loc("params['layers'][0]['wv']"), %arg11: tensor<8x16xf32> loc("params['layers'][1]['down']"), %arg12: tensor<16x8xf32> loc("params['layers'][1]['gate']"), %arg13: tensor<8xf32> loc("params['layers'][1]['in_ln']"), %arg14: tensor<8xf32> loc("params['layers'][1]['post_ln']"), %arg15: tensor<16x8xf32> loc("params['layers'][1]['up']"), %arg16: tensor<4x8xf32> loc("params['layers'][1]['wk']"), %arg17: tensor<8x8xf32> loc("params['layers'][1]['wo']"), %arg18: tensor<8x8xf32> loc("params['layers'][1]['wq']"), %arg19: tensor<4x8xf32> loc("params['layers'][1]['wv']"), %arg20: tensor<256xi32> loc("tokens"), %arg21: tensor<256xi32> loc("positions"), %arg22: tensor<i32> loc("real_len")) -> (tensor<i32>, tensor<2x256x1x4xf32>, tensor<2x256x1x4xf32>) {
    %0 = stablehlo.constant dense<"…"> : tensor<256x4xf32>
    %1 = stablehlo.constant dense<"…"> : tensor<256x4xf32>
    %2 = stablehlo.constant dense<0x00000000> : tensor<f32>
    %3 = stablehlo.constant dense<0x3F800000> : tensor<f32>
    %4 = stablehlo.constant dense<0xFF800000> : tensor<f32>
    %5 = stablehlo.constant dense<0xF149F2CA> : tensor<f32>
    %6 = stablehlo.constant dense<0x3727C5AC> : tensor<f32>
    %7 = stablehlo.constant dense<0x41000000> : tensor<f32>
    %8 = stablehlo.constant dense<0x3F000000> : tensor<f32>
    %9 = stablehlo.constant dense<0> : tensor<i32>
    %10 = stablehlo.constant dense<0> : tensor<i32>
    %11 = stablehlo.constant dense<1> : tensor<i32>
    %12 = stablehlo.reshape %arg20 : (tensor<256xi32>) -> tensor<256x1xi32>
    %13 = "stablehlo.gather"(%arg0, %12) <{dimension_numbers = #stablehlo.gather<offset_dims = [1], collapsed_slice_dims = [0], start_index_map = [0], index_vector_dim = 1>, slice_sizes = array<i64: 1, 8>}> : (tensor<10x8xf32>, tensor<256x1xi32>) -> tensor<256x8xf32>
    %14 = stablehlo.reshape %arg21 : (tensor<256xi32>) -> tensor<256x1xi32>
    %15 = "stablehlo.gather"(%0, %14) <{dimension_numbers = #stablehlo.gather<offset_dims = [1], collapsed_slice_dims = [0], start_index_map = [0], index_vector_dim = 1>, slice_sizes = array<i64: 1, 4>}> : (tensor<256x4xf32>, tensor<256x1xi32>) -> tensor<256x4xf32>
    %16 = "stablehlo.gather"(%1, %14) <{dimension_numbers = #stablehlo.gather<offset_dims = [1], collapsed_slice_dims = [0], start_index_map = [0], index_vector_dim = 1>, slice_sizes = array<i64: 1, 4>}> : (tensor<256x4xf32>, tensor<256x1xi32>) -> tensor<256x4xf32>
    %17 = stablehlo.iota dim = 0 : tensor<256xi32>
    %18 = stablehlo.broadcast_in_dim %17, dims = [0] : (tensor<256xi32>) -> tensor<256x256xi32>
    %19 = stablehlo.iota dim = 0 : tensor<256xi32>
    %20 = stablehlo.broadcast_in_dim %19, dims = [1] : (tensor<256xi32>) -> tensor<256x256xi32>
    %21 = stablehlo.compare LE, %20, %18, SIGNED : (tensor<256x256xi32>, tensor<256x256xi32>) -> tensor<256x256xi1>
    %22 = stablehlo.broadcast_in_dim %2, dims = [] : (tensor<f32>) -> tensor<256x256xf32>
    %23 = stablehlo.broadcast_in_dim %5, dims = [] : (tensor<f32>) -> tensor<256x256xf32>
    %24 = stablehlo.select %21, %22, %23 : tensor<256x256xi1>, tensor<256x256xf32>
    %25 = stablehlo.broadcast_in_dim %2, dims = [] : (tensor<f32>) -> tensor<2x256x1x4xf32>
    %26 = stablehlo.broadcast_in_dim %2, dims = [] : (tensor<f32>) -> tensor<2x256x1x4xf32>
    %27 = stablehlo.multiply %13, %13 : tensor<256x8xf32>
    %28 = stablehlo.reduce(%27 init: %2) applies stablehlo.add across dimensions = [1] : (tensor<256x8xf32>, tensor<f32>) -> tensor<256xf32>
    %29 = stablehlo.broadcast_in_dim %7, dims = [] : (tensor<f32>) -> tensor<256xf32>
    %30 = stablehlo.divide %28, %29 : tensor<256xf32>
    %31 = stablehlo.broadcast_in_dim %6, dims = [] : (tensor<f32>) -> tensor<256xf32>
    %32 = stablehlo.add %30, %31 : tensor<256xf32>
    %33 = stablehlo.rsqrt %32 : tensor<256xf32>
    %34 = stablehlo.broadcast_in_dim %33, dims = [0] : (tensor<256xf32>) -> tensor<256x8xf32>
    %35 = stablehlo.multiply %13, %34 : tensor<256x8xf32>
    %36 = stablehlo.broadcast_in_dim %arg4, dims = [1] : (tensor<8xf32>) -> tensor<256x8xf32>
    %37 = stablehlo.multiply %35, %36 : tensor<256x8xf32>
    %38 = stablehlo.dot_general %37, %arg9, contracting_dims = [1] x [1] : (tensor<256x8xf32>, tensor<8x8xf32>) -> tensor<256x8xf32>
    %39 = stablehlo.reshape %38 : (tensor<256x8xf32>) -> tensor<256x2x4xf32>
    %40 = stablehlo.dot_general %37, %arg7, contracting_dims = [1] x [1] : (tensor<256x8xf32>, tensor<4x8xf32>) -> tensor<256x4xf32>
    %41 = stablehlo.reshape %40 : (tensor<256x4xf32>) -> tensor<256x1x4xf32>
    %42 = stablehlo.dot_general %37, %arg10, contracting_dims = [1] x [1] : (tensor<256x8xf32>, tensor<4x8xf32>) -> tensor<256x4xf32>
    %43 = stablehlo.reshape %42 : (tensor<256x4xf32>) -> tensor<256x1x4xf32>
    %44 = stablehlo.broadcast_in_dim %15, dims = [0, 2] : (tensor<256x4xf32>) -> tensor<256x2x4xf32>
    %45 = stablehlo.broadcast_in_dim %16, dims = [0, 2] : (tensor<256x4xf32>) -> tensor<256x2x4xf32>
    %46 = stablehlo.multiply %39, %44 : tensor<256x2x4xf32>
    %47 = stablehlo.slice %39 [0:256, 0:2, 0:2] : (tensor<256x2x4xf32>) -> tensor<256x2x2xf32>
    %48 = stablehlo.slice %39 [0:256, 0:2, 2:4] : (tensor<256x2x4xf32>) -> tensor<256x2x2xf32>
    %49 = stablehlo.negate %48 : tensor<256x2x2xf32>
    %50 = stablehlo.concatenate %49, %47, dim = 2 : (tensor<256x2x2xf32>, tensor<256x2x2xf32>) -> tensor<256x2x4xf32>
    %51 = stablehlo.multiply %50, %45 : tensor<256x2x4xf32>
    %52 = stablehlo.add %46, %51 : tensor<256x2x4xf32>
    %53 = stablehlo.broadcast_in_dim %15, dims = [0, 2] : (tensor<256x4xf32>) -> tensor<256x1x4xf32>
    %54 = stablehlo.broadcast_in_dim %16, dims = [0, 2] : (tensor<256x4xf32>) -> tensor<256x1x4xf32>
    %55 = stablehlo.multiply %41, %53 : tensor<256x1x4xf32>
    %56 = stablehlo.slice %41 [0:256, 0:1, 0:2] : (tensor<256x1x4xf32>) -> tensor<256x1x2xf32>
    %57 = stablehlo.slice %41 [0:256, 0:1, 2:4] : (tensor<256x1x4xf32>) -> tensor<256x1x2xf32>
    %58 = stablehlo.negate %57 : tensor<256x1x2xf32>
    %59 = stablehlo.concatenate %58, %56, dim = 2 : (tensor<256x1x2xf32>, tensor<256x1x2xf32>) -> tensor<256x1x4xf32>
    %60 = stablehlo.multiply %59, %54 : tensor<256x1x4xf32>
    %61 = stablehlo.add %55, %60 : tensor<256x1x4xf32>
    %62 = stablehlo.reshape %61 : (tensor<256x1x4xf32>) -> tensor<1x256x1x4xf32>
    %63 = stablehlo.dynamic_update_slice %25, %62, %10, %9, %9, %9 : (tensor<2x256x1x4xf32>, tensor<1x256x1x4xf32>, tensor<i32>, tensor<i32>, tensor<i32>, tensor<i32>) -> tensor<2x256x1x4xf32>
    %64 = stablehlo.reshape %43 : (tensor<256x1x4xf32>) -> tensor<1x256x1x4xf32>
    %65 = stablehlo.dynamic_update_slice %26, %64, %10, %9, %9, %9 : (tensor<2x256x1x4xf32>, tensor<1x256x1x4xf32>, tensor<i32>, tensor<i32>, tensor<i32>, tensor<i32>) -> tensor<2x256x1x4xf32>
    %66 = stablehlo.reshape %52 : (tensor<256x2x4xf32>) -> tensor<256x1x2x4xf32>
    %67 = stablehlo.dot_general %66, %61, batching_dims = [1] x [1], contracting_dims = [3] x [2] : (tensor<256x1x2x4xf32>, tensor<256x1x4xf32>) -> tensor<1x256x2x256xf32>
    %68 = stablehlo.broadcast_in_dim %8, dims = [] : (tensor<f32>) -> tensor<1x256x2x256xf32>
    %69 = stablehlo.multiply %67, %68 : tensor<1x256x2x256xf32>
    %70 = stablehlo.broadcast_in_dim %24, dims = [1, 3] : (tensor<256x256xf32>) -> tensor<1x256x2x256xf32>
    %71 = stablehlo.add %69, %70 : tensor<1x256x2x256xf32>
    %72 = stablehlo.reduce(%71 init: %4) applies stablehlo.maximum across dimensions = [3] : (tensor<1x256x2x256xf32>, tensor<f32>) -> tensor<1x256x2xf32>
    %73 = stablehlo.broadcast_in_dim %72, dims = [0, 1, 2] : (tensor<1x256x2xf32>) -> tensor<1x256x2x256xf32>
    %74 = stablehlo.subtract %71, %73 : tensor<1x256x2x256xf32>
    %75 = stablehlo.exponential %74 : tensor<1x256x2x256xf32>
    %76 = stablehlo.reduce(%75 init: %2) applies stablehlo.add across dimensions = [3] : (tensor<1x256x2x256xf32>, tensor<f32>) -> tensor<1x256x2xf32>
    %77 = stablehlo.broadcast_in_dim %76, dims = [0, 1, 2] : (tensor<1x256x2xf32>) -> tensor<1x256x2x256xf32>
    %78 = stablehlo.divide %75, %77 : tensor<1x256x2x256xf32>
    %79 = stablehlo.dot_general %78, %43, batching_dims = [0] x [1], contracting_dims = [3] x [0] : (tensor<1x256x2x256xf32>, tensor<256x1x4xf32>) -> tensor<1x256x2x4xf32>
    %80 = stablehlo.transpose %79, dims = [1, 0, 2, 3] : (tensor<1x256x2x4xf32>) -> tensor<256x1x2x4xf32>
    %81 = stablehlo.reshape %80 : (tensor<256x1x2x4xf32>) -> tensor<256x8xf32>
    %82 = stablehlo.dot_general %81, %arg8, contracting_dims = [1] x [1] : (tensor<256x8xf32>, tensor<8x8xf32>) -> tensor<256x8xf32>
    %83 = stablehlo.add %13, %82 : tensor<256x8xf32>
    %84 = stablehlo.multiply %83, %83 : tensor<256x8xf32>
    %85 = stablehlo.reduce(%84 init: %2) applies stablehlo.add across dimensions = [1] : (tensor<256x8xf32>, tensor<f32>) -> tensor<256xf32>
    %86 = stablehlo.broadcast_in_dim %7, dims = [] : (tensor<f32>) -> tensor<256xf32>
    %87 = stablehlo.divide %85, %86 : tensor<256xf32>
    %88 = stablehlo.broadcast_in_dim %6, dims = [] : (tensor<f32>) -> tensor<256xf32>
    %89 = stablehlo.add %87, %88 : tensor<256xf32>
    %90 = stablehlo.rsqrt %89 : tensor<256xf32>
    %91 = stablehlo.broadcast_in_dim %90, dims = [0] : (tensor<256xf32>) -> tensor<256x8xf32>
    %92 = stablehlo.multiply %83, %91 : tensor<256x8xf32>
    %93 = stablehlo.broadcast_in_dim %arg5, dims = [1] : (tensor<8xf32>) -> tensor<256x8xf32>
    %94 = stablehlo.multiply %92, %93 : tensor<256x8xf32>
    %95 = stablehlo.dot_general %94, %arg3, contracting_dims = [1] x [1] : (tensor<256x8xf32>, tensor<16x8xf32>) -> tensor<256x16xf32>
    %96 = stablehlo.dot_general %94, %arg6, contracting_dims = [1] x [1] : (tensor<256x8xf32>, tensor<16x8xf32>) -> tensor<256x16xf32>
    %97 = stablehlo.negate %95 : tensor<256x16xf32>
    %98 = stablehlo.exponential %97 : tensor<256x16xf32>
    %99 = stablehlo.broadcast_in_dim %3, dims = [] : (tensor<f32>) -> tensor<256x16xf32>
    %100 = stablehlo.add %99, %98 : tensor<256x16xf32>
    %101 = stablehlo.divide %99, %100 : tensor<256x16xf32>
    %102 = stablehlo.multiply %95, %101 : tensor<256x16xf32>
    %103 = stablehlo.multiply %102, %96 : tensor<256x16xf32>
    %104 = stablehlo.dot_general %103, %arg2, contracting_dims = [1] x [1] : (tensor<256x16xf32>, tensor<8x16xf32>) -> tensor<256x8xf32>
    %105 = stablehlo.add %83, %104 : tensor<256x8xf32>
    %106 = stablehlo.multiply %105, %105 : tensor<256x8xf32>
    %107 = stablehlo.reduce(%106 init: %2) applies stablehlo.add across dimensions = [1] : (tensor<256x8xf32>, tensor<f32>) -> tensor<256xf32>
    %108 = stablehlo.broadcast_in_dim %7, dims = [] : (tensor<f32>) -> tensor<256xf32>
    %109 = stablehlo.divide %107, %108 : tensor<256xf32>
    %110 = stablehlo.broadcast_in_dim %6, dims = [] : (tensor<f32>) -> tensor<256xf32>
    %111 = stablehlo.add %109, %110 : tensor<256xf32>
    %112 = stablehlo.rsqrt %111 : tensor<256xf32>
    %113 = stablehlo.broadcast_in_dim %112, dims = [0] : (tensor<256xf32>) -> tensor<256x8xf32>
    %114 = stablehlo.multiply %105, %113 : tensor<256x8xf32>
    %115 = stablehlo.broadcast_in_dim %arg13, dims = [1] : (tensor<8xf32>) -> tensor<256x8xf32>
    %116 = stablehlo.multiply %114, %115 : tensor<256x8xf32>
    %117 = stablehlo.dot_general %116, %arg18, contracting_dims = [1] x [1] : (tensor<256x8xf32>, tensor<8x8xf32>) -> tensor<256x8xf32>
    %118 = stablehlo.reshape %117 : (tensor<256x8xf32>) -> tensor<256x2x4xf32>
    %119 = stablehlo.dot_general %116, %arg16, contracting_dims = [1] x [1] : (tensor<256x8xf32>, tensor<4x8xf32>) -> tensor<256x4xf32>
    %120 = stablehlo.reshape %119 : (tensor<256x4xf32>) -> tensor<256x1x4xf32>
    %121 = stablehlo.dot_general %116, %arg19, contracting_dims = [1] x [1] : (tensor<256x8xf32>, tensor<4x8xf32>) -> tensor<256x4xf32>
    %122 = stablehlo.reshape %121 : (tensor<256x4xf32>) -> tensor<256x1x4xf32>
    %123 = stablehlo.broadcast_in_dim %15, dims = [0, 2] : (tensor<256x4xf32>) -> tensor<256x2x4xf32>
    %124 = stablehlo.broadcast_in_dim %16, dims = [0, 2] : (tensor<256x4xf32>) -> tensor<256x2x4xf32>
    %125 = stablehlo.multiply %118, %123 : tensor<256x2x4xf32>
    %126 = stablehlo.slice %118 [0:256, 0:2, 0:2] : (tensor<256x2x4xf32>) -> tensor<256x2x2xf32>
    %127 = stablehlo.slice %118 [0:256, 0:2, 2:4] : (tensor<256x2x4xf32>) -> tensor<256x2x2xf32>
    %128 = stablehlo.negate %127 : tensor<256x2x2xf32>
    %129 = stablehlo.concatenate %128, %126, dim = 2 : (tensor<256x2x2xf32>, tensor<256x2x2xf32>) -> tensor<256x2x4xf32>
    %130 = stablehlo.multiply %129, %124 : tensor<256x2x4xf32>
    %131 = stablehlo.add %125, %130 : tensor<256x2x4xf32>
    %132 = stablehlo.broadcast_in_dim %15, dims = [0, 2] : (tensor<256x4xf32>) -> tensor<256x1x4xf32>
    %133 = stablehlo.broadcast_in_dim %16, dims = [0, 2] : (tensor<256x4xf32>) -> tensor<256x1x4xf32>
    %134 = stablehlo.multiply %120, %132 : tensor<256x1x4xf32>
    %135 = stablehlo.slice %120 [0:256, 0:1, 0:2] : (tensor<256x1x4xf32>) -> tensor<256x1x2xf32>
    %136 = stablehlo.slice %120 [0:256, 0:1, 2:4] : (tensor<256x1x4xf32>) -> tensor<256x1x2xf32>
    %137 = stablehlo.negate %136 : tensor<256x1x2xf32>
    %138 = stablehlo.concatenate %137, %135, dim = 2 : (tensor<256x1x2xf32>, tensor<256x1x2xf32>) -> tensor<256x1x4xf32>
    %139 = stablehlo.multiply %138, %133 : tensor<256x1x4xf32>
    %140 = stablehlo.add %134, %139 : tensor<256x1x4xf32>
    %141 = stablehlo.reshape %140 : (tensor<256x1x4xf32>) -> tensor<1x256x1x4xf32>
    %142 = stablehlo.dynamic_update_slice %63, %141, %11, %9, %9, %9 : (tensor<2x256x1x4xf32>, tensor<1x256x1x4xf32>, tensor<i32>, tensor<i32>, tensor<i32>, tensor<i32>) -> tensor<2x256x1x4xf32>
    %143 = stablehlo.reshape %122 : (tensor<256x1x4xf32>) -> tensor<1x256x1x4xf32>
    %144 = stablehlo.dynamic_update_slice %65, %143, %11, %9, %9, %9 : (tensor<2x256x1x4xf32>, tensor<1x256x1x4xf32>, tensor<i32>, tensor<i32>, tensor<i32>, tensor<i32>) -> tensor<2x256x1x4xf32>
    %145 = stablehlo.reshape %131 : (tensor<256x2x4xf32>) -> tensor<256x1x2x4xf32>
    %146 = stablehlo.dot_general %145, %140, batching_dims = [1] x [1], contracting_dims = [3] x [2] : (tensor<256x1x2x4xf32>, tensor<256x1x4xf32>) -> tensor<1x256x2x256xf32>
    %147 = stablehlo.broadcast_in_dim %8, dims = [] : (tensor<f32>) -> tensor<1x256x2x256xf32>
    %148 = stablehlo.multiply %146, %147 : tensor<1x256x2x256xf32>
    %149 = stablehlo.broadcast_in_dim %24, dims = [1, 3] : (tensor<256x256xf32>) -> tensor<1x256x2x256xf32>
    %150 = stablehlo.add %148, %149 : tensor<1x256x2x256xf32>
    %151 = stablehlo.reduce(%150 init: %4) applies stablehlo.maximum across dimensions = [3] : (tensor<1x256x2x256xf32>, tensor<f32>) -> tensor<1x256x2xf32>
    %152 = stablehlo.broadcast_in_dim %151, dims = [0, 1, 2] : (tensor<1x256x2xf32>) -> tensor<1x256x2x256xf32>
    %153 = stablehlo.subtract %150, %152 : tensor<1x256x2x256xf32>
    %154 = stablehlo.exponential %153 : tensor<1x256x2x256xf32>
    %155 = stablehlo.reduce(%154 init: %2) applies stablehlo.add across dimensions = [3] : (tensor<1x256x2x256xf32>, tensor<f32>) -> tensor<1x256x2xf32>
    %156 = stablehlo.broadcast_in_dim %155, dims = [0, 1, 2] : (tensor<1x256x2xf32>) -> tensor<1x256x2x256xf32>
    %157 = stablehlo.divide %154, %156 : tensor<1x256x2x256xf32>
    %158 = stablehlo.dot_general %157, %122, batching_dims = [0] x [1], contracting_dims = [3] x [0] : (tensor<1x256x2x256xf32>, tensor<256x1x4xf32>) -> tensor<1x256x2x4xf32>
    %159 = stablehlo.transpose %158, dims = [1, 0, 2, 3] : (tensor<1x256x2x4xf32>) -> tensor<256x1x2x4xf32>
    %160 = stablehlo.reshape %159 : (tensor<256x1x2x4xf32>) -> tensor<256x8xf32>
    %161 = stablehlo.dot_general %160, %arg17, contracting_dims = [1] x [1] : (tensor<256x8xf32>, tensor<8x8xf32>) -> tensor<256x8xf32>
    %162 = stablehlo.add %105, %161 : tensor<256x8xf32>
    %163 = stablehlo.multiply %162, %162 : tensor<256x8xf32>
    %164 = stablehlo.reduce(%163 init: %2) applies stablehlo.add across dimensions = [1] : (tensor<256x8xf32>, tensor<f32>) -> tensor<256xf32>
    %165 = stablehlo.broadcast_in_dim %7, dims = [] : (tensor<f32>) -> tensor<256xf32>
    %166 = stablehlo.divide %164, %165 : tensor<256xf32>
    %167 = stablehlo.broadcast_in_dim %6, dims = [] : (tensor<f32>) -> tensor<256xf32>
    %168 = stablehlo.add %166, %167 : tensor<256xf32>
    %169 = stablehlo.rsqrt %168 : tensor<256xf32>
    %170 = stablehlo.broadcast_in_dim %169, dims = [0] : (tensor<256xf32>) -> tensor<256x8xf32>
    %171 = stablehlo.multiply %162, %170 : tensor<256x8xf32>
    %172 = stablehlo.broadcast_in_dim %arg14, dims = [1] : (tensor<8xf32>) -> tensor<256x8xf32>
    %173 = stablehlo.multiply %171, %172 : tensor<256x8xf32>
    %174 = stablehlo.dot_general %173, %arg12, contracting_dims = [1] x [1] : (tensor<256x8xf32>, tensor<16x8xf32>) -> tensor<256x16xf32>
    %175 = stablehlo.dot_general %173, %arg15, contracting_dims = [1] x [1] : (tensor<256x8xf32>, tensor<16x8xf32>) -> tensor<256x16xf32>
    %176 = stablehlo.negate %174 : tensor<256x16xf32>
    %177 = stablehlo.exponential %176 : tensor<256x16xf32>
    %178 = stablehlo.broadcast_in_dim %3, dims = [] : (tensor<f32>) -> tensor<256x16xf32>
    %179 = stablehlo.add %178, %177 : tensor<256x16xf32>
    %180 = stablehlo.divide %178, %179 : tensor<256x16xf32>
    %181 = stablehlo.multiply %174, %180 : tensor<256x16xf32>
    %182 = stablehlo.multiply %181, %175 : tensor<256x16xf32>
    %183 = stablehlo.dot_general %182, %arg11, contracting_dims = [1] x [1] : (tensor<256x16xf32>, tensor<8x16xf32>) -> tensor<256x8xf32>
    %184 = stablehlo.add %162, %183 : tensor<256x8xf32>
    %185 = stablehlo.multiply %184, %184 : tensor<256x8xf32>
    %186 = stablehlo.reduce(%185 init: %2) applies stablehlo.add across dimensions = [1] : (tensor<256x8xf32>, tensor<f32>) -> tensor<256xf32>
    %187 = stablehlo.broadcast_in_dim %7, dims = [] : (tensor<f32>) -> tensor<256xf32>
    %188 = stablehlo.divide %186, %187 : tensor<256xf32>
    %189 = stablehlo.broadcast_in_dim %6, dims = [] : (tensor<f32>) -> tensor<256xf32>
    %190 = stablehlo.add %188, %189 : tensor<256xf32>
    %191 = stablehlo.rsqrt %190 : tensor<256xf32>
    %192 = stablehlo.broadcast_in_dim %191, dims = [0] : (tensor<256xf32>) -> tensor<256x8xf32>
    %193 = stablehlo.multiply %184, %192 : tensor<256x8xf32>
    %194 = stablehlo.broadcast_in_dim %arg1, dims = [1] : (tensor<8xf32>) -> tensor<256x8xf32>
    %195 = stablehlo.multiply %193, %194 : tensor<256x8xf32>
    %196 = stablehlo.constant dense<1> : tensor<i32>
    %197 = stablehlo.subtract %arg22, %196 : tensor<i32>
    %198 = stablehlo.dynamic_slice %195, %197, %9, sizes = [1, 8] : (tensor<256x8xf32>, tensor<i32>, tensor<i32>) -> tensor<1x8xf32>
    %199 = stablehlo.reshape %198 : (tensor<1x8xf32>) -> tensor<8xf32>
    %200 = stablehlo.dot_general %199, %arg0, contracting_dims = [0] x [1] : (tensor<8xf32>, tensor<10x8xf32>) -> tensor<10xf32>
    %201 = stablehlo.constant dense<0> : tensor<i32>
    %202 = stablehlo.constant dense<0xFF800000> : tensor<f32>
    %203 = stablehlo.iota dim = 0 : tensor<10xi32>
    %204:2 = stablehlo.reduce(%200 init: %202), (%203 init: %201) across dimensions = [0] : (tensor<10xf32>, tensor<10xi32>, tensor<f32>, tensor<i32>) -> (tensor<f32>, tensor<i32>)
    reducer(%amv_l: tensor<f32>, %amv_r: tensor<f32>) (%ami_l: tensor<i32>, %ami_r: tensor<i32>) {
      %205 = stablehlo.compare GT, %amv_l, %amv_r, FLOAT : (tensor<f32>, tensor<f32>) -> tensor<i1>
      %206 = stablehlo.compare NE, %amv_l, %amv_l, FLOAT : (tensor<f32>, tensor<f32>) -> tensor<i1>
      %207 = stablehlo.or %205, %206 : tensor<i1>
      %208 = stablehlo.compare EQ, %amv_l, %amv_r, FLOAT : (tensor<f32>, tensor<f32>) -> tensor<i1>
      %209 = stablehlo.compare LT, %ami_l, %ami_r, SIGNED : (tensor<i32>, tensor<i32>) -> tensor<i1>
      %210 = stablehlo.and %208, %209 : tensor<i1>
      %211 = stablehlo.or %207, %210 : tensor<i1>
      %212 = stablehlo.select %207, %amv_l, %amv_r : tensor<i1>, tensor<f32>
      %213 = stablehlo.select %211, %ami_l, %ami_r : tensor<i1>, tensor<i32>
      stablehlo.return %212, %213 : tensor<f32>, tensor<i32>
    }
    return %204#1, %142, %144 : tensor<i32>, tensor<2x256x1x4xf32>, tensor<2x256x1x4xf32>
  }
}
